Pix2Pix/checkpoints/pix2pix_model_epoch_30.pth (torch, 99150 bytes, 32 tensors)

conv1.0.weight f4 [8, 3, 4, 4]
0.124556325 0.12436619 -0.076573975 0.14937891 0.06812303 0.013628228 -0.065392286 0.10834089
-0.06317696 0.016854573 0.03993427 0.0017646722 0.1213951 0.09974925 -0.13133581 -0.15066224
-0.07643222 0.069404036 -0.00732819 0.13982765 -0.089689046 -0.07322682 0.15135185 -0.107205294
-0.14304048 -0.11250134 -0.08817608 -0.13294896 -0.12107975 -0.019340698 0.085653715 -0.12855686
0.045378853 0.10367118 -0.08952266 -0.13092855 -0.087073684 -0.01990818 0.11179605 -0.043340515
-0.037997447 -0.06177555 -0.1056314 0.044053197 0.10637234 -0.089902066 0.14472477 -0.010497815
-0.002241956 0.0092347 -0.0733041 0.13185197 0.11603675 0.06433175 0.10402751 0.011803315
-0.007899185 -0.09754727 -0.11817807 0.09355743 -0.074133396 0.019662324 -0.09581322 0.13369934
-0.035636846 -0.06670378 0.12624326 -0.12619266 -0.05576217 -0.11323921 0.06162014 -0.032873273
-0.010717109 0.04076135 0.04530014 0.114840575 0.05939507 -0.12907578 -0.11774551 0.05406225
0.029564597 0.07829445 -0.120209426 -0.13506863 0.104937896 -0.06421745 0.00044506177 -0.053275414
-0.03849335 -0.091757864 -0.11067633 0.07024011 -0.0258368 -0.017278116 -0.10078393 0.06513208
0.10414031 -0.07843005 0.02556895 0.14581001 -0.12139165 -0.09433009 -0.08302299 0.035645403
-0.12984139 -0.094083086 0.0042201094 -0.04119523 0.11766465 -0.08758204 0.056900915 0.1165292
0.13258117 -0.1262981 0.07356743 -0.100064255 0.13103555 -0.065719336 0.010512942 0.14240704
-0.09521188 0.012949236 0.034011155 0.13803482 0.12149438 -0.0029174837 -0.010048581 0.1125251
0.017299585 0.034129687 -0.14790376 0.031013884 0.07372671 -0.10912333 0.12717293 -0.04622084
0.11285589 -0.01863991 0.06864263 0.07791376 -0.092043065 -0.090153754 -0.12916227 -0.046000265
-0.04091713 0.03417298 -0.018675996 -0.075748585 -0.13332145 -0.11253296 0.07126411 0.11955371
0.07199007 0.06256971 0.0029138278 0.1047533 0.06553697 -0.0940824 0.08715101 -0.09042463
-0.02789987 0.106935404 -0.14312634 -0.07873135 -0.0978196 0.04374022 -0.13496958 -0.081276715
-0.017287686 0.00418649 -0.027558178 -0.07077753 0.018377297 0.16027324 0.074586265 0.009172541
-0.1337787 0.0977974 0.028619003 0.061949357 -0.03979584 0.111418515 0.039840177 0.13999704
0.11189789 0.060274594 0.013215233 0.07439429 0.09911544 -0.09821236 0.05369684 0.08631608
0.16256623 0.14891458 0.16418804 -0.031422462 0.023476727 0.0639137 -0.10651493 0.05444243
0.06652748 -0.09615898 -0.048244286 -0.039630514 0.082563475 -0.093117245 0.09831296 0.033668607
0.024254095 -0.053724382 0.12887146 -0.1295768 -0.12643257 -0.0447938 0.036276463 0.06749018
0.12045563 -0.09396569 -0.11677638 -0.1371882 -0.08956884 0.14403369 0.087994486 0.08666809
0.15079896 0.065914206 -0.071684934 0.06457482 -0.09552163 0.018208738 0.1048928 0.040515527
-0.029257962 -0.00015450025 0.04312611 0.10056416 -0.11617118 0.016050821 0.09171146 -0.017438378
0.12173291 -0.011342805 -0.00068017637 0.030001093 -0.017676232 0.14391215 0.04551881 0.035930786
-0.04470303 -0.021781698 -0.08943216 -0.020403793 0.08934726 -0.06454626 0.0801965 -0.11491561
00000000: 6317 ff3d b3b3 fe3d d1d2 9cbd c9f6 183e
00000010: 1684 8b3d ee48 5f3c 64ec 85bd d4e1 dd3d
00000020: ec62 81bd 9a12 8a3c 1e92 233d 934c e73a
00000030: ff9d f83d 5649 cc3d e57c 06be 3447 1abe
00000040: 7f88 9cbd b423 8e3d 5021 f0bb fb2e 0f3e
00000050: e4ae b7bd f1f7 95bd fbfb 1a3e 738e dbbd
00000060: 3479 12be 1a67 e6bd a995 b4bd c623 08be
00000070: a9f8 f7bd 6270 9ebc 376b af3d 69a4 03be
00000080: 2ddf 393d 8e51 d43d a857 b7bd 2212 06be
00000090: b053 b2bd 7b16 a3bc 54f5 e43d d385 31bd
000000a0: 36a3 1bbd 5c08 7dbd 4755 d8bd 2071 343d
000000b0: bed9 d93d 931e b8bd bb32 143e 07ff 2bbc
000000c0: c8ed 12bb 244d 173c 7620 96bd 3404 073e
000000d0: ada4 ed3d 5dc0 833d 600c d53d b162 413c
000000e0: 956b 01bc ddc6 c7bd 5807 f2bd 0a9b bf3d
000000f0: 40d3 97bd e212 a13c b939 c4bd 7be8 083e
00000100: f1f7 11bd fe9b 88bd ea45 013e a638 01be
00000110: e066 64bd f5e9 e7bd 6665 7c3d 20a6 06bd
00000120: d096 2fbc 60f5 263d a48c 393d 8931 eb3d
00000130: 3f48 733d 712c 04be 8f24 f1bd 6170 5d3d
00000140: 7431 f23c d758 a03d 5c30 f6bd 6e4f 0abe
00000150: aee9 d63d 7084 83bd 2e57 e939 5237 5abd
00000160: 34ab 1dbd 8ceb bbbd 46aa e2bd 0cda 8f3d
00000170: b2a7 d3bc d68a 8dbc ce67 cebd f863 853d
00000180: 8447 d53d ef9f a0bd fa75 d13c 384f 153e
00000190: 2f9c f8bd 2230 c1bd f507 aabd ea00 123d
000001a0: 24f5 04be a2ae c0bd d848 8a3b 54bc 28bd
000001b0: 2afa f03d 365e b3bd ef10 693d dca6 ee3d
000001c0: 5cc3 073e 4a54 01be 85aa 963d 7dee ccbd
000001d0: 2f2e 063e dc97 86bd 7a3e 2c3c 27d3 113e
000001e0: 72fe c2bd 0829 543c 484f 0b3d 0059 0d3e
000001f0: 0cd2 f83d 4133 3fbb cea2 24bc 8f73 e63d
00000200: dcb7 8d3c 92cb 0b3d 1574 17be d410 fe3c
00000210: 08fe 963d 0d7c dfbd 9f39 023e 1052 3dbd
00000220: fd20 e73d b9b2 98bc 8294 8c3d 4091 9f3d
00000230: 1381 bcbd 88a2 b8bd 1d43 04be c66a 3cbd
00000240: b898 27bd f7f8 0b3d 67fe 98bc 1322 9bbd
00000250: 6b85 08be ae77 e6bd ebf2 913d 93d8 f43d
00000260: 886f 933d 8c24 803d ebf5 3e3b e688 d63d
00000270: 3f38 863d 46ae c0bd 3b7c b23d 8c30 b9bd
00000280: 458e e4bc f300 db3d b68f 12be e73d a1bd
00000290: a455 c8bd f228 333d 7735 0abe 6874 a6bd
000002a0: e89e 8dbc d32e 893b b0c1 e1bc cff3 90bd
000002b0: fc8b 963c ab1e 243e afc0 983d 6d48 163c
000002c0: 49fd 08be 014a c83d 6672 ea3c 9cbe 7d3d
000002d0: f600 23bd 642f e43d 742f 233d 625b 0f3e
000002e0: b92a e53d 7ee2 763d b484 583c 095c 983d
000002f0: 09fd ca3d 9023 c9bd 38f1 5b3d 7cc6 b03d
00000300: c377 263e 107d 183e e920 283e d7b4 00bd
00000310: 4452 c03c 30e5 823d 8024 dabd 07ff 5e3d
00000320: 8f3f 883d 00ef c4bd cd9b 45bd 9b53 22bd
00000330: 0a17 a93d 41b4 bebd 4e58 c93d 18e8 093d
00000340: 86b0 c63c 190e 5cbd e1f6 033e c8af 04be
00000350: 8a77 01be b479 37bd a196 143d 4b38 8a3d
00000360: 71b1 f63d 1571 c0bd 7428 efbd 107b 0cbe
00000370: de6f b7bd 917d 133e 7436 b43d 0a7f b13d
00000380: 0b6b 1a3e 07fe 863d 8dcf 92bd ce3f 843d
00000390: d8a0 c3bd 7e2a 953c 09d2 d63d 9cf3 253d
000003a0: 65ae efbc 5801 22b9 01a5 303d 95f4 cd3d
000003b0: 28eb edbd 037d 833c 38d3 bb3d eeda 8ebc
000003c0: 1b4f f93d 2cd7 39bc dd4d 32ba dac4 f53c
000003d0: bfcd 90bc b55d 133e ef71 3a3d 292c 133d
000003e0: 861a 37bd 886f b2bc 3528 b7bd db25 a7bc
000003f0: b2fb b63d d430 84bd 103e a43d e058 ebbd

conv1.0.bias f4 [8]
-0.06252259 -0.112775564 0.10860427 -0.08041335 0.13863221 -0.092206545 0.10811696 0.04049518
00000000: d80b 80bd e0f6 e6bd ea6b de3d c1af a4bd
00000010: 9af5 0d3e c9d6 bcbd 6d6c dd3d 46de 253d

conv1.1.weight f4 [8]
1.0065235 0.99302447 0.9989009 0.9875043 1.0006635 1.0133281 1.0167369 0.97932595
00000000: c3d5 803f da36 7e3f f8b7 7f3f 15cd 7c3f
00000010: be15 803f bcb4 813f 6f24 823f 1bb5 7a3f

conv1.1.bias f4 [8]
-0.00808927 -0.016524445 -0.013266549 -0.005027086 -0.02136146 0.016712302 0.0140807 -0.021498324
00000000: dc88 04bc 465e 87bc f15b 59bc 41ba a4bb
00000010: 3bfe aebc 3de8 883c bdb2 663c 411d b0bc

conv1.1.running_mean f4 [8]
-0.059160523 -0.10260779 0.07700224 -0.08781893 0.06382727 -0.1308525 0.15620238 0.056325473
00000000: 4e52 72bd 0824 d2bd 5ab3 9d3d 69da b3bd
00000010: dfb7 823d 33fe 05be 84f3 1f3e 8ab5 663d

conv1.1.running_var f4 [8]
0.09795827 0.085365824 0.08111054 0.09400662 0.14932357 0.09739572 0.08466577 0.049296718
00000000: 589e c83d 47d4 ae3d 481d a63d 8b86 c03d
00000010: 47e8 183e 6877 c73d 3f65 ad3d 5beb 493d

conv2.0.weight f4 [16, 8, 4, 4]
0.07411582 0.04948974 -0.05683243 -0.04739243 0.06891663 0.07475466 -0.02711431 0.048263792
-0.036536295 -0.048116863 0.05714904 0.060907003 -0.029471401 0.05196776 0.033794567 0.08312228
0.04297752 -0.02445652 0.089381285 0.05410425 -0.052242577 -0.015935225 -0.07078587 -0.0042969338
0.06211403 -0.074242175 -0.06609184 -0.04280983 -0.048547372 0.021459335 0.09245731 0.07992776
-0.017549045 -0.07273336 -0.05860792 -0.022074029 0.08830743 0.0351656 0.0034091612 0.0637218
0.024914581 0.043492608 0.084812574 -0.044769585 0.05610394 0.037666447 -0.05760274 -0.045785587
-0.033745423 -0.03964419 0.03333868 -0.005459723 -0.044581667 -0.071201295 0.082436435 0.013606434
0.05299022 0.03163737 0.040998142 0.018518368 -0.07120494 0.06746559 -0.064308465 0.003251941
-0.026883284 0.04242539 -0.052542917 0.047804922 -0.06984361 -0.04191034 -0.007566534 0.06046527
0.036812708 0.054551207 -0.041890036 0.09617236 0.049450107 0.08099472 0.067444906 0.0028406
-0.0038887023 -0.0069576767 0.07479487 0.08127449 0.078850865 0.016581431 0.014958417 0.014551887
0.024725493 -0.06794783 -0.059078187 0.04619815 0.08066757 0.04324467 -0.039838787 -0.031066705
-0.07626478 0.035213165 0.01740134 0.019450324 0.062069755 -0.030708628 -0.008934494 -0.05321338
0.040262215 -0.04052017 0.090057544 -0.008250335 0.045195084 0.07214409 -0.015370547 0.01950164
-0.0052377414 0.024865035 -0.07335257 0.07260352 -0.06339333 0.04841763 0.01954228 -0.02051529
-0.073419705 -0.0033640459 -0.08064132 -0.064783946 -0.028824467 0.0039967163 -0.07148018 -0.0460763
-0.042558316 -0.016567416 0.07248875 0.084251106 -0.0694515 0.007914277 -0.038413696 -0.0753563
0.08785237 0.037564825 0.049866606 -0.014948463 -0.078087196 0.050947946 -0.01866284 0.0014244362
0.008722453 0.07188197 -0.020513456 0.050082937 0.038916636 0.028259858 -0.03383946 0.040070914
0.059566062 0.055879474 0.06000711 0.026715549 -0.031586245 -0.0068392553 0.03480864 0.056617547
0.087997854 0.07517532 0.010402882 0.025152702 -0.026166612 -0.055169545 -0.10282749 -0.07658889
-0.11663582 0.029887974 -0.0022257564 -0.089404196 0.011541601 0.037956078 -0.007034555 -0.020734334
0.080386534 -0.012085944 0.0657079 -0.03515052 -0.0025179381 -0.02726906 -0.0026324387 0.07295679
-0.03847979 -0.073791414 0.029250557 0.040617734 0.0786056 -0.03741977 0.049544103 0.0030151343
-0.0011864284 -0.01595051 0.002144891 0.013322694 0.013485861 -0.011973592 -0.06832109 0.018985365
0.06673053 0.07315335 -0.02283471 -0.055164292 -0.056439955 0.025653927 -0.066101305 0.029303683
-0.036427308 0.0869841 0.04651251 0.056743942 -0.063094415 0.08151726 0.07884142 0.08973039
0.007508548 -0.08130106 -0.07640151 0.02554979 -0.062220786 -0.09665086 -0.104598984 -0.00060084794
0.083416924 0.03742804 -0.05169001 0.05331368 -0.024262311 0.004306233 0.051485002 0.0028382153
-0.014394182 -0.007530169 -0.060212135 0.06995876 0.085649975 0.04064957 -0.022358693 0.03223037
0.01769993 0.036886163 0.06908839 -0.023208527 0.05339374 -0.0067942655 0.08579156 0.04250611
0.019816715 -0.022835927 -0.0621172 -0.036487762 -0.008561441 0.011647132 0.0020185793 0.00075685116
00000000: 09ca 973d c1b5 4a3d 1fc9 68bd 911e 42bd
00000010: 2a24 8d3d f918 993d d41e debc 41b0 453d
00000020: 15a7 15bd 3016 45bd 1d15 6a3d 9f79 793d
00000030: 026e f1bc 25dc 543d 2c6c 0a3d 043c aa3d
00000040: 3209 303d 0a59 c8bc 890d b73d 6b9c 5d3d
00000050: 50fc 55bd 978a 82bc 2ff8 90bd 4bcd 8cbb
00000060: 486b 7e3d 480c 98bd 295b 87bd 5c59 2fbd
00000070: 9cd9 46bd 7dcb af3c 425a bd3d 2ab1 a33d
00000080: 04c3 8fbc 3af5 94bd dc0e 70bd 98d4 b4bc
00000090: 87da b43d ce09 103d 3c6c 5f3b 9380 823d
000000a0: aa19 cc3c 4e25 323d 37b2 ad3d 5060 37bd
000000b0: 3fcd 653d 2248 1a3d daf0 6bbd ab89 3bbd
000000c0: a438 0abd f261 22bd 248e 083d 7ae7 b2bb
000000d0: 449b 36bd fcd1 91bd 6fd4 a83d 85ed 5e3c
000000e0: 460c 593d 3096 013d abed 273d d5b3 973c
000000f0: e5d3 91bd 662b 8a3d 28b4 83bd 841e 553b
00000100: 553a dcbc 3fc6 2d3d 3e37 57bd 18cf 433d
00000110: 2b0a 8fbd 2daa 2bbd b0f0 f7bb 6eaa 773d
00000120: ecc8 163d 1671 5f3d e394 2bbd 04f6 c43d
00000130: 328c 4a3d 8fe0 a53d 8e20 8a3d 5c29 3a3b
00000140: 99d9 7ebb 39fd e3bb 0e2e 993d 3d73 a63d
00000150: 907c a13d c8d5 873c 2614 753c 0a6b 6e3c
00000160: 1e8d ca3c 3b28 8bbd f8fb 71bd 453a 3d3d
00000170: 0a35 a53d 5321 313d ff2d 23bd 9a7f febc
00000180: b530 9cbd ae3b 103d 418d 8e3c 4956 9f3c
00000190: db3c 7e3d a990 fbbc fc61 12bc 46f6 59bd
000001a0: fee9 243d 7af8 25bd 1770 b83d 6a2c 07bc
000001b0: 7b1e 393d 48c0 933d bfd4 7bbc e7c1 9f3c
000001c0: 5ca1 abbb c2b1 cb3c df39 96bd 27b1 943d
000001d0: 5dd4 81bd 9151 463d 2217 a03c ae0f a8bc
000001e0: 125d 96bd 5377 5cbb 4727 a5bd 72ad 84bd
000001f0: 4a21 ecbc e3f6 823b 3364 92bd 81ba 3cbd
00000200: a151 2ebd 64b8 87bc fb74 943d d88b ac3d
00000210: 973c 8ebd e2aa 013c ae57 1dbd 6754 9abd
00000220: f2eb b33d 93dd 193d ed40 4c3d 66ea 74bc
00000230: 2eec 9fbd cbae 503d d0e2 98bc 26b4 ba3a
00000240: 9fe8 0e3c db36 933d d60b a8bc c423 4d3d
00000250: 0d67 1f3d 3881 e73c 3f9b 0abd 6621 243d
00000260: 8bfb 733d e0e1 643d 04ca 753d 91da da3c
00000270: 9460 01bd d51b e0bb 8193 0e3d cde7 673d
00000280: 3838 b43d 85f5 993d d970 2a3c 0a0d ce3c
00000290: 5d5b d6bc 76f9 61bd 3897 d2bd a3da 9cbd
000002a0: c3de eebd a0d7 f43c ffdd 11bb 8c19 b7bd
000002b0: fc18 3d3c d577 1b3d 2082 e6bb 0ddb a9bc
000002c0: b2a1 a43d 2004 46bc dd91 863d fef9 0fbd
000002d0: fe03 25bb 5d63 dfbc fe84 2cbb 5f6a 953d
000002e0: fc9c 1dbd f41f 97bd dd9e ef3c c85e 263d
000002f0: f9fb a03d 7945 19bd c2ee 4a3d 8f99 453b
00000300: ee81 9bba a5aa 82bc 4d91 0c3b 6e47 5a3c
00000310: cdf3 5c3c e32c 44bc edeb 8bbd 3287 9b3c
00000320: 04aa 883d 6cd1 953d dc0f bbbc f4f3 61bd
00000330: 952d 67bd 2f28 d23c 1f60 87bd 470e f03c
00000340: cd34 15bd b824 b23d e783 3e3d 566c 683d
00000350: a537 81bd 85f2 a63d 9c77 a13d 91c4 b73d
00000360: 440a f63b 2c81 a6bd 6578 9cbd cb4d d13c
00000370: 39db 7ebd e3f0 c5bd fe37 d6bd 3982 1dba
00000380: 7ed6 aa3d 254e 193d e7b8 53bd 725f 5a3d
00000390: c1c1 c6bc 4d1b 8d3b f0e1 523d 5a01 3a3b
000003a0: 93d5 6bbc a3bf f6bb 00a1 76bd 8a46 8f3d
000003b0: 4169 af3d 2a80 263d 9429 b7bc fe03 043d
000003c0: 72ff 903c f215 173d 377e 8d3d cf1f bebc
000003d0: 65b3 5a3d 6ea2 debb 7cb3 af3d e31a 2e3d
000003e0: aa56 a23c 6912 bbbc 9b6e 7ebd 3174 15bd
000003f0: 4945 0cbc 9dd3 3e3c 244a 043b 6c67 463a

conv2.0.bias f4 [16]
0.046110906 0.047698308 -0.07162566 0.048686083 0.056827005 -0.07121942 0.056824267 -0.028183097
0.035063926 0.0061579975 0.02581688 0.037904035 -0.069665335 0.07927505 -0.04712765 0.054765776
00000000: cade 3c3d 4d5f 433d 79b0 92bd 0f6b 473d
00000010: 6fc3 683d 7ddb 91bd 90c0 683d 3de0 e6bc
00000020: 319f 0f3d 07c9 c93b ec7d d33c 4341 1b3d
00000030: b3ac 8ebd f55a a23d ec08 41bd 1452 603d

conv2.1.weight f4 [16]
0.9930435 0.9947278 1.0039837 1.0028561 1.015737 1.0037601 1.0165665 0.9999209
1.0083165 0.98472434 1.0050316 0.992628 1.0115004 0.9777037 1.0005938 0.99982226
00000000: 1938 7e3f 7ba6 7e3f 8a82 803f 975d 803f
00000010: ac03 823f 367b 803f da1e 823f d1fa 7f3f
00000020: 8410 813f e516 7c3f e0a4 803f de1c 7e3f
00000030: d878 813f ca4a 7a3f 7513 803f 5af4 7f3f

conv2.1.bias f4 [16]
-0.019491317 -0.009870005 0.0075567234 0.011060394 0.027488878 -0.006813954 0.02766352 0.013902738
0.016889488 0.002975588 0.009440783 0.0071541853 0.015447512 -0.013885911 0.024022738 -0.007928992
00000000: 41ac 9fbc cdb5 21bc 649e f73b a836 353c
00000010: 5b30 e13c 9747 dfbb 9b9e e23c 4fc8 633c
00000020: d35b 8a3c 1502 433b 84ad 1a3c a86d ea3b
00000030: 9017 7d3c bb81 63bc 55cb c43c 9ae8 01bc

conv2.1.running_mean f4 [16]
0.3299579 0.37887853 -0.34067115 -0.27819675 -0.28365532 0.1507782 -0.517511 0.2547383
0.069173 0.0037510304 0.32984513 0.11224935 -0.058438066 0.4490526 -0.35970622 0.32402754
00000000: 3ef0 a83e 5efc c13e 736c aebe ce6f 8ebe
00000010: 453b 91be 9a65 1a3e 9a7b 04bf 0f6d 823e
00000020: 93aa 8d3d d9d3 753b 76e1 a83e fde2 e53d
00000030: c15c 6fbd 39ea e53e 6a2b b8be f0e6 a53e

conv2.1.running_var f4 [16]
0.15060386 0.28920197 0.15183619 0.17598665 0.17742793 0.17978361 0.20531553 0.21818997
0.20488474 0.11286252 0.49624902 0.2207741 0.09635282 0.14604478 0.33918864 0.18106759
00000000: e637 1a3e 4812 943e f27a 1b3e d835 343e
00000010: abaf 353e 3219 383e 3c3e 523e 316d 5f3e
00000020: 4ecd 513e 7724 e73d 5a14 fe3e 9b12 623e
00000030: a154 c53d c38c 153e 22aa ad3e c869 393e

conv3.0.weight f4 [32, 16, 4, 4]
0.043108463 0.030988581 0.022852013 0.040849715 0.041529294 0.013467053 0.02342465 0.046437923
0.04467987 0.03794365 0.041823383 0.02664579 0.012955024 0.03776511 0.029462434 0.05184143
-0.037032202 0.03994907 0.024039539 -0.03725536 0.034318164 0.060124774 0.03618473 -0.042395893
0.06397333 -0.027344668 0.008695769 -0.03300913 0.02304294 -0.026109584 0.061740123 0.008615975
0.027374778 0.0017727535 0.03864836 0.05745812 0.053168967 0.06042141 -0.003907254 -0.009974423
0.0622068 0.031539246 0.030682739 0.019030195 -0.052949518 -0.030064423 -0.0155996885 0.040867485
-0.023795411 0.0367079 -0.01269437 -0.00051068026 -0.010619171 -0.0411497 -0.0021605717 -0.01039583
0.011717695 0.007752601 0.029949002 -0.05970019 0.009172531 -0.047434647 0.022281047 0.041956153
-0.007970395 -0.07427588 -0.0535971 -0.016147804 -0.05100381 -0.019820724 0.028010678 0.01386289
0.03913641 -0.011913311 -0.017142303 0.019723507 0.024789598 -0.0054693627 -0.03723945 -0.029175544
0.01724114 -0.0046201977 0.07528634 0.07497575 0.03621829 -0.012607165 -0.013885713 0.008162106
-0.035335544 0.034594204 0.0021724491 -0.014569506 0.00037814383 -0.05113097 0.04982243 0.023306292
0.023808971 -0.008566395 -0.005171886 -0.0059376922 0.04890683 -0.034410853 0.0577483 0.018025152
-0.022942482 -0.018403426 -0.030791722 -0.074349366 0.005980486 0.012052393 0.037108954 0.0039288085
-0.049247097 0.010685532 -0.0018963509 -0.024136115 0.0619169 0.054138362 -0.022771811 -0.05033676
0.008049913 0.05793521 0.054132212 -0.03338506 0.01540396 -0.006377597 0.011816905 0.061253753
-0.00034275543 0.014420522 0.00015815844 -0.00024097231 -0.059089072 0.04205387 0.048495762 0.041030023
-0.0019201229 -0.042394582 0.04303117 0.05229879 0.034799762 0.027037315 0.052123737 0.033897087
-0.057093013 -0.056266725 -0.047755707 -0.06346847 0.036772933 -0.03584749 -0.010118578 0.033966597
0.0010711876 0.035468113 -0.016078679 0.009756719 0.008247712 0.0047816583 -0.025976807 0.0064549632
0.02267644 0.022327054 0.07087921 -0.017620489 0.060394682 0.06421376 0.032627635 0.024698004
0.025749397 0.045026015 -0.0178609 0.0116135655 0.043732483 0.013056473 -0.035309944 -0.034990977
0.03800522 -0.051189434 -0.032216355 0.028092738 0.04481026 -0.025847035 0.0548538 0.0356049
0.027012778 0.053151947 -0.010632428 0.009873944 0.051226493 0.053893622 -0.03962651 0.03264262
-0.013020871 -0.026032452 0.016227745 -0.04377979 0.006901073 0.054266293 -0.03335167 -0.015823688
0.01051054 -0.02910799 -0.00790446 -0.041390665 -0.022840772 0.014661852 0.015274526 0.037171178
-0.05161342 0.042728074 0.0521291 0.06914152 -0.01896157 0.00286448 -0.0129685 0.010619363
-0.023474123 0.038502365 0.03150783 0.04131763 0.03154226 -0.0047096955 0.06503087 -0.026795385
0.00999927 -0.01803454 -0.04853408 0.047229316 0.045956604 0.015916934 -0.024281468 0.0084577305
0.035260316 0.035507523 -0.030542327 0.04755612 0.030031089 0.065256916 0.050711453 0.053766135
-0.030837443 -0.018605253 -0.015775744 -0.04171131 0.05981537 0.011589638 -0.038708378 -0.0019415821
-0.03384851 -0.009693313 -0.045321602 0.034313448 -0.0044200323 0.023117721 0.038982715 -0.005642548
00000000: 8092 303d c4db fd3c 2534 bb3c 0852 273d
00000010: 9f1a 2a3d eaa4 5c3c 0de5 bf3c b135 3e3d
00000020: 3d02 373d cd6a 1b3d ff4e 2b3d 4648 da3c
00000030: 4f41 543c 97af 1a3d 345b f13c ae57 543d
00000040: 14af 17bd a3a1 233d 91ee c43c 1499 18bd
00000050: 3491 0c3d 6545 763d 7036 143d 51a7 2dbd
00000060: 7304 833d ed01 e0bc b378 0e3c 9534 07bd
00000070: 8cc4 bc3c c4e3 d5bc 36e3 7c3d 052a 0d3c
00000080: 1241 e03c bd5b e83a be4d 1e3d 3559 6b3d
00000090: b4c7 593d 717c 773d 6c08 80bb c36b 23bc
000000a0: 8fcc 7e3d 4c2f 013d 5e5a fb3c 36e5 9b3c
000000b0: 98e1 58bd aa49 f6bc d695 7fbc aa64 273d
000000c0: 98ee c2bc 065b 163d 0cfc 4fbc 2cdf 05ba
000000d0: 08fc 2dbc 968c 28bd 6198 0dbb 4553 2abc
000000e0: 93fb 3f3c 8809 fe3b 9c57 f53c 3088 74bd
000000f0: 6248 163c d54a 42bd be86 b63c 37da 2b3d
00000100: 4296 02bc f41d 98bd a288 5bbd 6648 84bc
00000110: 5fe9 50bd 125f a2bc a676 e53c 2d21 633c
00000120: 804d 203d 0c30 43bc 046e 8cbc 3193 a13c
00000130: 8e13 cb3c 5738 b3bb 6588 18bd 8d01 efbc
00000140: 4b3d 8d3c 0765 97bb ba2f 9a3d e38c 993d
00000150: a159 143d 488e 4ebc e780 63bc 5bba 053c
00000160: 01bc 10bd a7b2 0d3d a65f 0e3b f0b4 6ebc
00000170: 9b41 c639 b56e 51bd 9b12 4c3d d6ec be3c
00000180: 080b c33c 115a 0cbc ed78 a9bb f990 c2bb
00000190: 8752 483d 65f2 0cbd 7b89 6c3d 7ca9 933c
000001a0: dff1 bbbc c8c2 96bc ec3e fcbc 7b44 98bd
000001b0: f4f7 c33b 6677 453c 8fff 173d 3cbd 803b
000001c0: 53b7 49bd 5f12 2f3c fa8e f8ba 1ab9 c5bc
000001d0: 939c 7d3d 30c0 5d3d f38b babc eb2d 4ebd
000001e0: c8e3 033c 794d 6d3d bdb9 5d3d c6be 08bd
000001f0: e460 7c3c 29fb d0bb b19b 413c 37e5 7a3d
00000200: dbb3 b3b9 0e44 6c3c 55d7 2539 83ad 7cb9
00000210: 6207 72bd ae40 2c3d 7ea3 463d 190f 283d
00000220: a2ac fbba f1a5 2dbd 7441 303d 4237 563d
00000230: 328a 0e3d 5c7d dd3c b37f 553d acd7 0a3d
00000240: 5dda 69bd f077 66bd 7d9b 43bd c2fb 81bd
00000250: 379f 163d d1d4 12bd 64c8 25bc 8f20 0b3d
00000260: 1767 8c3a 0347 113d 6fb7 83bc a5da 1f3c
00000270: 6921 073c 75af 9c3b 50cd d4bc 2884 d33b
00000280: f1c3 b93c 3ae7 b63c 1f29 913d d858 90bc
00000290: 6a60 773d 8182 833d 8ea4 053d 7853 ca3c
000002a0: 66f0 d23c 336d 383d 0651 92bc d346 3e3c
000002b0: d520 333d d1ea 553c 29a1 10bd b352 0fbd
000002c0: 5dab 1b3d 03ac 51bd 4cf5 03bd be22 e63c
000002d0: f78a 373d 29bd d3bc 61ae 603d 72d6 113d
000002e0: e749 dd3c dbb5 593d a333 2ebc 53c6 213c
000002f0: dfd2 513d 8fbf 5c3d 684f 22bd 45b4 053d
00000300: 7e55 55bc 0242 d5bc 0cf0 843c 7052 33bd
00000310: 6522 e23b 5546 5e3d c39b 08bd aea0 81bc
00000320: 6634 2c3c e173 eebc b581 01bc 4289 29bd
00000330: 921c bbbc 4438 703c 0142 7a3c ce40 183d
00000340: 9868 53bd a203 2f3d 5385 553d 129a 8d3d
00000350: 4b55 9bbc 00ba 3b3b d579 54bc d6fc 2d3c
00000360: ce4c c0bc a8b4 1d3d 5b0e 013d ad3c 293d
00000370: 7532 013d ca53 9abb e82e 853d ff81 dbbc
00000380: fad3 233c 2cbd 93bc accb 46bd 8773 413d
00000390: fe3c 3c3d 3b64 823c eee9 c6bc 4b92 0a3c
000003a0: 1f6d 103d 5670 113d e733 fabc 35ca 423d
000003b0: c203 f63c 6ba5 853d d0b6 4f3d e139 5c3d
000003c0: ce9e fcbc 0b6a 98bc 223c 81bc 7bd9 2abd
000003d0: f600 753d 77e2 3d3c ad8c 1ebd af7c feba
000003e0: bca4 0abd b4d0 1ebc 25a3 39bd 428c 0c3d
000003f0: ebd5 90bb 6061 bd3c 57ac 1f3d 20e5 b8bb

conv3.0.bias f4 [32]
0.027188465 0.029274793 0.0110170515 -0.0056204638 -0.014501721 0.018979894 -0.06196672 0.008392648
-0.039731443 0.04138857 0.0066293576 0.018070925 0.00065129873 0.052164927 -0.043848686 -0.050393596
-0.054350656 0.029029105 -0.021344027 0.055804566 -0.062227614 -0.033284336 0.042297687 0.018836975
-0.020294264 0.05305972 0.011040595 0.014982346 0.058834773 -0.04663691 -0.00830906 0.013472492
00000000: 58ba de3c b1d1 ef3c dd80 343c de2b b8bb
00000010: a098 6dbc b97b 9b3c d1d0 7dbd 5181 093c
00000020: 70bd 22bd 1087 293d 153b d93b 7a09 943c
00000030: ebbb 2a3a e4aa 553d ae9a 33bd 8469 4ebd
00000040: cb9e 5ebd 72ce ed3c abd9 aebc 5493 643d
00000050: 62e2 7ebd 2855 08bd 5740 2d3d 0050 9a3c
00000060: 2840 a6bc 2655 593d 9de3 343c 8478 753c
00000070: bbfc 703d 5806 3fbd b922 08bc babb 5c3c

conv3.1.weight f4 [32]
1.0056685 0.99786204 0.9963473 0.9778246 0.98896694 1.0178876 0.9866206 1.0023468
1.0234771 1.005566 1.0026246 0.9932025 0.97440743 1.0019923 0.98706913 0.9905048
1.0121764 1.0050685 0.986997 0.9969455 1.0051832 1.0115557 0.99283934 0.9953997
0.9882458 0.9988879 0.9899621 1.0159365 0.9945715 1.0040253 1.0047631 0.999824
00000000: bfb9 803f e373 7f3f 9e10 7f3f b752 7a3f
00000010: f02c 7d3f 244a 823f 2b93 7c3f e64c 803f
00000020: 4c01 833f 63b6 803f 0156 803f 8542 7e3f
00000030: c472 793f 4941 803f 90b0 7c3f b991 7d3f
00000040: ff8e 813f 16a6 803f d6ab 7c3f d237 7f3f
00000050: d8a9 803f a87a 813f b82a 7e3f 84d2 7e3f
00000060: adfd 7c3f 1eb7 7f3f 286e 7d3f 350a 823f
00000070: 3d9c 7e3f e783 803f 149c 803f 77f4 7f3f

conv3.1.bias f4 [32]
-0.006675383 -0.0009826357 -0.013443639 -0.013510133 -0.001381149 0.012294092 -0.0055943546 0.008629858
0.031304877 0.01864681 0.0064372155 -0.015858622 0.026675925 0.0036476862 0.0219355 0.0016535462
0.018703453 -0.0007729773 -0.0036587543 -0.008184497 0.023609348 -0.0096506765 0.0066145314 0.013468504
0.021901825 0.006863181 -0.0018704928 0.023881808 0.01171387 0.011624584 0.011368896 0.023151545
00000000: 2cbd dabb c8cb 80ba b542 5cbc 9b59 5dbc
00000010: ac07 b5ba 296d 493c d950 b7bb 3f64 0d3c
00000020: 8b39 003d 32c1 983c 47ef d23b f1e9 81bc
00000030: 7887 da3c 050e 6f3b 14b2 b33c cebb d83a
00000040: fc37 993c a1a1 4aba b6c7 6fbb 4518 06bc
00000050: 6468 c13c df1d 1ebc b6be d83b 00ab 5c3c
00000060: 756b b33c 89e4 e03b 532b f5ba c8a3 c33c
00000070: 88eb 3f3c 0a75 3e3c 9b44 3a3c 4fa8 bd3c

conv3.1.running_mean f4 [32]
0.82312024 0.17935893 -0.01369418 -0.14700992 -0.16187462 -0.611141 -0.19450001 -0.28041324
-0.48760632 -0.046238203 0.16599473 -0.3054281 0.04843007 0.50396323 -0.46160665 -0.5375323
-0.77656054 0.0048673972 -0.018297194 -0.39921656 -0.6250383 0.3360069 0.4506999 -0.23630576
-0.55087674 0.0712833 -0.023564367 -0.5248113 -0.32661372 -0.43196794 -0.54962236 -0.43303055
00000000: 02b8 523f dea9 373e 8e5d 60bc c589 16be
00000010: 76c2 25be bd73 1cbf 032b 47be 5392 8fbe
00000020: 89a7 f9be 4564 3dbd 86fa 293e 1261 9cbe
00000030: 9c5e 463d bc03 013f b557 ecbe b89b 09bf
00000040: accc 46bf b07e 9f3b ffe3 95bc 1d66 ccbe
00000050: 8302 20bf 1909 ac3e 23c2 e63e 23fa 71be
00000060: 4206 0dbf fbfc 913d 0f0a c1bc 095a 06bf
00000070: ea39 a7be e72a ddbe 0db4 0cbf 2eb6 ddbe

conv3.1.running_var f4 [32]
0.58846414 0.32507512 0.38803568 0.31886098 0.35606393 0.15847297 0.25664482 0.31075573
0.39661673 0.46246827 0.33486295 0.14720356 0.20838007 0.49345857 0.7352809 0.5565094
0.3141309 0.35902685 0.18265422 0.20426989 0.21588172 0.38203064 0.16317649 0.3714835
0.16723357 0.2816037 0.20357704 0.468636 0.2725929 0.169893 0.28216973 0.59305453
00000000: 96a5 163f 3f70 a63e 9dac c63e bf41 a33e
00000010: 034e b63e bd46 223e f366 833e 601b 9f3e
00000020: 5911 cb3e a4c8 ec3e 2873 ab3e 88bc 163e
00000030: 9661 553e 9aa6 fc3e 5e3b 3c3f 6677 0e3f
00000040: c4d5 a03e 5ed2 b73e b509 3b3e 202c 513e
00000050: 1910 5d3e 8599 c33e bd17 273e 1633 be3e
00000060: 473f 2b3e 5c2e 903e 8076 503e 0ff1 ef3e
00000070: 4c91 8b3e 6ef8 2d3e 8d78 903e 6cd2 173f

deconv2.0.weight f4 [32, 16, 4, 4]
-0.052325662 -0.04103864 0.04334046 -0.02917197 0.0299499 -0.05386902 -0.054548044 -0.030756835
-0.02980839 0.011142988 0.0019169515 0.010289248 -0.023839494 -0.07331774 0.060323983 -0.0037094753
-0.014559345 -0.064649895 -0.010349004 0.04187303 0.044045374 0.05046378 0.058899246 0.050183404
-0.029860973 0.042854294 0.0250174 -0.012290561 0.02916049 0.0026280987 -0.05543416 0.010601435
0.05677579 -0.052409325 0.037599586 0.057173505 0.04121682 0.054117326 -0.020937163 -0.027195038
-0.0015645386 -0.006613978 0.069871254 0.040484995 0.020079434 0.037941165 -0.017678797 -0.051011767
-0.037264958 -0.024307419 0.019800475 -0.05327816 0.008477209 -0.021921923 0.0115739275 -0.0153557565
0.062090576 0.053264353 -0.06618163 -0.05224804 0.026190864 -0.043856077 -0.024370588 -0.08258511
0.007281191 -0.0500965 0.007292968 0.026548242 -0.044037264 0.061337862 -0.01991482 -0.03290132
-0.046512622 -0.03374685 0.04479422 0.017493038 -0.07205687 -0.03327653 0.049396444 0.039741695
-0.0048614107 -0.027710546 -0.06133416 -0.050421726 0.03983982 -0.0139518725 -0.016575722 -0.004474162
-0.033826903 -0.058317225 -0.05078129 0.0087414645 -0.024322784 0.013228591 -0.036281846 -0.013907834
-0.0563431 -0.035173718 -0.04783667 -0.012012316 0.044617146 0.0090543255 -0.029375104 -0.032624666
-0.0439174 -0.048158925 -0.038869407 -0.084179975 0.031500746 -0.07266496 0.035601232 0.025143579
0.009284106 -0.07770182 -0.075269006 -0.07853645 0.012855956 0.029292813 0.01625935 -0.061496776
0.026852721 -0.057731025 0.017745173 0.02729587 0.05802712 0.0052923504 0.038474865 -0.06671577
-0.04915185 0.0053512147 0.03231376 0.058478292 0.068653844 0.041895673 0.0116921365 0.055525757
-0.071894065 -0.03495364 -0.014043686 -0.012913994 -0.032526053 -0.042212795 -0.016640607 0.053412084
-0.05047099 -0.009632994 0.035217572 -0.0035089746 -0.051341914 -0.06871479 0.0063886205 0.03508452
-0.012357064 -0.054383907 -0.058695383 0.030398289 0.030425116 -0.033324502 -0.006140433 -0.074386396
0.017846651 0.043112244 0.057328776 -0.037953477 0.050912473 -0.008309857 -0.04367795 -0.0729165
0.066589795 0.06350754 -0.035926517 -0.008373431 0.019152166 0.0017292685 -0.0030872847 0.040798295
-0.028482933 -0.005910014 -0.031683754 0.023816667 0.014812346 -0.037688512 -0.0629036 0.005564933
-0.012783787 0.023186805 0.04446117 -0.06144446 0.031332333 -0.047798377 0.038539708 0.005816877
0.046193007 0.0116046835 -0.025326552 0.03113853 -0.0073901014 -0.036879826 0.008489602 -0.023027264
-0.049846888 -0.037061404 -0.056063745 -0.006688965 -0.016561005 0.023951525 0.03893419 -0.017262941
0.026313655 -0.03886189 0.048131462 -0.038278785 -0.040012795 0.02244632 -0.048523974 0.036349546
0.055041958 0.04152204 -0.0017608198 -0.05724555 -0.017305274 -0.061262187 -0.028465394 0.050789986
0.050575398 0.041963454 0.05909391 -0.05229484 -0.008318492 -0.031650234 0.03692341 0.026358048
-0.014435423 -0.026292304 -0.03539289 -0.023180496 0.051654875 -0.065025285 -0.022401057 -0.018554084
0.03559191 -0.06334273 0.025353443 0.039314892 0.013887344 -0.017660799 -0.05841509 -0.05157455
-0.025244843 -0.011609727 -0.025244901 0.040213417 -0.067002185 -0.021438342 -0.040106498 0.009382834
00000000: 6f53 56bd 2218 28bd c485 313d 0efa eebc
00000010: 7e59 f53c c3a5 5cbd c56d 5fbd c2f5 fbbc
00000020: ba30 f4bc 1491 363c 3842 fb3a 3c94 283c
00000030: 0b4b c3bc 9c27 96bd 4816 773d ab1a 73bb
00000040: 528a 6ebc 2a67 84bd de8e 29bc 0e83 2b3d
00000050: ec68 343d 1cb3 4e3d 5640 713d 1d8d 4d3d
00000060: 009f f4bc fc87 2f3d 4af1 cc3c 595e 49bc
00000070: fbe1 ee3c 2e3c 2c3b ee0e 63bd a4b1 2d3c
00000080: bb8d 683d 29ab 56bd 0602 1a3d c42e 6a3d
00000090: f8d2 283d 21aa 5d3d 6a84 abbc 21c8 debc
000000a0: 3411 cdba 12ba d8bb a918 8f3d 98d3 253d
000000b0: a07d a43c 3268 1b3d 20d3 90bc b7f1 50bd
000000c0: 24a3 18bd 5a20 c7bc 9b34 a23c 333a 5abd
000000d0: fee3 0a3c 9b95 b3bc 92a0 3d3c b696 7bbc
000000e0: b052 7e3d b92b 5a3d 3c8a 87bd 0a02 56bd
000000f0: 398e d63c 6ea2 33bd d4a4 c7bc 6222 a9bd
00000100: 0f97 ee3b fd31 4dbd daf9 ee3b b37b d93c
00000110: 6b60 34bd 693d 7b3d 6824 a3bc 89c3 06bd
00000120: 0584 3ebd 233a 0abd 257a 373d 8f4d 8f3c
00000130: 8d92 93bd f94c 08bd ed53 4a3d 30c8 223d
00000140: 784c 9fbb 3a01 e3bc 8739 7bbd 0387 4ebd
00000150: 142f 233d 6596 64bc cfc9 87bc fe9b 92bb
00000160: 148e 0abd 0bde 6ebd 0b00 50bd 5c38 0f3c
00000170: 9340 c7bc bbbc 583c 469c 14bd afdd 63bc
00000180: 06c8 66bd 5112 10bd 62f0 43bd 4ecf 44bc
00000190: 78c0 363d 9858 143c 0fa4 f0bc 71a1 05bd
000001a0: bbe2 33bd 4b42 45bd 8735 1fbd 8d66 acbd
000001b0: ed06 013d 5ed1 94bd 99d2 113d e8f9 cd3c
000001c0: 5d1c 183c 2222 9fbd a326 9abd b8d7 a0bd
000001d0: caa1 523c 7bf7 ef3c 5432 853c 0be4 7bbd
000001e0: 3dfa db3c 5e77 6cbd 535e 913c 979b df3c
000001f0: d8ad 6d3d 746b ad3b d297 1d3d 47a2 88bd
00000200: 7353 49bd 3e59 af3b 6f5b 043d ef86 6f3d
00000210: 639a 8c3d cc9a 2b3d 6090 3f3c fa6e 633d
00000220: 323d 93bd 8c2b 0fbd 7d17 66bc 3795 53bc
00000230: 0a3a 05bd 53e7 2cbd e251 88bc a1c6 5a3d
00000240: abba 4ebd b5d3 1dbc 4d40 103d d3f6 65bb
00000250: e64b 52bd 57ba 8cbd a257 d13b c9b4 0f3d
00000260: 4875 4abc a9c1 5ebd 926a 70bd d505 f93c
00000270: 183e f93c 467f 08bd af35 c9bb e557 98bd
00000280: 2433 923c 7796 303d 94d1 6a3d 1b75 1bbd
00000290: 9989 503d 1126 08bc a6e7 32bd 3f55 95bd
000002a0: 3b60 883d 3e10 823d af27 13bd b730 09bc
000002b0: 01e5 9c3c 9fa8 e23a 0b54 4abb 1d1c 273d
000002c0: 0a55 e9bc caa8 c1bb d3c6 01bd 2c1b c33c
000002d0: 7baf 723c 455f 1abd 9ad3 80bd 0b5a b63b
000002e0: 1773 51bc 41f2 bd3c ea1c 363d 30ad 7bbd
000002f0: 5556 003d 3bc8 43bd d0db 1d3d 809b be3b
00000300: e134 3d3d 9221 3e3c a179 cfbc 3b16 ff3c
00000310: aa28 f2bb 4d0f 17bd f917 0b3c aca3 bcbc
00000320: 402c 4cbd b3cd 17bd 19a3 65bd 1b2f dbbb
00000330: f2aa 87bc fd35 c43c 7579 1f3d 036b 8dbc
00000340: bc8f d73c a52d 1fbd 7f25 453d 37ca 1cbd
00000350: 75e4 23bd 58e1 b73c 13c1 46bd 43e3 143d
00000360: ad73 613d 0413 2a3d 4fcb e6ba 4f7a 6abd
00000370: cac3 8dbc 0fee 7abd 4230 e9bc 2909 503d
00000380: 2628 4f3d dfe1 2b3d 750c 723d 1d33 56bd
00000390: 494a 08bc ada3 01bd 003d 173d d5ec d73c
000003a0: 8d82 6cbc f562 d7bc 23f8 10bd 06e5 bdbc
000003b0: 1094 533d fa2b 85bd 6c82 b7bc bcfe 97bc
000003c0: d3c8 113d d5b9 81bd 06b2 cf3c a708 213d
000003d0: be87 633c 61ad 90bc a944 6fbd d63f 53bd
000003e0: 46ce cebc b936 3ebc 65ce cebc d3b6 243d
000003f0: 7138 89bd 769f afbc b646 24bd 75ba 193c

deconv2.0.bias f4 [16]
-0.021596627 -0.061865956 -0.0036990508 0.04692713 0.00780609 -0.04957292 0.012558922 0.035048306
-0.03961922 0.041174304 -0.050417364 -0.047883675 0.010713381 -0.021746688 0.050349396 -0.0038862822
00000000: 69eb b0bc 2867 7dbd c66b 72bb aa36 403d
00000010: 3bca ff3b f90c 4bbd f0c3 4d3c d08e 0f3d
00000020: c347 22bd 63a6 283d 7082 4ebd ac21 44bd
00000030: 2d87 2f3c 1c26 b2bc 2b3b 4e3d ffb0 7ebb

deconv2.1.weight f4 [16]
0.9708937 0.98890007 1.0035578 0.9976361 0.99803 1.0040231 1.0052059 0.9912124
0.98827106 0.9836804 1.0105522 0.99673367 1.0203379 1.0062811 1.0238382 0.9934853
00000000: 7d8c 783f 8e28 7d3f 9574 803f 1465 7f3f
00000010: e57e 7f3f d483 803f 96aa 803f 19c0 7d3f
00000020: 55ff 7c3f 7bd2 7b3f c659 813f f029 7f3f
00000030: 6f9a 823f d2cd 803f 210d 833f 0d55 7e3f

deconv2.1.bias f4 [16]
-0.013217616 0.015223255 0.018463055 0.025069125 0.028349364 0.027983943 0.030113379 0.025575679
0.022201845 -0.01636631 0.03227508 0.017993683 0.02681455 0.018302504 0.03098961 0.028346604
00000000: b38e 58bc f66a 793c d53f 973c c45d cd3c
00000010: ed3c e83c 953e e53c 55b0 f63c 1684 d13c
00000020: a5e0 b53c a412 86bc e032 043d 7d67 933c
00000030: 30aa db3c 22ef 953c ecdd fd3c 2337 e83c

deconv2.1.running_mean f4 [16]
-0.08135517 -0.11839645 -0.076705836 -0.20701607 -0.15967286 -0.4026762 -0.28706086 -0.18912575
-0.2121265 -0.12034391 -0.21865402 -0.32714194 -0.08090438 -0.18123633 -0.060845885 -0.29350352
00000000: 8a9d a6bd d779 f2bd f317 9dbd 05fc 53be
00000010: 4881 23be 932b cebe a4f9 92be 2eaa 41be
00000020: b037 59be de76 f6bd d7e6 5fbe 267f a7be
00000030: 32b1 a5bd 0496 39be 8939 79bd 1846 96be

deconv2.1.running_var f4 [16]
0.1840281 0.25560957 0.23897603 0.32031068 0.21320806 0.2164545 0.27677837 0.28598136
0.23273876 0.254541 0.35147667 0.3160544 0.25683275 0.39347997 0.14977515 0.28736535
00000000: dd71 3c3e 42df 823e 22b6 743e c3ff a33e
00000010: 3753 5a3e 40a6 5d3e e5b5 8d3e 266c 923e
00000020: 1253 6e3e 3353 823e c0f4 b33e e2d1 a13e
00000030: 957f 833e 3576 c93e a85e 193e 8d21 933e

deconv3.0.weight f4 [16, 8, 4, 4]
-0.01428835 0.009551649 -0.017381817 0.10762822 0.04803525 -0.044179793 0.055257913 0.039800204
0.026189843 -0.0006138421 0.07470297 0.04891692 -0.051623974 0.07128083 0.06616048 -0.06242537
-0.03258225 0.06592669 -0.037912756 -0.043275367 -0.037107643 0.054741576 -0.047946557 0.05141781
0.055333473 -0.053095307 0.03722751 -0.036055803 0.07110719 0.009070052 -0.00069734885 0.007202783
0.0072114826 0.08741657 -0.030168572 0.0212286 -0.00958249 -0.045170013 -0.030957777 -0.03835372
-0.019965898 0.01203589 -0.038755324 0.004747486 -0.00629936 0.07297732 0.06996713 0.08552565
0.09565064 -0.053104658 0.019171435 0.035478808 0.084336616 0.0939922 -0.042596545 0.07293839
0.04232152 -0.022072615 0.03898102 -0.037453055 0.05754902 0.06809434 0.002251055 -0.025379032
0.05644595 0.03556013 0.060726423 0.054044105 -0.03566039 -0.05314302 -0.027350344 0.008724165
0.06344528 0.03740372 0.08482544 0.036905263 -0.015790569 0.011915886 0.03214711 -0.035417385
0.016195351 0.056316905 -0.069076926 0.046634227 -0.06995974 -0.0025530471 -0.05335438 0.073774464
-0.057641212 -0.045940336 -0.05911843 0.057722986 0.059603978 0.08045427 0.020429995 -0.03192796
-0.053524867 0.020433776 0.050277382 0.06449969 0.047296125 -0.018473033 0.06675271 -0.053505838
-0.041119207 0.093327716 0.014325994 0.006122907 0.06281568 -0.0070599187 -0.022324555 0.001638723
-0.032145616 0.07198814 0.012518433 0.09367673 -0.045159653 0.0535071 0.008932501 -0.04742959
-0.023232767 -0.022573588 -0.028022114 0.104791425 0.10097729 -0.016205199 0.07049237 0.040216297
0.063900046 0.07032049 -0.018713322 -0.057979487 0.06369257 0.0016716729 0.010877685 -0.024330828
-0.013859398 0.060793627 0.008275144 0.020857131 0.02842825 -0.04093301 0.060412295 -0.01889715
-0.043713924 0.03980109 0.031892538 0.05127325 0.016432282 -0.030355418 -0.009067282 -0.03369631
0.07846098 -0.046916466 0.030818077 0.0007843043 -0.042026162 -0.06604547 -0.024059765 0.053235658
0.06384808 0.015465398 -0.025086092 -0.041004386 0.05908689 0.09662615 0.025405535 0.05479693
0.018752677 0.018166726 -0.055970017 0.10195271 0.0063309185 -0.044923853 0.028268533 -0.03198702
0.0038926175 0.07565973 -0.017680844 0.027865611 0.105214335 0.0026672357 -0.018025031 0.0481138
-0.06916002 0.051565148 0.068973035 -0.052255463 -0.06355983 0.025690578 0.0020261344 0.028036622
-0.026559167 0.07775072 0.01882329 -0.029278181 -0.06749154 -0.039445013 0.04104526 -0.064319715
-0.034337234 0.0055653723 0.07476672 0.068149045 0.023203252 -0.01691237 0.0799336 -0.027819628
0.07534794 0.016215682 0.049899716 0.024358435 -0.01161078 0.02092833 0.0067006154 0.020766059
0.062495314 0.009166572 0.019335814 0.031061757 0.024942832 0.059842486 -0.032760687 0.07907496
0.064187266 -0.066294946 0.079640284 0.08036012 0.02414586 -0.022704624 -0.051001884 -0.019545602
0.025102604 0.07359755 0.015798232 -0.018912153 0.009122766 0.046449125 -0.011485101 0.07538828
0.05301725 0.0026045698 -0.034743223 -0.0006970316 0.07124029 -0.044726875 -0.05518882 0.011190711
-0.05851922 0.044771023 -0.08131255 -0.026352756 0.021138841 -0.03889061 0.024339303 0.06285377
00000000: af19 6abc 857e 1c3c 5064 8ebc 2f6c dc3d
00000010: 9cc0 443d dff5 34bd 1f56 623d 8a05 233d
00000020: 158c d63c 3fea 20ba dffd 983d 1c5d 483d
00000030: a973 53bd affb 913d 257f 873d bfb1 7fbd
00000040: f774 05bd 9304 873d 684a 1bbd 8341 31bd
00000050: 2ffe 17bd b438 603d 9c63 44bd 7b9b 523d
00000060: 5aa5 623d 777a 59bd e07b 183d 40af 13bd
00000070: a5a0 913d 8e9a 143c 4ace 36ba 5305 ec3b
00000080: 4d4e ec3b 7507 b33d 1524 f7bc 9ae7 ad3c
00000090: e0ff 1cbc 3104 39bd 2a9b fdbc ca18 1dbd
000000a0: 868f a3bc 2e32 453c e7bd 1ebd cd90 9b3b
000000b0: dd6a cebb 2275 953d ed4a 8f3d 1228 af3d
000000c0: 7ce4 c33d 4584 59bd 6a0d 9d3c 3a52 113d
000000d0: adb8 ac3d fc7e c03d b779 2ebd b960 953d
000000e0: 5559 2d3d a1d1 b4bc 90aa 1f3d 6068 19bd
000000f0: 85b8 6b3d 0c75 8b3d 7086 133b b0e7 cfbc
00000100: de33 673d 80a7 113d 45bc 783d 5a5d 5d3d
00000110: a110 12bd 7fac 59bd d40d e0bc cdef 0e3c
00000120: 99ef 813d a534 193d f6b8 ad3d f929 173d
00000130: 395b 81bc d93a 433c b0ac 033d d211 11bd
00000140: 1dac 843c 8eac 663d 3478 8dbd 8803 3f3d
00000150: 0d47 8fbd 0651 27bb 1f8a 5abd 1117 973d
00000160: 3119 6cbd ef2b 3cbd 2b26 72bd f06e 6c3d
00000170: 4d23 743d 35c5 a43d ce5c a73c e5c6 02bd
00000180: e43c 5bbd bc64 a73c a8ef 4d3d 6a18 843d
00000190: 95b9 413d c254 97bc a5b5 883d f028 5bbd
000001a0: 9d6c 28bd 9a22 bf3d 93b7 6a3c aba2 c83b
000001b0: 82a5 803d e456 e7bb fce1 b6bc 6bca d63a
000001c0: 1fab 03bd 856e 933d 1d1a 4d3c 96d9 bf3d
000001d0: 54f9 38bd 432a 5b3d a059 123c 8845 42bd
000001e0: a552 bebc 3fec b8bc a28e e5bc e39c d63d
000001f0: 2ecd ce3d c4c0 84bc 4e5e 903d d8b9 243d
00000200: 07de 823d 3004 903d ae4c 99bc e67b 6dbd
00000210: 4071 823d 091c db3a 5138 323c 7251 c7bc
00000220: 8712 63bc bd02 793d 7894 073c 93dc aa3c
00000230: 5de2 e83c 5fa9 27bd e272 773d 32ce 9abc
00000240: 5f0d 33bd 7806 233d c0a1 023d e603 523d
00000250: fe9c 863c edab f8bc f08e 14bc 2405 0abd
00000260: 26b0 a03d 7b2b 40bd 3176 fc3c c599 4d3a
00000270: a023 2cbd d942 87bd fc18 c5bc a20d 5a3d
00000280: c8c2 823d 9562 7d3c 5981 cdbc 37f4 27bd
00000290: 1805 723d eee3 c53d 451f d03c bf72 603d
000002a0: 379f 993c 63d2 943c d140 65bd 95cc d03d
000002b0: 9873 cf3b 1302 38bd 6993 e73c d204 03bd
000002c0: 491b 7f3b 7df3 9a3d 6bd7 90bc 6c46 e43c
000002d0: 9d7a d73d cacc 2e3b 3ba9 93bc fa12 453d
000002e0: c5a3 8dbd fa35 533d bc41 8d3d d309 56bd
000002f0: a82b 82bd 0c75 d23c e5c8 043b 0fad e53c
00000300: 9c92 d9bc c53b 9f3d 4d33 9a3c ccd8 efbc
00000310: 0139 8abd 1891 21bd 131f 283d 0eba 83bd
00000320: 33a5 0cbd ba5d b63b 4b1f 993d ba91 8b3d
00000330: bf14 be3c d08b 8abc 3ab4 a33d fde5 e3bc
00000340: 0550 9a3d c0d6 843c a563 4c3d 578b c73c
00000350: 243b 3ebc e471 ab3c d690 db3b 951d aa3c
00000360: 16fb 7f3d 642f 163c 2466 9e3c 3a75 fe3c
00000370: e954 cc3c 651d 753d 1230 06bd 0df2 a13d
00000380: 9d74 833d a5c5 87bd 721a a33d d993 a43d
00000390: 8acd c53c 0cff b9bc 5ae7 50bd 191e a0bc
000003a0: faa3 cd3c 50ba 963d 4b6b 813c a9ed 9abc
000003b0: a777 153c 7041 3e3d 012c 3cbc 2c65 9a3d
000003c0: 9e28 593d 6eb1 2a3b e94e 0ebd 00b9 36ba
000003d0: 6ee6 913d 8733 37bd ac0d 62bd 3e59 373c
000003e0: dab1 6fbd d261 373d 3287 a6bd bce1 d7bc
000003f0: 5d2b ad3c c34b 1fbd 3863 c73c 7ab9 803d

deconv3.0.bias f4 [8]
-0.00363102 0.059219517 0.07162562 -0.02901293 0.050537195 0.005214964 0.049313933 -0.04115476
00000000: 68f6 6dbb 2a90 723d 74b0 923d 86ac edbc
00000010: 1700 4f3d 4ae2 aa3b 68fd 493d e591 28bd

deconv3.1.weight f4 [8]
1.0383884 1.040667 1.0365686 1.0370258 1.0432853 1.0361911 1.0371057 1.0425329
00000000: e9e9 843f 9434 853f 48ae 843f 43bd 843f
00000010: 5f8a 853f e9a1 843f e1bf 843f b871 853f

deconv3.1.bias f4 [8]
0.037189245 0.03890988 0.036678288 0.034859646 0.041963704 0.035053015 0.037696123 0.044635408
00000000: c053 183d f75f 1f3d f93b 163d fdc8 0e3d
00000010: 22e2 2b3d c093 0f3d 4067 1a3d 9ed3 363d

deconv3.1.running_mean f4 [8]
0.1394674 0.12156703 0.16380073 0.09120025 0.20483604 0.1645708 0.10656589 -0.10876779
00000000: 8bd0 0e3e 23f8 f83d 61bb 273e 32c7 ba3d
00000010: 8ac0 513e 3f85 283e 383f da3d a6c1 debd

deconv3.1.running_var f4 [8]
0.1324581 0.16263126 0.1491536 0.14328687 0.1797474 0.14819297 0.12253408 0.23212613
00000000: 19a3 073e cf88 263e b9bb 183e cbb9 123e
00000010: b40f 383e e6bf 173e 26f3 fa3d 79b2 6d3e

deconv4.0.weight f4 [8, 3, 4, 4]
0.0042868364 -0.032029912 -0.058214728 -0.053657457 0.004112701 -0.05574149 0.17287928 0.078138955
0.13849552 0.16622947 0.1595951 0.11828884 -0.002325155 0.04822346 0.07589975 0.16137859
-0.12960775 0.052760925 0.0562079 -0.0037598123 0.11129623 -0.13678463 -0.016404592 -0.085529916
-0.02307922 -0.05642469 -0.13348466 0.01607374 0.052682985 -0.1028385 -0.12681736 -0.14617589
0.06943293 0.062988736 0.02863214 0.085771576 0.10401365 -0.14115283 -0.045942273 0.020360375
-0.13242942 -0.17539386 -0.14601518 0.089915395 -0.045839626 -0.06376579 -0.16000716 -0.10842166
0.044314954 0.0148461815 0.042195 -0.027022442 -0.101043634 0.025029102 0.14362407 -0.014609486
0.11249684 0.045430005 0.12874867 0.0832828 -0.07380173 0.11443099 -0.10906994 0.024233002
0.09641395 -0.15168203 -0.15895857 -0.033400126 -0.15960452 -0.05380371 -0.08410169 0.060626917
-0.10787284 0.07728256 -0.03607149 0.06641795 0.027604233 -0.14476223 0.045822464 -0.062799186
0.11011436 -0.14366983 0.09009061 -0.010897437 -0.061892074 -0.09024998 -0.16685577 -0.13784724
-0.09051955 -0.1543053 0.002666744 -0.13545422 0.106620036 -0.023066632 0.023827268 -0.027048692
0.10893298 0.022139095 -0.048913177 0.07623108 0.11583669 0.031982344 0.08322724 -0.018205969
0.09989858 -0.087625206 0.08695695 0.03205887 -0.050282657 -7.0734815e-05 0.06582836 0.045834813
0.020749688 -0.018641192 -0.0024933359 0.0073444447 -0.17566471 0.065585114 -0.12949656 -0.11660644
0.069991335 0.048117347 -0.021012446 -0.018577775 -0.16687843 -0.016862784 0.0635811 0.0047505065
0.010423917 0.09043361 -0.14737816 -0.026456416 -0.028920976 -0.082244635 -0.09052584 -0.13979721
0.03762522 -0.010253678 -0.038100213 0.04631363 0.012628537 -0.1051163 0.10159383 -0.13516058
0.104739875 -0.011188275 0.10912389 0.12508003 0.00477145 0.03274447 0.016783828 -0.008423249
0.055505477 -0.09989193 0.06784874 0.15190658 0.12756553 0.010299082 0.085750595 0.06968383
-0.13348854 -0.026629983 0.09407034 0.10585619 0.05940638 -0.021089405 -0.0070847594 -0.08871922
-0.122805044 -0.17393973 0.015525798 -0.055390846 -0.15871403 -0.08901944 -0.112292536 -0.108215354
-0.06242324 -0.1344745 0.026015786 0.061837606 -0.029290967 0.042673253 -0.03814139 0.002106652
-0.06947664 -0.017928239 0.055921122 -0.0721981 -0.16605912 -0.14821546 -0.08021443 -0.058335766
-0.09370934 0.09587497 -0.022717705 0.17036192 -0.09744045 0.12766294 0.016597137 -0.069649465
0.17321743 0.1004597 -0.10920981 0.03396522 0.009103067 0.09631529 0.05435625 -0.033467535
-0.036786545 -0.030019706 -0.05649485 -0.15382193 -0.024561146 0.081961565 -0.05866275 -0.08485735
-0.1352911 -0.062424835 -0.12730187 -0.12093915 -0.15326966 0.031176416 -0.048625126 0.010568329
0.016487127 -0.06440654 -0.12156573 0.057446804 -0.06102653 -0.0153003475 0.08282656 -0.014364732
0.07216473 -0.07230935 -0.03166467 0.03800749 -0.05433648 0.01146335 0.09983487 -0.08798722
0.038325842 0.14177057 -0.010164924 0.10704779 -0.017791154 -0.061942857 0.14407301 0.103614986
0.013189433 0.09242513 0.080049604 0.1307594 0.17269866 -0.07753944 0.06636029 0.0006277798
00000000: 9778 8c3b cc31 03bd 9172 6ebd ecc7 5bbd
00000010: d6c3 863b 3051 64bd 4407 313e 5107 a03d
00000020: c5d1 0d3e 0f38 2a3e e66c 233e 6b41 f23d
00000030: a161 18bb f685 453d 5471 9b3d 6e40 253e
00000040: e5b7 04be d71b 583d 413a 663d 2f67 76bb
00000050: 47ef e33d 4511 0cbe ec62 86bc 4f2a afbd
00000060: a210 bdbc 931d 67bd 34b0 08be 13ad 833c
00000070: 1dca 573d fe9c d2bd 69dc 01be 22af 15be
00000080: da32 8e3d 3d00 813d f38d ea3c 02a9 af3d
00000090: 1c05 d53d 5e8a 10be f72d 3cbd cdca a63c
000000a0: 949b 07be 739a 33be 0185 15be 9025 b83d
000000b0: 55c2 3bbd a397 82bd ebd8 23be 2d0c debd
000000c0: 9983 353d 663d 733c aad4 2c3d 2b5e ddbc
000000d0: f7ef cebd d509 cd3c 3012 133e a05c 6fbc
000000e0: be64 e63d d014 3a3d b1d6 033e 2c90 aa3d
000000f0: 5d25 97bd cb5a ea3d 1060 dfbd 4a84 c63c
00000100: ad74 c53d 8952 1bbe 09c6 22be 92ce 08bd
00000110: 5e6f 23be 4761 5cbd 823d acbd ee53 783d
00000120: 6fec dcbd 5246 9e3d b3bf 13bd 2206 883d
00000130: 4622 e23c 8d3c 14be 56b0 3b3d dc9c 80bd
00000140: a383 e13d 2f1e 13be 6d81 b83d 2a8b 32bc
00000150: 8b82 7dbd fbd4 b8bd 3ddc 2abe d427 0dbe
00000160: 5062 b9bd 3502 1ebe 8ac4 2e3b 83b4 0abe
00000170: 9b5b da3d 3cf6 bcbc 6731 c33c 3895 ddbc
00000180: 4118 df3d 0c5d b53c 2f59 48bd 0a1f 9c3d
00000190: c93b ed3d ebff 023d 0b73 aa3d af24 95bc
000001a0: a097 cc3d d874 b3bd 7c16 b23d 2950 033d
000001b0: 30f5 4dbd 7757 94b8 05d1 863d 49bd 3b3d
000001c0: 40fb a93c 6ab5 98bc 3c67 23bb aba9 f03b
000001d0: 73e1 33be 7d51 863d bf9a 04be 5bcf eebd
000001e0: 9e57 8f3d b216 453d 4b22 acbc 6b30 98bc
000001f0: 2ee2 2abe d223 8abc cf36 823d 23aa 9b3b
00000200: 14c9 2a3c 4235 b93d 4dea 16be 20bb d8bc
00000210: afeb ecbc e06f a8bd 9d65 b9bd 0027 0fbe
00000220: e71c 1a3d 0bff 27bc f80e 1cbd 5cb3 3d3d
00000230: ece7 4e3c 3747 d7bd 6d10 d03d 8967 0abe
00000240: dc81 d63d 074f 37bc 597c df3d fb14 003e
00000250: d359 9c3b 111f 063d 3d7e 893c ab01 0abc
00000260: b659 633d 2494 ccbd 48f4 8a3d 668d 1b3e
00000270: 8aa0 023e 7bbd 283c 029e af3d 65b6 8e3d
00000280: 38b1 08be 1f27 dabc f3a7 c03d 21cb d83d
00000290: 1b54 733d b0c3 acbc 4527 e8bb 6cb2 b5bd
000002a0: 3681 fbbd 421d 32be eb5f 7e3c 83e1 62bd
000002b0: ee85 22be d34f b6bd a1f9 e5bd 03a0 ddbd
000002c0: 83af 7fbd afb3 09be 0f1f d53c 6e49 7d3d
000002d0: 9cf3 efbc 26ca 2e3d 253a 1cbd c10f 0a3b
000002e0: c549 8ebd 3ede 92bc 8c0d 653d 99dc 93bd
000002f0: 670b 2abe cbc5 17be 7747 a4bd 7cf1 6ebd
00000300: afea bfbd 195a c43d 7b1a babc 5b73 2e3e
00000310: dc8e c7bd 13ba 023e b8f6 873c 61a4 8ebd
00000320: e95f 313e d1bd cd3d 65a9 dfbd 1d1f 0b3d
00000330: 0825 153c f340 c53d a9a4 5e3d 4115 09bd
00000340: 7dad 16bd e3eb f5bc 2567 67bd 7f83 1dbe
00000350: 7534 c9bc 77db a73d 5a48 70bd b1c9 adbd
00000360: c089 0abe 2fb1 7fbd 6c5b 02be f2ae f7bd
00000370: b9f2 1cbe af65 ff3c 242b 47bd c926 2d3c
00000380: 0310 873c 93e7 83bd 74f7 f8bd 574d 6b3d
00000390: f4f6 79bd 4fae 7abc f9a0 a93d 0e5a 6bbc
000003a0: 1acb 933d ed16 94bd d0b2 01bd bead 1b3d
000003b0: ee8f 5ebd c6d0 3b3c 3976 cc3d a532 b4bd
000003c0: 8ffb 1c3d 4e2c 113e c88a 26bc df3b db3d
000003d0: c1be 91bc cbb7 7dbd e087 133e 1834 d43d
000003e0: 7e18 583c 6349 bd3d 0cf1 a33d cbe5 053e
000003f0: ebd7 303e ffcc 9ebd e7e7 873d 9791 243a

deconv4.0.bias f4 [3]
-0.07435012 0.040788047 -0.16237366
00000000: e044 98bd 5e11 273d 4845 26be
