Pix2Pix/checkpoints/pix2pix_model_epoch_90.pth (torch, 99150 bytes, 32 tensors)

conv1.0.weight f4 [8, 3, 4, 4]
000000 3a c8 fe 3d 49 7c f1 3d 4e 60 a9 bd 82 8e 16 3e
       0.12440534 0.11791284 -0.08270322 0.147028
000010 9a a0 8a 3d e6 88 d5 3b c2 d5 92 bd bf fb d9 3d
       0.067689136 0.0065165637 -0.07169677 0.1064372
000020 71 2a bb bd f6 fd 88 bc 20 33 2c 3c 0e 32 b2 bc
       -0.091389544 -0.01672266 0.010510236 -0.021752384
000030 8a e5 f1 3d 44 b1 be 3d 5b 77 08 be 90 55 14 be
       0.11811359 0.093111545 -0.1332678 -0.14485765
000040 7d ec 66 bd 9f 01 ac 3d 23 cc 08 3c 48 d6 21 3e
       -0.056377877 0.08398747 0.008349451 0.15804398
000050 92 ac 82 bd d7 18 57 bd 44 01 32 3e 99 f6 a7 bd
       -0.063805714 -0.052513923 0.17383295 -0.08201332
000060 9b bc 12 be e4 39 f9 bd 2f 80 c0 bd 34 de 06 be
       -0.1432976 -0.12169245 -0.09399449 -0.13170701
000070 ee a8 c6 bd 8c ec 2a 3b 94 c4 e8 3d 20 45 c1 bd
       -0.097001895 0.0026080934 0.11365619 -0.09437013
000080 e5 13 7b 3d 78 f6 e8 3d aa 3d a1 bd a7 37 f1 bd
       0.06129827 0.11375135 -0.078730896 -0.11778193
000090 f5 0b 93 bd 13 30 3b bc 97 3c f7 3d c1 a3 00 bd
       -0.07180015 -0.011425036 0.120721035 -0.031406168
0000a0 07 1f 89 bd a1 1f cc bd 87 77 0d be e5 75 99 3c
       -0.06695371 -0.0996697 -0.13815127 0.018732974
0000b0 61 a3 e9 3d 9f b7 ae bd 5a 42 1e 3e bc f0 c2 3b
       0.11408115 -0.08531117 0.15454999 0.005949108
0000c0 77 5a 3d 3c 00 b4 97 3c 43 81 88 bd a0 e0 0e 3e
       0.011557213 0.018518448 -0.0666528 0.13952875
0000d0 2f a9 fd 3d 79 7a 90 3d 7c 10 d8 3d 9b cd 5a 3c
       0.12385785 0.0705461 0.10550019 0.013354684
0000e0 5d e2 22 3c 24 7d 9c bd 81 65 cc bd f1 f0 d1 3d
       0.0099416645 -0.07641056 -0.09980298 0.10251034
0000f0 33 ff 89 bd 3b 6e f4 3c b6 b5 a9 bd c1 c4 0c 3e
       -0.067381285 0.029837718 -0.08286612 0.1374693
000100 74 3e e9 bc 28 74 88 bd 58 4e f8 3d 27 f9 01 be
       -0.028472163 -0.0666278 0.12124318 -0.126927
000110 72 09 6b bd 55 0a f4 bd ed 58 48 3d a8 e8 2c bd
       -0.057382055 -0.11916033 0.04891293 -0.042214066
000120 4a f3 95 bb 7d b2 40 3d ba 25 3f 3d 86 76 e3 3d
       -0.0045761215 0.04704522 0.04666684 0.11106591
000130 ca c0 43 3d ca c4 12 be 56 72 05 be 99 4f 27 3d
       0.04779128 -0.14332882 -0.13031897 0.040847395
000140 18 ac 2c 3d f4 ef a9 3d ab 3c f8 bd 4e 96 06 be
       0.04215631 0.082977206 -0.121209465 -0.13143274
000150 f3 c8 d9 3d b7 d4 8b bd d5 7a 3e bc 67 fb 7a bd
       0.10634031 -0.068276815 -0.011625965 -0.061274912
000160 b8 12 f1 bc 12 ed aa bd 2a e7 dd bd c2 88 88 3d
       -0.029427871 -0.08345999 -0.10835107 0.066667095
000170 63 01 1a bd dd ae 11 bd d8 99 ef bd 48 a2 4a 3d
       -0.03759898 -0.035567153 -0.11699265 0.04947117
000180 5b 2f b7 3d 9a c5 b0 bd 70 6e 9c 3c d9 70 16 3e
       0.08944579 -0.086314395 0.01909563 0.14691485
000190 8b e6 06 be c1 11 c4 bd 90 68 a9 bd 24 f0 3b 3d
       -0.13173883 -0.09573699 -0.08271897 0.045883313
0001a0 22 e0 08 be b5 a1 c3 bd d7 04 c2 3b 46 ca d4 bc
       -0.1336675 -0.095523275 0.005920987 -0.025975358
0001b0 ed 4a d5 3d 3c c1 cc bd 78 5f 42 3d 96 2a e5 3d
       0.104146816 -0.09997794 0.047454327 0.11189763
0001c0 df a6 f0 3d d4 dc 0a be e3 32 84 3d 51 4c d4 bd
       0.11750578 -0.13560802 0.06455018 -0.10366119
0001d0 86 75 f3 3d 08 b7 8f bd 4b 62 d2 3b 15 77 15 3e
       0.1188765 -0.07017332 0.006420409 0.14596207
0001e0 b2 88 d2 bd 82 5e f9 3b 69 0d f7 3c f2 0e 15 3e
       -0.10279979 0.007610143 0.030157762 0.14556482
0001f0 0d 5a d6 3d 42 21 97 bc 06 f7 c6 bc f8 7c ce 3d
       0.104663946 -0.018448476 -0.024287712 0.1008243
000200 de ec da 3b 6e cb e8 3c a9 26 1d be 9a ee f8 3c
       0.006681069 0.028417315 -0.15346779 0.030387212
000210 88 84 86 3d 7c 66 e2 bd c2 f7 00 3e c4 6e 27 bd
       0.06568247 -0.110547036 0.12594512 -0.04087712
000220 48 c4 dd 3d b1 c7 ae bc c6 a6 89 3d b1 f0 af 3d
       0.10828453 -0.021335455 0.06721263 0.0859083
000230 42 00 d7 bd 0c 1a d1 bd 80 0e 0f be c9 f5 5b bd
       -0.10498096 -0.10210046 -0.13970375 -0.053701196
000240 73 17 26 bd 5c 17 9c 3c d8 a3 e6 bc 33 90 9f bd
       -0.040549707 0.019054107 -0.028154299 -0.07791176
000250 4c cc 00 be b1 d9 fb bd bb c2 84 3d 93 3e f7 3d
       -0.12577933 -0.12297381 0.064824544 0.12072482
000260 71 9d ab 3d 84 29 62 3d e0 fa ea 3b 31 65 e8 3d
       0.08379639 0.055215374 0.00717102 0.11347426
000270 f0 ed ae 3d 6d 2b b1 bd c4 bf cf 3d 45 71 92 bd
       0.08541477 -0.08650861 0.10143998 -0.07150511
000280 94 8c a5 bc 62 51 c3 3d b3 6f 1a be af 2a a3 bd
       -0.020208634 0.09537007 -0.15081672 -0.079671256
000290 92 0b a7 bd 25 3f 1d 3d 48 d4 0d be 4c 61 9f bd
       -0.08156504 0.038390297 -0.1385051 -0.0778223
0002a0 7f c9 9b 3b ac 9c af 3b ce 1b 7e bc 05 cb 65 bd
       0.004754245 0.005359253 -0.015509559 -0.056101818
0002b0 14 48 44 3d 68 0a 38 3e 25 e5 c9 3d 65 ec 0e 3d
       0.0479203 0.1797272 0.09858159 0.034893412
0002c0 c2 0c 10 be 55 14 8d 3d 22 45 b6 3a 3b ae 15 3d
       -0.14067367 0.06888644 0.0013906101 0.036543112
0002d0 35 f3 1a bd 57 e7 af 3d 76 db 59 3c b2 ad ea 3d
       -0.037829597 0.085890464 0.0132969525 0.11458911
0002e0 08 b3 fb 3d 37 47 1f 3d fe 88 4f ba 56 e8 6c 3d
       0.12290007 0.038886275 -0.0007916837 0.05783876
0002f0 96 23 fc 3d 18 77 bc bd 1f a3 83 3d 45 20 c7 3d
       0.12311475 -0.09202403 0.06427597 0.09722952
000300 d2 d3 41 3e 8c 69 34 3e cf 92 33 3e 67 d6 8c bc
       0.1892846 0.17618388 0.17536472 -0.017192079
000310 8f 32 0f 3d e9 28 8c 3d 26 a4 e6 bd 51 29 5e 3d
       0.034960326 0.068437405 -0.112617776 0.05423862
000320 ff f1 b2 3d 60 75 9f bd 2a b2 ef bc cd ae 92 bc
       0.08737563 -0.077860594 -0.02925976 -0.017905617
000330 e7 33 8e 3d 86 94 e7 bd 79 8a 84 3d da 23 42 3c
       0.06943493 -0.113076255 0.06471724 0.011849368
000340 32 9a 3e 3d c1 71 13 bd d1 51 f7 3d 69 1a 01 be
       0.04653377 -0.035997156 0.12076152 -0.12607731
000350 13 10 00 be 7e 7b 59 bd 9c 6c 60 3c aa 21 64 3d
       -0.12506132 -0.053096287 0.0136977695 0.055696167
000360 a9 ff 0b 3e 46 b7 a8 bd df 77 e0 bd 3b a0 fe bd
       0.13671745 -0.08238082 -0.109603636 -0.12432905
000370 83 6b d2 bd d2 d2 02 3e 88 cc 74 3d 5c 5b 90 3d
       -0.102744125 0.12775734 0.05976537 0.070486754
000380 b5 cb 16 3e 68 c9 78 3d b1 f8 b6 bd d1 13 59 3d
       0.14726146 0.06073895 -0.08934153 0.052997414
000390 3e da de bd 42 54 35 3b d9 fa ad 3d 4f 1a dc 3c
       -0.1088147 0.002766863 0.08495111 0.026868014
0003a0 9d 1d b5 bc d1 50 a1 3b 18 35 3a 3d 8d 68 d9 3d
       -0.022108847 0.004922964 0.04546079 0.106156446
0003b0 3c 0d 01 be f4 17 c7 3b 67 ba 9c 3d 9d 37 cd bc
       -0.12602705 0.0060758535 0.07652741 -0.025050933
0003c0 ff 77 00 3e 8b 5f da bb 93 fc d7 3a d0 b9 15 3d
       0.12545775 -0.0066642216 0.0016478471 0.036554158
0003d0 8a 2d 93 bc 46 cf 10 3e 6b 93 26 3d 73 cb 09 3d
       -0.01796605 0.14141569 0.040667932 0.03364129
0003e0 94 06 57 bd f7 42 f0 bc 5a 16 d0 bd d9 ad 04 bd
       -0.052496508 -0.029328806 -0.10160513 -0.032392357
0003f0 88 8a ad 3d f4 f7 8a bd 2e 70 96 3d e3 c3 f9 bd
       0.08473688 -0.067855746 0.07345615 -0.121955656

conv1.0.bias f4 [8]
000000 57 0a 82 bd 7d d3 e7 bd f7 9d de 3d 8e 46 a4 bd
       -0.063496284 -0.11319635 0.10869973 -0.0802127
000010 97 c5 0d 3e 97 d4 c1 bd 24 4e dc 3d 6d a5 31 3d
       0.13844906 -0.094643764 0.10757092 0.043370653

conv1.1.weight f4 [8]
000000 a1 63 80 3f d0 90 7e 3f 19 41 7e 3f 5b f0 7e 3f
       1.0030404 0.99439716 0.9931808 0.99585503
000010 eb 8f 80 3f 73 a1 82 3f eb bf 81 3f ff 6a 79 3f
       1.004392 1.020552 1.0136694 0.9742889

conv1.1.bias f4 [8]
000000 bc f3 82 bc c9 b0 12 bc 7c c3 1b bd 1f e8 d9 3c
       -0.015985362 -0.008953282 -0.038028225 0.026599942
000010 67 88 11 bd f0 e4 d6 3c fe fb 0e 3d 55 2d c6 bc
       -0.035530474 0.026232213 0.034908287 -0.024191538

conv1.1.running_mean f4 [8]
000000 66 59 6a bd 2b 4a 01 be c9 4d e3 3d 3c 11 e6 bd
       -0.057214163 -0.12625949 0.11098821 -0.11233756
000010 e7 0b 4f 3d e1 68 e8 bd 30 6d 4a 3e fa 17 48 3d
       0.05054846 -0.11348129 0.19768214 0.04885099

conv1.1.running_var f4 [8]
000000 ce ea 29 3d b0 51 2c 3d 48 c4 72 3c bc 52 a7 3d
       0.041483693 0.04207009 0.014817305 0.08170077
000010 60 ed ae 3d 1e 1e eb 3c da 2f b1 3d 9c 45 21 3c
       0.085413694 0.028700884 0.08651705 0.009843256

conv2.0.weight f4 [16, 8, 4, 4]
000000 2e 80 5a 3d ca a4 fa 3c 4e 63 9a bd f0 f4 61 bd
       0.053344898 0.030596156 -0.07538472 -0.05516523
000010 81 92 84 3d db 57 99 3d d3 ad 8b bc 4a 14 64 3d
       0.06473256 0.0748746 -0.01705066 0.05568341
000020 f0 b4 f0 bc 0b 26 25 bd 91 84 83 3d 24 2f 8d 3d
       -0.029383153 -0.040319484 0.064217694 0.06893757
000030 e8 a5 03 bd 44 83 5e 3d f6 f8 28 3d 9d e8 b8 3d
       -0.032140642 0.054324403 0.041253053 0.090287425
000040 a0 40 33 3d fb 1a 84 bb 15 d2 cf 3d 68 4e 96 3d
       0.043762803 -0.0040315366 0.10147492 0.073391736
000050 1c 75 3a bd b5 47 3a 3b 16 35 4c bd 56 d0 c5 3c
       -0.04552184 0.0028424088 -0.049855314 0.024147194
000060 e8 53 91 3d 68 52 45 bd 9b 06 26 bd a2 92 7b bc
       0.07096082 -0.04817429 -0.040533643 -0.015354784
000070 81 bd 0a bd a6 6d 39 3d ad 60 f6 3d 92 8f e0 3d
       -0.03387213 0.045270585 0.12030158 0.10964884
000080 32 f9 f1 bc c1 9f 76 bd 37 5d 49 bd 61 20 9c bc
       -0.02953777 -0.060210947 -0.049161162 -0.019058408
000090 62 49 91 3d 81 4c 15 3d c9 44 59 38 4a b4 91 3d
       0.07094075 0.036449913 5.1800893e-05 0.071144655
0000a0 95 08 3c 3c d9 09 39 3d 51 65 b1 3d 90 b6 19 bd
       0.0114766555 0.045175407 0.08661903 -0.03752762
0000b0 07 cc 2a 3d 4d 9f 0f 3d 48 44 4f bd 96 2d 0e bd
       0.041698482 0.03506403 -0.050602227 -0.034711443
0000c0 19 bb 03 bd 3a a2 20 bd 1d 6d 00 3d 22 31 30 bc
       -0.032160852 -0.03921721 0.03135406 -0.010753902
0000d0 3b 62 22 bd bb b8 89 bd 16 10 ac 3d 97 0e 09 3c
       -0.03964446 -0.06724688 0.08401506 0.008365295
0000e0 5a 8a 49 3d 84 ce dc 3c 30 42 1b 3d 11 77 43 3c
       0.049204208 0.026953943 0.03790492 0.011930243
0000f0 44 f7 89 bd be 29 91 3d 1c 07 81 bd df 00 c4 ba
       -0.06736615 0.0708804 -0.06300184 -0.0014953873
000100 93 fc 09 bc f8 90 71 3d 26 99 13 bd 12 c9 7b 3d
       -0.008422035 0.058976144 -0.036034726 0.061471052
000110 43 11 4d bd 87 85 be bc 75 5b 48 3c 83 76 9c 3d
       -0.05006529 -0.02325703 0.012228836 0.07639792
000120 5e 38 69 3d 96 d1 93 3d 22 70 c4 bc 3e 9b df 3d
       0.05693852 0.0721771 -0.02397925 0.10918282
000130 10 41 89 3d ce 69 c3 3d 6c 9c a5 3d 5a 6b 52 3c
       0.06701863 0.09541665 0.08086476 0.012842977
000140 24 10 6b bc dc f9 4a bc 52 ae 89 3d f9 cb 6f 3d
       -0.01434711 -0.012388673 0.06722702 0.058544133
000150 06 e8 82 3d 67 b3 03 3c 5c 68 93 3c 1f d2 c0 3b
       0.06391911 0.008038378 0.017994098 0.0058844234
000160 06 dc 12 3d 2d 4a 77 bd 6e c2 3b bd 43 be 22 3d
       0.035854362 -0.060373474 -0.04583972 0.03973223
000170 bb 7a 8e 3d cc 5e 0f 3d a4 7e 0a bd ff e1 01 bd
       0.06957003 0.035002515 -0.03381218 -0.031709667
000180 56 e3 9c bd 69 69 16 3d cd bf ba 3c 63 a9 c5 3c
       -0.076605484 0.03672162 0.022796536 0.024128621
000190 97 6e 76 3d a1 35 fd bc 3f 23 87 bb 56 44 38 bd
       0.06016406 -0.030909361 -0.0041240747 -0.044987045
0001a0 20 92 2a 3d ff 57 15 bd b6 af c7 3d 3a 0d 3e bb
       0.041643262 -0.036460873 0.09750311 -0.0028999583
0001b0 f8 d4 40 3d af d2 99 3d 5e 72 28 bc 26 c6 df 3c
       0.047078103 0.07510888 -0.0102811735 0.027316164
0001c0 84 6e 95 bc 26 44 c7 3c 3e 90 8f bd 8a 16 82 3d
       -0.018241175 0.024324488 -0.07009934 0.06351955
0001d0 23 d4 a1 bd 75 c4 13 3d 55 8b a0 3b 11 09 9a bc
       -0.0790179 0.036076028 0.004899422 -0.018803151
0001e0 89 b9 45 bd fa ac 07 3d e9 0d 6b bd 17 d8 5c bd
       -0.048272643 0.033123948 -0.057386313 -0.053917017
0001f0 de a9 07 bd 27 75 87 3c ef d4 53 bd f5 30 8a 3b
       -0.033120982 0.016535355 -0.05171674 0.004217262
000200 a5 a6 28 bd 17 e7 b8 bc 7f 66 6d 3d bb 18 83 3d
       -0.04117455 -0.02257113 0.057959076 0.06401201
000210 91 73 92 bd 02 16 05 3c da 40 3d bd 64 82 be bd
       -0.07150949 0.008122923 -0.046204425 -0.09302214
000220 4f e4 ae 3d 39 e6 1d 3d 35 82 6f 3d 3a c8 26 bc
       0.0853964 0.038549636 0.058473784 -0.010179574
000230 47 89 a1 bd 16 5e 47 3d 85 51 c1 bc c4 d3 13 bc
       -0.07887512 0.04867371 -0.023598442 -0.009022657
000240 f0 b1 3c 3b 2b a8 8d 3d b7 a3 e0 bc 6a 33 1b 3d
       0.0028792582 0.06916841 -0.027421815 0.03789083
000250 5b c5 f5 3c 50 00 82 3c b8 5f 34 bd 42 eb cf 3c
       0.030001333 0.01586929 -0.044036597 0.025380734
000260 28 8a 6a 3d c2 f1 51 3d 06 8e 5d 3d 17 43 b2 3c
       0.057260662 0.05125595 0.054090522 0.021760507
000270 72 24 19 bd 6e 46 5c bc 30 08 d7 3c fe 6a 35 3d
       -0.037388273 -0.013444526 0.026249021 0.04429149
000280 39 c4 b6 3d 15 26 94 3d 6d fd 81 3c 39 32 e6 3c
       0.08924145 0.07233826 0.015867913 0.02810012
000290 9e 17 1f bd 9d 22 91 bd 8b be c9 bd bc ea 91 bd
       -0.038840882 -0.0708668 -0.09850796 -0.0712485
0002a0 e2 95 0a be 0a fc c7 3b 5c e5 c5 bb 47 67 bf bd
       -0.13533738 0.0061030434 -0.0060393047 -0.093458705
0002b0 86 14 61 b9 3d 6f 8b 3c fb d8 64 bc 10 2c 82 bc
       -0.00021465318 0.017020816 -0.013967748 -0.015890151
0002c0 e9 c3 bb 3d 44 88 03 3b 7d 5d a3 3d 57 06 a6 bc
       0.09168226 0.0020070234 0.07976816 -0.020266695
0002d0 49 7a 28 bc e8 38 11 bd 77 01 0a bc f4 7b 8b 3d
       -0.010283061 -0.03545466 -0.008423201 0.068107516
0002e0 bf 7b 3f bd 65 df a7 bd e8 b6 a9 3c 0a a6 02 3d
       -0.046748873 -0.08196906 0.0207171 0.03189663
0002f0 3c e0 9d 3d 2b 67 11 bd 7a f7 57 3d 81 82 01 3c
       0.07708785 -0.03549878 0.052726246 0.00790465
000300 fb 0c 99 3b a4 7e 43 bc 4b 66 8d 3b d4 5f 6b 3c
       0.004670737 -0.011932049 0.004315173 0.014366109
000310 2f ba d4 3c 6b 6c e9 3a fd 33 5e bd bd e8 fc 3c
       0.025967686 0.00178088 -0.0542488 0.030872697
000320 d4 32 75 3d 2b d8 8a 3d 7b c2 cb bc 62 80 74 bd
       0.059862927 0.06779512 -0.024873009 -0.059692748
000330 28 c9 8e bd 58 43 46 3c c6 dc a2 bd f8 85 89 3c
       -0.06971961 0.012101017 -0.079522654 0.016787514
000340 28 22 b2 bc 03 5c c6 3d a4 17 62 3d e7 2d 71 3d
       -0.021744803 0.096855186 0.055198327 0.058881667
000350 8a 64 6e bd 1d a1 b1 3d 0a 01 b4 3d 48 45 c0 3d
       -0.05820135 0.08673308 0.08789261 0.09388214
000360 43 16 cf 3c 10 0c 4f bd ce f1 26 bd 46 e3 71 3d
       0.02527917 -0.050548613 -0.040757947 0.059054635
000370 f4 39 a9 bd 64 06 e6 bd c7 29 fa bd 4a dd a8 bc
       -0.08263007 -0.11231688 -0.12215 -0.020613331
000380 95 04 9d 3d ea 7e f4 3c ba bb 77 bd dd 36 1f 3d
       0.076668896 0.029845674 -0.060481764 0.03887068
000390 19 49 fb bc 1b d1 2b bb 2d 4a 2a 3d ca 1f 4c bc
       -0.030674504 -0.0026217166 0.041574646 -0.012458751
0003a0 63 a4 32 bc a7 f9 7b bb 41 f8 70 bd 8c c1 86 3d
       -0.010903451 -0.0038448365 -0.058830503 0.06579885
0003b0 38 ed b1 3d 70 1e 2e 3d fe d9 b2 bc 54 67 c7 3c
       0.08687824 0.042509496 -0.021832462 0.024341263
0003c0 3f 23 d3 3c 8d fb 39 3d 90 86 ab 3d 98 8a 63 bc
       0.025773643 0.045405913 0.08375275 -0.013888024
0003d0 53 69 52 3d c6 82 f5 bb 5a a3 b1 3d b0 90 3c 3d
       0.051369976 -0.007492396 0.08673735 0.046036422
0003e0 98 25 de 3c 87 7a 4b bc 2f 76 12 bd c8 c7 46 bc
       0.027117535 -0.0124193495 -0.03575724 -0.0121325925
0003f0 02 8d 5a bd 52 18 c5 bc a2 3b da bc 14 04 05 bd
       -0.05335713 -0.024059448 -0.026639763 -0.032474592

conv2.0.bias f4 [16]
000000 54 ba 3c 3d 19 ce 42 3d d0 07 92 bd 09 07 47 3d
       0.046076134 0.04755983 -0.07130396 0.048590694
000010 dc 1a 67 3d 28 d8 91 bd d6 8a 6a 3d c5 9a e7 bc
       0.0564221 -0.07121307 0.05726131 -0.028272042
000020 9a 6e 10 3d ef 30 d0 3b 40 56 d2 3c ea 86 1b 3d
       0.035261728 0.0063534896 0.025675893 0.03797046
000030 1b 62 8f bd 0a 55 a2 3d 43 75 40 bd 9e 9c 61 3d
       -0.07001134 0.07926376 -0.04698683 0.055081002

conv2.1.weight f4 [16]
000000 74 d4 7d 3f 6b c4 7d 3f e0 d6 84 3f 5f dc 7e 3f
       0.991523 0.99127835 1.0378075 0.9955501
000010 7e 29 84 3f 49 eb 7e 3f c5 02 85 3f bc 2b 7b 3f
       1.0325162 0.99577767 1.039147 0.9811361
000020 4e ba 7f 3f 59 d2 80 3f 30 ea 7f 3f 02 4c 7d 3f
       0.99893653 1.0064193 0.99966717 0.98944104
000030 9d bf 84 3f 46 21 76 3f d3 64 80 3f d9 bd 7d 3f
       1.0370976 0.9614452 1.0030769 0.9911781

conv2.1.bias f4 [16]
000000 11 d3 77 bd cc 10 c2 bb d1 ee 42 3c 8e d1 fe 3c
       -0.060504023 -0.0059224125 0.011897759 0.031105783
000010 82 76 8c 3d 9c 91 1e bc 9d 48 19 3d 30 9a 7b 3c
       0.06858541 -0.009678271 0.037422765 0.015356585
000020 8e f4 8c 3c 92 f3 9b 3c b5 a0 8d bc 13 a4 56 3b
       0.017206457 0.019037042 -0.017288545 0.0032751604
000030 13 c6 cf 3c 0d 71 e5 bc 8f 72 e4 3c c3 7d 03 bc
       0.025363004 -0.028008008 0.027886657 -0.008025589

conv2.1.running_mean f4 [16]
000000 6f 6d 22 3f 5c 9e 96 3e 7c 0d 02 bf e2 1c 11 bf
       0.6344823 0.29417694 -0.50801826 -0.56684697
000010 ab c0 9b be 98 6b 10 3e 26 0f 11 bf 23 98 f8 3d
       -0.30420431 0.14103544 -0.5666374 0.12138393
000020 40 2a 2d 3e cb da b4 3b 52 4d e1 3e a4 16 81 3e
       0.16910648 0.005519246 0.44004303 0.25212586
000030 17 77 a3 bc 34 e8 f7 3e 5e 09 0e bf 13 eb ab 3e
       -0.019954247 0.48419344 -0.55483043 0.33577785

conv2.1.running_var f4 [16]
000000 f1 dd 31 3e e0 e3 80 3e f6 14 2b 3e af 17 48 3e
       0.1736982 0.25173855 0.16707215 0.19540285
000010 b5 fc e9 3d a8 62 3c 3e 41 e0 8a 3e dd d0 08 3e
       0.11425153 0.1839701 0.27124217 0.13360925
000020 1f 22 12 3e ef 42 18 3e c5 8b 86 3e d8 5c d9 3e
       0.14270829 0.14869283 0.2627851 0.42453647
000030 a1 63 d1 3d d8 32 fa 3d fb 1b 2d 3f e3 c9 2d 3e
       0.10224081 0.12216729 0.6762082 0.16971545

conv3.0.weight f4 [32, 16, 4, 4]
000000 14 b4 8e 3d 44 8d 82 3d b1 17 16 3d 3e 23 9b 3d
       0.06967941 0.063746005 0.036643688 0.07575081
000010 7d 67 7e 3d ad bd 20 3d 99 cd 15 3d 2a 65 8a 3d
       0.062110413 0.03924339 0.036573026 0.06757577
000020 5c 2c 15 3d b8 60 5a 3d d1 65 79 3d 6e 50 76 3d
       0.036419258 0.053314894 0.060888115 0.060135297
000030 fe bb 08 3d cf c9 97 3d 71 92 87 3d c3 02 c7 3d
       0.03338241 0.07411539 0.06619728 0.09717324
000040 06 eb f4 bc e5 48 53 3d 89 4c f2 3c 44 d5 87 bc
       -0.029897224 0.05158319 0.02957751 -0.016581185
000050 eb 94 f7 3c 63 36 7c 3d 1a c8 0a 3d ba 3e 1d bd
       0.030222377 0.061575305 0.033882238 -0.0383899
000060 a9 7b 5d 3d 54 1c d4 bc 26 75 b9 3b 0a a8 ec bc
       0.05407301 -0.025892414 0.005659717 -0.028888721
000070 de 37 43 3c fc 7d 07 bd 5e c1 47 3d 45 8c 10 3b
       0.011915175 -0.033079132 0.048768394 0.0022056263
000080 80 85 b5 3c 6d 68 be bb c1 1d 23 3d d2 4d d3 3c
       0.022158384 -0.0058107884 0.039823297 0.025793944
000090 04 1d 48 3d 07 cf 62 3d 19 6a b4 3b c1 c8 b7 bc
       0.048855796 0.055373218 0.005505812 -0.022434594
0000a0 50 17 80 3d e9 cb f3 3c 5d b7 0f 3d 7c bc ca 3b
       0.062544465 0.029760318 0.03508698 0.00618702
0000b0 13 2d 3f bd 62 30 dd bc 70 ad bf bb c2 c1 e2 3c
       -0.046673845 -0.02700061 -0.005849533 0.027680282
0000c0 fb 6c 4b bd 24 48 9d 3c 80 7f d4 bc 96 cd c1 bc
       -0.04966448 0.019199438 -0.025939703 -0.023657601
0000d0 70 15 12 3c 90 26 32 bc d2 23 c3 3c 5e d4 84 ba
       0.008916244 -0.010873452 0.023820791 -0.0010134091
0000e0 eb 7d 04 3d cc 06 2a 3d 60 6d 59 3d 01 81 40 bd
       0.032346647 0.04151039 0.053082824 -0.046998028
0000f0 f9 37 a3 3b 56 c4 11 bd b3 1e 87 3c 4e 93 a8 3c
       0.0049810377 -0.03558763 0.01649413 0.020578053
000100 39 d3 fc bc b7 60 95 bd 0e f3 47 bd b2 54 eb bc
       -0.030862438 -0.072938375 -0.04881578 -0.02872691
000110 dd 41 3e bd 61 e8 5f 3c 37 75 6d 3d 81 d7 00 3d
       -0.04644953 0.013666243 0.057973113 0.03145552
000120 a1 b7 ce 3c 21 cc 12 3c 4f a7 59 3b 7d 2b d6 3c
       0.025234045 0.008959801 0.0033211296 0.026143784
000130 8a ae 5f bc 38 a8 29 3b 88 4a 0a bd c6 0d 0e bd
       -0.013652453 0.002588762 -0.033762485 -0.034681104
000140 bb 98 00 3d cc 48 30 3c 02 b3 b4 3d cf 95 ae 3d
       0.031395655 0.010759544 0.088232055 0.085246675
000150 3b c4 37 3d 98 0b 21 bb f8 6d f0 39 e8 d2 a1 3c
       0.044864874 -0.002457356 0.000458583 0.019753888
000160 90 d3 f7 bc 80 a2 21 3d a6 0f 53 3c 72 9f af bb
       -0.030252248 0.039461613 0.012882149 -0.0053595835
000170 cd 40 c0 ba 5e 45 52 bd 50 fa 63 3d 19 6a ed 3c
       -0.001466775 -0.051335685 0.05565864 0.028981255
000180 bc 07 4e bc f5 44 01 bd 9b 12 d9 bc 27 23 1e bd
       -0.012575086 -0.031559903 -0.02649813 -0.038607743
000190 32 e4 8a 3d 8d 4c 31 3c 44 54 be 3d 24 11 1c 3d
       0.06781806 0.010821474 0.09293416 0.038102284
0001a0 1f 35 24 bc be 73 1e 3c e3 93 1a bc 46 d8 86 bd
       -0.010022431 0.00967115 -0.009434673 -0.0658422
0001b0 60 0c 84 bc 76 a4 5c 3c 44 f0 d6 3c 08 4c a4 bc
       -0.016119182 0.013466945 0.026237614 -0.020055786
0001c0 cb 41 38 bd 25 a9 8c 3c 1d 01 88 3b 8f d5 7e bc
       -0.04498462 0.017170498 0.0041505233 -0.015553846
0001d0 cc 66 37 3d e7 9a 24 3d 7d d6 b9 bc 5a f4 55 bd
       0.04477577 0.04018679 -0.022685284 -0.052234985
0001e0 8e a0 94 bb f6 ed 43 3d 67 37 52 3d ca 9b 08 bd
       -0.004535741 0.04783436 0.051322367 -0.033351697
0001f0 70 dd 5a 3b 64 82 61 bc 30 5d 49 3c 74 e0 65 3d
       0.0033396147 -0.013763998 0.012290284 0.05612226
000200 bb a4 d6 3a 48 96 77 3c 1f 1b a0 3b a3 67 c4 3c
       0.0016375998 0.015111513 0.0048860456 0.0239752
000210 a2 b5 85 bd 93 4a 0b 3d 3f 9d 13 3d 39 19 40 3d
       -0.06528784 0.034006666 0.036038633 0.046899054
000220 e5 c2 34 bc d9 17 4f bd 50 d2 08 3d d2 68 5d 3d
       -0.011032795 -0.050559852 0.033403695 0.054055043
000230 58 1a 53 3c d6 3c 2b 3b 90 05 e1 3c 5f 44 b4 3c
       0.012884699 0.002612879 0.027468473 0.022005258
000240 73 5f 70 bd c8 5c 73 bd 21 87 47 bd c3 8f 13 bd
       -0.058684777 -0.059414655 -0.048712853 -0.036025774
000250 e6 33 6a bb 29 21 8d bd 63 f1 fd bc 1e 33 12 bc
       -0.00357365 -0.068910904 -0.030998891 -0.00892332
000260 3b 20 5c bc 6e 33 b0 3c 40 42 c8 bc 48 25 10 bc
       -0.013435419 0.021508899 -0.024445653 -0.008797951
000270 9f 13 93 bc 29 08 f5 bc bb fe 32 bd 1f 40 83 bc
       -0.017953692 -0.029911118 -0.04369996 -0.016021786
000280 5c a0 0d 3d 03 e3 01 3d b1 d1 b0 3d 0c 8f c3 bb
       0.03457676 0.031710636 0.086337455 -0.0059679803
000290 23 47 8d 3d 21 2c 93 3d 47 c5 4b 3d fd 36 0d 3d
       0.06898334 0.07186151 0.049748685 0.03447627
0002a0 5f bc 09 3d c3 85 62 3d 0c 86 d0 39 1e 68 be 3c
       0.03362691 0.055303346 0.00039772724 0.023243006
0002b0 fc 57 5b 3d fa f0 b4 3c 78 e7 6f bc fe fc b6 bc
       0.053550705 0.022087563 -0.014642589 -0.022337433
0002c0 6b a5 03 3d 23 a0 67 bd 80 64 19 bd 23 97 39 3c
       0.032140177 -0.056549203 -0.03744936 0.011327538
0002d0 5b dd fe 3c ae d0 13 bd 62 19 40 3d 34 70 af 3c
       0.03111141 -0.036087684 0.046899207 0.021415807
0002e0 4a aa 09 3c ab b7 0a 3d ec fb d0 bc 78 85 21 bc
       0.0084024165 0.033866566 -0.02551075 -0.009858482
0002f0 99 c1 1f 3d 04 a7 29 3d 63 f7 34 bd 21 b9 d4 3c
       0.03900299 0.041419044 -0.04418124 0.025967183
000300 01 9a 5c bd fe 4b 4c bd c9 03 e3 bc db 48 70 bd
       -0.053857807 -0.04987716 -0.027711766 -0.05866323
000310 48 3b a8 bc 43 6b d1 3c f2 93 5f bd a6 da e2 bc
       -0.02053608 0.025563842 -0.05458445 -0.02769215
000320 17 df c9 3c 95 8f 36 bb ce 8f 84 3c aa be 47 bc
       0.02464251 -0.0027856578 0.016181853 -0.012191454
000330 bb 78 3f bd 87 9f ce 3b fe 84 14 bc 49 6a 9b 3b
       -0.046745997 0.0063056382 -0.009064911 0.004742895
000340 85 a3 41 bd 0a 50 2e 3d da a4 4d 3d 47 d9 20 3d
       -0.047275085 0.0425568 0.050206043 0.03926971
000350 79 59 fc bc 8e df 4f 3b eb 9c 03 bc 08 ed d7 bb
       -0.030804383 0.0031718942 -0.008033018 -0.0065895356
000360 80 2b b4 bc 3b 33 29 3d f6 19 f5 3c ee 62 fe 3c
       -0.021993399 0.041308623 0.029919606 0.031053033
000370 16 06 1d 3c 91 95 57 bc 41 e0 35 3d a0 ab 20 bd
       0.0095839705 -0.013158218 0.04440332 -0.039226174
000380 19 6c 3d bc 2a 12 fc bc fe 67 85 bd 32 04 2a 3c
       -0.011561417 -0.03077038 -0.065139756 0.010376977
000390 de 38 06 3d 8f 2c 61 3c ca ac 01 bd 20 c2 a2 bc
       0.032769077 0.013743534 -0.031658925 -0.019867957
0003a0 05 2e d7 3c a7 b8 0a 3d bc da 04 bd 85 10 fa 3c
       0.026267061 0.033867504 -0.032435164 0.030525455
0003b0 1f 1b 67 3c a4 68 73 3d f2 c7 32 3d 8c 5f 07 3d
       0.014105587 0.059425965 0.043647714 0.033050105
0003c0 34 a0 bb bc e1 b4 5b bc 39 74 28 bc ff c6 ed bc
       -0.02290354 -0.013409824 -0.010281616 -0.029025553
0003d0 87 08 7d 3d c1 b8 57 3c 88 4b 0c bd 72 97 0f 3c
       0.06177571 0.013166607 -0.03425172 0.008764135
0003e0 99 13 16 bd 7b e3 70 bc 25 27 47 bd b5 7c 05 3d
       -0.036639784 -0.014702673 -0.048621316 0.032589633
0003f0 1a 5f 57 bc 6f 72 49 3c 82 51 f5 3c b9 08 c2 bb
       -0.013145233 0.0122953495 0.029946093 -0.00592145

conv3.0.bias f4 [32]
000000 bc bc de 3c b3 8f f0 3c b7 83 34 3c c9 0d b8 bb
       0.027189605 0.029365396 0.011017731 -0.0056168777
000010 0a 8e 6e bc ab cc 99 3c ed fc 7d bd 2f 98 09 3c
       -0.014560232 0.018774351 -0.062008787 0.0083981
000020 a5 dd 22 bd c1 ff 28 3d 2c 8d d8 3b 3f 0b 95 3c
       -0.039762158 0.04125953 0.006608626 0.01819384
000030 b7 83 4c 3a 2d ae 55 3d 7e 61 33 bd fc 82 4e bd
       0.00078016095 0.05216806 -0.043794148 -0.050417885
000040 64 15 5e bd c6 ea ed 3c 55 dc ad bc f7 9f 64 3d
       -0.05421962 0.029042613 -0.021223227 0.055816617
000050 f5 bb 7e bd e4 4c 08 bd 2b 96 2c 3d b9 98 9a 3c
       -0.06219097 -0.033276454 0.0421354 0.018871652
000060 0d 69 a6 bc e2 10 59 3d 2e ad 33 3c 32 4a 75 3c
       -0.020313764 0.052994616 0.010966582 0.014971303
000070 7b fc 70 3d f5 3f 3f bd f1 df 08 bc 83 fc 5b 3c
       0.058834534 -0.046691854 -0.008354173 0.013426903

conv3.1.weight f4 [32]
000000 ed d2 82 3f ef 0d 7f 3f 17 3d 81 3f 84 29 79 3f
       1.022062 0.99630636 1.0096768 0.9732897
000010 4a 3b 7d 3f 03 2f 82 3f ec b2 7b 3f b3 ef 7e 3f
       0.9891859 1.0170597 0.9831989 0.995845
000020 fc 9e 84 3f 1a ec 80 3f 9d a6 80 3f 74 0e 80 3f
       1.0361018 1.0072052 1.0050846 1.0004411
000030 cd b2 77 3f bd 09 83 3f 2f bd 83 3f 2c 6c 7d 3f
       0.96757203 1.0237347 1.0292109 0.9899318
000040 4b 05 81 3f 7e 36 7f 3f 5b db 7b 3f 1f cd 81 3f
       1.007974 0.99692523 0.98381585 1.0140723
000050 e0 7d 84 3f c4 c0 81 3f ca cc 7b 3f 76 2b 7f 3f
       1.0350914 1.0136952 0.9835936 0.9967569
000060 67 2f 79 3f 6c 62 80 3f c7 c0 7b 3f 74 93 83 3f
       0.97337955 1.0030036 0.9834103 1.0279374
000070 7a 86 7c 3f 2d f9 7e 3f 97 5f 80 3f 93 06 7f 3f
       0.98642695 0.9959896 1.0029172 0.99619406

conv3.1.bias f4 [32]
000000 10 96 91 bd 73 c4 37 bb 6e 69 4d bd 32 fd ac bc
       -0.071087 -0.0028040677 -0.050149374 -0.021116827
000010 6f 06 e0 b9 e9 fc 65 b9 fa c6 78 bc f5 d3 09 3c
       -0.00042729403 -0.00021933358 -0.015184158 0.008412351
000020 53 38 26 3d e5 30 a1 3c 45 95 39 bc 0b 22 a9 bc
       0.04058106 0.019676635 -0.011327093 -0.020646116
000030 b7 a7 92 3c 55 70 06 bd cb d3 9f 3d e9 b9 40 3b
       0.017902238 -0.032821972 0.07804068 0.0029407686
000040 e3 8f e3 3c 5d 18 8f bc 07 2f fe bb a7 c3 83 bd
       0.027778571 -0.017467672 -0.007757071 -0.06433802
000050 65 29 21 3c 7b 36 c8 bc 68 c3 f4 bb c7 1d d6 3c
       0.009836529 -0.02444004 -0.0074695833 0.026137246
000060 40 29 ab 3c 32 69 2a bb 93 59 92 3b 02 5b 42 3d
       0.020893693 -0.0026002643 0.0044662445 0.047450073
000070 40 c4 d0 b9 49 cf 72 3a 78 3a 93 3b ac 3f bd 3c
       -0.0003981907 0.0009262455 0.004493054 0.02310165

conv3.1.running_mean f4 [32]
000000 9b 27 46 3f 37 9c 4e 3d 9a ba 8b 3d 38 1a 9b 3c
       0.77404183 0.050441947 0.06822701 0.0189334
000010 c9 8e b8 3d 17 66 68 bf 3d a3 43 be 39 23 d5 bc
       0.09011609 -0.90780777 -0.19105239 -0.026017772
000020 be 7d 86 be f9 dd c8 3e fb a1 f9 3d 44 b1 39 bd
       -0.2626781 0.39231852 0.121890984 -0.04533507
000030 b3 4f 49 be 6c d0 db 3e 68 b8 76 bf f7 bb 37 bf
       -0.19659309 0.4293245 -0.9637513 -0.71771187
000040 b1 53 64 bf bd e7 2f 3e e4 03 6a bb 61 27 2d bf
       -0.891902 0.17178245 -0.0035707885 -0.6763821
000050 f3 0b f9 be 4e c4 86 3e d0 3e cd 3e 5b 41 ad be
       -0.4864193 0.26321644 0.40086985 -0.33838925
000060 2c fd 24 bf 14 91 37 be 57 96 6d 3d 39 aa 10 bf
       -0.6444881 -0.17926437 0.058004703 -0.5650974
000070 2f ca 1b 3d c0 51 d6 be 1d 1f 11 bf 70 fd 27 3d
       0.038034614 -0.41859245 -0.566881 0.04101318

conv3.1.running_var f4 [32]
000000 bf 1b 4c 3f 9f 20 7e 3e b4 b9 e3 3e e0 07 eb 3e
       0.7972984 0.24817131 0.44477618 0.45904446
000010 b2 79 e4 3e 8f ff 32 3e d3 f7 88 3e c0 65 74 3e
       0.44624096 0.174803 0.26751575 0.2386694
000020 57 34 5b 3e 63 8b 7d 3e 38 1d a6 3e f9 38 f5 3d
       0.21406685 0.24760203 0.32444167 0.11973757
000030 f6 32 84 3e 11 5d 15 3f 21 7a 09 3f ac 3c 0f 3f
       0.2582013 0.58345133 0.5370198 0.5595195
000040 b8 06 92 3e da ea e3 3e 1c 40 8e 3e 08 6f 5c 3e
       0.2852075 0.44515115 0.27783287 0.2152673
000050 22 65 20 3e 24 c6 a8 3e 05 d9 53 3e a4 d7 0f 3f
       0.15663579 0.3296367 0.20688255 0.56188416
000060 98 d4 33 3e eb 33 9f 3e fb 39 94 3e 3f 9e c9 3e
       0.17561567 0.31094298 0.28950486 0.39378545
000070 5e 73 46 3e 77 68 21 3e f3 32 80 3e e4 88 10 3f
       0.19379947 0.15762506 0.2503887 0.5645888

deconv2.0.weight f4 [32, 16, 4, 4]
000000 5b 6f 4f bd 3d 38 2b bd 9d 59 24 3d 9a 50 02 bd
       -0.050643306 -0.04180168 0.040124524 -0.03181515
000010 90 42 c6 3c da 1d 6b bd 69 3b 7f bd 15 44 11 bd
       0.024201661 -0.057401516 -0.062312517 -0.03546532
000020 78 78 e7 bc 27 ab 3b 3c 18 f6 df ba 8a b7 1b 3c
       -0.028255686 0.01145438 -0.0017086891 0.009504208
000030 c0 49 ed bc ed f4 8a bd 0a 4a 5a 3d 3f f8 ba b8
       -0.02896583 -0.06784997 0.053293265 -8.9154106e-05
000040 26 df 65 bc c7 f2 88 bd 08 44 80 bc cf 76 1f 3d
       -0.0140302535 -0.06686931 -0.01565744 0.038931664
000050 d7 c6 31 3d db 9a 50 3d ee 36 73 3d d3 c3 4b 3d
       0.04340252 0.05092893 0.059378557 0.0497473
000060 c9 88 13 bd 25 64 12 3d fb 48 51 3c ee 64 97 bc
       -0.03601912 0.035740037 0.012773748 -0.018480744
000070 48 bd d8 3c 36 a4 17 3c 43 8f 67 bd 65 f1 84 3c
       0.026457444 0.0092554595 -0.05653311 0.016228387
000080 eb 9b 2d 3d ad df 7c bd e4 b7 01 3d 7b 14 47 3d
       0.042385023 -0.06173675 0.031669512 0.048603516
000090 ac 2f 10 3d ce ae 32 3d 6d 81 ed bc a4 0e 1a bd
       0.035201713 0.043623738 -0.02899238 -0.03761162
0000a0 e0 98 8e bb 26 81 87 bc 5b e2 95 3d a3 4f 04 3d
       -0.00435172 -0.016541075 0.073185645 0.03230251
0000b0 a4 83 a4 3c 4e e7 e4 3c 35 d0 9d bc dc 8d 7a bd
       0.020082302 0.027942326 -0.01926432 -0.061170444
0000c0 45 3f 0b bd 3e b5 40 bc 7d a4 ce 3c 80 8c 43 bd
       -0.033995885 -0.0117619615 0.025224918 -0.047741413
0000d0 52 6d af 3b a7 05 e0 bc c8 6d 22 3c 7d 95 a9 bc
       0.005353608 -0.027346445 0.009913869 -0.020701164
0000e0 04 fe 89 3d 13 da 8e 3d 89 5e 72 bd 51 e3 1e bd
       0.06737903 0.06975188 -0.059172187 -0.038791005
0000f0 d7 4c bf 3c 3e b6 4d bd 56 7f cb bc e3 f2 b5 bd
       0.02335207 -0.050222628 -0.024840992 -0.088842176
000100 89 08 7c 39 d6 ed 64 bd d7 1d 73 bb 5a d6 8f 3c
       0.00024035772 -0.05589088 -0.0037096643 0.017558265
000110 35 49 30 bd 77 73 28 3d fa be 89 bc b1 67 4b bd
       -0.043038566 0.04112574 -0.016814698 -0.049659435
000120 3c cb 5a bd dd aa 23 bd 8b bd 06 3d 4a 9a 19 3c
       -0.053416476 -0.03995787 0.032895606 0.009375164
000130 81 6c 9e bd 91 9b 18 bd 5d e0 33 3d 3a 27 25 3d
       -0.07735539 -0.037257735 0.04391514 0.040320612
000140 6c cf 83 bc 25 42 e2 bc 05 df 96 bd 7d dc 22 bd
       -0.016090117 -0.02761943 -0.07366756 -0.039761055
000150 05 75 02 3d 06 51 3b bc 92 4e 9b bc 0b a4 4d bb
       0.03184988 -0.011432892 -0.018958364 -0.0031378295
000160 04 71 30 bd 32 62 8a bd 84 dd 75 bd e1 85 9d 3a
       -0.04307653 -0.067570105 -0.060025707 0.0012018048
000170 db 10 fd bc 9a 8b 94 3c e5 61 17 bd 2d 8d 46 bc
       -0.030891826 0.018132973 -0.036958594 -0.01211862
000180 de 69 26 bd 81 25 9f bd 73 9e 20 bd db d6 1f bd
       -0.040628307 -0.07770825 -0.03921361 -0.03902326
000190 3f a4 2b 3d 13 ff 42 3c 9d 93 f7 bc 02 ee f1 bc
       0.041904684 0.011901635 -0.030221755 -0.029532436
0001a0 4b 4a 4b bd 2a fa ce bd ed c5 7b bd 38 a9 08 be
       -0.0496314 -0.10106309 -0.061468054 -0.13345802
0001b0 fd 2d 0b 3d a7 24 9c bd 20 39 13 3d b0 cb ba 3c
       0.033979405 -0.076241784 0.03594315 0.022802204
0001c0 7d 6c c2 b9 85 10 8b bd 57 11 c3 bd b3 8b 93 bd
       -0.00037083394 -0.0679026 -0.09524792 -0.0720438
0001d0 e4 a0 1e 3a 06 3d 88 bc 93 f4 df 3b 1e 55 d3 bd
       0.0006051196 -0.01663066 0.0068345754 -0.10318969
0001e0 1a 2b f8 3c ef c0 4a bd e4 26 16 3b 5b b0 de 3c
       0.03029399 -0.049500402 0.0022911364 0.027183702
0001f0 ac ac 3c 3d 41 84 13 bd 3d 28 e6 3c a0 1f c1 bd
       0.04606311 -0.0360148 0.028095359 -0.0942986
000200 92 f2 75 bd 14 d4 5a 3b 04 df d6 3c c1 90 60 3d
       -0.060045786 0.0033390569 0.026229389 0.054825548
000210 ec 19 89 3d 8c 49 12 3d 76 11 7a 3c 84 b5 31 3d
       0.06694397 0.03571467 0.015262952 0.043385997
000220 b7 ba b2 bd 35 59 f1 bc fb df db bc 01 a1 d9 bb
       -0.08727019 -0.029461483 -0.0268402 -0.0066415076
000230 30 e5 f2 bc b9 15 39 bd 3c 32 ef bb bf 85 36 3d
       -0.0296503 -0.045186732 -0.0072996896 0.044561144
000240 1a 0e 9d bd 7a 7d 3e bb 24 86 22 3a cd e0 df b9
       -0.07668705 -0.002906649 0.0006199798 -0.00042701364
000250 15 d7 4e bd 4d c9 88 bd a4 22 87 3b 6c 31 20 3d
       -0.050498087 -0.0667902 0.0041240025 0.039109632
000260 f2 c5 58 bd d1 1c 31 bd e5 74 df bd 69 64 1c 3d
       -0.05292315 -0.043240372 -0.10910968 0.038181696
000270 a4 7c 01 3d 02 b6 2c bd 3e c0 c5 bb 92 65 a7 bd
       0.031613007 -0.042165764 -0.00603488 -0.0817367
000280 f2 1d 61 3c 4a 85 0e 3d 1a d7 5a 3d 25 cb 35 bd
       0.01374005 0.034795083 0.053427793 -0.044383187
000290 63 e4 2d 3d 66 83 c4 bc b5 df 3d bd 81 36 b3 bd
       0.042454135 -0.023988437 -0.04635592 -0.0875063
0002a0 aa 5f 8a 3d 64 22 76 3d 66 9b 0f bd 72 9d 1b bc
       0.06756528 0.06009139 -0.03506031 -0.009497987
0002b0 eb cc 9d 3c a9 47 6e bc 82 64 0a 3b e6 dc d0 3c
       0.019262752 -0.014543452 0.0021117036 0.025495958
0002c0 79 c8 11 bd 92 27 81 bc 9e 33 29 bd aa f1 81 3c
       -0.035591576 -0.015765939 -0.04130899 0.015862305
0002d0 d2 0e 4d 3c 9b a8 25 bd 31 2b 85 bd 80 48 5c 3b
       0.0125157405 -0.040443998 -0.06502379 0.003361255
0002e0 54 c6 ae bc 62 c5 8c 3c 74 ef 01 3d f2 bb 85 bd
       -0.021334805 0.017183963 0.0317225 -0.06529988
0002f0 e0 11 f5 3c 70 ec 4c bd ca 53 15 3d 7d fe 86 3b
       0.02991575 -0.050030172 0.03645686 0.004119693
000300 e1 2f c7 3c 04 ff 36 3c 5f a6 21 bd 3b 07 ee 3c
       0.024314823 0.011169199 -0.039465304 0.029056182
000310 36 33 8e bc 7d df 50 bd 69 1c eb bb 94 a7 14 bd
       -0.017358404 -0.050994385 -0.0071750176 -0.036292627
000320 b9 60 91 bd ad 45 18 bd c3 c2 97 bd 9b e8 f8 bb
       -0.070985265 -0.037175823 -0.07410195 -0.007596088
000330 ca 12 98 bc 63 25 14 3c 79 49 fd 3c 5c 15 02 bd
       -0.018563647 0.009042117 0.030918824 -0.03175865
000340 b9 5d 67 3c 5d bd 35 bd b9 91 01 3d 63 cc 3a bd
       0.014121466 -0.044370044 0.031633113 -0.045605075
000350 38 f4 50 bd dd 24 ad 3c 63 45 74 bd b3 73 e1 3c
       -0.051014155 0.021135742 -0.059636485 0.02752099
000360 c0 17 1e 3d 70 34 12 3d 94 1c ab bc 9c de 80 bd
       0.03859687 0.03569454 -0.02088765 -0.06292459
000370 0b 28 02 bd fb b4 7b bd 18 a8 35 bd 8a 71 31 3d
       -0.03177647 -0.061451893 -0.04434976 0.04332117
000380 09 5c 4b 3d 71 ff 18 3d b0 c7 64 3d 4b f3 57 bd
       0.04964832 0.037352983 0.0558545 -0.052722257
000390 45 b2 18 bc 83 6a 3a bd a6 76 0b 3d b7 d5 4e 3c
       -0.0093198465 -0.045511734 0.0340487 0.012624196
0003a0 be de 80 bc b9 36 16 bd 62 fb 26 bd 83 d2 fd bc
       -0.015731212 -0.03667328 -0.04076708 -0.030984169
0003b0 37 6e 47 3d e7 44 99 bd 10 e1 dd bc 8e b4 ec bc
       0.048689093 -0.07483845 -0.027084857 -0.028894689
0003c0 ef d8 b4 3c 06 1c 92 bd 1a 29 b3 3c be dc e5 3c
       0.022076098 -0.07134251 0.021870185 0.02805936
0003d0 48 11 29 bc af 18 71 bc 6e 77 9a bd 82 44 00 bd
       -0.010319062 -0.014715358 -0.07542311 -0.031315334
0003e0 42 0d 9f bc 52 b9 89 bc 02 ea 5e bc 93 fb 0a 3d
       -0.019415502 -0.016812 -0.0136055965 0.033931326
0003f0 6e 12 5a bd 9e 28 d5 bc 01 0a 0a bd 9f 81 6f 3c
       -0.053240232 -0.026020344 -0.033700947 0.014618306

deconv2.0.bias f4 [16]
000000 ec bb af bc 75 7e 7d bd f2 27 6e bb 75 17 40 3d
       -0.021451913 -0.061888177 -0.0036339727 0.04689737
000010 73 28 fe 3b 15 d6 4d bd dd 33 4e 3c a6 77 0f 3d
       0.0077562868 -0.050252993 0.012585607 0.035026215
000020 bf 6c 22 bd 98 d1 28 3d c2 4e 4e bd 4d b0 43 bd
       -0.03965449 0.04121551 -0.050368078 -0.047775555
000030 4b 4d 2e 3c cd 41 b2 bc 0a e6 4d 3d 02 f9 76 bb
       0.010638545 -0.021759892 0.05026821 -0.0037685041

deconv2.1.weight f4 [16]
000000 59 13 72 3f 7b 21 79 3f 28 c6 7e 3f d4 23 7f 3f
       0.9456077 0.9731671 0.9952111 0.99664044
000010 a6 e1 7b 3f 29 b6 84 3f ae 5c 85 3f 79 8a 80 3f
       0.9839119 1.0368091 1.0418909 1.0042259
000020 41 d0 78 3f 05 df 7a 3f 17 00 81 3f 70 0c 80 3f
       0.9719277 0.9799655 1.0078152 1.0003796
000030 c5 8b 81 3f a1 62 80 3f c0 27 83 3f dc 3d 86 3f
       1.0120779 1.0030099 1.0246506 1.0487628

deconv2.1.bias f4 [16]
000000 b1 78 38 bc 7e c8 a5 3c 8b 7d e2 3c 3f b1 17 3d
       -0.011259244 0.020237204 0.027647754 0.03703427
000010 69 94 24 3d e5 4d 53 3c 11 c1 98 3d 22 f5 b3 3c
       0.040180597 0.0128969895 0.074586995 0.021967474
000020 49 b3 23 3d 09 ef 06 bd a9 0d 61 3d ac 91 12 3d
       0.0399659 -0.032942805 0.054944668 0.035783455
000030 03 3f 05 3d 46 ae 33 3d 97 eb 33 3d eb 65 1a 3c
       0.032530796 0.043867372 0.043925848 0.009423713

deconv2.1.running_mean f4 [16]
000000 f9 3c 9e be c8 48 ea be d5 d0 c4 be 1c 1a e2 be
       -0.30905893 -0.45758653 -0.38440576 -0.44160545
000010 04 7a 01 bf a7 98 0c bf b4 8d 07 bf 4e 8c c8 be
       -0.50576806 -0.5492043 -0.52950597 -0.39169544
000020 be ed 01 bf d3 05 95 be d4 de 1e bf af 16 30 bf
       -0.5075339 -0.29106006 -0.6205876 -0.6878461
000030 b1 e3 f4 be 73 31 2f bf 60 d8 d8 be 8b ed d9 be
       -0.47829965 -0.6843483 -0.4235258 -0.42564043

deconv2.1.running_var f4 [16]
000000 aa 96 dd 3e 63 eb f5 3e 3c d2 d3 3e 44 4a 24 3f
       0.4327901 0.48031148 0.41371334 0.6417582
000010 d5 d9 9f 3e 9d 96 10 3e c8 ad 05 3f 0a c3 a6 3e
       0.3122088 0.14119954 0.52218294 0.32570678
000020 c1 8e ef 3e de 9a 8c 3e 14 63 5d 3f d4 fb 0b 3f
       0.467886 0.27461904 0.86479306 0.54681134
000030 42 e1 24 3f d6 da 54 3f 5d 73 55 3e e6 3e 19 3e
       0.64406216 0.8314642 0.20844789 0.149654

deconv3.0.weight f4 [16, 8, 4, 4]
000000 f2 70 10 bc 4b 0c 61 3b a6 3f 64 3b 5d f3 cc 3d
       -0.008815991 0.0034339603 0.0034827976 0.10007355
000010 b2 35 de 3c 26 f9 29 bd 1f f5 28 3d 68 18 17 3d
       0.027125213 -0.041497372 0.04124939 0.03688851
000020 e5 78 c0 bc 6c ac ae 3c d7 26 78 3d 0b 78 bf 3b
       -0.023495147 0.021322452 0.060583916 0.0058431677
000030 08 39 6d bd a9 92 5c 3d 52 8b 11 3d c6 b5 7e bd
       -0.057915717 0.053850804 0.035533257 -0.06218507
000040 68 fe 27 bd 55 e7 85 3d 48 67 2e bd d0 b8 fd bc
       -0.041014105 0.06538264 -0.042578965 -0.030971915
000050 ed bd 53 bd ec cd 4a 3c 80 77 eb bc 7f c0 86 3c
       -0.0516948 0.012378197 -0.028743505 0.016449211
000060 9b d8 01 3d ff 9a 8e bd b9 20 4f 3d ab 76 4e bd
       0.03170071 -0.06963157 0.050568316 -0.05040614
000070 65 70 6f 3d 7d e0 9d 3c e0 d0 4d bb 5e 18 af 3c
       0.058456797 0.019272083 -0.0031405017 0.021373924
000080 c6 6b 98 bc c6 16 9b 3d 29 21 6c bb 63 55 dc ba
       -0.018606078 0.07572703 -0.0036030507 -0.0016810115
000090 8c 53 f0 bc 47 41 45 bd f2 ec 38 bd c2 cc 88 bd
       -0.029336713 -0.048157956 -0.045147844 -0.066796795
0000a0 8c 6e d3 ba 8e 9e 89 3c b2 5f 8a bc bf 1c 58 3b
       -0.0016130968 0.016799238 -0.016891334 0.0032976118
0000b0 90 0d 81 3b 35 c0 0d 3d 67 8d 59 3d bc 1d 9d 3d
       0.0039383844 0.03460713 0.053113367 0.07671687
0000c0 73 c7 00 3e 12 b7 4f bd 81 02 cc bb 34 3d 04 3d
       0.12576084 -0.0507117 -0.0062258844 0.03228493
0000d0 3d 21 90 3d 42 4e a6 3d 7d 24 40 bc fa 7f 58 3d
       0.0703759 0.08120395 -0.0117274495 0.052856423
0000e0 ce 0a 92 3c 98 6d 00 bd de bb e9 3c 47 ce f0 bc
       0.017827418 -0.031354517 0.028531965 -0.029395236
0000f0 2a 8f df 3c 91 a3 6c 3d 07 e1 76 3c 2b c6 48 bc
       0.027289946 0.057773177 0.015068299 -0.012254278
000100 0b 8c 80 3d 23 e3 8e bc 67 dc 8f 3d c6 02 90 3d
       0.06276711 -0.017442292 0.0702446 0.07031779
000110 2e 8d a3 bc 5f c2 84 bc d0 62 9d bc 58 2c 5a bc
       -0.01996478 -0.016205965 -0.019212157 -0.013316236
000120 00 fa 64 3d bb 3a 6c 3d 91 c6 ab 3d 19 25 58 3c
       0.05590248 0.057673197 0.08387483 0.0131924385
000130 b2 87 3d bc 8f 14 7d bc 0c 06 a7 3b 77 1d 0a bd
       -0.011567997 -0.015446796 0.0050971564 -0.033719506
000140 03 b3 f1 bb f9 fe 24 3d 3d 86 74 bd b5 ce 15 3d
       -0.007376076 0.040282223 -0.059698332 0.036574084
000150 b5 6f 5d bd bc 9b 7a 3c ad d4 7c bd 1a 9a 89 3d
       -0.05406161 0.015295919 -0.06172626 0.06718846
000160 dd 8f 0c bd b6 8d 7e bd 4a f6 0f bd fb 48 9f 3d
       -0.034316886 -0.062146865 -0.03514699 0.07777592
000170 b5 28 56 3d 24 e6 7c 3d b7 73 01 3d be 7e 40 bd
       0.052284915 0.061742917 0.031604495 -0.04699587
000180 f0 f0 f8 bc ef 6a d3 3b b2 f2 8a 3c 09 d8 ab 3c
       -0.030388325 0.0064519565 0.01696143 0.020977037
000190 52 eb 6e 3d 5a 95 a3 3b 26 10 9e 3d 4d 58 22 bd
       0.058329888 0.0049921693 0.07717924 -0.03963499
0001a0 3d 2c dc bc fc 30 e1 3d c3 78 e9 3c ff 81 52 bc
       -0.026876563 0.10995671 0.028499966 -0.012848376
0001b0 87 23 8c 3c 61 99 b2 bc 4e 60 84 bd 03 01 7a 3c
       0.017106785 -0.021801652 -0.06463681 0.01525903
0001c0 be 3e 9e bc 29 10 82 3d 9e 35 52 bb ed 6c 58 3d
       -0.019317027 0.063507386 -0.0032075415 0.052838255
0001d0 ba 0b 87 bd 2c 88 89 3c 05 d3 d5 3c d3 de 76 bd
       -0.065940335 0.016788565 0.026101599 -0.060271095
0001e0 79 18 a9 bc e9 56 1a b7 c2 70 9c bc 2c 01 d8 3d
       -0.020641552 -9.199351e-06 -0.019096736 0.105470985
0001f0 fe 67 87 3d 46 b8 5e bc e4 b2 c3 3d b4 cb 56 3d
       0.06611632 -0.013593739 0.09555605 0.05244036
000200 06 c4 3c 3d e5 3f 86 3d 68 d3 c2 bc b4 65 78 bd
       0.04608538 0.06555156 -0.023782447 -0.060643867
000210 59 99 41 3d c7 1a 1d 3c 45 5c 02 bc 3b fa 26 bd
       0.047265384 0.009588904 -0.007956569 -0.040765982
000220 d1 2e 3a bd 83 21 7a 3d 68 85 ad 3c 09 a6 9d 3b
       -0.045454804 0.061067116 0.021181777 0.0048110527
000230 13 53 35 3b a1 67 0d bd 8e 7e 39 3d 4e 60 2f bd
       0.0027667924 -0.034522656 0.045286708 -0.042816453
000240 e6 e0 82 bd 68 2a 4d bc 32 14 f2 3c 75 bb 1a 3d
       -0.06390552 -0.0125223175 0.029550646 0.03777643
000250 41 b8 80 3c ce dc ea bc 50 e0 9a bc 97 ed d9 bc
       0.01571286 -0.028669741 -0.018905789 -0.02660255
000260 3d 96 87 3d fa ce 75 bd d6 ff d8 3c 45 1c 95 bc
       0.066204526 -0.06001184 0.02648918 -0.018201957
000270 05 23 3d bd 27 ae 71 bd 4b 54 be bc 80 2a 0c 3d
       -0.046175975 -0.059003975 -0.023233553 0.03422022
000280 7b 79 07 3d 6a e5 29 3b 77 9e 8e bd 47 4c 13 bd
       0.033074837 0.0025924095 -0.069638185 -0.035961416
000290 9e ed 0d 3d 52 19 d3 3d 96 72 07 3d 53 0c a6 3d
       0.034650438 0.10307564 0.033068262 0.081078194
0002a0 cd 13 d0 3a 49 9a 9e b8 42 f0 89 bd 29 37 ae 3d
       0.0015875042 -7.562765e-05 -0.06735279 0.08506615
0002b0 f9 9f 6f bc 6f 51 87 bd fd 22 12 3c df 78 98 bd
       -0.014625543 -0.06607329 0.008919475 -0.07444929
0002c0 f9 13 3a bc da e3 6d 3d 99 13 aa bc c7 8f a4 3c
       -0.011357301 0.058078624 -0.020761298 0.02008809
0002d0 75 8d c3 3d ce 91 53 3b 3a 3e ff bc 95 49 37 3d
       0.09548465 0.0032282951 -0.031157602 0.044747908
0002e0 d5 ab 96 bd fc 7f 13 3d 97 87 7b 3d f0 be 5b bd
       -0.07356993 0.036010727 0.061408605 -0.05364889
0002f0 bc fc 83 bd a5 8a 45 3c fe cb f9 bc f0 72 d0 3c
       -0.0644469 0.012056981 -0.030492779 0.025445431
000300 02 a6 18 bd db 97 72 3d 10 e0 a0 3c 04 d7 ba bc
       -0.037267692 0.059226852 0.019638091 -0.022807606
000310 e2 d4 0f bd ec 25 5e bd 24 a0 c8 3c db 68 a8 bd
       -0.03511513 -0.054235384 0.024490424 -0.082231246
000320 91 26 26 bd 94 3d 0b 3d 21 7a 80 3d 82 74 96 3d
       -0.040564124 0.033994272 0.06273294 0.07346441
000330 27 af f5 3c 80 05 70 bc 0a 39 57 3d 02 bc e9 bc
       0.029990746 -0.014649749 0.05254463 -0.028532032
000340 b3 2c 22 3d 56 db 59 3c dc c8 dd 3c fb 27 c7 3c
       0.03959341 0.013296923 0.027073316 0.024311056
000350 ed c0 e0 bc 69 b2 a0 3c 28 b1 04 3d f7 c4 e5 3c
       -0.027435744 0.019616323 0.032395512 0.028048022
000360 3d 22 20 3d 52 5b 14 3c 4b 26 d9 39 2b 4e b9 3c
       0.039095152 0.009054976 0.00041417996 0.022620281
000370 bc 91 bb 3c 4f 6f 72 3d 46 e0 93 bc 46 18 a1 3d
       0.02289664 0.059188183 -0.018051278 0.07865958
000380 6a 11 f9 3c 21 f9 99 bd 23 3d 7e 3d a7 8d a6 3d
       0.030403811 -0.07518221 0.062070023 0.08132487
000390 dc 8a a7 3b 26 50 b2 bc 31 e2 8d bd 62 54 18 bc
       0.005112989 -0.021766733 -0.06927908 -0.009297462
0003a0 a4 f6 59 3c c6 4b 8c 3d c2 eb b7 bb d3 27 46 bb
       0.013303433 0.0685039 -0.0056128213 -0.003023614
0003b0 03 72 c5 3b da ae 50 3d 03 4f 2b bc 62 80 ae 3d
       0.006025554 0.050948 -0.01045585 0.08520581
0003c0 f3 ee 80 3c d6 16 60 3c d0 f2 55 bd 1a f7 d4 ba
       0.01573894 0.0136773195 -0.052233517 -0.0016247958
0003d0 53 04 47 3d f6 d6 35 bd 11 b0 22 bd a8 0d ba 3c
       0.04858811 -0.044394456 -0.03971869 0.02271159
0003e0 de db 4e bd 47 93 73 3d ba 1f 9c bd 1e 87 00 bc
       -0.05050265 0.059466626 -0.07623239 -0.007844714
0003f0 43 5b 48 3c a7 03 82 bc 0a 6d 9c 3c 1a d7 8c 3d
       0.01222879 -0.015870882 0.019094963 0.06876965

deconv3.0.bias f4 [8]
000000 ff 57 cc 3a aa ab 7e 3d 92 90 98 3d f7 ce c8 bc
       0.001559019 0.06217543 0.074494496 -0.024512751
000010 76 05 5a 3d 3c 45 95 3b 9a 4e 4b 3d 59 07 12 bd
       0.053227864 0.0045553725 0.049635507 -0.03565154

deconv3.1.weight f4 [8]
000000 27 c0 8d 3f db aa 8e 3f 3c 2c 8f 3f 98 30 8d 3f
       1.1074265 1.1145891 1.1185374 1.1030455
000010 fb ab 8f 3f e5 12 8d 3f da 3e 8f 3f 6f 09 90 3f
       1.1224359 1.1021391 1.1191056 1.1252879

deconv3.1.bias f4 [8]
000000 99 67 db 3d a9 40 e4 3d ef a2 f3 3d c8 cd cc 3d
       0.10713119 0.111451454 0.118963115 0.10000187
000010 a4 cd f7 3d 2c 1c cd 3d 8b 98 f4 3d 0a e9 fe 3d
       0.1209977 0.10015139 0.11943158 0.124467924

deconv3.1.running_mean f4 [8]
000000 aa 48 69 3b d9 35 75 bd 30 df 34 3d dc 47 30 bd
       0.003559629 -0.059865806 0.04415816 -0.04303728
000010 e4 04 39 3e 9b ac 35 3d 2d 60 8d 3d 15 0a 85 bd
       0.18068272 0.044354063 0.0690311 -0.064960636

deconv3.1.running_var f4 [8]
000000 23 ac 13 3e 6e 2a 36 3e b9 f8 33 3e 05 3c 23 3e
       0.14421134 0.17789623 0.17575349 0.15940864
000010 b8 90 6f 3e 53 e7 4e 3e 15 03 3b 3e a1 69 65 3e
       0.2339505 0.2020543 0.18262894 0.22403575
