Pix2Pix/checkpoints/pix2pix_model_epoch_170.pth (torch, 99191 bytes, 32 tensors)

conv1.0.weight f4 [8, 3, 4, 4]
0	0x3df97569	0.12180597
1	0x3de555b1	0.11197985
2	0xbdaf97f3	-0.08573904
3	0x3e17d39c	0.14826816
4	0x3d8af113	0.067842625
5	0x3b63e4fc	0.0034773936
6	0xbd8f144d	-0.06986294
7	0x3de51ffb	0.111877404
8	0xbdd3142a	-0.1030658
9	0xbd05fadc	-0.03270994
10	0x3a0b0657	0.0005303374
11	0xbcccc8a4	-0.024998017
12	0x3def0253	0.11670365
13	0x3db7b397	0.08969801
14	0xbe0a28aa	-0.13492075
15	0xbe0e5440	-0.13899326
16	0xbd4a4afc	-0.049387917
17	0x3db340d9	0.08752603
18	0x3c6db70c	0.014508974
19	0x3e2b9932	0.16757658
20	0xbd5d408c	-0.054016635
21	0xbd3bf31b	-0.04588614
22	0x3e3d4218	0.18482244
23	0xbd8c1eb6	-0.06841795
24	0xbe12756d	-0.14302607
25	0xbe0048fe	-0.12527844
26	0xbdbcaacd	-0.09212265
27	0xbdfe2466	-0.12409286
28	0xbdb8b6cf	-0.09019243
29	0x3c03944c	0.008030962
30	0x3df76f54	0.12081781
31	0xbda4db7b	-0.08049675
32	0x3d911c2c	0.070854515
33	0x3df5ad31	0.11995924
34	0xbd8eaec6	-0.06966929
35	0xbdd83c8f	-0.10558426
36	0xbd8036aa	-0.06260426
37	0xbba94bd3	-0.0051665097
38	0x3e069113	0.13141279
39	0xbc96b79e	-0.018398102
40	0xbd90b285	-0.070653
41	0xbddb69ea	-0.10713561
42	0xbe0f3976	-0.13986763
43	0x3cb6b284	0.02230192
44	0x3df06857	0.11738651
45	0xbdaac642	-0.08338596
46	0x3e22502d	0.15850897
47	0x3c843b4a	0.016141552
48	0x3c2c9b12	0.0105350185
49	0x3c985337	0.018594367
50	0xbd8618b2	-0.06547679
51	0x3e0c37f3	0.13693218
52	0x3e025511	0.12727763
53	0x3d992561	0.074778326
54	0x3ddf1110	0.10891926
55	0x3c610f36	0.013736537
56	0x3c43b290	0.011944428
57	0xbd8fb5d5	-0.070171036
58	0xbdb9e8b5	-0.090775885
59	0x3dd50460	0.10401225
60	0xbd6dd033	-0.058059882
61	0x3d48683e	0.048927538
62	0xbd7b1f9e	-0.06130945
63	0x3e16bf32	0.14721373
64	0xbcb5e64e	-0.022204544
65	0xbd74ef94	-0.059798792
66	0x3e02b891	0.12765719
67	0xbdfde35c	-0.12396881
68	0xbd4ed39e	-0.050494783
69	0xbde67781	-0.11253262
70	0x3d5935b1	0.05302972
71	0xbd24820f	-0.040163096
72	0xba7a2f91	-0.0009543831
73	0x3d5c0be0	0.053722262
74	0x3d5f76bd	0.054556597
75	0x3de5c52a	0.11219247
76	0x3d69b724	0.057059422
77	0xbe004d66	-0.12529525
78	0xbde2cfb5	-0.11074773
79	0x3d463311	0.048388544
80	0x3d23ea63	0.04001845
81	0x3da368e8	0.07978994
82	0xbe011230	-0.12604594
83	0xbe0e74f5	-0.13911803
84	0x3dd095d7	0.1018483
85	0xbd9a0ec4	-0.075223476
86	0xbcb2646d	-0.021776402
87	0xbd938ee4	-0.072049886
88	0xbd32f8bc	-0.043694243
89	0xbdcae4e6	-0.0990694
90	0xbdf974ac	-0.121804565
91	0x3d511fe5	0.051055808
92	0xbd479c2b	-0.048732918
93	0xbd2fbb59	-0.042903278
94	0xbdf89b04	-0.12138942
95	0x3d1f8ac4	0.038950697
96	0x3da981a6	0.082766816
97	0xbdb48556	-0.08814494
98	0x3cac1c1a	0.021009494
99	0x3e1e3cd3	0.1545289
100	0xbe0792fc	-0.13239664
101	0xbdc10f32	-0.094267264
102	0xbd9dd657	-0.07706898
103	0x3d5d1a80	0.05398035
104	0xbe07b65f	-0.13253163
105	0xbdc6ef8d	-0.097136594
106	0x3bf34c43	0.0074248626
107	0xbc9e5225	-0.019326279
108	0x3ddf553c	0.10904929
109	0xbdcc0eb4	-0.09963742
110	0x3d64549f	0.055744763
111	0x3dfbce6d	0.12295232
112	0x3dde0d33	0.10842361
113	0xbe108c2a	-0.14115968
114	0x3d7f6029	0.062347565
115	0xbdd1d62f	-0.102459304
116	0x3de72a52	0.11287369
117	0xbd997434	-0.07492867
118	0x3bb89ce1	0.005633936
119	0x3e154539	0.14577188
120	0xbddeabbc	-0.108725995
121	0xbaa25a9c	-0.0012386623
122	0x3cc93085	0.024559269
123	0x3e12bab4	0.14329034
124	0x3dceeef9	0.10104174
125	0xbcd7b056	-0.0263292
126	0xbcc82402	-0.024431232
127	0x3dd0d2f2	0.101964846
128	0x3bca67ac	0.0061769094
129	0x3cfbda08	0.030743614
130	0xbe187921	-0.14889957
131	0x3d1b671d	0.037940133
132	0x3d8790fc	0.066194504
133	0xbddf7827	-0.10911589
134	0x3e052edd	0.13006158
135	0xbd13edb5	-0.036115367
136	0x3dda8c12	0.106712475
137	0xbcd0d93f	-0.025494216
138	0x3d85e3fe	0.06537627
139	0x3db1d9ae	0.08684097
140	0xbdd945c2	-0.10609008
141	0xbddaaf67	-0.106779866
142	0xbe0d5bc6	-0.1380454
143	0xbd4fea3d	-0.050760496
144	0xbd204b72	-0.03913445
145	0x3c8eb769	0.017421441
146	0xbcafc8bb	-0.02145802
147	0xbd84b923	-0.064806245
148	0xbdfc31db	-0.12314197
149	0xbe024839	-0.12722863
150	0x3d82e12c	0.063906044
151	0x3dfccd79	0.12343878
152	0x3da777f6	0.081771776
153	0x3d413757	0.047171917
154	0x3c05f2de	0.00817558
155	0x3debc6fc	0.11512563
156	0x3da19e69	0.078915425
157	0xbdc30848	-0.09523064
158	0x3dbe82de	0.09302305
159	0xbd9a510d	-0.075349905
160	0xbc99be73	-0.018767571
161	0x3db7616c	0.089541286
162	0xbe17fdff	-0.14842986
163	0xbd952dbd	-0.072841145
164	0xbd9828c5	-0.07429651
165	0x3d046eb6	0.032332145
166	0xbe124545	-0.14284237
167	0xbda59bae	-0.08086334
168	0x3c3749bf	0.011187016
169	0x3a8fafb6	0.00109624
170	0xbc635228	-0.013874568
171	0xbd6e3e47	-0.05816486
172	0x3d603ba5	0.05474438
173	0x3e39e06a	0.18152013
174	0x3dc0242b	0.093818985
175	0x3d01dac1	0.03170276
176	0xbe0c7f43	-0.13720421
177	0x3d8abe2d	0.067745544
178	0x3bf0ed14	0.0073524807
179	0x3d375451	0.044758145
180	0xbcc730fa	-0.024315346
181	0x3db47d25	0.08812932
182	0x3c76e947	0.015070266
183	0x3de9ac93	0.11409869
184	0x3e113503	0.14180379
185	0x3d4e1a30	0.050317943
186	0x3c827472	0.015924666
187	0x3d7e88c7	0.06214216
188	0x3e134c3e	0.14384553
189	0xbd80cd58	-0.06289166
190	0x3da575ce	0.0807911
191	0x3dd4a8d8	0.10383767
192	0x3e5208da	0.20511189
193	0x3e454ac3	0.192668
194	0x3e37c9c2	0.17948058
195	0xbc9e1198	-0.019295499
196	0x3d55803b	0.052124243
197	0x3d96335b	0.07334014
198	0xbde9e477	-0.11420529
199	0x3d7128ca	0.05887679
200	0x3dc91778	0.098189294
201	0xbd9563e5	-0.07294444
202	0xbcb382b4	-0.02191291
203	0xbc37b83b	-0.011213358
204	0x3d87fcc4	0.06640008
205	0xbe01c42c	-0.1267249
206	0x3d3408e4	0.04395379
207	0xbb88e7d7	-0.004178028
208	0x3d7ca87a	0.06168411
209	0xbc9dedfd	-0.01927852
210	0x3e02b4e5	0.12764318
211	0xbdf390df	-0.11892866
212	0xbdda80b5	-0.1066908
213	0xbd35aec8	-0.044356138
214	0x3c94d6ad	0.018168772
215	0x3d90879c	0.070571154
216	0x3e16d2a4	0.1472879
217	0xbd9b091d	-0.075700976
218	0xbdce368a	-0.10068996
219	0xbde75a2c	-0.11296496
220	0xbdce0d53	-0.10061135
221	0x3dfc1ac0	0.1230979
222	0x3d4f7ca8	0.05065599
223	0x3d8a81ce	0.067630395
224	0x3e0f61fa	0.14002219
225	0x3d76993d	0.060204733
226	0xbdc27ece	-0.09496842
227	0x3d405748	0.046958238
228	0xbdde7d3a	-0.10863729
229	0x3b0a876d	0.002113785
230	0x3da96154	0.08270517
231	0x3cf5fabc	0.030026786
232	0xbcac910f	-0.021065263
233	0x3bdaa974	0.0066730324
234	0x3d4b8b28	0.049693257
235	0x3de49f26	0.11163168
236	0xbe02d9e4	-0.12778431
237	0x3b29c168	0.0025902633
238	0x3d90f908	0.07078749
239	0xbcda142a	-0.026620943
240	0x3e0438c9	0.12912287
241	0xbb527aca	-0.0032116645
242	0x3b149429	0.0022671318
243	0x3d214f87	0.039382484
244	0xbc72352d	-0.014783186
245	0x3e126cb9	0.14299287
246	0x3d25bd00	0.040463448
247	0x3d0c94c0	0.034321547
248	0xbd57b361	-0.052661303
249	0xbcf91c5b	-0.030409029
250	0xbdd78851	-0.10524047
251	0xbd0cc824	-0.034370556
252	0x3dacf613	0.084453724
253	0xbd8c7639	-0.06858487
254	0x3d9043dd	0.07044194
255	0xbdfb4fc4	-0.122710735

conv1.0.bias f4 [8]
0	0xbd7f087f	-0.062263962
1	0xbdeb82d7	-0.11499565
2	0x3dd801d4	0.10547224
3	0xbda5254b	-0.08063754
4	0x3e0cbf78	0.13744915
5	0xbdc56c12	-0.096397534
6	0x3ddde29f	0.1083424
7	0x3d3e1ee3	0.046416175

conv1.1.weight f4 [8]
0	0x3f7f563f	0.99740976
1	0x3f7d15a2	0.98861134
2	0x3f802d0f	1.0013751
3	0x3f823bfe	1.0174558
4	0x3f80f1e5	1.007382
5	0x3f826610	1.0187397
6	0x3f817979	1.0115196
7	0x3f7aad89	0.97921044

conv1.1.bias f4 [8]
0	0xbc80d92e	-0.01572856
1	0xbc24b241	-0.010052265
2	0xbda8e1e9	-0.08246214
3	0x3d995f8b	0.074889265
4	0xbd174958	-0.03693518
5	0x3d1b1132	0.037858196
6	0x3d0ed98c	0.034875438
7	0x3ba23d71	0.004951172

conv1.1.running_mean f4 [8]
0	0xbd82e4a7	-0.06391268
1	0xbe1718de	-0.1475558
2	0x3ddd2570	0.10798156
3	0xbded0a04	-0.11574176
4	0x3d0e38bf	0.034722086
5	0xbde42790	-0.111403584
6	0x3e4b2530	0.19838405
7	0x3d404f52	0.046950646

conv1.1.running_var f4 [8]
0	0x3cdd358a	0.027003068
1	0x3d1e0607	0.038579967
2	0x3c8a8bc9	0.016912358
3	0x3deb04ae	0.11475502
4	0x3dfb660c	0.12275323
5	0x3cedec93	0.029043471
6	0x3dda6f19	0.106657214
7	0x3c37ca3e	0.011217652

conv2.0.weight f4 [16, 8, 4, 4]
0	0x3d4e0a59	0.050302837
1	0x3cb427b8	0.021991596
2	0xbdb33bcc	-0.0875164
3	0xbd823ef5	-0.06359664
4	0x3d25ce1e	0.04047977
5	0x3d40a623	0.04703344
6	0xbd064305	-0.03277876
7	0x3d1b5a43	0.037927877
8	0xbc75c544	-0.015000645
9	0xbcea15ff	-0.028574942
10	0x3d8a1eb4	0.067441374
11	0x3d8d8121	0.06909395
12	0xbd3fd1fe	-0.046831124
13	0x3d3519ad	0.04421394
14	0x3cf0666d	0.029345715
15	0x3da98593	0.082774304
16	0x3d407c4a	0.04699353
17	0x3c930cd7	0.017950458
18	0x3ddce8eb	0.10786613
19	0x3dac29a5	0.084063806
20	0xbd0e75d2	-0.03478033
21	0x3cb2decf	0.021834759
22	0xbd0a650e	-0.03378778
23	0x3d39851e	0.045292966
24	0x3da2191d	0.07914946
25	0xbcc5ce0b	-0.0241461
26	0xbcbacd90	-0.022803098
27	0x3aad0d67	0.0013202847
28	0xbcc172ac	-0.02361425
29	0x3d63289c	0.05545865
30	0x3e14567a	0.14486113
31	0x3e0735e5	0.13204153
32	0xbd190264	-0.037355796
33	0xbd317d2e	-0.04333227
34	0xbcecb601	-0.02889538
35	0xbc875093	-0.016517913
36	0x3d7662ac	0.060152695
37	0x3cf86080	0.030319452
38	0xbaa1d03b	-0.0012345383
39	0x3da11a3c	0.07866332
40	0xb9338467	-0.00017120094
41	0x3d279e04	0.04092218
42	0x3dbc28be	0.091874585
43	0xbd182a1b	-0.03714953
44	0x3cbd0891	0.023075374
45	0x3cb46ae4	0.022023626
46	0xbd2eaa91	-0.042643134
47	0xbce9773d	-0.02849924
48	0xbd1bd114	-0.03804119
49	0xbd379003	-0.044815075
50	0x3ccc7a15	0.024960557
51	0xbc540afa	-0.01294207
52	0xbd2aae68	-0.041670233
53	0xbd8aca8b	-0.06776913
54	0x3dac9a64	0.08427885
55	0x3be158d3	0.0068770438
56	0x3d42dc6e	0.0475735
57	0x3cc9e139	0.024643527
58	0x3d1add79	0.03780887
59	0x3c136a19	0.008997464
60	0xbd7c14c7	-0.061543252
61	0x3d9b6276	0.07587139
62	0xbd6b5c2c	-0.05746095
63	0x3b11cab9	0.0022246076
64	0x3b29965e	0.002587698
65	0x3d886cd5	0.06661383
66	0xbcdce397	-0.026963992
67	0x3d91f74b	0.071272455
68	0xbd2fc901	-0.0429163
69	0xbc761b98	-0.015021227
70	0x3cbc2279	0.022965657
71	0x3db648b8	0.08900589
72	0x3d7ef344	0.062243715
73	0x3da290c8	0.07937771
74	0xbc719378	-0.014744632
75	0x3df0ac3a	0.117515996
76	0x3d9ae9b3	0.07564106
77	0x3dcecd7d	0.100977875
78	0x3db1e626	0.086864755
79	0x3ca55ac1	0.020184876
80	0xbc866f01	-0.016410353
81	0xbc9c9562	-0.0191142
82	0x3d7422ee	0.059603624
83	0x3d3c8a90	0.04603058
84	0x3d1eed0e	0.03880029
85	0xbc95330b	-0.018212816
86	0x3c6587ae	0.014009399
87	0x3a3af113	0.000713126
88	0x3d2e2c44	0.042522684
89	0xbd7dbdd9	-0.06194863
90	0xbd4132e0	-0.04716766
91	0x3cfcd77a	0.030864466
92	0x3d252aa4	0.04032387
93	0x3c427a47	0.0118699735
94	0xbd30835a	-0.043094017
95	0xbd1019a6	-0.03518071
96	0xbd87dd92	-0.06634058
97	0x3d3dd1df	0.046342727
98	0x3cfd9bed	0.03095814
99	0x3ceb3257	0.028710527
100	0x3d81fb56	0.06346767
101	0xbcf9d2ae	-0.030495968
102	0x3b2da2d1	0.0026494751
103	0xbd1f2ff6	-0.0388641
104	0x3d24bac3	0.040217172
105	0xbd1a078b	-0.03760485
106	0x3dc4e39e	0.09613727
107	0xbbc45b2a	-0.005992313
108	0x3d2094ee	0.03920453
109	0x3d87e7da	0.06636019
110	0xbc942874	-0.018085696
111	0x3cc908c0	0.024540305
112	0xbcdd9d7b	-0.027052632
113	0x3d0b2283	0.03396846
114	0xbd805c0e	-0.06267558
115	0x3d80868b	0.06275662
116	0xbd9a7041	-0.07540942
117	0x3d0aead0	0.03391534
118	0x3c8f0418	0.017458007
119	0x39b32645	0.00034170054
120	0xbcc2faad	-0.023801172
121	0x3da8beb9	0.082395025
122	0xbd04e8c3	-0.03244854
123	0xbd167645	-0.036733884
124	0xbc1e9d22	-0.009681018
125	0x3d3b8280	0.04577875
126	0xbcd65660	-0.026164234
127	0x3d58fd19	0.052975748
128	0xbd0d20fe	-0.034455292
129	0xbccec86b	-0.025242051
130	0x3d503006	0.05082705
131	0x3d6a4005	0.05718996
132	0xbd777d17	-0.06042203
133	0x3ce1d0f0	0.02756545
134	0xbd038985	-0.03211357
135	0xbdba6e73	-0.09103098
136	0x3d7a5aae	0.061121635
137	0x3c73ac6e	0.014872653
138	0x3d5d0985	0.053964157
139	0xbcaa7291	-0.020806583
140	0xbdb11f9c	-0.08648607
141	0x3d2bfbfc	0.041988358
142	0xbce3fc4e	-0.02783027
143	0xbc90ec09	-0.017690675
144	0xba21b43a	-0.00061685184
145	0x3d9532e2	0.07285096
146	0xbcfcd5af	-0.030863611
147	0x3cffc59f	0.031222163
148	0x3cd432b3	0.025903082
149	0x3c8557bf	0.016277192
150	0xbd30d24b	-0.0431693
151	0x3cab15a9	0.020884352
152	0x3d667e34	0.0562727
153	0x3d59cfb1	0.053176586
154	0x3d50fb11	0.051020686
155	0x3c9e0291	0.019288333
156	0xbd3cc886	-0.04608967
157	0xbc9e60cb	-0.019333264
158	0x3c9cec6a	0.0191557
159	0x3d05974e	0.032615
160	0x3da7c015	0.081909336
161	0x3d8a622d	0.06757007
162	0xba6a4068	-0.0008935989
163	0x3cb3e3aa	0.021959145
164	0xbd51552a	-0.05110661
165	0xbdb4c5fd	-0.08826826
166	0xbdd47756	-0.10374324
167	0xbd9320b0	-0.07183969
168	0xbe06d6db	-0.13167898
169	0xbbf7a39d	-0.007557346
170	0xbc028702	-0.007966759
171	0xbdd23960	-0.1026485
172	0x3cad2e52	0.021140251
173	0x3bb5080f	0.0055246423
174	0xbc8dd66f	-0.017314164
175	0x3bc57483	0.006025852
176	0x3dc2aac1	0.09505225
177	0x3bc703b4	0.0060734395
178	0x3dad2b5b	0.08455535
179	0xbc7b704a	-0.015346596
180	0xbcaf94e7	-0.021433307
181	0xbd45609b	-0.048187833
182	0xbca3aca7	-0.019979788
183	0x3d6635d1	0.056203667
184	0xbd4e64a5	-0.05038895
185	0xbdae3dd2	-0.08507885
186	0x3c84775c	0.016170196
187	0x3ce4a888	0.027912393
188	0x3d9ade17	0.075618915
189	0xbd117c30	-0.035518825
190	0x3d55e000	0.052215576
191	0x3c0808bf	0.0083028665
192	0x3c5e5f4d	0.013572526
193	0xbb98437a	-0.0046467157
194	0x3bbae027	0.0057029906
195	0x3c78caa9	0.015185037
196	0x3d23706f	0.039902147
197	0x3c6b4fa5	0.01436225
198	0xbd33f63e	-0.043936007
199	0x3d19748b	0.03746466
200	0x3d622d5f	0.05521905
201	0x3d841f10	0.06451237
202	0xbcf329b3	-0.02968297
203	0xbd8a5081	-0.06753636
204	0xbd887ef5	-0.0666484
205	0x3c9e3698	0.019313142
206	0xbd9815e8	-0.07426053
207	0x3ca9f67c	0.020747416
208	0xbc158ff1	-0.009128557
209	0x3dd651f3	0.10464849
210	0x3d7672b7	0.060167994
211	0x3d754d95	0.05988844
212	0xbd640d91	-0.055677
213	0x3db78d33	0.089624785
214	0x3dc04d84	0.09389785
215	0x3dc3ddb3	0.0956377
216	0x3cbe9e8a	0.023268957
217	0xbd56c37e	-0.05243253
218	0xbd358fa8	-0.044326454
219	0x3d6d962f	0.058004554
220	0xbdbf9a07	-0.0935555
221	0xbde77513	-0.11301627
222	0xbdf892a2	-0.12137343
223	0xbce75c94	-0.028242387
224	0x3d91b5d9	0.07114763
225	0x3cccda37	0.025006397
226	0xbd85502d	-0.06509433
227	0x3d005031	0.031326476
228	0xbd0d3a71	-0.034479562
229	0xbbc9bb05	-0.0061563277
230	0x3d24251d	0.040074456
231	0xbc92b46c	-0.017908297
232	0xbc36c365	-0.011154984
233	0xbac93b40	-0.0015352741
234	0xbd701918	-0.05861768
235	0x3d83152d	0.06400523
236	0x3daba073	0.08380213
237	0x3d26ed4d	0.04075365
238	0xbcb1f4e5	-0.02172322
239	0x3c94c8e7	0.018162204
240	0x3d0b25ff	0.033971783
241	0x3d6e577f	0.05818891
242	0x3dc1de4a	0.094662264
243	0xba09b4ef	-0.00052530965
244	0x3d39667c	0.045263752
245	0xbc2df850	-0.010618284
246	0x3db3d24f	0.087803476
247	0x3d46a9d9	0.048501823
248	0x3cd8b854	0.026455082
249	0x3888fbaf	6.531865e-05
250	0xbd5fe78c	-0.05466418
251	0xbcafc45c	-0.021455936
252	0xbdc6f591	-0.09714807
253	0xbd6f5969	-0.058434878
254	0xbd327b44	-0.043574587
255	0xbd7d186d	-0.061790872

conv2.0.bias f4 [16]
0	0x3d3c6347	0.045993116
1	0x3d43b1cd	0.047776986
2	0xbd922edd	-0.07137845
3	0x3d462423	0.048374306
4	0x3d68f6f1	0.056876127
5	0xbd922f4f	-0.0713793
6	0x3d6b7906	0.057488464
7	0xbce79f59	-0.028274225
8	0x3d106bf7	0.035259213
9	0x3bd46844	0.006482156
10	0x3cd2ce55	0.025733152
11	0x3d1cd4e3	0.038288962
12	0xbd8f6495	-0.070016064
13	0x3da2453a	0.0792336
14	0xbd4148dd	-0.04718863
15	0x3d60ebe3	0.05491246

conv2.1.weight f4 [16]
0	0x3f8057be	1.0026777
1	0x3f7de25d	0.9917353
2	0x3f88b493	1.0680107
3	0x3f7e8ef6	0.9943689
4	0x3f8640e3	1.0488552
5	0x3f7cd3fe	0.98760974
6	0x3f869132	1.051306
7	0x3f7c4a5f	0.9855098
8	0x3f7ae501	0.9800568
9	0x3f7f75a8	0.99788904
10	0x3f7f6f5a	0.99779284
11	0x3f7cdb43	0.98772067
12	0x3f848bb1	1.035513
13	0x3f7bb8b3	0.98328704
14	0x3f801b3e	1.0008314
15	0x3f7bd479	0.9837108

conv2.1.bias f4 [16]
0	0xbdcac516	-0.099008724
1	0xbbc58d24	-0.006028788
2	0xbad4adbb	-0.0016226092
3	0x3d066cdf	0.03281867
4	0x3d8721fd	0.065982796
5	0xbc746174	-0.014915813
6	0x3d08dc16	0.033413015
7	0x3cab180c	0.02088549
8	0x3c454fbc	0.012042936
9	0x3d31cdb7	0.043409076
10	0xbcfbdd76	-0.03074525
11	0xbbbebad7	-0.005820613
12	0x3d29e783	0.041480552
13	0x3c77b9fa	0.015120024
14	0x3ce4d2be	0.027932521
15	0xbc77c6e0	-0.015123099

conv2.1.running_mean f4 [16]
0	0x3f3cf2ba	0.7380787
1	0x3e510f7b	0.20416062
2	0xbf072b19	-0.52800137
3	0xbf0b2c05	-0.54364043
4	0xbe8808ee	-0.26569313
5	0xbc3d4929	-0.011553087
6	0xbf029f8c	-0.510247
7	0xbd50a264	-0.050936118
8	0x3e43f39e	0.19135901
9	0x3d03ae82	0.032148845
10	0x3e8a49ab	0.2700933
11	0x3e71da89	0.23618521
12	0xbc9207d0	-0.01782599
13	0x3e80176b	0.25017866
14	0xbf0dfdf7	-0.55465645
15	0x3eb248c3	0.34821138

conv2.1.running_var f4 [16]
0	0x3e5169bb	0.20450489
1	0x3ea1f0de	0.3162908
2	0x3e80e793	0.25176677
3	0x3e5192ef	0.20466207
4	0x3dec3e73	0.11535349
5	0x3e272e57	0.16326271
6	0x3e9e9126	0.30970114
7	0x3e208ebd	0.1567945
8	0x3e41b335	0.18916018
9	0x3e34513d	0.17609115
10	0x3e7e83b8	0.24854934
11	0x3eea419a	0.45753175
12	0x3de8cf90	0.113677144
13	0x3dc2579e	0.09489368
14	0x3f4e4efe	0.8058928
15	0x3e3b2909	0.18277372

conv3.0.weight f4 [32, 16, 4, 4]
0	0x3d82775d	0.06370423
1	0x3da1461b	0.078747
2	0x3d080f8b	0.033217948
3	0x3da6d3a8	0.08145839
4	0x3d30d392	0.04317052
5	0x3d33f821	0.043937806
6	0x3ce3e7c9	0.027820485
7	0x3d649d07	0.055813815
8	0x3d5f7295	0.054552633
9	0x3dc9f794	0.09861675
10	0x3dbaf850	0.09129393
11	0x3dc3d403	0.095619224
12	0x3d2f87d7	0.042854156
13	0x3ddbd9bf	0.10734891
14	0x3db133b4	0.0865244
15	0x3e04b9d1	0.12961508
16	0xbd1c34c2	-0.03813625
17	0x3d389010	0.045059264
18	0x3ccbb243	0.024865275
19	0xbbe7f2a4	-0.0070784856
20	0x3d1fd28b	0.03901915
21	0x3d87b99a	0.066271976
22	0x3d110d10	0.035412848
23	0xbd04dfcc	-0.03243999
24	0x3d2ae2ca	0.04172019
25	0xbcd0b058	-0.025474712
26	0xbb69597f	-0.0035606322
27	0xbcd5b325	-0.0260864
28	0x3c81d925	0.015850613
29	0xbd148cb5	-0.036267
30	0x3d228a6a	0.039682783
31	0x3926f425	0.00015921945
32	0x3c8d4b9d	0.01724797
33	0xbbe489aa	-0.0069744186
34	0x3d5e2f1d	0.05424415
35	0x3c2d2c19	0.010569596
36	0x3d0b5bb2	0.034022994
37	0x3d1a4585	0.037663955
38	0x3c819a64	0.01582069
39	0xbd085056	-0.03327974
40	0x3d4646c8	0.048407346
41	0x3c535566	0.012898779
42	0x3d188ab6	0.03724166
43	0xbb9cc8b2	-0.004784667
44	0xbd663048	-0.05619839
45	0xbd130a53	-0.035898518
46	0x3becbed0	0.007224895
47	0x3cbd88aa	0.023136456
48	0xbd12b7f2	-0.035819955
49	0x3d144adf	0.036204215
50	0x3aa16e32	0.0012316166
51	0xbbe1be91	-0.0068891724
52	0x3d397503	0.045277607
53	0x3d054271	0.032534067
54	0x3d8c1e2c	0.06841692
55	0x3d10b598	0.03532943
56	0x3cff6a64	0.03117866
57	0x3d79d9a6	0.06099858
58	0x3d5d51bb	0.054033022
59	0xbcb90d1f	-0.022589264
60	0xbd200661	-0.039068583
61	0xbd0ff06b	-0.03514139
62	0x3c941024	0.018074103
63	0x3ca64b40	0.020299554
64	0xbd0fe355	-0.03512891
65	0xbd863d1d	-0.06554625
66	0xbceb6829	-0.02873619
67	0xbcb4dcde	-0.022077974
68	0xbd55ee53	-0.052229237
69	0x3cc3e8fd	0.023914808
70	0x3d82a2c9	0.06378705
71	0x3d4b0cf4	0.0495729
72	0x3b866767	0.004101682
73	0x3bc40d15	0.005983005
74	0x3cb287da	0.021793295
75	0x3cff4a8f	0.031163482
76	0xbd58202e	-0.052765064
77	0x3bf7ad33	0.0075584888
78	0xbc005f03	-0.007835153
79	0xbbe4941c	-0.006975664
80	0x3d208873	0.039192628
81	0x3cab87be	0.02093875
82	0x3db7c904	0.089738876
83	0x3db5c86e	0.088761196
84	0x3d38edd7	0.045148697
85	0xb9e9a015	-0.00044560494
86	0x3c28285f	0.0102635315
87	0x3d03cabe	0.032175772
88	0xbca1f75d	-0.019771272
89	0x3d553bbe	0.052058928
90	0x3cd81087	0.026375068
91	0x3c0bd857	0.008535466
92	0x3c2cdaa6	0.010550177
93	0xbd3d6321	-0.046237115
94	0x3d8a50bc	0.0675368
95	0x3d0bc11b	0.034119707
96	0xbd27cc0f	-0.04096609
97	0xbd19b2d4	-0.03752406
98	0xbd2cbe69	-0.042173777
99	0xbd5835bd	-0.052785624
100	0x3d891549	0.06693513
101	0x3d24f039	0.040268157
102	0x3dd0f70c	0.102033705
103	0x3d850a27	0.06496077
104	0xbca5fcec	-0.020262204
105	0x3d1008b7	0.03516456
106	0x3c49d23f	0.012318193
107	0xbcf4d65c	-0.02988737
108	0xbd4b4ede	-0.04963576
109	0x3d0bec45	0.03416087
110	0x3d1c7cb8	0.03820488
111	0xbaa90ce3	-0.0012897517
112	0xbd121734	-0.03566666
113	0x3ceecfd0	0.029151827
114	0x3c8e7d7d	0.017393822
115	0xbc04d6fe	-0.008107899
116	0x3c51cd97	0.012805364
117	0x3ca9413a	0.020660985
118	0xbc9b8e80	-0.018988848
119	0xbd572cec	-0.052533075
120	0xbb8b8f7b	-0.0042590476
121	0x3d418b65	0.047252078
122	0x3d64ddd4	0.055875614
123	0xbcf38333	-0.029725647
124	0xbca840a2	-0.020538632
125	0xbcd61f6f	-0.026138036
126	0x3bbb4bca	0.005715822
127	0x3d173d98	0.036923975
128	0xb9843e6b	-0.00025223507
129	0x3c5b7503	0.013394597
130	0x3c38e333	0.011284637
131	0x3d057d3f	0.032590147
132	0xbd8f80ed	-0.070070125
133	0x3d021973	0.03176255
134	0x3cb60fa8	0.022224262
135	0x3d26d1bb	0.04072736
136	0xbbc198ef	-0.0059081237
137	0xbd5861bb	-0.052827578
138	0x3d0012f1	0.031268064
139	0x3d5be79c	0.053687677
140	0x3c94e80a	0.018177051
141	0xbc12eab1	-0.008967088
142	0x3c4f21e2	0.012642356
143	0x3ca18c1b	0.019720128
144	0xbd4d3c87	-0.05010655
145	0xbd63cdc4	-0.055616155
146	0xbd731e4f	-0.059355076
147	0xbd049227	-0.032365944
148	0xbb6888ac	-0.0035481853
149	0xbd871ac8	-0.06596905
150	0xbca2d1e4	-0.019875474
151	0xbcaeaf0e	-0.021323707
152	0xbc4b15e8	-0.01239536
153	0x3cf3e7eb	0.029773673
154	0xbd06210d	-0.032746363
155	0xbc44bbc1	-0.012007655
156	0xbc6730e0	-0.014110774
157	0xbd4d7332	-0.050158687
158	0xbd5b4ec8	-0.05354193
159	0xbca847e0	-0.020542085
160	0x3cccdd92	0.025007997
161	0x3cd94e69	0.026526647
162	0x3da9c71c	0.0828993
163	0xbc519d0e	-0.012793792
164	0x3d822fbb	0.0635676
165	0x3d88d759	0.06681699
166	0x3d4d370a	0.050101317
167	0x3ced2a51	0.028950842
168	0x3d12618e	0.035737567
169	0x3d825cb4	0.06365338
170	0x3baaf129	0.005216737
171	0x3cf455a2	0.02982599
172	0x3d663826	0.05620589
173	0x3cce68e2	0.025196496
174	0xbb4c44cf	-0.0031168943
175	0xbc4d776c	-0.012540679
176	0x3c9b5c14	0.018964805
177	0xbd841cd5	-0.06450812
178	0xbd33145d	-0.04372059
179	0xbc916579	-0.017748581
180	0x3c5f26a9	0.013620057
181	0xbd472f97	-0.04862937
182	0x3d309d4d	0.043118764
183	0xb6975f1f	-4.5112242e-06
184	0x3bcbffcc	0.0062255617
185	0x3cfb2dc8	0.030661479
186	0xbcd28537	-0.025698287
187	0xbcc1687b	-0.02360939
188	0x3d2bf13c	0.041978106
189	0x3d20e671	0.039282266
190	0xbd142452	-0.03616745
191	0x3cb8e01b	0.0225678
192	0xbda2312c	-0.07919535
193	0xbd46227c	-0.04837273
194	0xbd8eca78	-0.069722116
195	0xbce3b165	-0.02779455
196	0xbc8c1450	-0.01709953
197	0x3c86006d	0.016357625
198	0xbd81ef92	-0.063445225
199	0xbcdada83	-0.026715523
200	0x3c611688	0.013738282
201	0x39867e55	0.00025652596
202	0x3c0272b2	0.007961916
203	0xbc100dc0	-0.008792341
204	0xbcf832c3	-0.030297643
205	0x3d136726	0.035987042
206	0xbc6e4b21	-0.014544279
207	0x3c8d0419	0.017213868
208	0xbd3afbf6	-0.045650445
209	0x3cc4ace6	0.024008226
210	0x3cfb6201	0.03068638
211	0x3cdd50e0	0.027016103
212	0xbce8dea8	-0.028426483
213	0x3cc9fa4e	0.024655487
214	0x3c8e551f	0.017374573
215	0x3ca0b3de	0.019617017
216	0xbd043a90	-0.032282412
217	0x3ca9d29a	0.020730305
218	0x3ca9d543	0.020731574
219	0x3cda0843	0.026615268
220	0xbad3863a	-0.0016138025
221	0xbca9d772	-0.020732615
222	0x3d1fdd7c	0.039029583
223	0xbceb04b4	-0.028688766
224	0xbce72f86	-0.028220903
225	0xbd0e9fab	-0.03482024
226	0xbd92da31	-0.07170523
227	0xbc424dc9	-0.011859366
228	0x3c268fce	0.010166122
229	0x3b5e1037	0.0033884177
230	0xbd43e7cd	-0.047828484
231	0xbd394e43	-0.04524065
232	0x3c2888ab	0.01028649
233	0x3d02a624	0.031896725
234	0xbd104990	-0.035226405
235	0x3cb1bf61	0.021697702
236	0xbb8d88b9	-0.004319277
237	0x3d5fb0dd	0.05461203
238	0x3d1b6c2b	0.037944954
239	0x3cb1eb63	0.021718686
240	0xbc94586e	-0.018108573
241	0xbc7a9c40	-0.015296042
242	0xbc2e2c61	-0.010630698
243	0xbcf38005	-0.02972413
244	0x3d7c0f65	0.06153812
245	0x3c6c8ba6	0.014437592
246	0xbceea19f	-0.029129801
247	0x3c33a8c6	0.010965532
248	0xbcee0bea	-0.029058415
249	0xbc85a62a	-0.016314585
250	0xbd4460be	-0.047943823
251	0x3cdefb9c	0.027219586
252	0xbbed6df5	-0.007245774
253	0x3c11d0d6	0.008899888
254	0x3cd57ec7	0.026061429
255	0xbc186112	-0.009300487

conv3.0.bias f4 [32]
0	0x3cdeb840	0.027187467
1	0x3cf0d30a	0.029397506
2	0x3c34c0d8	0.011032306
3	0xbbb8eda0	-0.0056435615
4	0xbc6ef03d	-0.014583644
5	0x3c9a9fa0	0.018874943
6	0xbd7e8ea1	-0.06214774
7	0x3c095a54	0.008383352
8	0xbd232727	-0.03983226
9	0x3d2924ba	0.04129479
10	0x3bd49069	0.0064869416
11	0x3c931fc6	0.017959487
12	0x3a6c5a9f	0.0009016189
13	0x3d55cabd	0.0521953
14	0xbd33849d	-0.04382764
15	0xbd4e4599	-0.050359342
16	0xbd5e2fa6	-0.05424466
17	0x3cedd296	0.02903108
18	0xbcadd1e7	-0.021218253
19	0x3d64f3f7	0.055896726
20	0xbd7e81bc	-0.062135443
21	0xbd084621	-0.033270005
22	0x3d2d62ea	0.04233066
23	0x3c9a945b	0.01886957
24	0xbca7ee90	-0.020499498
25	0x3d58da9b	0.052942853
26	0x3c336ba7	0.010950959
27	0x3c74ef50	0.014949635
28	0x3d715895	0.05892237
29	0xbd3ef789	-0.046622787
30	0xbc05f9c7	-0.008177227
31	0x3c5bd820	0.013418227

conv3.1.weight f4 [32]
0	0x3f881582	1.0631564
1	0x3f7f4f4b	0.99730366
2	0x3f81d02e	1.0141656
3	0x3f796f86	0.97435796
4	0x3f7e90d6	0.9943975
5	0x3f81df4c	1.014627
6	0x3f7b83c8	0.9824796
7	0x3f7d5a3b	0.98965806
8	0x3f84aab4	1.0364594
9	0x3f815ee8	1.0107088
10	0x3f80a0bf	1.0049056
11	0x3f7f6db5	0.99776775
12	0x3f77f057	0.96851104
13	0x3f87973e	1.059303
14	0x3f85530e	1.0415971
15	0x3f7d868a	0.99033415
16	0x3f8195d6	1.0123851
17	0x3f7fa31e	0.9985827
18	0x3f7a8eee	0.97874343
19	0x3f80c974	1.0061479
20	0x3f84a411	1.0362569
21	0x3f820ac8	1.015954
22	0x3f79cdc2	0.97579587
23	0x3f7f96a7	0.9983925
24	0x3f77efbd	0.96850187
25	0x3f804398	1.0020628
26	0x3f7b261e	0.9810504
27	0x3f83958a	1.0280011
28	0x3f7dce92	0.99143326
29	0x3f7d1c2d	0.9887112
30	0x3f7fab57	0.9987082
31	0x3f7ee86c	0.995734

conv3.1.bias f4 [32]
0	0xbdc7ee64	-0.09762266
1	0xbc100730	-0.008790776
2	0xbd93dfd1	-0.07220424
3	0xbce8a4a2	-0.028398816
4	0xbbaa0057	-0.005188029
5	0xbc941d70	-0.018080443
6	0xbd14dfd2	-0.036346264
7	0xba6737ab	-0.0008820246
8	0x3cec7024	0.028862067
9	0x3b2866ce	0.0025696042
10	0xbc912d37	-0.017721755
11	0xbce1b594	-0.027552404
12	0x3aa3f1ee	0.0012508014
13	0xbd2f552a	-0.04280583
14	0x3dcfc0ad	0.10144172
15	0xbb59a179	-0.0033207817
16	0x3cca6572	0.024706576
17	0xbc83d047	-0.016090525
18	0xbcf63fce	-0.030059721
19	0xbdd0cc21	-0.101951845
20	0xbd31074c	-0.04321985
21	0xbd288211	-0.041139666
22	0xbbf70d70	-0.0075394437
23	0x3d0eaf60	0.03483522
24	0x3972cfec	0.00023156375
25	0xbc9581ec	-0.018250428
26	0x3b97ee22	0.004636542
27	0x3d16f982	0.036859043
28	0xbc801425	-0.015634606
29	0xbc231201	-0.009953023
30	0xbcf1ee53	-0.029532587
31	0x3c67d760	0.0141504705

conv3.1.running_mean f4 [32]
0	0x3f4719c6	0.777737
1	0x3c9e2bfa	0.019308079
2	0x3ebd2a9c	0.3694657
3	0x3de56424	0.11200741
4	0x3d78b19c	0.060716256
5	0xbf883473	-1.0641006
6	0xbf071cef	-0.52778524
7	0xbdbe9538	-0.09305805
8	0x3cba4ce7	0.022741748
9	0x3f096b72	0.53679574
10	0x3e908b03	0.28231058
11	0xbd99c439	-0.075081296
12	0xbebc7db2	-0.36814648
13	0x3ee036ef	0.4379191
14	0xbf895261	-1.0728265
15	0xbf0702e7	-0.52738804
16	0xbf431444	-0.762028
17	0x3e35a18d	0.17737408
18	0x3dccf175	0.10006992
19	0xbf654cb9	-0.89570194
20	0xbe2ef283	-0.17084698
21	0x3ed6348b	0.41836962
22	0x3e8c97cd	0.27459565
23	0xbec5a44c	-0.3860191
24	0xbf185376	-0.5950235
25	0xbe9f159a	-0.31071168
26	0x3dac371d	0.084089495
27	0xbf2fed1d	-0.6872118
28	0x3e9c0d45	0.30478874
29	0xbeae75e3	-0.34074315
30	0xbed7ac42	-0.4212361
31	0x3eb74abd	0.35799208

conv3.1.running_var f4 [32]
0	0x3f48a6a0	0.7837925
1	0x3e82e239	0.2556322
2	0x3ec3f2af	0.3827109
3	0x3ed89e0f	0.4230809
4	0x3eff5ef7	0.4987714
5	0x3e63bfc6	0.22241125
6	0x3e4b6129	0.19861282
7	0x3e7bf942	0.24606803
8	0x3e4686f9	0.19387425
9	0x3e25383b	0.16134731
10	0x3eaad881	0.33368304
11	0x3e01fb84	0.12693602
12	0x3e558739	0.20852365
13	0x3ef88e7e	0.48546213
14	0x3f197cc1	0.59955984
15	0x3e74aa8d	0.23893185
16	0x3e5c65a7	0.21523152
17	0x3ec55ee1	0.3854895
18	0x3e935ded	0.28782597
19	0x3e7d8766	0.24758682
20	0x3e31bbab	0.17356746
21	0x3ea6753b	0.32511315
22	0x3e593007	0.21209727
23	0x3eb42c79	0.3519018
24	0x3e3a6d15	0.18205674
25	0x3ebd776a	0.37005168
26	0x3e9e67ff	0.30938718
27	0x3eee5ffa	0.465576
28	0x3e0ea1e9	0.13928951
29	0x3e1f40a5	0.15552004
30	0x3e1d3a91	0.15354373
31	0x3ef39c4c	0.47580183

deconv2.0.weight f4 [32, 16, 4, 4]
0	0xbd50a94b	-0.0509427
1	0xbd3143b4	-0.043277457
2	0x3d11ce3b	0.035597067
3	0xbd14eef2	-0.03636069
4	0x3cba602d	0.022750938
5	0xbd72536d	-0.059161592
6	0xbd869acb	-0.06572493
7	0xbd23cb6f	-0.03998893
8	0xbcdc5245	-0.026894698
9	0x3c2b09b5	0.010439326
10	0xbbb08d27	-0.0053879204
11	0x3bd625a3	0.0065352484
12	0xbcf6b7cb	-0.030116936
13	0xbd7bc510	-0.06146723
14	0x3d4e7d6c	0.05041258
15	0x3b3d096f	0.0028844734
16	0xbc37f917	-0.011228821
17	0xbd82c633	-0.0638546
18	0xbcaaea90	-0.020863801
19	0x3d22c8a1	0.039742116
20	0x3d42ed82	0.047589786
21	0x3d54a707	0.051917102
22	0x3d8274a7	0.06369906
23	0x3d424081	0.047424797
24	0xbd1fd34f	-0.03901988
25	0x3d10ca81	0.035349373
26	0x3ace0a61	0.0015719646
27	0xbca50fc2	-0.020149115
28	0x3d0812e0	0.033221126
29	0x3c8043f9	0.015657412
30	0xbd467e18	-0.048460096
31	0x3cacd133	0.021095848
32	0x3d21cc13	0.03950126
33	0xbd742295	-0.059603292
34	0x3cc12336	0.02357636
35	0x3d545956	0.05184301
36	0x3cd7439d	0.026277358
37	0x3d0f3950	0.034966767
38	0xbd22804b	-0.03967313
39	0xbd43817e	-0.047730915
40	0xbb8e3b17	-0.00434054
41	0xbc81b9f7	-0.015835745
42	0x3d885e91	0.06658662
43	0x3d0eb8d9	0.034844253
44	0x3c8b10da	0.016975809
45	0x3c9cb8d4	0.019131102
46	0xbcc77fcf	-0.024352936
47	0xbd92d1c7	-0.07168918
48	0xbd28fed9	-0.041258667
49	0xb802680b	-3.1091313e-05
50	0x3cab8bd8	0.020940706
51	0xbd37d815	-0.044883806
52	0x3b5bd4d9	0.0033543615
53	0xbcfc7628	-0.03081806
54	0x3c003082	0.007824065
55	0xbcc53a90	-0.024075776
56	0x3d8081ba	0.062747434
57	0x3db2c5a6	0.08729105
58	0xbd7097d3	-0.05873854
59	0xbcd76b60	-0.026296318
60	0x3cd525b7	0.02601896
61	0xbd5a9efd	-0.05337428
62	0xbcb09872	-0.021557067
63	0xbdbc2ac1	-0.09187842
64	0x3b3cbcf3	0.0028799146
65	0xbd7e29d5	-0.062051613
66	0xbbfe4ed9	-0.007760864
67	0x3bf64e42	0.0075166533
68	0xbd42ee0b	-0.047590297
69	0x3cd5467f	0.026034592
70	0xbd157ba2	-0.03649486
71	0xbd82da50	-0.06389296
72	0xbd501970	-0.05080551
73	0xbd3bc780	-0.045844555
74	0x3ce587d4	0.02801887
75	0x3b045e68	0.0020197872
76	0xbd990299	-0.074711986
77	0xbcc81f27	-0.024428917
78	0x3d0e8777	0.034797158
79	0x3d54dc3a	0.051967837
80	0xbd0674f0	-0.032826364
81	0xbd254c70	-0.0403561
82	0xbdb21ba8	-0.08696681
83	0xbd650c79	-0.055920098
84	0x3c8afa24	0.01696498
85	0xbc0686d8	-0.00821086
86	0xbccbc24b	-0.02487292
87	0xbb9d4a0a	-0.004800086
88	0xbd74942c	-0.05971162
89	0xbd8b4fb1	-0.06802309
90	0xbd963e7a	-0.07336135
91	0xbc1dba10	-0.00962688
92	0xbcd341a2	-0.025788132
93	0x3ce551a1	0.027993025
94	0xbcc7f86f	-0.024410455
95	0xbc22d05f	-0.009937375
96	0xbcbbd165	-0.022926996
97	0xbdf0bd85	-0.11754898
98	0xbd5b97fc	-0.05361174
99	0xbd7b3908	-0.061333686
100	0x3d17bbfe	0.037044518
101	0x3cb25aaa	0.021771748
102	0xbcd34718	-0.025790736
103	0xbc96e76a	-0.018420894
104	0xbd3a8bea	-0.04554359
105	0xbe11c54e	-0.14235422
106	0xbdcbff0b	-0.09960755
107	0xbe2d6918	-0.16934621
108	0x3cfa63e1	0.030565204
109	0xbd9d7642	-0.076885715
110	0x3d2347d5	0.039863426
111	0x3cc52c78	0.024069056
112	0xbc8e7aa6	-0.017392468
113	0xbd752308	-0.05984786
114	0xbde21b0d	-0.11040316
115	0xbd9f2cea	-0.077722386
116	0xbc623603	-0.013806823
117	0xbd6a8fcf	-0.057266053
118	0xbb82e545	-0.003994616
119	0xbe1363b2	-0.143935
120	0x3d0af7fc	0.033927903
121	0xbd25debf	-0.04049563
122	0x3a823e62	0.0009936804
123	0x3c6aad3d	0.01432353
124	0x3d1ae175	0.03781267
125	0xbd9440b9	-0.07238907
126	0x3c9c94b6	0.01911388
127	0xbdffcbf9	-0.124900766
128	0xbd8a7732	-0.06761016
129	0x39f4e4f0	0.00046709878
130	0x3c89d28a	0.016824026
131	0x3d451f53	0.048125576
132	0x3d8c0e68	0.06838685
133	0x3d27a8fe	0.040932648
134	0x3c8832bd	0.016625756
135	0x3d3856a4	0.045004502
136	0xbdc3c72f	-0.09559476
137	0xbccceb7e	-0.025014635
138	0xbd193668	-0.0374054
139	0xbb4e8513	-0.0031512424
140	0xbd162d70	-0.036664426
141	0xbd19fb15	-0.037592966
142	0xbc6014b2	-0.013676809
143	0x3d44a0b7	0.048004832
144	0xbdb2d544	-0.087320834
145	0xbb982e7d	-0.0046442137
146	0xbca62596	-0.020281594
147	0xbb55353f	-0.0032532958
148	0xbd2f5132	-0.042802043
149	0xbd981387	-0.074255995
150	0x3c3774ed	0.011197311
151	0x3d017c9f	0.03161299
152	0xbda27d19	-0.07934017
153	0xbd2109b9	-0.039315913
154	0xbe13e99c	-0.14444584
155	0x3d23a720	0.039954305
156	0x3d1ee9af	0.038797077
157	0xbd43e0a7	-0.047821667
158	0x3ac85ca8	0.0015286403
159	0xbdb2b594	-0.087260395
160	0x3c708351	0.014679746
161	0x3d024178	0.031800717
162	0x3d5947c6	0.053046964
163	0xbd3ff804	-0.046867386
164	0x3d170ee8	0.03687945
165	0xbd1d653d	-0.038426626
166	0xbd4093a5	-0.047015805
167	0xbdcf71e1	-0.101291426
168	0x3d8b1ae7	0.067922406
169	0x3d6a733e	0.05723881
170	0xbd17dc7d	-0.03707551
171	0xbc409f39	-0.011756712
172	0x3c8149d5	0.015782276
173	0xbcf3fdf4	-0.02978418
174	0x3b74a86c	0.0037331833
175	0x3c32a1b3	0.01090281
176	0xbd2865a7	-0.04111257
177	0xbcad6876	-0.021167975
178	0xbd534ee5	-0.05158891
179	0x3c51dc9c	0.012808945
180	0x3c1d4819	0.009599709
181	0xbd2d0858	-0.042244285
182	0xbd8d8a80	-0.069111824
183	0x3adb90a0	0.0016751476
184	0xbcf7cce2	-0.030249063
185	0x3c3dc514	0.011582632
186	0x3c7c4e8e	0.015399588
187	0xbd8bcb99	-0.068259425
188	0x3cc3c481	0.023897411
189	0xbd53ae79	-0.051680062
190	0x3ceb1155	0.028694788
191	0x3b2ea64f	0.002664942
192	0x3c78c418	0.015183471
193	0x3c46db31	0.01213722
194	0xbd383017	-0.044967737
195	0x3cfc82ee	0.03082415
196	0xbccbf346	-0.024896275
197	0xbd7beca4	-0.061504975
198	0xbc77bdd9	-0.015120947
199	0xbd405525	-0.0469562
200	0xbda2cb01	-0.07948876
201	0xbd16e6e7	-0.0368413
202	0xbda8869d	-0.082288004
203	0xbbb665f5	-0.0055663534
204	0xbcbd8990	-0.023136884
205	0xbb1ca3dc	-0.0023901379
206	0x3cd1cdad	0.02561077
207	0xbd319d3a	-0.043362834
208	0x3ba371fa	0.0049879523
209	0xbd58c938	-0.052926272
210	0x3ca20613	0.019778287
211	0xbd71acb4	-0.059002593
212	0xbd6de682	-0.058081158
213	0x3cb84c09	0.022497194
214	0xbd88bd33	-0.06676712
215	0x3cc56023	0.024093693
216	0x3cef71b6	0.029229026
217	0x3cf9b277	0.030480606
218	0xbd04d9d4	-0.0324343
219	0xbd9186e0	-0.071058035
220	0xbd29fef8	-0.041502923
221	0xbd6a0d1b	-0.057141405
222	0xbd6936c6	-0.056937
223	0x3d315b30	0.043299854
224	0x3d4e12f9	0.050311062
225	0x3d0161c0	0.031587362
226	0x3d5d48e3	0.05402459
227	0xbd51b374	-0.05119653
228	0xbc05e91e	-0.008173255
229	0xbd4e65a2	-0.050389893
230	0x3d0473c8	0.03233698
231	0x3c188a95	0.009310384
232	0xbc569308	-0.013096578
233	0xbd497769	-0.049186144
234	0xbd321b42	-0.043483026
235	0xbd16a5dc	-0.03677927
236	0x3d2bbbc0	0.0419271
237	0xbdaa4619	-0.08314151
238	0xbd191868	-0.03737679
239	0xbd192b88	-0.03739503
240	0xbc52afb9	-0.012859278
241	0xbdb11a0e	-0.08647548
242	0xbb4facc0	-0.003168866
243	0x3c2ab615	0.010419388
244	0xbcada059	-0.021194624
245	0xbc430ed9	-0.011905395
246	0xbdab766c	-0.083721966
247	0xbcbdfbe9	-0.02319141
248	0xbcc3545a	-0.023843933
249	0xbc5bf771	-0.013425694
250	0xbc9f362c	-0.01943501
251	0x3cf3d633	0.029765224
252	0xbd3dbc3c	-0.046322092
253	0xbcb930e6	-0.022606324
254	0xbcf6c188	-0.03012158
255	0x3c9e63a1	0.019334616

deconv2.0.bias f4 [16]
0	0xbcaf8bac	-0.021428905
1	0xbd7d4428	-0.061832577
2	0xbb6d270b	-0.0036186602
3	0x3d400962	0.04688395
4	0x3bfc4b01	0.007699371
5	0xbd50577b	-0.050864678
6	0x3c4d3e0f	0.012527003
7	0x3d0f70eb	0.035019796
8	0xbd22908f	-0.039688643
9	0x3d28c82e	0.04120653
10	0xbd4e8cf1	-0.05042738
11	0xbd445fda	-0.047942974
12	0x3c2f80d4	0.010711867
13	0xbcb282f5	-0.02179096
14	0x3d4e5fa8	0.050384194
15	0xbb858079	-0.004074153

deconv2.1.weight f4 [16]
0	0x3f6d9377	0.9280314
1	0x3f770e59	0.9650627
2	0x3f7bdde1	0.98385435
3	0x3f7f25f1	0.9966727
4	0x3f786732	0.97032464
5	0x3f87c0f9	1.0605766
6	0x3f868302	1.050873
7	0x3f842819	1.0324737
8	0x3f76eb88	0.9645314
9	0x3f7bdd94	0.98384976
10	0x3f7ea6ab	0.99473065
11	0x3f7f8bd3	0.9982273
12	0x3f7f9646	0.99838674
13	0x3f7ff4f4	0.99983144
14	0x3f822d5a	1.017009
15	0x3f8b6006	1.0888679

deconv2.1.bias f4 [16]
0	0xbcabf588	-0.020991102
1	0x3cc5caef	0.024144618
2	0x3c93f124	0.01805932
3	0x3d2fd6f1	0.042929593
4	0x3d1568fc	0.036477074
5	0xbc871883	-0.01649118
6	0x3db09628	0.0862239
7	0x3bfae04d	0.0076561333
8	0x3d233f4f	0.039855298
9	0xbd36cd39	-0.04462931
10	0x3d81b9eb	0.06334289
11	0x3d10dcff	0.03536701
12	0x3ccc4aef	0.024938075
13	0x3d495845	0.049156446
14	0x3cf3ad4f	0.029745726
15	0xbd82168d	-0.063519575

deconv2.1.running_mean f4 [16]
0	0xbecbf70f	-0.39836928
1	0xbf0dd81f	-0.554079
2	0xbf0d528e	-0.55204093
3	0xbf098a59	-0.53726727
4	0xbf283856	-0.6571096
5	0xbf212dd3	-0.6296055
6	0xbf08f267	-0.53494877
7	0xbed79128	-0.42102933
8	0xbf24728c	-0.64237285
9	0xbea73097	-0.3265426
10	0xbf4b7614	-0.7947705
11	0xbf43b813	-0.7645275
12	0xbf1e92e2	-0.61942875
13	0xbf7606af	-0.9610395
14	0xbf0196ae	-0.50620544
15	0xbef31443	-0.47476396

deconv2.1.running_var f4 [16]
0	0x3f178ae4	0.59196305
1	0x3f1c5a16	0.6107496
2	0x3f2141a3	0.6299078
3	0x3f57e1d4	0.8432896
4	0x3ee2e70b	0.44316897
5	0x3e11f56e	0.1425378
6	0x3f35ddf1	0.7104178
7	0x3ebaaa84	0.36458218
8	0x3f191cf8	0.5980983
9	0x3e8ff1aa	0.28114063
10	0x3fb6c648	1.4279261
11	0x3f2638c1	0.6493035
12	0x3f85ca06	1.0452278
13	0x3f9f5180	1.2446747
14	0x3e7a0ef8	0.24419773
15	0x3e0ca335	0.13734134

deconv3.0.weight f4 [16, 8, 4, 4]
0	0x3c12566c	0.008931737
1	0x3c66abb2	0.014079021
2	0x3cc31fdd	0.023818905
3	0x3dd4a5ec	0.103832096
4	0x3b993a13	0.0046761124
5	0xbd054630	-0.03253764
6	0x3d5e6e81	0.054304603
7	0x3d433d92	0.04766614
8	0xbca190fb	-0.019722452
9	0x3d102b97	0.03519782
10	0x3d6c72a6	0.057726525
11	0x3bbae795	0.0057038763
12	0xbd2aaaf8	-0.041666955
13	0x3d4a6a78	0.049417943
14	0x3d3859f7	0.045007672
15	0xbd5d92fc	-0.054095253
16	0xbd5ffefa	-0.054686524
17	0x3d6934f6	0.056935273
18	0xbd14d676	-0.03633734
19	0xbc8abbf3	-0.016935324
20	0xbd5bd68e	-0.053671412
21	0x3c12cc0a	0.0089597795
22	0xbcc8d0a6	-0.024513554
23	0xbc656b05	-0.014002566
24	0x3cc2fc14	0.02380184
25	0xbd8ea41b	-0.069648944
26	0x3d0799bf	0.033105608
27	0xbd40319f	-0.046922322
28	0x3d0d4a14	0.034494475
29	0x3cb722e5	0.022355506
30	0xbb8856d3	-0.004160741
31	0x3a893fe4	0.0010471311
32	0xbc3a77c0	-0.01138109
33	0x3d8665a4	0.06562355
34	0x3c3c16ab	0.011480014
35	0x3c6dcfd2	0.01451488
36	0xbc81aa89	-0.015828388
37	0xbd2a691d	-0.04160415
38	0xbd48cb67	-0.049022105
39	0xbd535236	-0.051592074
40	0x3c5c044e	0.013428761
41	0x3c39192a	0.0112975035
42	0xbc7364e4	-0.014855597
43	0x3b61e5d9	0.0034469275
44	0x3d0f57f4	0.034995988
45	0x3d031679	0.032003853
46	0x3d3340ae	0.043762855
47	0x3d86e41e	0.06586479
48	0x3e178bb6	0.14799389
49	0xbd48823a	-0.04895232
50	0xbc8662c6	-0.01640452
51	0x3d0bee14	0.034162596
52	0x3d3ee497	0.04660472
53	0x3dacd8ef	0.08439814
54	0xbaae5e25	-0.0013303204
55	0x3d07fb52	0.033198662
56	0x3c87ed4e	0.016592648
57	0xbd021781	-0.031760696
58	0x3c0034f1	0.007825122
59	0xbcd4c76e	-0.025974002
60	0x3c75f8cd	0.015012932
61	0x3d44e69a	0.04807148
62	0x3cbe4910	0.023228198
63	0xbca1c1ab	-0.019745668
64	0x3d77824a	0.060426988
65	0xbd17c3c4	-0.03705193
66	0x3d892b48	0.06697708
67	0x3d622514	0.05521114
68	0xbc64b317	-0.013958714
69	0xbc89ee34	-0.016837217
70	0xbd01e5c6	-0.03171327
71	0xbc31c59a	-0.010850335
72	0x3d492354	0.049105957
73	0x3d5f9eab	0.054594677
74	0x3d8a20fd	0.06744573
75	0x3b6a4611	0.003574733
76	0x3b8fce12	0.004388579
77	0xbd0a1930	-0.033715427
78	0x3cb4c1a0	0.022064984
79	0xbcfc36c9	-0.030787842
80	0xbab6d592	-0.0013949147
81	0x3d1be465	0.03805961
82	0xbd263019	-0.040573213
83	0x3d2e5fb2	0.04257173
84	0xbd3e7260	-0.046495795
85	0x3ce6a243	0.028153544
86	0xbd7a535f	-0.061114665
87	0x3da92a16	0.082599804
88	0xbcbe5a46	-0.023236405
89	0xbd6728dc	-0.05643545
90	0xbcb80693	-0.022464072
91	0x3dad6765	0.084669866
92	0x3d6aadb1	0.05729455
93	0x3d202999	0.03910217
94	0x3d0b4f38	0.034011096
95	0xbd580309	-0.05273727
96	0xbcfce9f9	-0.030873286
97	0x3bded3ff	0.0068001742
98	0x3c6ca75b	0.0144441975
99	0xbbe1e3ac	-0.0068935957
100	0x3d879519	0.06620235
101	0x3c658917	0.014009736
102	0x3d540ad5	0.051768143
103	0xbd242c50	-0.040081322
104	0xbc43cd29	-0.011950769
105	0x3dd292e5	0.10281924
106	0x3c8c0072	0.017090056
107	0xbbe577bb	-0.0070027984
108	0xbb5f775a	-0.0034098239
109	0xbcd9605d	-0.026535207
110	0xbd917f3a	-0.07104345
111	0x3c77e33d	0.015129861
112	0xbc455a12	-0.0120454
113	0x3d838544	0.06421903
114	0xbc606675	-0.013696303
115	0x3cfe1e84	0.03102041
116	0xbd407bdd	-0.046993125
117	0x3ab231a3	0.0013595115
118	0x3c83ad11	0.016073735
119	0xbd63260c	-0.055456206
120	0xbc90e066	-0.017685127
121	0x3c3c7dd7	0.011504612
122	0xbcfc0633	-0.030764675
123	0x3d90ef1a	0.07076855
124	0x3cb6caed	0.02231356
125	0xbcb20721	-0.021731915
126	0x3d9993a5	0.07498864
127	0x3d30534f	0.0430482
128	0x3d01689f	0.031593915
129	0x3d5b3bc6	0.0535238
130	0xbcfcfcbe	-0.030882236
131	0xbd686125	-0.05673327
132	0x3d504094	0.050842836
133	0x3c2ad319	0.010426306
134	0xbcd1c51b	-0.025606683
135	0xbd07a392	-0.033114977
136	0xbd5be7dd	-0.05368792
137	0x3d835ca2	0.06414153
138	0x3d10d76b	0.03536169
139	0x3ab53ff2	0.0013828261
140	0x3c57b710	0.013166204
141	0xbcad1b15	-0.021131078
142	0x3d31696d	0.043313432
143	0xbd17134d	-0.03688364
144	0xbd9da6e5	-0.07697848
145	0xbd421675	-0.047384698
146	0x3c7a1525	0.01526383
147	0x3ce0889f	0.027408896
148	0x3bf7a4e4	0.0075574983
149	0xbcb35c03	-0.02189446
150	0xbc864318	-0.016389415
151	0xbd217384	-0.039416805
152	0x3d65a6f7	0.056067433
153	0xbd917a19	-0.071033664
154	0x3cf9331c	0.030419879
155	0xbcf23e94	-0.029570855
156	0xbd277fef	-0.04089349
157	0xbd3a938a	-0.04555086
158	0xbc795202	-0.015217306
159	0x3c2b76e5	0.010465358
160	0x3cd3d901	0.025860311
161	0xbb441daf	-0.002992492
162	0xbd9e86c2	-0.07740547
163	0xbcfa68bd	-0.030567521
164	0x3cd36c47	0.025808467
165	0x3dc61d73	0.09673586
166	0x3d2ee098	0.042694658
167	0x3db966a0	0.09052777
168	0x38df6533	0.000106523185
169	0xbc09c65d	-0.00840911
170	0xbd9ee2d0	-0.07758105
171	0x3dadae78	0.08480543
172	0xbc558ce4	-0.013034079
173	0xbd9279f4	-0.07152167
174	0x3c8da34e	0.017289784
175	0xbd8ca97f	-0.06868266
176	0xbcc5fba3	-0.024167841
177	0x3d5729c7	0.052530076
178	0xbcbc9ee0	-0.023024976
179	0x3c313d26	0.010817802
180	0x3d9e2b4d	0.07723103
181	0x3b64a4f8	0.0034888368
182	0xbd08148f	-0.03322273
183	0x3cb7d0eb	0.022438487
184	0xbd8bf864	-0.06834486
185	0x3c8c8b7e	0.017156359
186	0x3d65a0c4	0.05606152
187	0xbd1ec8fd	-0.038765896
188	0xbd9a80fe	-0.075441346
189	0x3cb20b0e	0.021733787
190	0xbd165fdf	-0.036712524
191	0x3cb15e82	0.02165151
192	0xbd4dbe51	-0.050230328
193	0x3d5d5256	0.0540336
194	0x3c96de0a	0.018416423
195	0xbcfc1ef1	-0.030776473
196	0xbce535da	-0.02797978
197	0xbd3b9ba0	-0.045802712
198	0x3ba28e97	0.0049608457
199	0xbd9566e2	-0.07295014
200	0xbd1e3f62	-0.038634665
201	0x3d154ccb	0.03645019
202	0x3d6d76ff	0.05797481
203	0x3db5bdae	0.08874069
204	0x3d45696b	0.048196238
205	0xbc8163ab	-0.015794596
206	0x3d1e2757	0.038611736
207	0xbc2135c0	-0.009839475
208	0x3cc7c9ce	0.02438822
209	0x3c437441	0.011929573
210	0x3c81af39	0.015830623
211	0x3cb6204f	0.022232203
212	0xbd01ee39	-0.031721327
213	0x3c9d3782	0.019191507
214	0x3d2760f6	0.040863954
215	0x3d09e614	0.033666685
216	0x3d02b010	0.031906188
217	0x3bbef135	0.005827094
218	0xbc1be6d6	-0.009515485
219	0x3cd17cfd	0.025572294
220	0x3ce78fce	0.028266814
221	0x3d620f05	0.055190105
222	0xbaa79bba	-0.0012787499
223	0x3d9ec7ef	0.07752978
224	0x39ef2aac	0.00045617425
225	0xbdae6c3a	-0.08516736
226	0x3d14fb7c	0.036372647
227	0x3d95ee8c	0.0732089
228	0xbb6006b0	-0.0034183674
229	0xbd114920	-0.035470128
230	0xbd85d706	-0.06535153
231	0xbc8feeae	-0.017569866
232	0x3ad1ff5a	0.0016021535
233	0x3d9dc1dd	0.07702992
234	0x3a86d613	0.0010287188
235	0xbb36c918	-0.0027890857
236	0x3c667d40	0.014067948
237	0x3d7423f9	0.05960462
238	0xbc959740	-0.018260598
239	0x3da1d551	0.07902015
240	0x3c13e868	0.009027578
241	0x3ca518f7	0.020153506
242	0xbd7b6731	-0.061377708
243	0xbca9782d	-0.020687187
244	0x3ca4b4a9	0.020105677
245	0xbd42acaf	-0.047527965
246	0xbcd3daea	-0.025861222
247	0x3cfb7345	0.030694613
248	0xbd19737f	-0.03746366
249	0x3d7457b0	0.059653938
250	0xbd978d12	-0.07399954
251	0xbcb4a699	-0.022052096
252	0x3bfc74a8	0.007704336
253	0xbc4158f3	-0.011800992
254	0x3c9bd519	0.019022511
255	0x3d86bf0e	0.065794095

deconv3.0.bias f4 [8]
0	0x3bafa27a	0.005359945
1	0x3d87b98e	0.066271886
2	0x3d9efa29	0.07762558
3	0xbc9e70f3	-0.019340968
4	0x3d745bb2	0.05965776
5	0x3be97178	0.007124122
6	0x3d5b83c5	0.053592462
7	0xbd044ffe	-0.03230285

deconv3.1.weight f4 [8]
0	0x3f955f8c	1.1669784
1	0x3f96bfc6	1.1777275
2	0x3f97ed2c	1.1869254
3	0x3f94731f	1.1597632
4	0x3f9834a8	1.189107
5	0x3f945f71	1.1591626
6	0x3f97e2ed	1.1866127
7	0x3f98cdc3	1.1937793

deconv3.1.bias f4 [8]
0	0x3e2aef5b	0.1669287
1	0x3e33c517	0.17555653
2	0x3e40c98d	0.18826886
3	0x3e212b3a	0.15739146
4	0x3e41829b	0.18897478
5	0x3e20ed09	0.15715422
6	0x3e4115c0	0.18855953
7	0x3e45f3d7	0.19331299

deconv3.1.running_mean f4 [8]
0	0xbb62eb5f	-0.0034625155
1	0xbe706cdd	-0.23479028
2	0x3b172dcb	0.0023068066
3	0xbe363145	-0.17792232
4	0x3da44e9c	0.08022806
5	0xbb9b8b01	-0.004746795
6	0xbd5dd185	-0.05415489
7	0xbe49adfe	-0.19695279

deconv3.1.running_var f4 [8]
0	0x3dd6f302	0.10495569
1	0x3e11dc9e	0.14244315
2	0x3e0560b9	0.13025178
3	0x3e093ac1	0.13401319
4	0x3e510dea	0.20415464
5	0x3e3393df	0.17536877
6	0x3e1b5a55	0.15171178
7	0x3e4a803e	0.19775483
