Pix2Pix/checkpoints/pix2pix_model_epoch_60.pth (torch, 99150 bytes, 32 tensors)

conv1.0.weight f4 [8, 3, 4, 4]
0	0x3dfcba06	0.12340169
1	0x3df34fe2	0.11880471
2	0xbda9591c	-0.082689494
3	0x3e1486d3	0.14504556
4	0x3d8684d4	0.06568304
5	0x3bcc6d67	0.0062386277
6	0xbd9744eb	-0.07386192
7	0x3dd1a941	0.10237361
8	0xbdab7429	-0.08371765
9	0xbbdc3ae4	-0.0067208875
10	0x3c8ea373	0.017411923
11	0xbc9449c4	-0.01810158
12	0x3df112ee	0.11771189
13	0x3dbff957	0.0937373
14	0xbe0ac84f	-0.13552974
15	0xbe1a6b6b	-0.15080039
16	0xbd8258a6	-0.063645646
17	0x3da13f69	0.07873423
18	0x3b057984	0.0020366618
19	0x3e19abe3	0.15006976
20	0xbd95d8d6	-0.07316749
21	0xbd760b49	-0.060069356
22	0x3e282755	0.16421254
23	0xbdbe6c94	-0.092980534
24	0xbe14aadb	-0.14518301
25	0xbdf7ef02	-0.12106134
26	0xbdc69701	-0.096967705
27	0xbe0d05f5	-0.13771804
28	0xbdd6cf78	-0.1048879
29	0xbb8fa204	-0.0043833274
30	0x3dd3f8f8	0.103502214
31	0xbddc88c8	-0.107682765
32	0x3d625d6f	0.055264886
33	0x3de0c499	0.10974998
34	0xbdabc5fb	-0.08387371
35	0xbdff5223	-0.12466838
36	0xbd9e5d64	-0.077326566
37	0xbc76b081	-0.01505673
38	0x3deb3ec0	0.11486578
39	0xbd1f0923	-0.038827073
40	0xbd76e3c9	-0.060275827
41	0xbdb8a472	-0.090157405
42	0xbe078f98	-0.1323837
43	0x3cab9d06	0.020948898
44	0x3de5d043	0.112213634
45	0xbdb0698f	-0.08613884
46	0x3e19f91c	0.15036434
47	0xbae859e7	-0.0017726988
48	0x3c1026bc	0.0087982975
49	0x3c8b2a6c	0.016988002
50	0xbd8926e7	-0.06696873
51	0x3e0f74f5	0.1400946
52	0x3df95aed	0.12175546
53	0x3d8ca76d	0.068678714
54	0x3dd7e088	0.10540873
55	0x3c6bce3c	0.014392432
56	0x3b9c1acf	0.004763938
57	0xbdaa48b4	-0.08314648
58	0xbdd92527	-0.10602789
59	0x3dce7ee2	0.10082795
60	0xbd9336f9	-0.071882196
61	0x3cb98761	0.022647562
62	0xbdbaac78	-0.09114927
63	0x3e09d96f	0.1346185
64	0xbcf5d03f	-0.030006526
65	0xbd87c389	-0.06629092
66	0x3dfd9862	0.1238258
67	0xbdfeb9d8	-0.12437791
68	0xbd68ee85	-0.056868095
69	0xbdf0e349	-0.11762101
70	0x3d594b21	0.053050164
71	0xbd1b7718	-0.037955374
72	0xbbbfd69d	-0.0058544413
73	0x3d390b83	0.045176994
74	0x3d3ce9ae	0.04612129
75	0x3de8bd5c	0.113642424
76	0x3d49ecb2	0.049297996
77	0xbe11feb6	-0.14257321
78	0xbe056f4e	-0.1303074
79	0x3d32f7d3	0.043693375
80	0x3d23c992	0.039987154
81	0x3daa2eeb	0.0830973
82	0xbdf2acca	-0.11849363
83	0xbe03eb12	-0.12882641
84	0x3ddbd9e5	0.107349195
85	0xbd86791b	-0.06566068
86	0xbbc4f103	-0.006010176
87	0xbd649da4	-0.0558144
88	0xbcf02b5e	-0.029317554
89	0xbda9f086	-0.08297829
90	0xbdd9dd61	-0.10637928
91	0x3d923783	0.07139494
92	0xbd06fa63	-0.03295363
93	0xbcf2781d	-0.02959829
94	0xbde5ee15	-0.11227051
95	0x3d644243	0.055727255
96	0x3dc7ee45	0.09762243
97	0xbda5e200	-0.08099747
98	0x3cbefcfe	0.023313995
99	0x3e178017	0.14794956
100	0xbe0159ed	-0.1263196
101	0xbdc00d55	-0.09377543
102	0xbda7a014	-0.08184829
103	0x3d3342c8	0.04376486
104	0xbe042234	-0.12903672
105	0xbdbbb977	-0.09166234
106	0x3c13442e	0.008988423
107	0xbcd7686f	-0.026294915
108	0x3ddb820d	0.107181646
109	0xbdc624d0	-0.0967499
110	0x3d47b616	0.048757635
111	0x3de42518	0.111398876
112	0x3e0013d8	0.1250757
113	0xbe05904d	-0.13043328
114	0x3d8cf00d	0.068817236
115	0xbdd09aac	-0.10185751
116	0x3dff4015	0.124633946
117	0xbd89fa0c	-0.06737146
118	0x3c084839	0.0083180005
119	0x3e14fe8e	0.1455023
120	0xbdc6c320	-0.09705186
121	0x3c4fc70c	0.012681734
122	0x3d0d84a4	0.034550324
123	0x3e16bd3a	0.14720622
124	0x3de0bc92	0.10973467
125	0xbc59e03c	-0.013298091
126	0xbcaa8ec7	-0.020820035
127	0x3dd2d830	0.10295141
128	0x3c3ffd31	0.01171808
129	0x3d003d0e	0.031308226
130	0xbe1ae886	-0.15127763
131	0x3cf7f606	0.03026868
132	0x3d8e1850	0.06938231
133	0xbde054ef	-0.109537
134	0x3e015899	0.12631454
135	0xbd2ecc13	-0.04267509
136	0x3de68b50	0.112570405
137	0xbc913ae6	-0.01772828
138	0x3d900cde	0.07033704
139	0x3db15d98	0.0866043
140	0xbdcdc9b1	-0.10048235
141	0xbdc8078a	-0.09767063
142	0xbe0be097	-0.13659893
143	0xbd543c12	-0.0518151
144	0xbd1fbb00	-0.038996696
145	0x3cdfe64e	0.027331498
146	0xbcc437fa	-0.023952473
147	0xbda0f20f	-0.07858669
148	0xbe03d8d4	-0.12875682
149	0xbdf05e94	-0.11736789
150	0x3d8b12b8	0.0679068
151	0x3df43481	0.11924077
152	0x3da681cd	0.08130226
153	0x3d7efa82	0.06225062
154	0x3bfb4d7b	0.0076691485
155	0x3de360c7	0.11102443
156	0x3da17119	0.078829
157	0xbdb27f3f	-0.087156765
158	0x3dc84d49	0.09780366
159	0xbda011b3	-0.07815876
160	0xbcb901c3	-0.022583848
161	0x3dd0b9db	0.10191699
162	0xbe1744ad	-0.14772291
163	0xbda5e8b4	-0.08101025
164	0xbdb744a0	-0.08948636
165	0x3d28e0c9	0.041229997
166	0xbe0c8ae8	-0.13724864
167	0xbda51ac1	-0.080617435
168	0xbb79d8aa	-0.0038123527
169	0x3c054e37	0.008136324
170	0xbc9bae37	-0.01900397
171	0xbd7b6e9c	-0.061384782
172	0x3d0f6f8a	0.03501848
173	0x3e3020b9	0.17199983
174	0x3db65de2	0.089046255
175	0x3cc4c2c1	0.024018647
176	0xbe0c3eae	-0.13695785
177	0x3da7370d	0.08164797
178	0x3c479d1e	0.012183456
179	0x3d3b5a18	0.045740217
180	0xbd231e87	-0.039824035
181	0x3dc51931	0.096239455
182	0x3cc311c3	0.02381218
183	0x3dfea71f	0.124342196
184	0x3df3742f	0.11887395
185	0x3d4d3414	0.050098494
186	0x3bda17c1	0.0066556637
187	0x3d893892	0.06700243
188	0x3de566b2	0.11201228
189	0xbdc2a9a1	-0.095050104
190	0x3d751185	0.05983116
191	0x3dbdf17d	0.09274576
192	0x3e38d446	0.18049726
193	0x3e28d382	0.16486934
194	0x3e2e9aa5	0.1705118
195	0xbcb18eb0	-0.021674484
196	0x3d0d3cfe	0.034481995
197	0x3d8f9f11	0.070127614
198	0xbde0e94c	-0.10981998
199	0x3d5e5027	0.054275658
200	0x3dab3506	0.08359723
201	0xbda52dd6	-0.08065383
202	0xbd0d211b	-0.0344554
203	0xbcc6a132	-0.024246786
204	0x3da833ba	0.08212991
205	0xbdc56d38	-0.096399724
206	0x3db18d4b	0.086695276
207	0x3ceec155	0.029144922
208	0x3d154ace	0.036448292
209	0xbd41aad8	-0.04728207
210	0x3dee1623	0.11625316
211	0xbe08f3b8	-0.13374221
212	0xbe018aef	-0.12650655
213	0xbd58db75	-0.052943666
214	0x3c7abc04	0.0153036155
215	0x3d56948b	0.052387755
216	0x3e06e06f	0.13171552
217	0xbdb0798e	-0.08616935
218	0xbdea8744	-0.11451581
219	0xbe072469	-0.13197483
220	0xbdc7e0e3	-0.097596906
221	0x3e095583	0.13411526
222	0x3d8d76ab	0.069074
223	0x3d99e2e5	0.0751398
224	0x3e170b6f	0.14750455
225	0x3d6f4f24	0.058425084
226	0xbdb5072e	-0.0883926
227	0x3d56f512	0.05247981
228	0xbdd834c1	-0.10556937
229	0x3ba5ed53	0.0050636916
230	0x3db26294	0.087102085
231	0x3cd82c92	0.02638844
232	0xbcc75f36	-0.024337392
233	0x3b177390	0.0023109652
234	0x3d29d0ec	0.04145901
235	0x3dcde9f8	0.100543916
236	0xbdfdadd4	-0.12386671
237	0x3c046baf	0.008082314
238	0x3da30f0a	0.07961853
239	0xbccbfc82	-0.024900679
240	0x3dfcbe44	0.12340978
241	0xbc1190d5	-0.008884628
242	0x3916b006	0.00014370689
243	0x3d0a83b0	0.033816993
244	0xbc9b036f	-0.018922536
245	0x3e10a0fc	0.1412391
246	0x3d280eb8	0.041029662
247	0x3d08ab34	0.033366397
248	0xbd50cb0e	-0.050974898
249	0xbce2b6a6	-0.027674984
250	0xbdca5e5d	-0.098812796
251	0xbcf4ec35	-0.029897789
252	0x3daeb728	0.08531028
253	0xbd8a676c	-0.067580074
254	0x3d988295	0.074467815
255	0xbdf81960	-0.12114215

conv1.0.bias f4 [8]
0	0xbd80c5b9	-0.062877126
1	0xbde8255f	-0.11335253
2	0x3dddacf6	0.10824005
3	0xbda428d5	-0.080156006
4	0x3e0e02dd	0.1386828
5	0xbdbe1dde	-0.092830405
6	0x3ddd4646	0.10804419
7	0x3d2acc17	0.04169854

conv1.1.weight f4 [8]
0	0x3f80c5c7	1.0060357
1	0x3f7eaf78	0.99486494
2	0x3f7e9722	0.9944936
3	0x3f7d9756	0.99059045
4	0x3f806609	1.0031139
5	0x3f824e78	1.0180197
6	0x3f82863c	1.0197215
7	0x3f78db68	0.9720979

conv1.1.bias f4 [8]
0	0xbc538255	-0.012909492
1	0xbc3fafd3	-0.011699635
2	0xbcca9051	-0.024727019
3	0x3c52a49d	0.01285663
4	0xbd012f68	-0.03153935
5	0x3cad7def	0.021178214
6	0x3cf2a0ba	0.029617656
7	0xbcf52722	-0.029925887

conv1.1.running_mean f4 [8]
0	0xbd554261	-0.052065257
1	0xbdf7c211	-0.12097562
2	0x3dd2648a	0.102730826
3	0xbdda3864	-0.10655287
4	0x3d4f0d8e	0.050550036
5	0xbdf174f9	-0.11789889
6	0x3e43cb20	0.19120455
7	0x3d521d9a	0.05129776

conv1.1.running_var f4 [8]
0	0x3d5f1efc	0.05447291
1	0x3d283581	0.04106665
2	0x3c8e4493	0.017366683
3	0x3da64f52	0.08120598
4	0x3da8fe55	0.08251635
5	0x3d074e44	0.033033624
6	0x3da0b9cd	0.07847939
7	0x3c2c94b7	0.010533503

conv2.0.weight f4 [16, 8, 4, 4]
0	0x3d8b174e	0.067915544
1	0x3d397dfa	0.045286156
2	0xbd75ec7a	-0.060039975
3	0xbd35ef1c	-0.044417486
4	0x3d907adc	0.070546836
5	0x3da31247	0.079624705
6	0xbc91c829	-0.01779564
7	0x3d6972e6	0.05699434
8	0xbd04bfc7	-0.032409456
9	0xbd2dce39	-0.042432997
10	0x3d811c1f	0.06304192
11	0x3d8be81c	0.06831381
12	0xbcd4ae7c	-0.025962107
13	0x3d6c373d	0.057669867
14	0x3d2db413	0.04240806
15	0x3dbc4750	0.09193289
16	0x3d34f766	0.04418125
17	0xbc5bfe6e	-0.01342736
18	0x3dc820d3	0.09771886
19	0x3d871072	0.065949336
20	0xbd49eecf	-0.04930001
21	0xbbc24ce0	-0.0059295744
22	0xbd73780e	-0.059440665
23	0x3c3833b0	0.011242792
24	0x3d874d94	0.06606594
25	0xbd783831	-0.060600463
26	0xbd593890	-0.053032458
27	0xbce26f82	-0.027641062
28	0xbd2b2b10	-0.041789114
29	0x3d0db4d3	0.034596276
30	0x3dd92ebf	0.10604619
31	0x3dc45d8a	0.09588154
32	0xbca6fb28	-0.020383433
33	0xbd884092	-0.06652941
34	0xbd5c3599	-0.053762052
35	0xbca9fff3	-0.020751929
36	0x3da82a25	0.082111634
37	0x3d1a87b1	0.03772706
38	0x3b83b1c0	0.004018992
39	0x3d890ef7	0.066923074
40	0x3ca4bb3f	0.020108817
41	0x3d3ea6ec	0.046545908
42	0x3db030aa	0.08603032
43	0xbd25db0e	-0.04049211
44	0x3d50c839	0.050972197
45	0x3d1ee401	0.03879166
46	0xbd611ff2	-0.054962106
47	0xbd242590	-0.040074885
48	0xbd034c12	-0.03205497
49	0xbd1f4188	-0.038880855
50	0x3d026258	0.03183207
51	0xbc168099	-0.0091859335
52	0xbd271478	-0.040791005
53	0xbd8bd314	-0.06827369
54	0x3daa7bb9	0.083243795
55	0x3c2a04dc	0.010377135
56	0x3d55f5b7	0.052236285
57	0x3cfa4e82	0.030555014
58	0x3d20f76a	0.039298452
59	0x3c6846ab	0.014177005
60	0xbd8d7c2f	-0.06908452
61	0x3d8cdd97	0.068782024
62	0xbd85bc46	-0.06530051
63	0xbaa9a449	-0.0012942638
64	0xbc85c404	-0.01632882
65	0x3d548f62	0.051894553
66	0xbd31f830	-0.04344958
67	0x3d604595	0.05475386
68	0xbd757809	-0.059928928
69	0xbd066599	-0.032811735
70	0x3a74467f	0.0009318366
71	0x3d880723	0.06641986
72	0x3d3e5d8a	0.046475925
73	0x3d7f8bad	0.062389065
74	0xbd0e3682	-0.03471995
75	0x3dce0a59	0.100605674
76	0x3d6d687d	0.057960976
77	0x3db3b2d5	0.08774344
78	0x3d95bd15	0.07311455
79	0x3bd03438	0.006353881
80	0xbbd1ac52	-0.006398716
81	0xbba5c526	-0.0050589023
82	0x3d9ac164	0.075564176
83	0x3d91e55e	0.071238264
84	0x3d9593ea	0.07303603
85	0x3c6abb5f	0.014326899
86	0x3c944ff2	0.018104527
87	0x3c19e64a	0.009393284
88	0x3d052d4e	0.03251391
89	0xbd7adc98	-0.06124553
90	0xbd4a2788	-0.049354106
91	0x3d366f18	0.04453954
92	0x3da218f4	0.07914916
93	0x3d3072e4	0.04307832
94	0xbd073ab6	-0.033014975
95	0xbcfa63c3	-0.030565148
96	0xbd9b9701	-0.07597161
97	0x3d197105	0.0374613
98	0x3cb3a92e	0.021931257
99	0x3cc71686	0.024302732
100	0x3d7d22a3	0.06180061
101	0xbcf27e3b	-0.029601207
102	0xbbacf9fe	-0.005278825
103	0xbd3ff9d9	-0.046869133
104	0x3d2b0571	0.041753236
105	0xbd1825b3	-0.037145328
106	0x3dc3e15e	0.0956447
107	0xbb4dcf4c	-0.0031404076
108	0x3d415a59	0.047205303
109	0x3d9b2565	0.07575492
110	0xbc27143d	-0.010197696
111	0x3cd139c5	0.025540242
112	0xbc4fc1c3	-0.012680474
113	0x3cc7a5a3	0.024370974
114	0xbd9242fa	-0.07141681
115	0x3d886675	0.06660167
116	0xbd9a4a3f	-0.075336926
117	0x3d22b5de	0.039724223
118	0x3c282ed1	0.010265068
119	0xbcb4d380	-0.022073507
120	0xbd659f53	-0.056060147
121	0x3c84b189	0.016197937
122	0xbd82f813	-0.06394973
123	0xbd569ad2	-0.052393742
124	0xbd1378eb	-0.03600399
125	0x3c043bba	0.008070881
126	0xbd717da0	-0.058957696
127	0xbcb75228	-0.022378042
128	0xbd24cafa	-0.040232636
129	0xbc984a5f	-0.01859015
130	0x3d855ff7	0.065124445
131	0x3d953e58	0.07287282
132	0xbd930c2f	-0.07180058
133	0x3bc0ab03	0.005879761
134	0xbd38ce51	-0.045118634
135	0xbdb0f6a3	-0.08640792
136	0x3dbc8f36	0.09207003
137	0x3d31cb18	0.043406576
138	0x3d6e2213	0.058137964
139	0xbc23e5d5	-0.010003527
140	0xbd9b4aa4	-0.07582596
141	0x3d5520db	0.052033287
142	0xbca3d5da	-0.019999433
143	0xbb721a51	-0.0036941955
144	0x3bbaa2ab	0.005695661
145	0x3d8f9f99	0.07012863
146	0xbcc47dcf	-0.023985771
147	0x3d321f1e	0.043486707
148	0x3d0e3367	0.03471699
149	0x3cab9f27	0.020949913
150	0xbd2671e9	-0.040635977
151	0x3d0083a1	0.03137553
152	0x3d6fe8cd	0.058571626
153	0x3d598c1f	0.053112146
154	0x3d69654d	0.056981374
155	0x3cc6adce	0.024252798
156	0xbd075dcb	-0.033048432
157	0xbc135439	-0.008992248
158	0x3d022183	0.03177024
159	0x3d513df8	0.05108449
160	0x3db54735	0.08851472
161	0x3d96fea9	0.07372791
162	0x3c91c8b1	0.017795892
163	0x3cf66a71	0.030080052
164	0xbd05f573	-0.03270478
165	0xbd84738b	-0.064673506
166	0xbdc868ce	-0.09785615
167	0xbd9218f3	-0.07133665
168	0xbe054087	-0.13012896
169	0x3c65f365	0.014035081
170	0xbbc6497e	-0.0060512414
171	0xbdbb6bba	-0.091514066
172	0x389e4aeb	7.547982e-05
173	0x3cbea0fa	0.023270119
174	0xbc29d438	-0.010365538
175	0xbca3b162	-0.019982044
176	0x3db25728	0.0870803
177	0xbb66309e	-0.0035124193
178	0x3d970264	0.07373503
179	0xbcdaccfa	-0.026709069
180	0xbbd8b6a2	-0.0066135684
181	0xbd00f223	-0.03148092
182	0xbbc563c8	-0.0060238577
183	0x3d8f989c	0.0701153
184	0xbd379edd	-0.04482924
185	0xbda3642f	-0.07978093
186	0x3cba3ac0	0.022733092
187	0x3d0bf1df	0.034166213
188	0x3d9d952a	0.076944664
189	0xbd17a1cf	-0.037019547
190	0x3d4e3b70	0.050349653
191	0x3ba86a8b	0.005139654
192	0x39b4e903	0.00034505883
193	0xbc7fb749	-0.015607663
194	0x3b24ab6a	0.0025126585
195	0x3c5a4733	0.013322639
196	0x3c997b0e	0.018735435
197	0xbbc45a5d	-0.0059922175
198	0xbd7a82e4	-0.061159983
199	0x3ccd5df0	0.025069207
200	0x3d7bd4b6	0.061482154
201	0x3d8cc29e	0.06873058
202	0xbccb10be	-0.024788257
203	0xbd6f206d	-0.058380533
204	0xbd899436	-0.06717722
205	0x3c6a4a4a	0.014299938
206	0xbd9e43a4	-0.07727745
207	0x3c98fba9	0.018674688
208	0xbcf766cd	-0.030200386
209	0x3db897d6	0.090133354
210	0x3d50cae3	0.050974738
211	0x3d672449	0.05643109
212	0xbd74988a	-0.059715785
213	0x3dac8d63	0.08425405
214	0x3dae3de9	0.08507902
215	0x3dbf6d63	0.09347036
216	0x3c943d25	0.018095562
217	0xbd8318a6	-0.06401186
218	0xbd60ef79	-0.05491588
219	0x3d3323e1	0.04373539
220	0xbd955ce8	-0.07293111
221	0xbde01ff3	-0.10943594
222	0xbdeedab8	-0.11662811
223	0xbc75a563	-0.014993045
224	0x3da58e2f	0.0808376
225	0x3d0aa07c	0.033844456
226	0xbd659ede	-0.05605971
227	0x3d37c86f	0.044868883
228	0xbcd932f4	-0.026513554
229	0x3ace5ad2	0.0015743619
230	0x3d3bf090	0.045883715
231	0xbbd027d4	-0.006352404
232	0xbc362e5d	-0.011119452
233	0xbba1c1f9	-0.0049364534
234	0xbd709028	-0.058731228
235	0x3d89f928	0.06736976
236	0x3db4c83c	0.08827254
237	0x3d324dab	0.0435311
238	0xbcaa4292	-0.020783696
239	0x3ce6e2f7	0.028184397
240	0x3c9c5e8a	0.019088048
241	0x3d1a6e3b	0.03770278
242	0x3d996479	0.07489867
243	0xbca603d3	-0.020265495
244	0x3d590081	0.052978996
245	0xbbcd588a	-0.006266658
246	0x3db1e3fd	0.086860634
247	0x3d3b8b72	0.045787282
248	0x3c9e361c	0.01931291
249	0xbcd42a30	-0.025899023
250	0xbd5efc8f	-0.054440077
251	0xbcf86656	-0.030322235
252	0xbceb492f	-0.02872142
253	0xbb77ce2e	-0.0037812102
254	0xbc362668	-0.011117555
255	0xbc659382	-0.014012219

conv2.0.bias f4 [16]
0	0x3d3cfe17	0.046140756
1	0x3d42cba6	0.047557496
2	0xbd925db9	-0.071467824
3	0x3d475e25	0.048673768
4	0x3d683c7e	0.056698315
5	0xbd91d72c	-0.07121119
6	0x3d698c52	0.057018586
7	0xbce75fac	-0.028243862
8	0x3d0fc5a6	0.0351006
9	0x3bc6cbed	0.0060667903
10	0x3cd30535	0.025759319
11	0x3d1b532a	0.03792111
12	0xbd8f425c	-0.06995079
13	0x3da2416d	0.07922635
14	0xbd40d36d	-0.04707663
15	0x3d610f66	0.054946326

conv2.1.weight f4 [16]
0	0x3f7e41b2	0.99318993
1	0x3f7de751	0.99181086
2	0x3f815d49	1.0106593
3	0x3f802f81	1.0014497
4	0x3f836986	1.0266578
5	0x3f7ff2b4	0.9997971
6	0x3f8408a9	1.0315143
7	0x3f7b39f9	0.98135334
8	0x3f80971c	1.0046115
9	0x3f7f1f6a	0.9965731
10	0x3f807338	1.0035162
11	0x3f7df706	0.9920505
12	0x3f84131e	1.0318334
13	0x3f776d9e	0.9665164
14	0x3f804daf	1.0023707
15	0x3f7ed027	0.99536365

conv2.1.bias f4 [16]
0	0xbd16014a	-0.036622323
1	0xbc09c551	-0.00840886
2	0x3be0f4ff	0.0068651433
3	0x3cae0c9b	0.021246245
4	0x3d78978b	0.060691398
5	0xbc09b9a7	-0.008406079
6	0x3d100423	0.035160195
7	0x3c45579d	0.012044814
8	0x3c999ac4	0.018750556
9	0x3c07d67c	0.008290883
10	0xbbc17137	-0.005903389
11	0x3bd74c61	0.0065703844
12	0x3cc4561e	0.023966845
13	0xbcd4d2a9	-0.025979357
14	0x3cdad8a7	0.026714636
15	0xbbcf4ffb	-0.006326673

conv2.1.running_mean f4 [16]
0	0x3f0c9d0e	0.54927146
1	0x3ea679a8	0.3251469
2	0xbef46117	-0.47730324
3	0xbef57690	-0.47942019
4	0xbea1339c	-0.31484687
5	0x3e1d3c5a	0.15355054
6	0xbf190635	-0.59775096
7	0x3ea167b5	0.31524435
8	0x3debf463	0.115212224
9	0x3c886316	0.01664881
10	0x3f02ed1c	0.5114305
11	0x3e276ce2	0.16350129
12	0xbd07b39c	-0.033130273
13	0x3f0cd66a	0.5501467
14	0xbf16d302	-0.5891572
15	0x3eaba7d7	0.3352649

conv2.1.running_var f4 [16]
0	0x3e1f1390	0.15534806
1	0x3e82230b	0.2541736
2	0x3e01db0a	0.12681213
3	0x3e4092c2	0.18805984
4	0x3df6dcfa	0.12053867
5	0x3e3f664a	0.18691364
6	0x3e74f7da	0.23922673
7	0x3e1f4b60	0.15556097
8	0x3e0e383a	0.13888636
9	0x3dee9750	0.11649954
10	0x3e8cb1c9	0.2747939
11	0x3eb1869a	0.34673005
12	0x3dbb8fac	0.091582626
13	0x3e0c64d3	0.13710336
14	0x3f110611	0.5664988
15	0x3e2d0455	0.16896184

conv3.0.weight f4 [32, 16, 4, 4]
0	0x3d6e2ccb	0.058148187
1	0x3d4dd673	0.050253343
2	0x3d1346cd	0.035956193
3	0x3d81cc92	0.06337847
4	0x3d5ab9ec	0.053399965
5	0x3d0150dc	0.031571254
6	0x3d1b0448	0.03784588
7	0x3d837b52	0.06420006
8	0x3d1a8c18	0.03773126
9	0x3d325dad	0.043546367
10	0x3d5f4bbf	0.054515596
11	0x3d3d52f2	0.04622168
12	0x3ca23552	0.019800816
13	0x3d6287c0	0.055305243
14	0x3d4c59b6	0.049890243
15	0x3d9e9f47	0.077452235
16	0xbd017a31	-0.03161067
17	0x3d4a4b86	0.04938843
18	0x3cf76876	0.030201178
19	0xbccccce3	-0.025000041
20	0x3d025a9c	0.031824693
21	0x3d7ea047	0.06216457
22	0x3d128212	0.035768576
23	0xbd24540c	-0.040119216
24	0x3d73d132	0.059525676
25	0xbcd50363	-0.026002591
26	0x3bf70389	0.007538263
27	0xbcf114c4	-0.029428847
28	0x3c4a6e39	0.012355381
29	0xbd0832b1	-0.033251468
30	0x3d4fa44b	0.05069379
31	0x3a96d80a	0.0011508476
32	0x3cb43cc4	0.022001632
33	0xbb913367	-0.0044311765
34	0x3d0e1e88	0.034697086
35	0x3d23d9a0	0.040002465
36	0x3d50a575	0.050939042
37	0x3d71069a	0.058844186
38	0x395964f8	0.00020732346
39	0xbc7303e3	-0.01483247
40	0x3d7ca1ff	0.06167793
41	0x3d0216a6	0.03175988
42	0x3d015bfb	0.03158186
43	0x3c549e0d	0.012977135
44	0xbd4e192f	-0.050316986
45	0xbce0855d	-0.027407343
46	0xbc4538a6	-0.012037432
47	0x3d0be3b8	0.034152716
48	0xbd378d77	-0.044812646
49	0x3ca08a62	0.019597236
50	0xbce70e23	-0.028204983
51	0xbc9d2554	-0.019182838
52	0xbc1ba284	-0.009499196
53	0xbd034d72	-0.03205628
54	0x3b30e8fa	0.0026994334
55	0xbc62fabb	-0.013853724
56	0x3c726ad3	0.014795977
57	0x3c97eee6	0.018546533
58	0x3d138bfc	0.03602217
59	0xbd72b517	-0.059254732
60	0x3c0b7cf2	0.008513676
61	0xbd2623fa	-0.040561654
62	0x3c9c1da7	0.019057108
63	0x3d0131d5	0.031541664
64	0xbcb8dc8e	-0.022566106
65	0xbd99258d	-0.07477865
66	0xbd5fcda3	-0.05463947
67	0xbcd4792a	-0.025936682
68	0xbd4348aa	-0.04767672
69	0xba315ba1	-0.0006765668
70	0x3d309219	0.04310808
71	0x3ca78005	0.020446787
72	0x3d0f9971	0.035058443
73	0x3b3ee04f	0.0029125398
74	0xbb8c21c9	-0.0042764884
75	0x3cd054c2	0.02543104
76	0x3bbdf554	0.0057970677
77	0x3a52c696	0.0008040456
78	0xbd141c75	-0.03615995
79	0xbd04808f	-0.032349166
80	0x3ccfd6f7	0.025371058
81	0x3ba8611a	0.0051385285
82	0x3db034fc	0.08603856
83	0x3dad79c9	0.08470494
84	0x3d29c770	0.041449964
85	0xbbc29984	-0.0059387106
86	0xbb904d4f	-0.004403747
87	0x3c8a5385	0.016885528
88	0xbd0cc181	-0.034364227
89	0x3d140701	0.036139492
90	0x3c0af31c	0.008480813
91	0xbc06c9eb	-0.008226852
92	0xbb2016b8	-0.0024427604
93	0xbd5664e8	-0.052342325
94	0x3d592eae	0.053023033
95	0x3cdf4a80	0.027257204
96	0xbb2afb0c	-0.0026089577
97	0xbceb9e0a	-0.028761882
98	0xbcceac3d	-0.025228614
99	0xbcef6763	-0.029224103
100	0x3d59e7d9	0.053199623
101	0xbc83c962	-0.016087238
102	0x3d8fc583	0.07020094
103	0x3cc15214	0.023598708
104	0xbca32330	-0.01991424
105	0xbbe26fd0	-0.0069103017
106	0xbcc145f1	-0.023592921
107	0xbd98adc8	-0.07455021
108	0xbb8df59e	-0.0043322584
109	0x3c476b4d	0.012171579
110	0x3d02dc40	0.031948328
111	0xbbef971b	-0.0073117143
112	0xbd3613a8	-0.04445234
113	0x3c7cc577	0.015427939
114	0x3b5d1844	0.0033736387
115	0xbc897b44	-0.01678241
116	0x3d646e93	0.055769514
117	0x3d496abc	0.049174055
118	0xbcad0b29	-0.021123486
119	0xbd45607a	-0.04818771
120	0x3bb9dd89	0.005672161
121	0x3d66df86	0.056365512
122	0x3d6a7b49	0.05724648
123	0xbcec32e2	-0.028832857
124	0x3c248f3d	0.010043916
125	0xbc150f54	-0.009097893
126	0x3c5d6ceb	0.013514738
127	0x3d767fdf	0.06018054
128	0x3a87bc22	0.001035575
129	0x3c825bfd	0.015913004
130	0x3b5b5925	0.0033469882
131	0x3c44fcef	0.012023195
132	0xbd82a8e6	-0.06379871
133	0x3d148eda	0.036269046
134	0x3d2aed4f	0.04173022
135	0x3d2ec94d	0.042672444
136	0xbbc8e567	-0.0061308625
137	0xbd40a1ca	-0.047029294
138	0x3d1ca7c4	0.03824593
139	0x3d5a760c	0.053335235
140	0x3ca702b5	0.020387033
141	0x3c405a88	0.011740334
142	0x3d19d5ec	0.037557527
143	0x3cd46715	0.02592806
144	0xbd6bf19d	-0.057603467
145	0xbd6fcf40	-0.05854726
146	0xbd420e35	-0.04737683
147	0xbd54f97a	-0.051995732
148	0x3c3c93b8	0.011509828
149	0xbd787229	-0.060655747
150	0xbd003baf	-0.03130692
151	0x3bafb41a	0.005362046
152	0xbb14471e	-0.0022625397
153	0x3ce65adb	0.028119495
154	0xbc89d1e1	-0.01682371
155	0x3b91f270	0.0044539496
156	0xbc38c537	-0.011277488
157	0xbc9ec552	-0.019381199
158	0xbd25dc1e	-0.040493123
159	0xbc3ca61d	-0.011514214
160	0x3cfc7e57	0.030821962
161	0x3cdcbf0a	0.026946563
162	0x3da266a4	0.079297334
163	0xbc21169b	-0.00983205
164	0x3d88a4d3	0.06672063
165	0x3d8c76d6	0.06858604
166	0x3d2c1aac	0.042017624
167	0x3cff5a03	0.03117085
168	0x3d07a13b	0.033112746
169	0x3d534377	0.05157801
170	0xbbc3a751	-0.0059708734
171	0x3cad0e1e	0.021124896
172	0x3d505208	0.05085948
173	0x3c9516b7	0.018199308
174	0xbcc40c4d	-0.023931647
175	0xbce03dda	-0.027373243
176	0x3d15df1b	0.036589723
177	0xbd5281e7	-0.051393416
178	0xbcfd155f	-0.03089398
179	0x3cc365e8	0.023852304
180	0x3d1d85f9	0.038457844
181	0xbcf87685	-0.030329952
182	0x3d5640ea	0.052308
183	0x3cf93086	0.030418646
184	0x3c85e90e	0.01634648
185	0x3d2f7338	0.04283449
186	0xbc91d957	-0.017803831
187	0x39acc107	0.00032950213
188	0x3d2ecf4c	0.042678162
189	0x3d3e4439	0.04645178
190	0xbd2e167f	-0.042501923
191	0x3ce8c6c3	0.02841509
192	0xbd156ac2	-0.036478765
193	0xbcff652e	-0.031176176
194	0xbbdde104	-0.0067712087
195	0xbd5141aa	-0.051088013
196	0xbc029f66	-0.007972574
197	0x3d3f7d71	0.04675049
198	0xbd346241	-0.044039015
199	0xbc94e3e1	-0.018175067
200	0x3c862023	0.016372746
201	0xbc2422bc	-0.010018047
202	0x3b2d8ff4	0.0026483508
203	0xbcc2679d	-0.023731047
204	0xbd141db5	-0.036161143
205	0x3c7f0cde	0.015567033
206	0x3b833511	0.0040041287
207	0x3cc53d1a	0.024076987
208	0xbd3e473d	-0.046454657
209	0x3d3f267c	0.04666756
210	0x3d81057a	0.06299873
211	0x3d802d1e	0.062586054
212	0xbc984429	-0.018587189
213	0x3bbec755	0.005822102
214	0xbb401a87	-0.0029312687
215	0x3c080319	0.00830152
216	0xbc9b4506	-0.018953811
217	0x3d323a51	0.043512646
218	0x3d214749	0.039374623
219	0x3d2822a4	0.04104866
220	0x3cbfce41	0.02341378
221	0xbba5c47a	-0.005058822
222	0x3d7e9cba	0.062161185
223	0xbcee6c26	-0.029104304
224	0x3af340aa	0.00185587
225	0xbcc7618d	-0.024338508
226	0xbd673693	-0.05644853
227	0x3cf3e114	0.029770412
228	0x3d305f59	0.04305968
229	0x3c858f2e	0.016303625
230	0xbccd486c	-0.025058948
231	0xbb174807	-0.0023083703
232	0x3d1381fb	0.03601263
233	0x3d1bea5b	0.038065296
234	0xbcdf470f	-0.027255563
235	0x3d32b461	0.043629054
236	0x3ceffcaa	0.029295284
237	0x3d8b2059	0.06793279
238	0x3d5b7e6e	0.05358737
239	0x3d4e2b1f	0.050334092
240	0xbcd5faa4	-0.026120491
241	0xbc70318d	-0.014660251
242	0xbc1f835a	-0.0097359065
243	0xbd06154f	-0.032735165
244	0x3d7a8e52	0.061170883
245	0x3c495f24	0.01229075
246	0xbd125af7	-0.035731282
247	0x3b7b401e	0.0038337777
248	0xbd0cb5b9	-0.03435299
249	0xbc380593	-0.011231798
250	0xbd3619aa	-0.04445807
251	0x3d1247ae	0.03571289
252	0xbc1dbe92	-0.009627955
253	0x3c880e84	0.016608484
254	0x3d0ee1ca	0.034883298
255	0xbbb54c29	-0.0055327606

conv3.0.bias f4 [32]
0	0x3cdebda1	0.027190031
1	0x3cefc965	0.029270837
2	0x3c346930	0.011011407
3	0xbbb7fdd4	-0.0056149755
4	0xbc6e17cf	-0.014532044
5	0x3c9a94b2	0.018869732
6	0xbd7de81f	-0.061988946
7	0x3c092cba	0.00837248
8	0xbd22d351	-0.03975231
9	0x3d295215	0.041338045
10	0x3bd84521	0.0066000377
11	0x3c946732	0.018115614
12	0x3a32f927	0.0006827288
13	0x3d55b666	0.0521759
14	0xbd337793	-0.043815207
15	0xbd4e733f	-0.050402876
16	0xbd5e4ef0	-0.0542745
17	0x3cede365	0.029039094
18	0xbcae5b08	-0.021283641
19	0x3d64db3c	0.05587314
20	0xbd7ead47	-0.06217697
21	0xbd084af8	-0.03327462
22	0x3d2d13d5	0.04225524
23	0x3c9a872e	0.018863287
24	0xbca6032f	-0.02026519
25	0x3d593ca3	0.053036343
26	0x3c34f6ad	0.01104514
27	0x3c756b20	0.014979154
28	0x3d7108b2	0.058846183
29	0xbd3f2043	-0.046661627
30	0xbc07fa9f	-0.008299499
31	0x3c5c6a18	0.013453029

conv3.1.weight f4 [32]
0	0x3f817678	1.0114279
1	0x3f7edb7d	0.9955366
2	0x3f806e23	1.0033611
3	0x3f791aed	0.9730671
4	0x3f7d2ab5	0.9889329
5	0x3f821ddb	1.0165361
6	0x3f7be0f5	0.9839013
7	0x3f7f8bad	0.99822503
8	0x3f842ef1	1.0326825
9	0x3f810bc8	1.008172
10	0x3f80a6fa	1.0050957
11	0x3f7f8996	0.99819314
12	0x3f786e7a	0.97043574
13	0x3f819916	1.0124843
14	0x3f81f182	1.0151827
15	0x3f7d5e28	0.98971796
16	0x3f81462d	1.0099541
17	0x3f7f9e43	0.99850863
18	0x3f7c617b	0.98586243
19	0x3f823eb1	1.0175382
20	0x3f83a3a3	1.0284313
21	0x3f818404	1.0118413
22	0x3f7ce720	0.9879017
23	0x3f7f82bb	0.99808854
24	0x3f7a0338	0.9766116
25	0x3f80bc21	1.0057412
26	0x3f7c29cc	0.98501277
27	0x3f830239	1.0235053
28	0x3f7d052e	0.9883603
29	0x3f7fbdc3	0.9989893
30	0x3f80a4fb	1.0050348
31	0x3f7ecc81	0.995308

conv3.1.bias f4 [32]
0	0xbd26fc95	-0.040768225
1	0xbb2d7b88	-0.0026471335
2	0xbd0d689c	-0.03452359
3	0xbca33116	-0.019920867
4	0x3ac3f8e6	0.0014951497
5	0x3bba1841	0.005679161
6	0xbc61e6b1	-0.013787911
7	0x3c2fdb07	0.0107333725
8	0x3d33eb25	0.043925423
9	0x3cc4962b	0.023997387
10	0xbb837fc1	-0.004013032
11	0xbc8ab1f6	-0.016930562
12	0x3cbfedbe	0.023428794
13	0xbc906a7d	-0.017628903
14	0x3d706410	0.058689177
15	0x3b74b810	0.0037341155
16	0x3ccb041f	0.024782239
17	0xbc4432d1	-0.011975006
18	0xbb5f8adc	-0.0034109866
19	0xbd2d6349	-0.042331014
20	0x3cf85112	0.030312095
21	0xbca7e303	-0.02049399
22	0xbb17b213	-0.0023146912
23	0x3cb8d3d1	0.02256194
24	0x3ca41fa0	0.020034611
25	0x3b90db89	0.004420702
26	0x3b0ce3c7	0.002149807
27	0x3d257427	0.040393975
28	0x3bbf9973	0.00584715
29	0x3b9fa5b3	0.004872048
30	0x3c5e8e9d	0.013583806
31	0x3cc74413	0.024324453

conv3.1.running_mean f4 [32]
0	0x3f60b815	0.87780887
1	0x3e37e4f8	0.17958438
2	0x3b96ad50	0.004598297
3	0xbd6a2585	-0.057164688
4	0xbb36d46b	-0.0027897607
5	0xbf45364c	-0.77035975
6	0xbe83c23b	-0.25734124
7	0xbe2a3895	-0.16623147
8	0xbec6fe09	-0.38865688
9	0x3e0727bf	0.13198756
10	0x3df60c9e	0.12014125
11	0xbe36b1c4	-0.1784125
12	0xbdef1347	-0.11673599
13	0x3ed3ddd8	0.4138019
14	0xbf72bfcd	-0.94823915
15	0xbf37e41a	-0.7183243
16	0xbf635cb9	-0.8881336
17	0x3d97a961	0.07405353
18	0xbc93d2fc	-0.018044941
19	0xbf00fa5e	-0.5038203
20	0xbf27dba1	-0.655695
21	0x3ea4a6d3	0.32158527
22	0x3ef485a1	0.477582
23	0xbeb90388	-0.36135507
24	0xbf1ec9fa	-0.6202694
25	0xbd491a0d	-0.04909711
26	0x3d5e1ed2	0.05422861
27	0xbf1a9115	-0.6037763
28	0xbe971a5c	-0.29512298
29	0xbef193be	-0.4718303
30	0xbf197b5e	-0.5995387
31	0xbe8d90c6	-0.27649516

conv3.1.running_var f4 [32]
0	0x3f52c83e	0.82336795
1	0x3e9eb04f	0.30993888
2	0x3f04b4ee	0.51838577
3	0x3ef93b8e	0.4867825
4	0x3ec1d1c0	0.3785534
5	0x3e18e686	0.14931688
6	0x3e912a70	0.2835269
7	0x3e8b15c3	0.2716504
8	0x3e8d0fda	0.27551156
9	0x3ebb21b2	0.36549145
10	0x3ea79483	0.32730493
11	0x3dfb9397	0.1228401
12	0x3e8579e5	0.2606956
13	0x3f2eeeeb	0.6833331
14	0x3f41a9fa	0.7564999
15	0x3f22edb9	0.63643986
16	0x3e9ca1e7	0.30592272
17	0x3edefcf2	0.43552357
18	0x3e73d374	0.23811132
19	0x3e49e217	0.19715153
20	0x3e38b5ba	0.18038073
21	0x3eac664c	0.33671796
22	0x3e3dc39f	0.18531655
23	0x3f084427	0.5322899
24	0x3e27de4c	0.16393393
25	0x3e8d96ed	0.2765421
26	0x3e74a0c8	0.23889458
27	0x3efa8c18	0.48935008
28	0x3e8950f1	0.26819566
29	0x3e169201	0.14704134
30	0x3ea91404	0.33023083
31	0x3f3fd66f	0.74936575

deconv2.0.weight f4 [32, 16, 4, 4]
0	0xbd514649	-0.05109242
1	0xbd32cb0c	-0.04365067
2	0x3d2b25d1	0.04178411
3	0xbd04ab74	-0.032390073
4	0x3cd1b349	0.025598185
5	0xbd6ab1a1	-0.057298306
6	0xbd764157	-0.060120907
7	0xbd0d2fdb	-0.034469467
8	0xbcead1d5	-0.028664509
9	0x3c1d98f7	0.009618989
10	0x3840d87b	4.597798e-05
11	0x3c0b4e26	0.008502519
12	0xbce12f5f	-0.027488409
13	0xbd9447d4	-0.07240263
14	0x3d62f254	0.055406883
15	0xbb62a5ce	-0.003458369
16	0xbc6c1a52	-0.014410572
17	0xbd8b1c9a	-0.06792565
18	0xbc4cd775	-0.012502541
19	0x3d1dadc8	0.03849581
20	0x3d3413e8	0.043964297
21	0x3d516e89	0.051130805
22	0x3d75de85	0.060026664
23	0x3d4fe27a	0.050753094
24	0xbd079d67	-0.033109095
25	0x3d145de7	0.036222365
26	0x3c9db558	0.01925151
27	0xbc9435a8	-0.018091992
28	0x3cda2000	0.026626587
29	0x3bb69401	0.0055718427
30	0xbd683e37	-0.056699958
31	0x3c53471a	0.01289537
32	0x3d3f96d2	0.046774693
33	0xbd6e8ff1	-0.058242742
34	0x3d0a4e69	0.033766184
35	0x3d54c0f3	0.051941823
36	0x3d1ae715	0.037818033
37	0x3d44a7b7	0.048011508
38	0xbcd003e8	-0.025392488
39	0xbd0911df	-0.03346431
40	0xbb503984	-0.0031772563
41	0xbc5bbf97	-0.013412378
42	0x3d955d8a	0.07293232
43	0x3d0e720a	0.034776725
44	0x3ca679b5	0.020321706
45	0x3d03c6f3	0.032172155
46	0xbc93e094	-0.018051423
47	0xbd694d3f	-0.056958433
48	0xbd048999	-0.032357786
49	0xbc8d719d	-0.01726609
50	0x3cd40d0e	0.025885131
51	0xbd48cddd	-0.04902445
52	0x3bd1581f	0.0063886787
53	0xbcdaf25c	-0.026726894
54	0x3c2fd2c0	0.010731399
55	0xbca4d186	-0.02011944
56	0x3d89507a	0.06704803
57	0x3d7ec418	0.06219873
58	0xbd78fa76	-0.060785733
59	0xbd357396	-0.044299684
60	0x3cbe8c49	0.023260253
61	0xbd4b4caa	-0.04963366
62	0xbccf8b9e	-0.02533513
63	0xbdb4cc13	-0.088279866
64	0x3abd795d	0.0014455725
65	0xbd5cf5c3	-0.053945314
66	0xb9db6579	-0.00041846538
67	0x3cafb50a	0.02144863
68	0xbd1abaf8	-0.037775964
69	0x3d554b08	0.05207351
70	0xbc40e6f3	-0.011773813
71	0xbd20cac5	-0.039255876
72	0xbd536ca0	-0.051617265
73	0xbd1bea07	-0.038064983
74	0x3d18b6e0	0.03728378
75	0x3c4a8be9	0.012362459
76	0xbd9aa456	-0.07550876
77	0xbd0eb340	-0.034838915
78	0x3d41601d	0.0472108
79	0x3d29fc95	0.041500647
80	0xbc319ae8	-0.010840155
81	0xbcd39e28	-0.02583225
82	0xbd886666	-0.06660156
83	0xbd283551	-0.04106647
84	0x3d1a9a38	0.03774473
85	0xbc5bcc80	-0.013415456
86	0xbc848ce1	-0.016180458
87	0xbba1f246	-0.0049422113
88	0xbd15da06	-0.036584876
89	0xbd843597	-0.06455534
90	0xbd59eda0	-0.053205132
91	0x3b911bea	0.0044283764
92	0xbcee8654	-0.029116787
93	0x3c811483	0.015756851
94	0xbd19c45a	-0.03754077
95	0xbc59b458	-0.013287626
96	0xbd36a40c	-0.04459004
97	0xbd6c2b90	-0.057658732
98	0xbd1d8d79	-0.038464997
99	0xbcc0699e	-0.023487862
100	0x3d29fb9e	0.041499726
101	0x3c56965e	0.013097374
102	0xbd056ac7	-0.032572534
103	0xbcea2704	-0.028583057
104	0xbd3cc6b5	-0.04608794
105	0xbda0711a	-0.078340724
106	0xbd41626a	-0.047212996
107	0xbde2d293	-0.1107532
108	0x3d0a207d	0.03372239
109	0xbd9b5d3c	-0.075861424
110	0x3d13202f	0.035919365
111	0x3cb7d3d4	0.022439875
112	0x3adf1090	0.0017018486
113	0xbd981bf9	-0.0742721
114	0xbdb904b7	-0.090341024
115	0xbd9b776e	-0.07591139
116	0x3bb51b1b	0.005526913
117	0x3bca91ed	0.0061819465
118	0x3c268adf	0.010164945
119	0xbda8ddde	-0.08245443
120	0x3cf6b2ff	0.030114649
121	0xbd5ac5f3	-0.053411435
122	0x3bfe8de9	0.007768382
123	0x3cf22533	0.029558754
124	0x3d442b47	0.047892835
125	0xbc87861a	-0.016543437
126	0x3cf15fcf	0.02946463
127	0xbda7300b	-0.0816346
128	0xbd66facf	-0.056391533
129	0x3b3f3674	0.0029176744
130	0x3cf619e8	0.03004165
131	0x3d657542	0.05602003
132	0x3d8ad9c1	0.067798145
133	0x3d188ebc	0.037245497
134	0x3c6c04b5	0.014405419
135	0x3d3f3c41	0.046688322
136	0xbda6b30e	-0.08139621
137	0xbd0ababb	-0.033869486
138	0xbca36e20	-0.019949973
139	0xbc313e6d	-0.010818106
140	0xbce1db72	-0.02757046
141	0xbd3ac4e8	-0.04559794
142	0xbbf2f1b7	-0.0074140686
143	0x3d3c376f	0.045951303
144	0xbd84ff60	-0.064940214
145	0xbc0543db	-0.008133854
146	0x3c8538f0	0.016262501
147	0xbb2fbad9	-0.002681425
148	0xbd57537d	-0.052569855
149	0xbd8dc787	-0.069228224
150	0x3b6426f3	0.0034813255
151	0x3d1765e0	0.03696239
152	0xbd0fde13	-0.035123896
153	0xbd4ca35f	-0.04996049
154	0xbdaf73f1	-0.08567036
155	0x3d0c237e	0.034213535
156	0x3cf07afc	0.029355519
157	0xbd1a2a8f	-0.037638243
158	0xbc01f4cd	-0.0079319
159	0xbd9cdccf	-0.076593034
160	0x3c75f51e	0.015012054
161	0x3d19a16b	0.037507456
162	0x3d5fb6c0	0.054617643
163	0xbd2ad54a	-0.041707315
164	0x3d3d98ac	0.046288177
165	0xbc936e00	-0.017996788
166	0xbd380e4f	-0.04493552
167	0xbda7be5a	-0.081906036
168	0x3d89e202	0.06732561
169	0x3d7b7af7	0.061396565
170	0xbd10da4a	-0.035364427
171	0xbc0e86b6	-0.00869911
172	0x3c9b711e	0.018974837
173	0xbc09334f	-0.008374049
174	0xb9b2722a	-0.00034035865
175	0x3d004e70	0.031324804
176	0xbd05cdd1	-0.032666985
177	0xbc35e1da	-0.0111012105
178	0xbd17691d	-0.03696548
179	0x3c9da973	0.019245839
180	0x3c60c333	0.013718414
181	0xbd1d9c49	-0.038479123
182	0xbd83b754	-0.064314514
183	0x3ba89c94	0.0051456187
184	0xbc97aa95	-0.018513957
185	0x3ca5fdbc	0.020262592
186	0x3d16f782	0.036857136
187	0xbd81f7d9	-0.06346101
188	0x3cf5f727	0.030025078
189	0xbd459343	-0.048236143
190	0x3d1521cb	0.03640918
191	0x3bbc5acf	0.00574813
192	0x3d0326aa	0.032019295
193	0x3c1d28b8	0.009592228
194	0xbd0b32b0	-0.033983886
195	0x3ce4a95a	0.027912784
196	0xbc5f7c38	-0.013640456
197	0xbd340ba5	-0.043956418
198	0xbb267af9	-0.0025402887
199	0xbcf04df0	-0.029334038
200	0xbd81eb68	-0.06343728
201	0xbd1f35e6	-0.03886976
202	0xbd88e131	-0.06683577
203	0xbc15d947	-0.009146041
204	0xbc8ffbc3	-0.017576104
205	0x3c88841c	0.016664557
206	0x3d086585	0.03329994
207	0xbcc61175	-0.024178246
208	0x3ca183be	0.01971614
209	0xbd26db31	-0.04073638
210	0x3d1ea222	0.03872884
211	0xbd24588a	-0.0401235
212	0xbd3dfe5c	-0.046385154
213	0x3cb9f39d	0.022699172
214	0xbd60b66b	-0.054861467
215	0x3d05600f	0.03256231
216	0x3d36c9c9	0.04462603
217	0x3d1d0530	0.038335025
218	0xbc64a901	-0.013956309
219	0xbd73dc32	-0.059536166
220	0xbcd46eb6	-0.025931697
221	0xbd7d850a	-0.061894454
222	0xbd19b805	-0.03752901
223	0x3d3d3f0d	0.046202708
224	0x3d4bd373	0.0497622
225	0x3d1a2e3c	0.03764175
226	0x3d6ca51d	0.05777465
227	0xbd5fb16e	-0.05461257
228	0xbc0da250	-0.008644655
229	0xbd200089	-0.03906301
230	0x3d13ca5d	0.03608166
231	0x3c9c6f5f	0.019096075
232	0xbc76c327	-0.015061176
233	0xbd078120	-0.033082128
234	0xbd1a820c	-0.03772168
235	0xbcebb562	-0.028773014
236	0x3d4a5b65	0.049403567
237	0xbd95a7cb	-0.073073946
238	0xbccf68ba	-0.025318492
239	0xbcd8015f	-0.026367841
240	0x3d1b0ef5	0.03785606
241	0xbd848eff	-0.06472587
242	0x3d0c4965	0.034249682
243	0x3d0f2e8a	0.034956492
244	0x3b30e105	0.002698959
245	0xbc8352a6	-0.01603062
246	0xbd8c0ed6	-0.06838767
247	0xbd23ad5b	-0.039960247
248	0xbc809948	-0.01569809
249	0xbc3d434b	-0.011551688
250	0xbc30d1ee	-0.010792239
251	0x3d22b946	0.03972747
252	0xbd662c9d	-0.05619489
253	0xbcbfeb2c	-0.023427568
254	0xbd112d09	-0.03544334
255	0x3c5903c8	0.01324553

deconv2.0.bias f4 [16]
0	0xbcb0504b	-0.021522662
1	0xbd7d6048	-0.0618594
2	0xbb7012b7	-0.0036632249
3	0x3d401959	0.046899173
4	0x3c00ebf1	0.007868753
5	0xbd4ba7d4	-0.0497206
6	0x3c4e9355	0.012608369
7	0x3d0f80ef	0.03503507
8	0xbd225524	-0.039631978
9	0x3d28b73b	0.041190367
10	0xbd4e6c73	-0.050396394
11	0xbd43f1cf	-0.04783803
12	0x3c2ff0e3	0.010738584
13	0xbcb24829	-0.021762924
14	0x3d4e52d4	0.05037196
15	0xbb77bae7	-0.0037800611

deconv2.1.weight f4 [16]
0	0x3f748a28	0.9552331
1	0x3f7a8dc5	0.97872573
2	0x3f7fbee9	0.9990068
3	0x3f7ed9e6	0.99551237
4	0x3f7e85bb	0.99422807
5	0x3f8213b4	1.0162263
6	0x3f83e783	1.0305027
7	0x3f7de4fc	0.9917753
8	0x3f7a3fef	0.97753805
9	0x3f7b34ed	0.98127633
10	0x3f8137b7	1.0095128
11	0x3f803477	1.0016011
12	0x3f827dd1	1.0194646
13	0x3f8092f6	1.0044849
14	0x3f83a1c5	1.0283743
15	0x3f821a35	1.0164248

deconv2.1.bias f4 [16]
0	0xbc4fb81f	-0.012678175
1	0x3c84bdd6	0.016203802
2	0x3ccf70d5	0.025322357
3	0x3d057716	0.032584272
4	0x3d0bd820	0.03414166
5	0x3cb4fb77	0.022092564
6	0x3d7864e6	0.0606431
7	0x3c9f8d53	0.019476568
8	0x3d04ce80	0.032423496
9	0xbcabb57c	-0.020960562
10	0x3d3c5a31	0.04598445
11	0x3d098731	0.033576194
12	0x3d0cb625	0.034353394
13	0x3d121f5d	0.03567444
14	0x3d2f48bb	0.04279397
15	0x3d0e88c6	0.034798406

deconv2.1.running_mean f4 [16]
0	0xbe6ddcf6	-0.23228821
1	0xbead271b	-0.33818898
2	0xbe7f961e	-0.24959609
3	0xbebe1c1b	-0.37130818
4	0xbec4895d	-0.3838605
5	0xbefc951f	-0.4933252
6	0xbee89d2e	-0.4543242
7	0xbeae5195	-0.34046617
8	0xbec65c53	-0.38742313
9	0xbe776f6d	-0.241636
10	0xbef3487a	-0.47516233
11	0xbf142430	-0.5786772
12	0xbea4f8ab	-0.3222097
13	0xbef0ac8c	-0.47006643
14	0xbe9bd2a1	-0.30434135
15	0xbecc88e5	-0.39948192

deconv2.1.running_var f4 [16]
0	0x3e9d90d4	0.30774558
1	0x3ebeced7	0.3726718
2	0x3ea2d06d	0.3179964
3	0x3f027c45	0.5097087
4	0x3e876ae1	0.2644873
5	0x3e24a86f	0.16079877
6	0x3ec7aab8	0.38997436
7	0x3eaaa281	0.33327106
8	0x3eb41db4	0.35178912
9	0x3e8d0fbc	0.27551067
10	0x3f21ca3d	0.63199216
11	0x3ed650a1	0.4185839
12	0x3ed6e688	0.41972756
13	0x3f1b5ecd	0.6069153
14	0x3e31aaa6	0.17350253
15	0x3e2ecb4a	0.17069736

deconv3.0.weight f4 [16, 8, 4, 4]
0	0xbc3fdc36	-0.011710217
1	0xbb4e60c2	-0.0031490778
2	0xbb8bbb59	-0.004264277
3	0x3dd81b70	0.10552108
4	0x3d541b2d	0.05178373
5	0xbd2961b8	-0.041352957
6	0x3d0c02b5	0.03418227
7	0x3d02efba	0.031966902
8	0xbbe49710	-0.006976016
9	0x3c5263cf	0.012841179
10	0x3d84f6da	0.06492396
11	0x3cfd4cde	0.030920442
12	0xbd6d2f5d	-0.057906497
13	0x3d7012d6	0.058611713
14	0x3d1478a1	0.036247853
15	0xbd7b7994	-0.061395243
16	0xbcf91a34	-0.030408002
17	0x3d861176	0.06546299
18	0xbd388fe3	-0.045059096
19	0xbd0709d0	-0.032968342
20	0xbd4a4ad8	-0.049387783
21	0x3d01d0be	0.031693213
22	0xbd096f6f	-0.033553537
23	0x3d070d2f	0.032971557
24	0x3d3bc644	0.045843378
25	0xbd836656	-0.064160034
26	0x3d47dab4	0.048792556
27	0xbd3a608c	-0.04550223
28	0x3d825f15	0.06365792
29	0x3c8fcee7	0.017554713
30	0xbaa9e71e	-0.0012962555
31	0x3c9230cd	0.017845536
32	0xbc1cbb1a	-0.009566093
33	0x3da8966f	0.08231818
34	0xbc43d928	-0.01195363
35	0xbab0a6e3	-0.001347747
36	0xbcb3c379	-0.021943795
37	0xbd26b901	-0.040703777
38	0xbd0c3b84	-0.034236446
39	0xbd86b0ab	-0.065766655
40	0xbbc12ba3	-0.0058950945
41	0x3cc9d6a9	0.02463849
42	0xbc9e9053	-0.019355929
43	0x3c1211ad	0.008915347
44	0xbb9b93a9	-0.004747827
45	0x3d47f4c2	0.048817404
46	0x3d88fdf1	0.066890605
47	0x3da835b2	0.082133666
48	0x3de3bac1	0.11119605
49	0xbd55f936	-0.05223962
50	0x3b805258	0.003916066
51	0x3cf60bd3	0.030034935
52	0x3d9efbb0	0.07762849
53	0x3db282cd	0.087163545
54	0xbcb433b3	-0.021997308
55	0x3d80aac1	0.06282569
56	0x3cc6bb55	0.024259249
57	0xbce2b846	-0.027675759
58	0x3d1d10ae	0.038345985
59	0xbd122bf6	-0.035686456
60	0x3d2f4cf9	0.042798016
61	0x3d8330fd	0.06405828
62	0x3c03b6ca	0.008039186
63	0xbc67ac30	-0.014140174
64	0x3d8092f9	0.06278033
65	0x3ac1ba3c	0.0014780234
66	0x3d938c62	0.0720451
67	0x3d90ac61	0.07064129
68	0xbcc1450c	-0.023592494
69	0xbcdbfcf5	-0.026854018
70	0xbc429628	-0.01187662
71	0xbbbbb646	-0.005728516
72	0x3d7353d2	0.05940611
73	0x3d56e27f	0.052462097
74	0x3db9caa8	0.09071857
75	0x3cd6a333	0.026200866
76	0xbca8eaad	-0.020619715
77	0xbb85528a	-0.0040686773
78	0x3c35ff54	0.011108238
79	0xbd0d4ceb	-0.034497183
80	0xba0a5f2d	-0.00052784645
81	0x3d3add86	0.045621417
82	0xbd8bcf32	-0.06826629
83	0x3d25b928	0.040459782
84	0xbd65ed8a	-0.056134738
85	0x38da9b9b	0.00010424034
86	0xbd6161df	-0.055024978
87	0x3d8a2b35	0.06746522
88	0xbd293b7f	-0.041316506
89	0xbd691d29	-0.056912575
90	0xbd38b489	-0.045094047
91	0x3d8acf09	0.0677777
92	0x3d62517f	0.055253502
93	0x3d9e88ae	0.07740913
94	0x3d00ef9c	0.03147851
95	0xbd1e767c	-0.038687214
96	0xbd19b5a2	-0.037526734
97	0x3c430b02	0.01190448
98	0x3cc326c8	0.023822203
99	0x3d2176c0	0.03941989
100	0x3d575e85	0.052580375
101	0xbb6ec63d	-0.0036434077
102	0x3da16a45	0.078815974
103	0xbd27e2a0	-0.04098761
104	0xbd110e6b	-0.03541414
105	0x3dda0dff	0.10647201
106	0x3ce509ff	0.027958868
107	0xbc2cfe0c	-0.010558616
108	0x3d166176	0.03671404
109	0xbca549ce	-0.020176794
110	0xbd56dbc3	-0.052455675
111	0x3c18acc1	0.0093185315
112	0xbc93f800	-0.018062592
113	0x3d8928e8	0.066972554
114	0x3b8a08e0	0.0042124838
115	0x3d8e3c6e	0.0694512
116	0xbd5625c0	-0.052282095
117	0x3cfd620e	0.030930545
118	0x3cd03619	0.02541642
119	0xbd5f81d8	-0.054567188
120	0xbc9f7fc1	-0.019470097
121	0xbbe62203	-0.0070230975
122	0xbc8ca585	-0.01716877
123	0x3de70adc	0.11281368
124	0x3db119b7	0.08647483
125	0xbb917170	-0.0044385716
126	0x3dbe39af	0.09288346
127	0x3d5c52f2	0.05379004
128	0x3d619c13	0.055080485
129	0x3d8cfc89	0.06884105
130	0xbc934f11	-0.017982038
131	0xbd6ca83c	-0.05777763
132	0x3d64d8e7	0.055870917
133	0x3c3ebe34	0.011642028
134	0x3b9d3049	0.004797016
135	0xbd199857	-0.0374988
136	0xbd07a096	-0.03311213
137	0x3d7778df	0.060418006
138	0x3c87fec0	0.016600966
139	0x3c770d1d	0.01507881
140	0x3c15149c	0.009099152
141	0xbd13269a	-0.035925485
142	0x3d4ad492	0.04951913
143	0xbd1da0c7	-0.038483407
144	0xbd5143ef	-0.051090177
145	0x3c31faa4	0.01086298
146	0x3d0e7e5d	0.03478848
147	0x3d2382dd	0.039919723
148	0x3c9e5f6f	0.019332616
149	0xbce01bf4	-0.02735708
150	0xbc8bbe7f	-0.017058609
151	0xbcbce60c	-0.023058914
152	0x3d9ec613	0.077526234
153	0xbd51c9a4	-0.05121769
154	0x3cb27598	0.021784589
155	0xbc3ca035	-0.011512806
156	0xbd3d61c9	-0.046235833
157	0xbd75fae1	-0.06005371
158	0xbcbb6581	-0.02287555
159	0x3d3aaca4	0.0455748
160	0x3d37a63a	0.04483626
161	0x3ba1caef	0.0049375216
162	0xbd69955b	-0.057027202
163	0xbd18e090	-0.037323534
164	0x3d256210	0.040376723
165	0x3dde5f51	0.10858024
166	0x3cc41cc2	0.023939494
167	0x3d998617	0.07496279
168	0x3c22726b	0.009914975
169	0x3c178571	0.0092481235
170	0xbd791dd2	-0.060819454
171	0x3dc44c18	0.09584826
172	0xbbea7145	-0.007154616
173	0xbd5d3bb1	-0.054012004
174	0x3c7e9561	0.015538544
175	0xbd840226	-0.06445722
176	0xbb8d1a6b	-0.004306128
177	0x3d83fdf3	0.06444921
178	0xbc999100	-0.0187459
179	0x3cc4831c	0.0239883
180	0x3dd5a2a8	0.10431415
181	0x3b831c92	0.0040012086
182	0xbce29328	-0.02765806
183	0x3d4c8f9e	0.04994165
184	0xbd903cc6	-0.070428416
185	0x3d3e5d4f	0.046475705
186	0x3d835e62	0.064144865
187	0xbd5d51d3	-0.05403311
188	0xbd7982c3	-0.06091572
189	0x3c7b7d6c	0.015349727
190	0xbca633df	-0.020288406
191	0x3cd7e020	0.026351988
192	0xbcfde730	-0.030994028
193	0x3d8666aa	0.0656255
194	0x3c98b0cd	0.018638993
195	0xbc953932	-0.01821575
196	0xbd2f4af4	-0.04279609
197	0xbd4a1d00	-0.049344063
198	0x3d0b5156	0.034013115
199	0xbdaa6cf5	-0.08321563
200	0xbd11f572	-0.035634466
201	0x3cc1f967	0.023678495
202	0x3d8c8feb	0.06863388
203	0x3d9fe55d	0.078074194
204	0x3c9de3fa	0.019273747
205	0xbc52cfcd	-0.012866926
206	0x3d7ea1ae	0.06216591
207	0xbd0409f5	-0.03223606
208	0x3d5bf86f	0.05370372
209	0x3c600ba9	0.013674655
210	0x3d1267cc	0.03574352
211	0x3cd2e5cc	0.025744341
212	0xbcb5dd74	-0.022200324
213	0x3cb8efb3	0.022575235
214	0x3cc96e11	0.024588617
215	0x3c9f9554	0.019480385
216	0x3d49bae3	0.049250495
217	0x3c0239ca	0.007948348
218	0x3bfd8d9e	0.0077378293
219	0x3ccc73b7	0.02495752
220	0x3cc7588c	0.024334215
221	0x3d8106a8	0.06300098
222	0xbcb95b7b	-0.02262663
223	0x3da0965a	0.07841177
224	0x3d3f8e5e	0.04676663
225	0xbd8bb482	-0.068215385
226	0x3d996d08	0.07491499
227	0x3d9cd88d	0.07658491
228	0x3c46447e	0.012101291
229	0xbc64ecf1	-0.013972507
230	0xbd85cfa1	-0.06533743
231	0xbc2b9300	-0.010472059
232	0x3cba33eb	0.022729835
233	0x3d8cfc3f	0.068840496
234	0xbb2ead9f	-0.002665378
235	0xbc071c40	-0.008246481
236	0x3bca1ae9	0.0061677587
237	0x3d3c3ea6	0.045958184
238	0xbbcea112	-0.006305822
239	0x3dac88c1	0.08424521
240	0x3cee8211	0.029114755
241	0x3c1c60ad	0.009544534
242	0xbd289570	-0.04115814
243	0x3b95135d	0.0045494274
244	0x3d702a78	0.05863425
245	0xbd2baed8	-0.04191479
246	0xbd36bcaf	-0.044613536
247	0x3c88a5f2	0.016680691
248	0xbd5b5a08	-0.053552657
249	0x3d631613	0.055440973
250	0xbd9d8294	-0.076909214
251	0xbc4a8f24	-0.012363229
252	0x3c826e94	0.015921868
253	0xbcbde9f5	-0.023182848
254	0x3cb3fcb6	0.021971088
255	0x3d8c6c06	0.06856541

deconv3.0.bias f4 [8]
0	0xbaeb541b	-0.0017954143
1	0x3d7966e4	0.06088914
2	0x3d949512	0.072549954
3	0xbcdbdd28	-0.026838854
4	0x3d4f898f	0.050668295
5	0x3ba927f4	0.0051622335
6	0x3d47076f	0.048591074
7	0xbd1fa881	-0.038979057

deconv3.1.weight f4 [8]
0	0x3f89c212	1.076235
1	0x3f8a6569	1.0812198
2	0x3f8a8471	1.0821668
3	0x3f895ee4	1.0732083
4	0x3f8b1cbb	1.0868143
5	0x3f893a8e	1.0720994
6	0x3f8aa121	1.0830423
7	0x3f8b45ab	1.0880636

deconv3.1.bias f4 [8]
0	0x3d9a314a	0.075289324
1	0x3d9fff25	0.07812337
2	0x3da8101c	0.082061976
3	0x3d9012a5	0.07034806
4	0x3dae4ce5	0.0851076
5	0x3d900def	0.070339076
6	0x3da9d237	0.082920484
7	0x3db47559	0.08811445

deconv3.1.running_mean f4 [8]
0	0x3dc4e858	0.096146286
1	0x3d93152f	0.07181775
2	0x3e24a78b	0.16079538
3	0x3d49652d	0.049168754
4	0x3e7fcfc6	0.24981603
5	0x3df413c2	0.11917831
6	0x3e0c27dc	0.1368708
7	0xbc5f9776	-0.013646951

deconv3.1.running_var f4 [8]
0	0x3e0c2bf7	0.13688646
1	0x3e2e2a06	0.17008218
2	0x3e2db315	0.16962846
3	0x3e143711	0.14474131
4	0x3e601022	0.21881154
5	0x3e3396f7	0.17538057
6	0x3e1de9cf	0.15421222
7	0x3e67eea2	0.22649625
