Pix2Pix/checkpoints/pix2pix_model_epoch_100.pth (torch, 99191 bytes, 32 tensors)

conv1.0.weight f4 [8, 3, 4, 4]
0	0x3dfeb8fd	0.124376275
1	0x3df081f2	0.11743535
2	0xbda96ef6	-0.08273117
3	0x3e172c67	0.14763032
4	0x3d8b8578	0.068125665
5	0x3bd71053	0.0065632253
6	0xbd91211f	-0.070863955
7	0x3ddcb7b9	0.1077723
8	0xbdbee857	-0.09321659
9	0xbc9c547c	-0.019083254
10	0x3c167c68	0.009184934
11	0xbcb5bcb3	-0.022184705
12	0x3df16c23	0.117882036
13	0x3dbdc806	0.09266667
14	0xbe084cb5	-0.13310511
15	0xbe133609	-0.14376082
16	0xbd605d37	-0.054776397
17	0x3dae5050	0.08511412
18	0x3c22c379	0.0099343
19	0x3e23ff1b	0.16015284
20	0xbd7c3532	-0.06157417
21	0xbd4f9fb6	-0.05068942
22	0x3e34a5ed	0.1764142
23	0xbda1f2ee	-0.07907663
24	0xbe123a9d	-0.14280172
25	0xbdf94633	-0.121715926
26	0xbdbe6274	-0.09296122
27	0xbe050840	-0.12991428
28	0xbdc396d9	-0.09550256
29	0x3b81453a	0.00394502
30	0x3deccceb	0.115625225
31	0xbdbb935c	-0.09158966
32	0x3d8101d6	0.06299178
33	0x3deb7cc3	0.11498406
34	0xbd9db156	-0.0769984
35	0xbdeca462	-0.11554791
36	0xbd8f63a0	-0.07001424
37	0xbc244509	-0.010026225
38	0x3dfbbb9a	0.122916415
39	0xbcec932b	-0.028878769
40	0xbd8aaebd	-0.0677161
41	0xbdcec7d2	-0.100967064
42	0xbe0da92a	-0.13834062
43	0x3c9e19bd	0.019299382
44	0x3deaa885	0.11457924
45	0xbdae07af	-0.08497559
46	0x3e1f494d	0.15555306
47	0x3bfe8d41	0.0077683036
48	0x3c3f821b	0.011688734
49	0x3c979d40	0.0185076
50	0xbd88e7cf	-0.06684839
51	0x3e0e40c6	0.13891897
52	0x3dff0401	0.124519356
53	0x3d91c3ed	0.07117448
54	0x3dd871a1	0.10568548
55	0x3c568a70	0.0130945295
56	0x3c39fbad	0.011351508
57	0xbd983cd9	-0.07433481
58	0xbdc81b37	-0.09770816
59	0x3dd34751	0.10316337
60	0xbd852089	-0.06500346
61	0x3d0a4ac6	0.033762716
62	0xbda19a4a	-0.078907564
63	0x3e0eb2d0	0.13935399
64	0xbce76642	-0.028247003
65	0xbd888cca	-0.066674784
66	0x3df736fe	0.12071036
67	0xbe02b831	-0.12765576
68	0xbd69de10	-0.05709654
69	0xbdf3f23d	-0.11911438
70	0x3d45b0aa	0.048264183
71	0xbd30419b	-0.043031316
72	0xbb7e9d66	-0.003885114
73	0x3d456a94	0.048197344
74	0x3d42efcb	0.047591966
75	0x3de30cfc	0.11086461
76	0x3d48b635	0.04900189
77	0xbe1048c3	-0.14090256
78	0xbe030ddc	-0.12798256
79	0x3d2a03b4	0.041507438
80	0x3d2b4535	0.041814048
81	0x3da83c07	0.08214574
82	0xbdfb36a2	-0.1226628
83	0xbe0830ae	-0.1329982
84	0x3dd86c1c	0.10567495
85	0xbd8e35ef	-0.06943881
86	0xbc5eb77c	-0.013593551
87	0xbd818ca9	-0.06325657
88	0xbcf8946f	-0.030344216
89	0xbdacd316	-0.08438699
90	0xbde02b31	-0.10945738
91	0x3d84cfb4	0.06484929
92	0xbd1e8c48	-0.038708
93	0xbd14876b	-0.036261957
94	0xbdf0a7a2	-0.117507234
95	0x3d44f0f0	0.04808134
96	0x3db442bb	0.0880179
97	0xbdb1f8f6	-0.08690064
98	0x3c9ac1f9	0.018891321
99	0x3e16f7c1	0.14742948
100	0xbe070cef	-0.13188528
101	0xbdc2b90c	-0.09507951
102	0xbda72259	-0.08160848
103	0x3d420562	0.047368415
104	0xbe08bbeb	-0.13352935
105	0xbdc35fa1	-0.09539724
106	0x3bcbbe1e	0.006217732
107	0xbccdd626	-0.025126528
108	0x3dd744da	0.10511179
109	0xbdcb9106	-0.099397704
110	0x3d47e833	0.048805427
111	0x3de871c1	0.11349822
112	0x3ded6734	0.1159195
113	0xbe0bc75e	-0.13650271
114	0x3d83178e	0.06400977
115	0xbdd47c45	-0.10375265
116	0x3df1f373	0.118140124
117	0xbd8fd70e	-0.0702344
118	0x3bde5e1b	0.0067861206
119	0x3e16059d	0.14650579
120	0xbdd4175b	-0.10356017
121	0x3bdfc1e9	0.006828536
122	0x3cf25e20	0.029585898
123	0x3e14d9c4	0.14536196
124	0x3dd5be13	0.104366444
125	0xbc9c22c0	-0.019059539
126	0xbcc5bc1d	-0.024137551
127	0x3dcefc60	0.101067305
128	0x3bc04153	0.0058671623
129	0x3ce73478	0.028223261
130	0xbe1d183d	-0.15341277
131	0x3cfcdcfb	0.03086709
132	0x3d85f3a4	0.065406114
133	0xbde1aced	-0.11019311
134	0x3e019f93	0.12658529
135	0xbd2419bb	-0.0400636
136	0x3ddc8599	0.10767669
137	0xbcb38907	-0.021915926
138	0x3d88af71	0.06674088
139	0x3daf9276	0.08572857
140	0xbdd817ba	-0.105514005
141	0xbdd29ca6	-0.102837846
142	0xbe0f3608	-0.13985455
143	0xbd5c45ba	-0.053777434
144	0xbd236da4	-0.039899483
145	0x3c996e18	0.018729255
146	0xbcdc1b23	-0.026868409
147	0xbd9a7026	-0.07540922
148	0xbdfeba05	-0.12437824
149	0xbdfc3656	-0.12315051
150	0x3d866fc7	0.065642886
151	0x3dfae608	0.12250906
152	0x3dabbd80	0.08385754
153	0x3d5b5aa5	0.053553242
154	0x3bfa5ff0	0.007640831
155	0x3deade7b	0.11468216
156	0x3db1c17b	0.086794816
157	0xbdb08677	-0.08619397
158	0x3dd2048b	0.10254773
159	0xbd8e5658	-0.069500625
160	0xbc9941c2	-0.018708114
161	0x3dc32cec	0.095300525
162	0xbe18ecec	-0.14934129
163	0xbd9de3d3	-0.0770947
164	0xbda197ab	-0.078902565
165	0x3d1eb8ab	0.03875033
166	0xbe0ca75a	-0.13735715
167	0xbd9b7357	-0.07590359
168	0x3bd1e131	0.0064050187
169	0x3b96289e	0.0045824787
170	0xbc6b68b5	-0.014368226
171	0xbd5f7f48	-0.054564744
172	0x3d522c4b	0.051311772
173	0x3e3a943a	0.18220606
174	0x3dcf4c43	0.10121968
175	0x3d1b728d	0.03795104
176	0xbe0f4bf7	-0.13993822
177	0x3d8b7899	0.068101116
178	0x3af3037f	0.0018540471
179	0x3d19e950	0.03757602
180	0xbd129157	-0.035783138
181	0x3daeebc4	0.085410625
182	0x3c58e8cc	0.013239097
183	0x3deae6e0	0.11469817
184	0x3dfe61c6	0.124209926
185	0x3d18c2de	0.037295215
186	0xba5377b9	-0.00080668513
187	0x3d6a79d7	0.0572451
188	0x3e01e464	0.1268478
189	0xbdb60e9c	-0.08889505
190	0x3d8a1675	0.067425646
191	0x3dcc871a	0.09986706
192	0x3e43dd62	0.1912742
193	0x3e3707e3	0.17874102
194	0x3e346641	0.17617132
195	0xbc8e47a3	-0.017368143
196	0x3d1190e8	0.035538584
197	0x3d8aa666	0.06770019
198	0xbde98105	-0.11401562
199	0x3d5ad684	0.053427234
200	0x3db59cd4	0.08867803
201	0xbd9dfe02	-0.07714464
202	0xbce4c521	-0.02792603
203	0xbc855697	-0.01627664
204	0x3d8afdaf	0.067866676
205	0xbded39a3	-0.11583259
206	0x3d774e40	0.06037736
207	0x3c06a2bb	0.008217509
208	0x3d4bc309	0.049746547
209	0xbd053d55	-0.032529194
210	0x3dfb60e3	0.12274339
211	0xbdfe4767	-0.12415963
212	0xbdfc5999	-0.12321777
213	0xbd564db9	-0.052320216
214	0x3c63af1b	0.013896729
215	0x3d69c7e1	0.057075385
216	0x3e0e0fb5	0.1387318
217	0xbda5c515	-0.08094231
218	0xbddcc790	-0.10780251
219	0xbdf99018	-0.12185687
220	0xbdd19775	-0.10233966
221	0x3e0279bd	0.12741752
222	0x3d6f593c	0.05843471
223	0x3d8f8de3	0.070094846
224	0x3e16ac6a	0.14714208
225	0x3d7b64e2	0.061375506
226	0xbdb74cc7	-0.08950191
227	0x3d57ca2f	0.05268305
228	0xbddf8916	-0.10914819
229	0x3b1d3f5f	0.002399407
230	0x3dacf543	0.084452175
231	0x3cdc7dc9	0.026915448
232	0xbcaf9379	-0.021432625
233	0x3bb7e0a9	0.0056114984
234	0x3d3e951f	0.04652893
235	0x3ddc5d4a	0.10759981
236	0xbe00f33d	-0.12592788
237	0x3bc542a7	0.0060199085
238	0x3d9b9988	0.07597643
239	0xbcccdf1a	-0.025008727
240	0x3e017eec	0.12646073
241	0xbbb94550	-0.0056540146
242	0x3b17e4b4	0.002317709
243	0x3d19d95d	0.03756081
244	0xbc8cc61d	-0.017184312
245	0x3e115a03	0.14194493
246	0x3d27b5fd	0.040945042
247	0x3d0b6e14	0.034040526
248	0xbd56879b	-0.052375417
249	0xbcf006be	-0.02930009
250	0xbdd0d490	-0.10196793
251	0xbd059f61	-0.0326227
252	0x3dae11e6	0.084995076
253	0xbd8a66bb	-0.067578755
254	0x3d966887	0.07344156
255	0xbdf960f8	-0.121766984

conv1.0.bias f4 [8]
0	0xbd81b759	-0.06333799
1	0xbde66164	-0.112490445
2	0x3dde4e09	0.10854728
3	0xbda4c0c1	-0.080445774
4	0x3e0d6537	0.13808142
5	0xbdc36960	-0.09541583
6	0x3dddfce5	0.108392514
7	0x3d3208cc	0.04346542

conv1.1.weight f4 [8]
0	0x3f8041cc	1.002008
1	0x3f7e6f2d	0.9938839
2	0x3f7ea4cc	0.9947021
3	0x3f7f877e	0.9981612
4	0x3f809aaa	1.00472
5	0x3f82a07d	1.0205227
6	0x3f818c53	1.0120949
7	0x3f79cdd6	0.97579706

conv1.1.bias f4 [8]
0	0xbc88415c	-0.016632728
1	0xbc02e524	-0.007989202
2	0xbd2c319a	-0.04203949
3	0x3d0405e2	0.032232173
4	0xbd1562c0	-0.03647113
5	0x3ce529a1	0.027973952
6	0x3d0fe68f	0.035131987
7	0xbc9ff53d	-0.019526118

conv1.1.running_mean f4 [8]
0	0xbd70fe05	-0.058836002
1	0xbe03857a	-0.12843886
2	0x3de529c4	0.11189607
3	0xbde76132	-0.112978354
4	0x3d4602d5	0.048342545
5	0xbde6fe07	-0.112789206
6	0x3e4bbae8	0.19895518
7	0x3d4629c0	0.04837966

conv1.1.running_var f4 [8]
0	0x3d1cde55	0.03829797
1	0x3d2c59d6	0.04207786
2	0x3c75d445	0.015004222
3	0x3dac020a	0.083988264
4	0x3dbd29c8	0.09236485
5	0x3ce8fa17	0.028439565
6	0x3db9f494	0.09079853
7	0x3c23e3c5	0.010003035

conv2.0.weight f4 [16, 8, 4, 4]
0	0x3d4c2866	0.049843214
1	0x3cdb4649	0.026766913
2	0xbda2fe8a	-0.07958706
3	0xbd6e1d32	-0.05813331
4	0x3d7a2ba1	0.061076764
5	0x3d918f90	0.071074605
6	0xbc9c4aa8	-0.019078568
7	0x3d599296	0.05311831
8	0xbce4fad9	-0.027951645
9	0xbd21bcec	-0.03948681
10	0x3d839bc5	0.06426195
11	0x3d8d3ae7	0.06896
12	0xbd12f263	-0.03587569
13	0x3d537969	0.051629458
14	0x3d204b4d	0.039134312
15	0x3db5575e	0.088545546
16	0x3d377c36	0.04479619
17	0xb9a62624	-0.00031690404
18	0x3dd2746c	0.10276112
19	0x3d9bac84	0.07601264
20	0xbd332fc2	-0.043746717
21	0x3bbdcdff	0.005792379
22	0xbd3f5f7b	-0.046721917
23	0x3ce5086b	0.027958116
24	0x3d95f954	0.07322946
25	0xbd3524a7	-0.044224408
26	0xbd16dfd4	-0.036834553
27	0xbc415bd6	-0.011801681
28	0xbcfc7a38	-0.030819997
29	0x3d461d54	0.048367813
30	0x3dff8ecb	0.124784075
31	0x3de9ce0a	0.11416252
32	0xbd013487	-0.031544235
33	0xbd6c2c0b	-0.05765919
34	0xbd4142cd	-0.047182847
35	0xbc97af99	-0.018516349
36	0x3d8c373a	0.06846471
37	0x3d12b66b	0.0358185
38	0xba40f389	-0.00073605083
39	0x3d93f354	0.072241455
40	0x3c1a51c9	0.009418913
41	0x3d36d580	0.044637203
42	0x3db288d2	0.08717503
43	0xbd1b5b53	-0.03792889
44	0x3d21a09c	0.03945981
45	0x3d0ab3c3	0.03386284
46	0xbd49da77	-0.04928061
47	0xbd0bc233	-0.03412075
48	0xbd080122	-0.033204205
49	0xbd249b09	-0.040186916
50	0x3cf9f62d	0.030512894
51	0xbc3e266f	-0.011605843
52	0xbd24ce6a	-0.040235914
53	0xbd8ae906	-0.06782727
54	0x3dab50da	0.083650306
55	0x3bf57125	0.0074902945
56	0x3d43da86	0.047815822
57	0x3cd06ac8	0.025441542
58	0x3d18403f	0.037170645
59	0x3c329170	0.010898933
60	0xbd89b7ed	-0.06724534
61	0x3d9165fe	0.070995316
62	0xbd80442b	-0.06263002
63	0xbacdff12	-0.0015716276
64	0xbbe2eb91	-0.0069250544
65	0x3d76d623	0.06026281
66	0xbd0d2400	-0.03445816
67	0x3d813a7b	0.063099824
68	0xbd460b2f	-0.04835051
69	0xbcaf7a4a	-0.021420617
70	0x3c737927	0.014860428
71	0x3da17e19	0.07885379
72	0x3d71f73e	0.05907368
73	0x3d983ad3	0.07433095
74	0xbcaf08e9	-0.021366553
75	0x3de43c02	0.11144258
76	0x3d8d04e3	0.06885698
77	0x3dc66050	0.09686339
78	0x3da8face	0.08250962
79	0x3c6cc9dd	0.014452425
80	0xbc8c0faa	-0.017097313
81	0xbc780551	-0.015137986
82	0x3d83b91a	0.0643179
83	0x3d6038dc	0.054741725
84	0x3d76234a	0.060092248
85	0x3ba3f391	0.0050034006
86	0x3c8ee74b	0.017444273
87	0x3b9067ca	0.004406904
88	0x3d173fd3	0.036926102
89	0xbd77f9e6	-0.060541056
90	0xbd39390f	-0.04522043
91	0x3d1e3dc4	0.038633123
92	0x3d8535f4	0.06504431
93	0x3d026db4	0.031842902
94	0xbd0e0885	-0.034676094
95	0xbd037303	-0.032092106
96	0xbd9b4d26	-0.07583074
97	0x3d180630	0.037115276
98	0x3cbe7931	0.023251148
99	0x3cc56ec3	0.024100667
100	0x3d73f2f5	0.059557874
101	0xbd0110d5	-0.031510193
102	0xbb80df24	-0.0039328504
103	0xbd361f85	-0.044463653
104	0x3d293810	0.04131323
105	0xbd15eca2	-0.036602624
106	0x3dc74cde	0.09731458
107	0xbb546535	-0.0032408957
108	0x3d3e0349	0.04638985
109	0x3d98175d	0.07426331
110	0xbc34094b	-0.010988544
111	0x3ce14b4b	0.027501723
112	0xbca26ee0	-0.01982826
113	0x3cc5818c	0.024109624
114	0xbd90348a	-0.07041271
115	0x3d7c9d9b	0.06167374
116	0xbda1b45d	-0.0789573
117	0x3d117bba	0.035518385
118	0x3b95bba6	0.0045694886
119	0xbc85602f	-0.016281215
120	0xbd3af328	-0.045642048
121	0x3d21d7d3	0.039512467
122	0xbd6192f7	-0.055071797
123	0xbd5be12d	-0.05368154
124	0xbcfde578	-0.030993208
125	0x3ca54d40	0.020178437
126	0xbd44f644	-0.04808642
127	0x3c4eee43	0.012630048
128	0xbd275663	-0.04085387
129	0xbcbf0b8d	-0.023320938
130	0x3d66afe3	0.056320082
131	0x3d7dbcc0	0.061947584
132	0xbd8f321b	-0.06991979
133	0x3c2c30b0	0.010509655
134	0xbd36de53	-0.04464562
135	0xbdbf6a93	-0.09346499
136	0x3da6e178	0.081484735
137	0x3d0fda27	0.035120156
138	0x3d6956ba	0.056967475
139	0xbc43b59a	-0.011945153
140	0xbda39a7d	-0.07988451
141	0x3d4378be	0.04772257
142	0xbcc8142a	-0.024423677
143	0xbc285e69	-0.010276415
144	0x3b11bbb2	0.002223712
145	0x3d8e0bfc	0.069358796
146	0xbce653b6	-0.028116088
147	0x3d15181c	0.036399946
148	0x3ced7343	0.028985625
149	0x3c7ab912	0.015302913
150	0xbd35a33f	-0.044345137
151	0x3cc61a1f	0.024182377
152	0x3d69dcaf	0.057095226
153	0x3d51a677	0.051184144
154	0x3d5aa558	0.05338034
155	0x3cad4582	0.021151308
156	0xbd1dd7ac	-0.03853576
157	0xbc69f2e9	-0.014279106
158	0x3ccccfea	0.025001485
159	0x3d2de4d6	0.042454563
160	0x3db6a822	0.089187875
161	0x3d945909	0.072435446
162	0x3c70aa18	0.014688991
163	0x3cdf6479	0.027269589
164	0xbd28a4e6	-0.041172884
165	0xbd93e100	-0.0722065
166	0xbdc9dc18	-0.09856433
167	0xbd91c7ee	-0.07118212
168	0xbe0b51be	-0.13605401
169	0x3b94936d	0.004534176
170	0xbbaece96	-0.0053346856
171	0xbdc13ac9	-0.094350405
172	0x3b0c969c	0.0021452075
173	0x3c811067	0.015754892
174	0xbc6d54de	-0.014485566
175	0xbc62be8d	-0.013839376
176	0x3dbd0885	0.092301406
177	0x3b3df9d1	0.0028988014
178	0x3da5fc2a	0.08104737
179	0xbc9af5df	-0.018916069
180	0xbc47a242	-0.012184681
181	0xbd197485	-0.037464637
182	0xbc2371d2	-0.009975867
183	0x3d88728a	0.066624716
184	0xbd421ab6	-0.047388755
185	0xbda90c15	-0.082542576
186	0x3ca55dd4	0.020186342
187	0x3d0031f4	0.03129764
188	0x3d9ceb97	0.07662123
189	0xbd11cccb	-0.035595696
190	0x3d58ba25	0.052911896
191	0x3c068f66	0.0082129
192	0x3bbd631a	0.005779636
193	0xbc33332e	-0.010937495
194	0x3b97535b	0.004618091
195	0x3c6cc7a9	0.0144519
196	0x3ce4e89a	0.027942944
197	0x3b78008d	0.0037842125
198	0xbd56fd11	-0.052487437
199	0x3d03fdf4	0.03222461
200	0x3d70e010	0.058807433
201	0x3d88f56c	0.066874355
202	0xbcd2ed6a	-0.025747973
203	0xbd7952ac	-0.060869858
204	0xbd8f8070	-0.070069194
205	0x3c463413	0.012097376
206	0xbda2a11d	-0.07940886
207	0x3c8aad2c	0.016928278
208	0xbc9a1a94	-0.018811502
209	0x3dcb505b	0.09927436
210	0x3d68ccf0	0.05683607
211	0x3d75cf8a	0.060012378
212	0xbd6cd60b	-0.057821315
213	0x3db388c1	0.08766318
214	0x3db60db1	0.0888933
215	0x3dc0e1b7	0.09418052
216	0x3cd45ff5	0.025924662
217	0xbd48edb7	-0.049054828
218	0xbd1fd6a1	-0.039023045
219	0x3d7aab15	0.061198313
220	0xbdad5d36	-0.08465044
221	0xbde5478b	-0.11195286
222	0xbdfb2063	-0.12262037
223	0xbcb0cc57	-0.021581812
224	0x3d9a5917	0.07536524
225	0x3cea2ee7	0.028586818
226	0xbd7d821e	-0.061891668
227	0x3d178f23	0.03700174
228	0xbd01d331	-0.03169555
229	0xbb6c8928	-0.0036092494
230	0x3d268aa2	0.040659554
231	0xbc6411fe	-0.013920305
232	0xbc3590f2	-0.011081921
233	0xbb72a3c5	-0.0037023884
234	0xbd71eef0	-0.05906576
235	0x3d85a84f	0.06526243
236	0x3db0e4d6	0.08637397
237	0x3d2cd14e	0.042191796
238	0xbcb486ef	-0.022036998
239	0x3cbe7b7f	0.023252247
240	0x3ced5f18	0.028976008
241	0x3d488a59	0.048960064
242	0x3db287de	0.08717321
243	0xbc2ddfcc	-0.010612439
244	0x3d4e9351	0.05043346
245	0xbc0388b2	-0.008028196
246	0x3db164e0	0.086618185
247	0x3d3cabde	0.046062343
248	0x3cf07e31	0.029357048
249	0xbc06c820	-0.008226424
250	0xbd086805	-0.033302326
251	0xbc0c36f8	-0.008558027
252	0xbd781c3d	-0.060573805
253	0xbcf4c991	-0.02988127
254	0xbcfe0dc9	-0.031012433
255	0xbd1db212	-0.0384999

conv2.0.bias f4 [16]
0	0x3d3d193e	0.04616665
1	0x3d42e4b5	0.047581393
2	0xbd91dede	-0.07122587
3	0x3d46be01	0.048521046
4	0x3d673c7b	0.056454163
5	0xbd91dc91	-0.07122148
6	0x3d6ab526	0.057301663
7	0xbce76cd2	-0.028250132
8	0x3d1058c8	0.03524092
9	0x3bd48e8d	0.00648672
10	0x3cd1cd31	0.025610538
11	0x3d1bb7e8	0.038017184
12	0xbd8f2169	-0.06988794
13	0x3da211cc	0.07913551
14	0xbd40b871	-0.047050897
15	0x3d61808f	0.055054244

conv2.1.weight f4 [16]
0	0x3f7e5f88	0.9936452
1	0x3f7dd0ee	0.99146926
2	0x3f859b46	1.0438011
3	0x3f7e5e6f	0.99362844
4	0x3f846500	1.0343323
5	0x3f7eb068	0.99487925
6	0x3f853986	1.040818
7	0x3f7b9fea	0.98290884
8	0x3f7f3fd9	0.997068
9	0x3f80de2c	1.0067801
10	0x3f7fb91d	0.99891835
11	0x3f7d3dfd	0.9892271
12	0x3f84b19b	1.0366701
13	0x3f75fee3	0.9609205
14	0x3f806858	1.0031843
15	0x3f7d69d3	0.989896

conv2.1.bias f4 [16]
0	0xbd8430aa	-0.064545944
1	0xbbb34a8e	-0.005471534
2	0x3c45f84b	0.012083123
3	0x3d0baa68	0.03409806
4	0x3d8c6641	0.06855441
5	0xbc1b15dd	-0.009465662
6	0x3d1918c0	0.03737712
7	0x3c86a402	0.016435627
8	0x3c873e26	0.016509127
9	0x3cb78ae6	0.0224051
10	0xbca53d3f	-0.020170806
11	0x3b105b33	0.0022027015
12	0x3cda560f	0.026652364
13	0xbcc297bd	-0.023753995
14	0x3ce6cc01	0.028173449
15	0xbc136729	-0.008996763

conv2.1.running_mean f4 [16]
0	0x3f256ca1	0.6461888
1	0x3e8fbc6f	0.2807345
2	0xbf01959e	-0.5061892
3	0xbf12f2c6	-0.5740169
4	0xbe97fca5	-0.2968494
5	0x3e062935	0.13101657
6	0xbf0e935b	-0.55693597
7	0x3da27c2f	0.079338424
8	0x3e343e06	0.17601785
9	0x3beff2b2	0.0073226327
10	0x3ec9be8e	0.39403194
11	0x3e8c72ce	0.2743134
12	0xbc74839f	-0.014923959
13	0x3ee34f8e	0.44396633
14	0xbf0cb5a3	-0.54964656
15	0x3eae4bf3	0.3404232

conv2.1.running_var f4 [16]
0	0x3e34df76	0.17663369
1	0x3e84c575	0.25931898
2	0x3e3a4bc7	0.1819297
3	0x3e47a646	0.19497022
4	0x3de97834	0.1139988
5	0x3e35aa18	0.17740667
6	0x3e8fb5cc	0.28068388
7	0x3e0ab86c	0.13546914
8	0x3e17ac12	0.14811733
9	0x3e1f37a9	0.15548576
10	0x3e841e33	0.2580429
11	0x3ee0aa85	0.43880096
12	0x3dd3f3cd	0.10349236
13	0x3dea5c40	0.114433765
14	0x3f378275	0.71683437
15	0x3e2f4920	0.17117739

conv3.0.weight f4 [32, 16, 4, 4]
0	0x3d90caa4	0.07069901
1	0x3d895bc9	0.0670696
2	0x3d1730b3	0.036911678
3	0x3da3a9a7	0.07991343
4	0x3d76b012	0.060226507
5	0x3d1fbcac	0.03899829
6	0x3d0c1aea	0.034205355
7	0x3d8910dd	0.066926695
8	0x3d1bf2d0	0.03807336
9	0x3d7282bb	0.059206706
10	0x3d86d95a	0.06584425
11	0x3d890f00	0.06692314
12	0x3d18981f	0.03725445
13	0x3da4dfdb	0.080505095
14	0x3d9238e9	0.07139761
15	0x3dd5b729	0.10435326
16	0xbcf45805	-0.029827127
17	0x3d54259f	0.05179369
18	0x3cf2e8cb	0.02965202
19	0xbc5d62d6	-0.013512334
20	0x3cf85374	0.030313231
21	0x3d7e0509	0.06201652
22	0x3d0baf8a	0.034102954
23	0xbd176b0e	-0.03696733
24	0x3d590921	0.05298722
25	0xbccd96e0	-0.025096357
26	0x3bbccfde	0.0057620844
27	0xbce3f182	-0.02782512
28	0x3c59fc99	0.013304853
29	0xbd0284cc	-0.031864926
30	0x3d4acb1f	0.049510118
31	0x3b6c0e81	0.0036019387
32	0x3cb03e86	0.021514188
33	0xbbde6710	-0.0067871884
34	0x3d2979ce	0.041375928
35	0x3cb047e8	0.021518663
36	0x3d3c8cb0	0.046032608
37	0x3d547463	0.051868808
38	0x3bc5b840	0.006033927
39	0xbcd3170b	-0.025767824
40	0x3d7942a0	0.060854554
41	0x3cdb6a60	0.026784122
42	0x3d11acd3	0.03556521
43	0x3b6738e9	0.0035281724
44	0xbd416c0b	-0.04722218
45	0xbceb5a69	-0.028729634
46	0xbb8e6110	-0.004345067
47	0x3cceb2b6	0.0252317
48	0xbd4bc995	-0.04975279
49	0x3ca50e8c	0.020148538
50	0xbcc1f7a4	-0.023677655
51	0xbcc3457b	-0.023836842
52	0x3c799d71	0.015235291
53	0xbb87990a	-0.0041381167
54	0x3cfa8340	0.030580163
55	0x3b5f060b	0.0034030701
56	0x3d11a7dc	0.035560474
57	0x3d428779	0.047492478
58	0x3d66c141	0.056336645
59	0xbd30be39	-0.04315016
60	0xba4d4036	-0.00078296976
61	0xbd16d19b	-0.03682099
62	0x3c6869d4	0.014185388
63	0x3c83207f	0.016006706
64	0xbd0b9a05	-0.03408243
65	0xbd96d15a	-0.073641494
66	0xbd41c428	-0.04730621
67	0xbcf6b05f	-0.030113397
68	0xbd494c24	-0.04914488
69	0x3c746b24	0.014918122
70	0x3d72901b	0.05921946
71	0x3d04d69f	0.03243124
72	0x3c9c5039	0.019081222
73	0x3bf30b27	0.007417101
74	0x3b735595	0.0037129868
75	0x3cbf7ca3	0.023374861
76	0xbcaa673a	-0.020801175
77	0x3a87775c	0.0010335254
78	0xbd041f0a	-0.032256164
79	0xbd0b2430	-0.033970058
80	0x3d07f34f	0.03319102
81	0x3c51fdba	0.012816841
82	0x3db67957	0.089098625
83	0x3db1f6bb	0.08689638
84	0x3d38b58f	0.045095023
85	0xbaffb297	-0.001950818
86	0x3ae6c688	0.0017606774
87	0x3cb14d4d	0.021643305
88	0xbce9ca4c	-0.028538845
89	0x3d2988f9	0.041390393
90	0x3c727975	0.014799465
91	0xbb3ffa77	-0.0029293576
92	0x39b5c7ad	0.0003467178
93	0xbd4bd058	-0.04975924
94	0x3d6d7be1	0.05797947
95	0x3d0062db	0.031344276
96	0xbc8010e0	-0.015633047
97	0xbd0411fc	-0.032243714
98	0xbcddd7f2	-0.02708051
99	0xbd270f3e	-0.04078602
100	0x3d8abb00	0.06773949
101	0x3c7d58e7	0.0154630905
102	0x3dc21898	0.09477347
103	0x3d21ef93	0.039535116
104	0xbc2464ae	-0.0100337695
105	0x3c50a7be	0.012735305
106	0xbc00d123	-0.007862362
107	0xbd81cc69	-0.06337816
108	0xbcb0255a	-0.021502186
109	0x3c54f1ea	0.01299713
110	0x3cbf45a0	0.02334863
111	0xbcc06de6	-0.023489904
112	0xbd3a85ad	-0.04553764
113	0x3c8e502d	0.017372215
114	0x3b831ed4	0.0040014777
115	0xbc812a2e	-0.015767183
116	0x3d1f04d5	0.038822968
117	0x3d12319e	0.03569185
118	0xbcc9f11b	-0.0246511
119	0xbd617726	-0.05504527
120	0xbbf33b03	-0.007422806
121	0x3d395a2f	0.04525202
122	0x3d4a2659	0.049352977
123	0xbd0f2e95	-0.034956533
124	0x394e5dbe	0.00019680613
125	0xbc843f85	-0.01614357
126	0x3c3297cd	0.01090045
127	0x3d5b391d	0.053521264
128	0x3b07aab7	0.002070112
129	0x3c7697db	0.015050854
130	0x3bce64cf	0.0062986384
131	0x3ce3561b	0.02775102
132	0xbd85334c	-0.06503925
133	0x3d0c391c	0.03423415
134	0x3d0e7e59	0.034788463
135	0x3d455032	0.048172183
136	0xbc460658	-0.012086473
137	0xbd550934	-0.05201073
138	0x3d02613e	0.03183102
139	0x3d59eb3e	0.05320286
140	0x3c507955	0.01272424
141	0x3a73566b	0.00092825916
142	0x3cd06560	0.025438964
143	0x3cb2556d	0.02176925
144	0xbd6fb044	-0.05851771
145	0xbd74b425	-0.05974211
146	0xbd51da26	-0.051233433
147	0xbd0d4886	-0.034492992
148	0xbbd68c17	-0.0065474617
149	0xbd90e202	-0.070743576
150	0xbcfb6433	-0.030687427
151	0xbc62815a	-0.013824785
152	0xbc7dda48	-0.015493937
153	0x3ca67834	0.02032099
154	0xbce88e1f	-0.028388081
155	0xbc6c56a3	-0.014424953
156	0xbc95dd8c	-0.018294118
157	0xbd03ff15	-0.032225687
158	0xbd3639ca	-0.044488706
159	0xbc8770ab	-0.016533216
160	0x3d0b2273	0.0339684
161	0x3d01a096	0.031647287
162	0x3db208ed	0.08693109
163	0xbbc4b600	-0.0060031414
164	0x3d8a965f	0.06766962
165	0x3d9196e6	0.0710886
166	0x3d4cc9ae	0.049997024
167	0x3d0a3124	0.03373827
168	0x3d053cc9	0.032528672
169	0x3d630d95	0.055432875
170	0x3a1d98c9	0.00060118415
171	0x3cba9142	0.022774342
172	0x3d5a76c3	0.053335916
173	0x3cb94cbc	0.022619598
174	0xbc516e7a	-0.012782687
175	0xbcadda87	-0.021222366
176	0x3cfa85a3	0.030581301
177	0xbd6c22d0	-0.057650387
178	0xbd1e36dc	-0.038626537
179	0x3bfe3171	0.0077573587
180	0x3cebf819	0.028804826
181	0xbd19ac72	-0.037517972
182	0x3d3dc879	0.046333764
183	0x3c9d5fb2	0.01921067
184	0x3c01b459	0.007916533
185	0x3d07eb2d	0.033183265
186	0xbcd2c1bc	-0.025727145
187	0xbc392a5e	-0.011301605
188	0x3d215445	0.039387006
189	0x3d282b76	0.041057073
190	0xbd314c8f	-0.043285903
191	0x3cd78397	0.026307864
192	0xbd699b49	-0.057032857
193	0xbd58bebe	-0.05291628
194	0xbd0a85d4	-0.033819035
195	0xbd61f1cf	-0.055162247
196	0xbcb5f29b	-0.02221041
197	0x3caea872	0.021320555
198	0xbd68b42e	-0.056812458
199	0xbcda7cb8	-0.026670799
200	0x3ccdb36d	0.025109971
201	0xbb17ef52	-0.0023183418
202	0x3c8f3dfb	0.01748561
203	0xbc1c7ca1	-0.009551198
204	0xbd452339	-0.048129294
205	0x3baa5ed2	0.0051992917
206	0xbc5d56fa	-0.013509506
207	0x3ab91d3b	0.0014123091
208	0xbd426b4b	-0.047465604
209	0x3d2337ec	0.039848253
210	0x3d3c50cc	0.04597549
211	0x3d0a2161	0.03372324
212	0xbd0b4b51	-0.034007374
213	0x3b166fb1	0.0022954757
214	0xbc09514e	-0.008381201
215	0xbc0f6fe9	-0.008754709
216	0xbcbc11e9	-0.022957759
217	0x3d1e75a6	0.038686417
218	0x3cd7529f	0.026284514
219	0x3ce59446	0.028024804
220	0x3bc74445	0.0060811364
221	0xbc859efd	-0.016311163
222	0x3d21f9be	0.039544813
223	0xbd2996eb	-0.041403692
224	0xbc857a07	-0.016293539
225	0xbd0755a9	-0.033040676
226	0xbd8b75a4	-0.068095475
227	0x3b95d0c8	0.004572008
228	0x3cdf0757	0.02722518
229	0x3c2c7b14	0.010527391
230	0xbd13b881	-0.03606463
231	0xbcd97543	-0.026545173
232	0x3cb0b116	0.021568816
233	0x3d00ca5a	0.031442977
234	0xbd10a79c	-0.035316095
235	0x3cd55d42	0.026045445
236	0x3c0787c6	0.008272117
237	0x3d65090b	0.055916827
238	0x3d229e87	0.039701965
239	0x3ce2a24d	0.027665282
240	0xbcb41b9f	-0.021985827
241	0xbc5759c3	-0.013143959
242	0xbc23cbea	-0.009997347
243	0xbce066d8	-0.02739279
244	0x3d7e4d04	0.062085167
245	0x3c60d4b7	0.01372259
246	0xbd06ab1f	-0.032878038
247	0x3c3185d4	0.01083513
248	0xbd166dae	-0.036725692
249	0xbc7d853d	-0.015473661
250	0xbd497cec	-0.0491914
251	0x3d03b337	0.032153334
252	0xbc4be7b4	-0.012445379
253	0x3c4b7202	0.012417318
254	0x3cf7bbd2	0.030240927
255	0xbb9067ad	-0.0044068904

conv3.0.bias f4 [32]
0	0x3cdecbcb	0.027196785
1	0x3cf0b2ee	0.029382195
2	0x3c348405	0.011017804
3	0xbbb84f2a	-0.0056246715
4	0xbc6e7eac	-0.014556568
5	0x3c9a20d4	0.018814482
6	0xbd7df9d8	-0.062005848
7	0x3c08d0d2	0.008350568
8	0xbd230b53	-0.03980572
9	0x3d2902fd	0.041262615
10	0x3bd7f52e	0.006590507
11	0x3c957bee	0.01824757
12	0x3a565eee	0.0008177598
13	0x3d55aa85	0.052164573
14	0xbd335d6d	-0.04379027
15	0xbd4e76bd	-0.050406206
16	0xbd5e1203	-0.054216396
17	0x3cedded5	0.029036919
18	0xbcadc8dd	-0.021213943
19	0x3d6492c5	0.055804033
20	0xbd7ea84e	-0.062172227
21	0xbd084e5a	-0.033277847
22	0x3d2cd6b6	0.04219695
23	0x3c9a8764	0.018863387
24	0xbca6e721	-0.020373883
25	0x3d58ebf0	0.052959383
26	0x3c3278cc	0.010893058
27	0x3c74fb73	0.014952528
28	0x3d7112ee	0.058855943
29	0xbd3f3eb1	-0.046690647
30	0xbc09e058	-0.008415304
31	0x3c5c0e6c	0.013431173

conv3.1.weight f4 [32]
0	0x3f83875f	1.0275687
1	0x3f7f2ed7	0.99680847
2	0x3f8165a2	1.0109141
3	0x3f794595	0.973718
4	0x3f7d58ca	0.98963606
5	0x3f822ed4	1.0170541
6	0x3f7b910e	0.9826821
7	0x3f7eb909	0.9950109
8	0x3f84a7df	1.036373
9	0x3f80f617	1.0075101
10	0x3f80a86a	1.0051396
11	0x3f8000ff	1.0000304
12	0x3f77ae26	0.96750104
13	0x3f83a8c8	1.0285883
14	0x3f8414e3	1.0318874
15	0x3f7d8a4e	0.9903916
16	0x3f80fe6c	1.0077643
17	0x3f7f294b	0.99672383
18	0x3f7ba66d	0.9830082
19	0x3f81ab07	1.0130318
20	0x3f847651	1.0348607
21	0x3f81d1c5	1.0142142
22	0x3f7b7a63	0.9823362
23	0x3f7f20f2	0.99659646
24	0x3f78b7fe	0.9715575
25	0x3f8058c8	1.0027094
26	0x3f7ba42a	0.9829737
27	0x3f839d3f	1.0282363
28	0x3f7c83fb	0.98638886
29	0x3f7eb611	0.9949656
30	0x3f804c44	1.0023274
31	0x3f7f212f	0.9966001

conv3.1.bias f4 [32]
0	0xbd9c5251	-0.07632888
1	0xbb44534e	-0.002995688
2	0xbd5a9543	-0.053365003
3	0xbcaf98ee	-0.021435227
4	0xbabee726	-0.0014564737
5	0xbb2d0ab1	-0.0026404078
6	0xbc8b0453	-0.016969835
7	0x3beb294c	0.007176554
8	0x3d1f871a	0.038947202
9	0x3c90d220	0.01767832
10	0xbc52ef28	-0.012874402
11	0xbcb3baaa	-0.021939594
12	0x3c8164f1	0.015795203
13	0xbd0f5912	-0.034997053
14	0x3da911f6	0.08255379
15	0x3b3cca1e	0.0028806995
16	0x3ce74107	0.02822925
17	0xbc98fdc0	-0.018675685
18	0xbc22cde6	-0.009936785
19	0xbd8faffe	-0.0701599
20	0x3b5476a1	0.003241934
21	0xbcd41449	-0.025888579
22	0xbc057e24	-0.00814775
23	0x3ce0eb6b	0.027456006
24	0x3c9718b5	0.018444398
25	0xbb8ee466	-0.0043607233
26	0x3b9cb12e	0.0047818637
27	0x3d444163	0.04791392
28	0xbac37b62	-0.001491409
29	0xba1e55b5	-0.0006039993
30	0x39b8bed4	0.00035237393
31	0x3cb68475	0.022279957

conv3.1.running_mean f4 [32]
0	0x3f3d1f42	0.7387582
1	0x3ccecf0e	0.025245216
2	0x3dd5b77d	0.10435388
3	0x3d506a98	0.050882906
4	0x3dd446ed	0.103650905
5	0xbf71de76	-0.94480073
6	0xbe5882f8	-0.2114371
7	0xbc9cc03a	-0.01913463
8	0xbe642286	-0.22278795
9	0x3ee9e8ae	0.45685333
10	0x3e02b24e	0.1276333
11	0xbd4355d7	-0.047689285
12	0xbe63d0c2	-0.22247604
13	0x3ee02dbc	0.43784893
14	0xbf7603c9	-0.96099526
15	0xbf352679	-0.7076183
16	0xbf621968	-0.88320017
17	0x3e4087f0	0.18801856
18	0x3ae50168	0.0017471733
19	0xbf38c863	-0.72180766
20	0xbeddedeb	-0.4334558
21	0x3e90eeef	0.28307292
22	0x3ec1f3ff	0.37881467
23	0xbeab757f	-0.3348808
24	0xbf2631d1	-0.64919764
25	0xbe51628f	-0.20447753
26	0x3d5f08f6	0.054451905
27	0xbf1357d1	-0.5755587
28	0x3e072614	0.1319812
29	0xbecf6faf	-0.40514895
30	0xbf0a2c14	-0.5397351
31	0x3ddd2017	0.10797136

conv3.1.running_var f4 [32]
0	0x3f47ff5f	0.7812404
1	0x3e747969	0.2387444
2	0x3edb92ce	0.4288544
3	0x3ee616a1	0.4493914
4	0x3ef20e4f	0.47276542
5	0x3e399c39	0.18126
6	0x3e86c905	0.2632524
7	0x3e75c78a	0.240019
8	0x3e51c867	0.20486604
9	0x3e5fdaba	0.21860781
10	0x3ea892bd	0.32924452
11	0x3df461b8	0.11932701
12	0x3e845c54	0.2585169
13	0x3f0bdb4b	0.5463149
14	0x3f061330	0.5237303
15	0x3f07c1a7	0.53029865
16	0x3e8bd6bc	0.27312267
17	0x3ee50286	0.44728488
18	0x3e9053a0	0.281888
19	0x3e661572	0.22469118
20	0x3e1f1fbe	0.15539452
21	0x3ea4d237	0.3219163
22	0x3e58866f	0.21145032
23	0x3f0f1527	0.5589165
24	0x3e33ea8b	0.1756994
25	0x3ea6be0b	0.32566866
26	0x3e9c624c	0.30543745
27	0x3ec5dd19	0.38645247
28	0x3e29e4c4	0.16591173
29	0x3e221ca8	0.15831244
30	0x3e5eddf1	0.21764351
31	0x3f05df4b	0.52293843

deconv2.0.weight f4 [32, 16, 4, 4]
0	0xbd4ea74b	-0.05045251
1	0xbd29ce73	-0.04145665
2	0x3d227a1e	0.03966724
3	0xbd0272bc	-0.0318477
4	0x3cc40911	0.023930104
5	0xbd6b3b6d	-0.05742972
6	0xbd80b6ad	-0.06284843
7	0xbd12ba3b	-0.035822134
8	0xbce60758	-0.028079674
9	0x3c3eabbe	0.011637626
10	0xbb12ccc8	-0.0022399891
11	0x3c1b7336	0.009487918
12	0xbcef7cae	-0.029234257
13	0xbd886e13	-0.0666162
14	0x3d584276	0.052797757
15	0x3a3f91fc	0.0007307825
16	0xbc5bdfb8	-0.013420038
17	0xbd87d0ff	-0.0663166
18	0xbc8509ca	-0.01624002
19	0x3d20577b	0.039145928
20	0x3d32fbc1	0.043697122
21	0x3d50bce5	0.050961394
22	0x3d742f02	0.059615143
23	0x3d4a3286	0.04936459
24	0xbd154a70	-0.036447942
25	0x3d12968b	0.0357881
26	0x3c36dcf9	0.011161082
27	0xbc981fb2	-0.018569801
28	0x3cddf348	0.027093545
29	0x3c27bf32	0.010238456
30	0xbd649647	-0.05580738
31	0x3c8b4fef	0.017005889
32	0x3d28f3db	0.041248184
33	0xbd7d2b13	-0.061808657
34	0x3cf80fb5	0.030280927
35	0x3d471095	0.0485998
36	0x3d0acb23	0.033885133
37	0x3d2da097	0.04238948
38	0xbcf9c04e	-0.030487206
39	0xbd1fdb49	-0.039027486
40	0xbba1b935	-0.0049354085
41	0xbc899259	-0.016793417
42	0x3d93c73d	0.07215736
43	0x3d042579	0.0322623
44	0x3c9e2b5f	0.01930779
45	0x3cdac9e9	0.026707606
46	0xbca605a3	-0.02026636
47	0xbd804570	-0.06263244
48	0xbd11b30e	-0.03557115
49	0xbc29dbbb	-0.010367329
50	0x3cc68d77	0.024237378
51	0xbd43cd05	-0.047802944
52	0x3bad1afc	0.005282758
53	0xbce21ada	-0.027600694
54	0x3c23169f	0.009954124
55	0xbcab98f8	-0.020946965
56	0x3d87e2a5	0.06635026
57	0x3d93c6ee	0.07215677
58	0xbd72ff17	-0.059325304
59	0xbd1838ce	-0.03716355
60	0x3cc31855	0.023815313
61	0xbd4e9acd	-0.0504406
62	0xbcc60635	-0.024172882
63	0xbdb65e66	-0.08904724
64	0x378a532b	1.648961e-05
65	0xbd683240	-0.056688547
66	0xbb99893d	-0.0046855495
67	0x3c841276	0.016122084
68	0xbd346858	-0.044044822
69	0x3d1cacab	0.038250607
70	0xbca3d63b	-0.019999614
71	0xbd58ecd1	-0.05296022
72	0xbd5c2915	-0.053750116
73	0xbd273527	-0.040822174
74	0x3d01e30f	0.03171068
75	0x3c06197d	0.008184788
76	0xbd9ee933	-0.07759323
77	0xbd19c649	-0.037542615
78	0x3d2865d0	0.04111272
79	0x3d23352c	0.03984563
80	0xbc944ea0	-0.018103898
81	0xbcf85778	-0.030315146
82	0xbd9c1ebd	-0.0762305
83	0xbd2bf5bf	-0.04198241
84	0x3cf433f7	0.029809935
85	0xbc352d91	-0.011058227
86	0xbca407a7	-0.02002318
87	0xbb4a94a7	-0.0030911358
88	0xbd385681	-0.04500437
89	0xbd8c01b3	-0.068362616
90	0xbd7f4168	-0.062318236
91	0xb9a19295	-0.00030817525
92	0xbcf8ab52	-0.03035513
93	0x3c9be4d8	0.01903002
94	0xbd13386c	-0.03594248
95	0xbc43836e	-0.011933191
96	0xbd1d8937	-0.038460936
97	0xbdac60ff	-0.08416938
98	0xbd2544b9	-0.040348742
99	0xbd306971	-0.043069307
100	0x3d2a8d8e	0.041638903
101	0x3c4df06b	0.012569527
102	0xbcef8ced	-0.029242003
103	0xbcea3a44	-0.028592236
104	0xbd4beed2	-0.049788304
105	0xbddd2ae0	-0.107991934
106	0xbd884856	-0.06654422
107	0xbe0f3208	-0.13983929
108	0x3d0997e1	0.03359211
109	0xbd9cdd21	-0.076593645
110	0x3d146de0	0.036237597
111	0x3cbb0c40	0.02283299
112	0xbb352411	-0.0027639905
113	0xbd86f5d2	-0.06589855
114	0xbdc84d97	-0.09780424
115	0xbd934f83	-0.071929
116	0xbaaa58bc	-0.0012996416
117	0xbcbfec61	-0.023428144
118	0x3bae6522	0.0053221146
119	0xbde178f7	-0.110094
120	0x3cf38267	0.029725267
121	0xbd401d6b	-0.046903055
122	0x39f00fc9	0.00045788128
123	0x3cd8f859	0.026485609
124	0x3d37ad38	0.04484293
125	0xbd2bbcfa	-0.04192827
126	0x3cd6297e	0.026142832
127	0xbdcb7a51	-0.099354394
128	0xbd7bbc1b	-0.06145869
129	0x3b49f703	0.0030817396
130	0x3cc68c2a	0.024236757
131	0x3d5d2de5	0.053998847
132	0x3d884c27	0.0665515
133	0x3d12a19b	0.03579865
134	0x3c77dfe7	0.015129066
135	0x3d2fe935	0.042947013
136	0xbdb673ef	-0.08908831
137	0xbcea491c	-0.028599314
138	0xbcf08f9c	-0.029365353
139	0xbbc198ce	-0.0059081083
140	0xbcff5851	-0.031170042
141	0xbd37737b	-0.044787865
142	0xbc0a48a3	-0.0084401695
143	0x3d35e60d	0.044408847
144	0xbda1ddb4	-0.07903615
145	0xbb12d256	-0.0022403202
146	0xbb383cf7	-0.002811251
147	0xb88a90e6	-6.607342e-05
148	0xbd49fe43	-0.04931475
149	0xbd8a9814	-0.06767288
150	0x3ba5bbe7	0.0050578
151	0x3d1f6dee	0.038923196
152	0xbd6c39a6	-0.057672165
153	0xbd2cb275	-0.042162377
154	0xbdebc706	-0.1151257
155	0x3d1f6c2d	0.038921524
156	0x3d066a99	0.032816503
157	0xbd36caac	-0.044626877
158	0xbb9edfbb	-0.004848448
159	0xbdab5753	-0.08366265
160	0x3c612f31	0.013744161
161	0x3d0d87b1	0.034553234
162	0x3d5a88ca	0.05335311
163	0xbd3752e7	-0.044756796
164	0x3d29097b	0.041268807
165	0xbcd5bd6c	-0.0260913
166	0xbd3f2f16	-0.046675764
167	0xbdb74527	-0.08948737
168	0x3d8a4519	0.067514606
169	0x3d755fc4	0.059905782
170	0xbd104ea2	-0.03523124
171	0xbc1ed4b7	-0.00969427
172	0x3c993dbd	0.018706197
173	0xbc88f5c0	-0.016718745
174	0x3b1aa5fc	0.002359747
175	0x3cbff7ff	0.023433683
176	0xbd186c6d	-0.037212778
177	0xbc8823dd	-0.016618663
178	0xbd31cb0d	-0.043406535
179	0x3c7bffc9	0.015380808
180	0x3c46455b	0.012101497
181	0xbd2717cd	-0.040794183
182	0xbd85b9ae	-0.06529556
183	0x3b463bcf	0.003024805
184	0xbcbc9f3a	-0.023025144
185	0x3c86f505	0.016474256
186	0x3cef42f1	0.029206725
187	0xbd86630e	-0.06561862
188	0x3cef0020	0.029174864
189	0xbd4e3ebe	-0.050352804
190	0x3d125ab9	0.03573105
191	0x3b7a2c8e	0.003817353
192	0x3cb8ad83	0.022543674
193	0x3c396dc2	0.011317672
194	0xbd256751	-0.040381733
195	0x3cefb57d	0.029261345
196	0xbc96b78c	-0.018398069
197	0xbd57f50c	-0.05272393
198	0xbc04a9f1	-0.008097158
199	0xbd1bd209	-0.038042102
200	0xbd95498d	-0.07289419
201	0xbd17d12a	-0.03706471
202	0xbd9b0c00	-0.07570648
203	0xbbf12247	-0.0073588225
204	0xbc9c5bdb	-0.019086769
205	0x3bead1ed	0.0071661384
206	0x3cf8eab3	0.03038535
207	0xbd09df87	-0.033660438
208	0x3c4de482	0.012566688
209	0xbd3af79c	-0.045646295
210	0x3cf3390b	0.029690286
211	0xbd42a399	-0.0475193
212	0xbd55f290	-0.05223328
213	0x3ca9d7a7	0.020732714
214	0xbd79a258	-0.06094584
215	0x3cd77c26	0.026304316
216	0x3d177b01	0.03698254
217	0x3d0ef3f9	0.03490064
218	0xbcba6908	-0.02275516
219	0xbd832c84	-0.06404975
220	0xbd08ab1d	-0.03336631
221	0xbd7c0d42	-0.06153608
222	0xbd3ddba6	-0.04635205
223	0x3d2e2134	0.042512134
224	0x3d4c7207	0.049913432
225	0x3d187249	0.037218366
226	0x3d63243f	0.05545449
227	0xbd546dc4	-0.051862493
228	0xbc11f929	-0.008909502
229	0xbd3fb5c3	-0.0468042
230	0x3d0af3f6	0.033924066
231	0x3c3fe4b3	0.011712241
232	0xbc7e2541	-0.015511812
233	0xbd1b6291	-0.037935797
234	0xbd298929	-0.04139057
235	0xbd00c8a3	-0.031441342
236	0x3d473c81	0.048641685
237	0xbd9ac6b0	-0.07557428
238	0xbce2699d	-0.027638251
239	0xbcf18f31	-0.029487224
240	0x3c86f6c9	0.016475098
241	0xbd96efed	-0.07369981
242	0x3c91652e	0.017748442
243	0x3cd5ee84	0.02611471
244	0xbc47ced9	-0.012195312
245	0xbc670ff1	-0.014102922
246	0xbd9b879f	-0.07594227
247	0xbcf2c40d	-0.0296345
248	0xbcaabd59	-0.020842241
249	0xbc8cd6b7	-0.017192228
250	0xbc76da42	-0.015066685
251	0x3d0627ca	0.03275279
252	0xbd536f2a	-0.051619686
253	0xbcd1e09e	-0.025619801
254	0xbd04b5a6	-0.032399796
255	0x3c7a85d6	0.015290698

deconv2.0.bias f4 [16]
0	0xbcaf2a19	-0.021382378
1	0xbd7d86af	-0.061896022
2	0xbb6e9492	-0.0036404473
3	0x3d401a0a	0.046899833
4	0x3bfeccca	0.0077758776
5	0xbd4d1ff2	-0.050079294
6	0x3c4e4fa2	0.012592228
7	0x3d0f8ce3	0.03504647
8	0xbd226fcb	-0.039657395
9	0x3d28e269	0.041231547
10	0xbd4e3b49	-0.050349507
11	0xbd4418e6	-0.047875308
12	0x3c2e3720	0.01063326
13	0xbcb2426f	-0.021760194
14	0x3d4e2c6e	0.05033534
15	0xbb6ec9b8	-0.0036436152

deconv2.1.weight f4 [16]
0	0x3f7172f8	0.94316053
1	0x3f78ea2e	0.9723233
2	0x3f7e63a8	0.99370813
3	0x3f7f3177	0.9968485
4	0x3f7b28a7	0.98108906
5	0x3f8564cb	1.0421385
6	0x3f85a195	1.0439936
7	0x3f810c87	1.0081948
8	0x3f786efc	0.9704435
9	0x3f7afb89	0.9804006
10	0x3f80d93b	1.0066293
11	0x3f7fff5e	0.99999034
12	0x3f814882	1.0100253
13	0x3f80501d	1.0024449
14	0x3f830151	1.0234777
15	0x3f8731dd	1.0562092

deconv2.1.bias f4 [16]
0	0xbc3ffcda	-0.011717999
1	0x3cb232e4	0.021752782
2	0x3cdde479	0.027086483
3	0x3d1c4976	0.038155995
4	0x3d299835	0.04140492
5	0x3c2446ac	0.010026615
6	0x3d9e767b	0.07737442
7	0x3cccf3fa	0.02501868
8	0x3d266b28	0.040629536
9	0xbd128ffe	-0.035781853
10	0x3d6b1539	0.057393286
11	0x3d122d5f	0.0356878
12	0x3d01f865	0.031731028
13	0x3d39a503	0.045323383
14	0x3d2fc0f6	0.04290863
15	0xba8e59dc	-0.001086052

deconv2.1.running_mean f4 [16]
0	0xbea6b9cf	-0.32563636
1	0xbef64775	-0.48101392
2	0xbed6c8fa	-0.41950208
3	0xbee9824f	-0.4560723
4	0xbf0aa76b	-0.5416171
5	0xbf113dac	-0.5673473
6	0xbf09dd78	-0.5385356
7	0xbecbe71e	-0.39824766
8	0xbf09a31f	-0.5376453
9	0xbe988e32	-0.29795986
10	0xbf27a801	-0.6549073
11	0xbf3471ea	-0.7048632
12	0xbf01d28d	-0.507119
13	0xbf3c4e4d	-0.7355698
14	0xbee435b0	-0.4457221
15	0xbeddd942	-0.43329817

deconv2.1.running_var f4 [16]
0	0x3eec83c3	0.46194276
1	0x3f012eff	0.50462335
2	0x3ee2da35	0.44307104
3	0x3f2c2775	0.67247707
4	0x3eab1267	0.33412477
5	0x3e0e2bcb	0.13883893
6	0x3f0f9c07	0.56097454
7	0x3ea67947	0.32514402
8	0x3efadbda	0.48995858
9	0x3e8be2c7	0.27321455
10	0x3f6ec9be	0.93276584
11	0x3f124e58	0.57150793
12	0x3f34c021	0.70605665
13	0x3f65fb7e	0.8983687
14	0x3e5ee07a	0.21765319
15	0x3e1443bd	0.14478965

deconv3.0.weight f4 [16, 8, 4, 4]
0	0xbbdbf358	-0.0067123584
1	0x3b9fd0bc	0.004877178
2	0x3bcfe861	0.0063448404
3	0x3dcd24c8	0.10016781
4	0x3ca1730f	0.019708185
5	0xbd28dd38	-0.041226596
6	0x3d317c33	0.043331336
7	0x3d1f2504	0.03885366
8	0xbccffb2b	-0.02538832
9	0x3cbd2233	0.023087597
10	0x3d73bc58	0.05950579
11	0x3adc1c9c	0.0016793194
12	0xbd683bf0	-0.056697786
13	0x3d59d25b	0.053179126
14	0x3d1443bd	0.036197413
15	0xbd7c650b	-0.0616198
16	0xbd34c52a	-0.044133343
17	0x3d824ac6	0.06361918
18	0xbd2bfa2c	-0.04198663
19	0xbcf1d665	-0.029521177
20	0xbd5046a7	-0.05084863
21	0x3c16357d	0.009168026
22	0xbce26fa7	-0.02764113
23	0x3c45d3ee	0.012074454
24	0x3cee9199	0.02912216
25	0xbd8f7b7c	-0.07005975
26	0x3d48b21b	0.04899798
27	0xbd4e7975	-0.0504088
28	0x3d661cfe	0.056179993
29	0x3c9dcda2	0.019263092
30	0xbb2f0e3d	-0.0026711368
31	0x3cb3bdf9	0.021941172
32	0xbc96a9d2	-0.018391524
33	0x3d986aca	0.074422434
34	0xba96c265	-0.0011502026
35	0x3afa0a75	0.0019076603
36	0xbcf0d266	-0.0293972
37	0xbd4843a6	-0.04889264
38	0xbd438505	-0.04773428
39	0xbd830395	-0.063971676
40	0xb9ec0144	-0.0004501437
41	0x3c68a01b	0.014198328
42	0xbc892158	-0.016739532
43	0x3b1079dc	0.002204529
44	0x3c16d41a	0.009205842
45	0x3d0748c3	0.033028375
46	0x3d4ecded	0.050489355
47	0x3d998a06	0.07497029
48	0x3e04f3d0	0.12983632
49	0xbd4e74cf	-0.050404366
50	0xbc063a66	-0.008192634
51	0x3d05e55f	0.03268945
52	0x3d880c5e	0.06642984
53	0x3da76a2c	0.081745476
54	0xbc22b86e	-0.009931667
55	0x3d4dc393	0.050235342
56	0x3c8e29a3	0.017353838
57	0xbd0531e8	-0.032518297
58	0x3cc99f19	0.024611996
59	0xbce8709d	-0.02837401
60	0x3cc156b1	0.023600908
61	0x3d66907f	0.056290146
62	0x3c8e0ff9	0.0173416
63	0xbc479955	-0.012182553
64	0x3d81a762	0.06330754
65	0xbca9a8f3	-0.020710444
66	0x3d8fc536	0.07020037
67	0x3d8c0d62	0.0683849
68	0xbc9fbf9e	-0.01950055
69	0xbc7873f6	-0.015164366
70	0xbcc3af5a	-0.023887325
71	0xbc61c0ad	-0.013778848
72	0x3d622b0e	0.05521684
73	0x3d6f0585	0.058354873
74	0x3da55485	0.080727614
75	0x3c24956c	0.010045391
76	0xbc1e026e	-0.009644134
77	0xbc98aba6	-0.018636536
78	0x3c2b674a	0.010461638
79	0xbd0a1f6d	-0.033721376
80	0xbbeea078	-0.007282313
81	0x3d212bfc	0.039348587
82	0xbd691a4e	-0.05690985
83	0x3d159f14	0.03652866
84	0xbd5938a9	-0.05303255
85	0x3ca49a0f	0.020092992
86	0xbd803851	-0.062607415
87	0x3d8dba88	0.06920344
88	0xbd05dd63	-0.032681834
89	0xbd80848a	-0.0627528
90	0xbd0774b1	-0.03307027
91	0x3da32193	0.07965388
92	0x3d57b89a	0.052666284
93	0x3d69f0eb	0.057114523
94	0x3d02d437	0.031940665
95	0xbd48b2e7	-0.04899874
96	0xbcedb1d8	-0.029015467
97	0x3bb60ab5	0.0055554756
98	0x3c86b7b6	0.016445022
99	0x3c8b5c07	0.017011655
100	0x3d76ea60	0.06028211
101	0x3be37c06	0.006942275
102	0x3d98ff18	0.0747053
103	0xbd1eacc9	-0.038739
104	0xbcc28c5f	-0.023748575
105	0x3ddfadb0	0.109218
106	0x3ce333f8	0.027734742
107	0xbc365c3d	-0.01113039
108	0x3c567acf	0.013090803
109	0xbcadfee6	-0.02123971
110	0xbd86d13f	-0.06582879
111	0x3c8cae40	0.017172933
112	0xbca152c6	-0.01969279
113	0x3d85b148	0.06527954
114	0xbbb19dc2	-0.0054204175
115	0x3d4959b1	0.049157802
116	0xbd8ad25d	-0.06778405
117	0x3c5e7f4c	0.013580155
118	0x3cccea14	0.02501396
119	0xbd78c572	-0.060735174
120	0xbcb07f5c	-0.021545105
121	0x3abd6b13	0.0014451466
122	0xbcacd772	-0.021098826
123	0x3dcda422	0.100410715
124	0x3d7673e4	0.060169116
125	0xbc826be7	-0.015920592
126	0x3dc20338	0.0947327
127	0x3d538d04	0.051648155
128	0x3d354d38	0.044263095
129	0x3d84933a	0.06473394
130	0xbcd1e7f7	-0.025623305
131	0xbd798061	-0.060913447
132	0x3d4023f7	0.0469093
133	0x3c130fd9	0.008975946
134	0xbc391b2f	-0.011297985
135	0xbd237aef	-0.03991216
136	0xbd4479f6	-0.047967874
137	0x3d7e53aa	0.062091507
138	0x3cbb59d8	0.02286999
139	0x3b4b8b4f	0.0031058376
140	0x3b7466b1	0.0037292654
141	0xbd08ad39	-0.033368323
142	0x3d3b4d6b	0.04572813
143	0xbd2e9656	-0.04262384
144	0xbd8a0175	-0.06738559
145	0xbc98fa1a	-0.018673945
146	0x3cdec4b1	0.0271934
147	0x3d15c1cd	0.036561776
148	0x3c649279	0.013950937
149	0xbce9371b	-0.02846866
150	0xbc9be8e3	-0.019031947
151	0xbce93a5c	-0.02847021
152	0x3d80e364	0.06293371
153	0xbd7dcfd9	-0.061965797
154	0x3ce9b074	0.028526522
155	0xbca1aaf1	-0.019734832
156	0xbd3c08ec	-0.045906946
157	0xbd70e930	-0.058816135
158	0xbcbbec1d	-0.022939736
159	0x3cf63b4b	0.03005757
160	0x3cff3ec2	0.031157855
161	0x3b396d85	0.0028294038
162	0xbd922f43	-0.07137921
163	0xbd0f9068	-0.035049826
164	0x3d0a0ccc	0.03370361
165	0x3dd0c807	0.10194402
166	0x3d123272	0.03569264
167	0x3da9bd4d	0.082880594
168	0xb92604ed	-0.00015832829
169	0xbaf28bd6	-0.0018504809
170	0xbd8d393b	-0.068956815
171	0x3daad663	0.08341672
172	0xbc802bc8	-0.015645877
173	0xbd8c7c81	-0.06859685
174	0x3c12bab5	0.008955647
175	0xbd99d3c6	-0.07511096
176	0xbc5cea95	-0.013483663
177	0x3d68759d	0.05675279
178	0xbcac8fb7	-0.021064622
179	0x3c9924f6	0.018694382
180	0x3dbc62ec	0.09198555
181	0x3b5343ab	0.0032236378
182	0xbd02b0f7	-0.031907048
183	0x3d2cf568	0.042226225
184	0xbd97e085	-0.074158706
185	0x3d076162	0.033051856
186	0x3d79091b	0.0607997
187	0xbd56ed7d	-0.05247258
188	0xbd8922c2	-0.06696083
189	0x3c55dce5	0.013053154
190	0xbd0371db	-0.032091003
191	0x3ccbd13e	0.024880048
192	0xbd1e40a3	-0.03863586
193	0x3d6ebb0c	0.05828385
194	0x3ca62d79	0.020285355
195	0xbcca0bab	-0.024663767
196	0xbd0d59ff	-0.034509655
197	0xbd5f2434	-0.054477885
198	0x3ca97914	0.020687617
199	0xbda717f1	-0.08158863
200	0xbd27a902	-0.040932663
201	0x3d15136b	0.03639547
202	0x3d7ea529	0.062169228
203	0x3d96b494	0.07358661
204	0x3d1708fd	0.036873806
205	0xbc75adce	-0.014995052
206	0x3d447284	0.047960773
207	0xbcd67c2c	-0.026182257
208	0x3d162bb8	0.036662787
209	0x3c5e8914	0.013582487
210	0x3cce4caf	0.02518305
211	0x3cc46b18	0.023976848
212	0xbce9d29d	-0.028542811
213	0x3c95d48f	0.018289832
214	0x3d0d627f	0.03451776
215	0x3cf59798	0.029979512
216	0x3d17e4a8	0.037083298
217	0x3c136c4f	0.008997991
218	0xbab0efc9	-0.0013499196
219	0x3cbc826a	0.023011405
220	0x3cbc96e5	0.02302117
221	0x3d6d816e	0.057984762
222	0xbc83b328	-0.01607664
223	0x3da07fab	0.07836851
224	0x3cdac3bf	0.026704667
225	0xbd9de445	-0.077095546
226	0x3d6f7f0f	0.058470782
227	0x3da715bc	0.081584424
228	0x3b55ebaf	0.00326417
229	0xbcc59953	-0.024120962
230	0xbd8e67b9	-0.06953377
231	0xbc202119	-0.009773516
232	0x3c350641	0.011048854
233	0x3d8de59f	0.069285624
234	0xbbb79714	-0.0056027267
235	0xbb170260	-0.0023042187
236	0x3bed938f	0.0072502564
237	0x3d58dfbc	0.052947745
238	0xbc382e29	-0.011241474
239	0x3dacdfa8	0.084410965
240	0x3c5bd364	0.013417099
241	0x3c79abab	0.015238683
242	0xbd616329	-0.055026207
243	0xbb8a5751	-0.0042218347
244	0x3d3a5b23	0.04549707
245	0xbd3a31c8	-0.04545763
246	0xbd1ea479	-0.038731072
247	0x3cc4cb06	0.02402259
248	0xbd49c946	-0.049264215
249	0x3d766689	0.06015638
250	0xbd9d3bbc	-0.07677409
251	0xbc1e9550	-0.009679154
252	0x3c3d45a6	0.01155225
253	0xbc74631d	-0.014916209
254	0x3c95ca5b	0.018284967
255	0x3d8a7a22	0.06761576

deconv3.0.bias f4 [8]
0	0x3b23dcb1	0.0025003369
1	0x3d7e9f17	0.06216344
2	0x3d9b209f	0.07574581
3	0xbcba786e	-0.022762503
4	0x3d6037bc	0.054740652
5	0x3bbcc940	0.0057612956
6	0x3d4f6cbd	0.05064081
7	0xbd0e4152	-0.034730263

deconv3.1.weight f4 [8]
0	0x3f8eeb93	1.1165642
1	0x3f8fe9d7	1.1243237
2	0x3f908629	1.1290942
3	0x3f8e4e75	1.1117693
4	0x3f90fe34	1.1327577
5	0x3f8e3343	1.1109394
6	0x3f909444	1.1295247
7	0x3f9167d6	1.1359813

deconv3.1.bias f4 [8]
0	0x3dee743c	0.11643264
1	0x3df84c6e	0.12123953
2	0x3e04c899	0.12967147
3	0x3ddeadbc	0.10872981
4	0x3e06a362	0.13148263
5	0x3ddf169e	0.10892986
6	0x3e052274	0.13001424
7	0x3e0a5760	0.13509893

deconv3.1.running_mean f4 [8]
0	0xbc57652f	-0.013146683
1	0xbdc87428	-0.0978778
2	0x3cc4b603	0.024012571
3	0xbd8b28e7	-0.06794911
4	0x3e223b7b	0.15843002
5	0x3ce92642	0.028460626
6	0x3d550b8c	0.052012965
7	0xbdb43eea	-0.088010624

deconv3.1.running_var f4 [8]
0	0x3e0f9ab6	0.14023861
1	0x3e30fbbe	0.17283532
2	0x3e2d5fc0	0.16931057
3	0x3e2374e7	0.15962563
4	0x3e6f32ea	0.23359266
5	0x3e4ff3bc	0.20307821
6	0x3e3b47b5	0.18289073
7	0x3e65b2d2	0.22431496
