Pix2Pix/checkpoints/pix2pix_model_epoch_220.pth (torch, 99191 bytes, 32 tensors)

conv1.0.weight f4 [8, 3, 4, 4]
000000 22 8c f8 3d e4 ab e1 3d a6 c1 b2 bd 33 7b 17 3e
       0.12136103 0.11019114 -0.08728342 0.1479309
000010 ba be 8b 3d 33 cf 48 3b 8c 38 8e bd 5b 56 e8 3d
       0.068234876 0.0030641078 -0.06944379 0.11344596
000020 2e 48 d6 bd e1 e8 12 bd 3f 18 9c ba fa 7f cd bc
       -0.10462986 -0.035866622 -0.0011909081 -0.025085438
000030 d2 d0 f0 3d 01 9e b7 3d af a0 0a be 3d 54 0c be
       0.11758579 0.08965684 -0.13537858 -0.1370401
000040 7d 4a 43 bd ab d2 b3 3d f0 23 73 3c 04 c7 2c 3e
       -0.04767846 0.08780416 0.014840111 0.16872793
000050 c0 75 54 bd dc f2 36 bd d3 20 3f 3e 4a d4 86 bd
       -0.051870108 -0.044665202 0.18664865 -0.0658346
000060 15 1c 12 be a6 66 01 be 11 e2 bc bd b4 a5 fb bd
       -0.14268525 -0.12636814 -0.09222806 -0.12287465
000070 88 df b4 bd 81 76 16 3c c2 bb f8 3d 9a 56 9f bd
       -0.08831698 0.009183527 0.12145187 -0.0778019
000080 53 e0 97 3d a7 75 f9 3d ad cd 8a bd 21 0c d3 bd
       0.07415833 0.121806435 -0.06777511 -0.10305048
000090 87 09 75 bd 68 c2 57 bb 53 fc 08 3e ad e6 7d bc
       -0.05982354 -0.0032922272 0.13377504 -0.015496892
0000a0 56 a5 8f bd ff 5b dd bd cc 3a 0f be f7 70 be 3c
       -0.07013957 -0.108085625 -0.13987273 0.023247225
0000b0 1d 4d f4 3d 07 91 a8 bd 15 ed 22 3e 21 d6 96 3c
       0.11928771 -0.08230787 0.15910752 0.018412651
0000c0 bf a8 0f 3c 63 fe 92 3c f4 87 86 bd a1 d2 0a 3e
       0.00876826 0.017943567 -0.065689 0.13556911
0000d0 f4 c5 02 3e 81 e6 9b 3d 77 8e e1 3d 0b 97 69 3c
       0.12770826 0.076123245 0.11013501 0.014257203
0000e0 49 8b 26 3c cf df 91 bd c7 0f b9 bd 00 c7 d3 3d
       0.010165044 -0.07122766 -0.090362124 0.103406906
0000f0 fc df 6c bd 81 05 4f 3d 6d 86 6f bd f3 74 17 3e
       -0.057830796 0.05054236 -0.058477808 0.14790706
000100 5f ab aa bc e7 5d 6b bd 65 8f 05 3e c1 53 fb bd
       -0.02083367 -0.0574626 0.13042982 -0.12271834
000110 50 64 44 bd c9 df df bd 96 bd 64 3d f4 82 1c bd
       -0.047947228 -0.109313555 0.055844866 -0.038210824
000120 82 5f 90 ba c5 dd 5c 3d 2e d8 65 3d 74 69 e6 3d
       -0.0011014792 0.053922433 0.05611437 0.11250582
000130 71 f0 71 3d d9 84 fa bd 16 1a da bd 84 18 4c 3d
       0.059067193 -0.1223237 -0.10649507 0.049828067
000140 88 35 20 3d 2a 20 a3 3d 15 6d 01 be 71 8f 10 be
       0.03911355 0.07965119 -0.12639268 -0.14117219
000150 d3 3f cf 3d d5 ea 9a bd c7 f3 bc bc cf cf 97 bd
       0.101195954 -0.07564322 -0.02306546 -0.07412683
000160 54 b3 48 bd ee 41 d7 bd 02 8a 01 be 99 6a 3c 3d
       -0.048999146 -0.10510622 -0.12650302 0.046000097
000170 49 0b 52 bd 05 e7 38 bd d4 33 fb bd bf c0 10 3d
       -0.051280294 -0.045142192 -0.12265745 0.035340067
000180 60 05 a8 3d b8 7a b4 bd 40 a0 b4 3c 23 f1 20 3e
       0.0820415 -0.08812469 0.02204907 0.15716986
000190 ff e2 06 be 9e 39 c2 bd d6 8e 9b bd dd 58 62 3d
       -0.1317253 -0.09483646 -0.07595603 0.055260528
0001a0 96 bf 06 be 92 8c c8 bd 86 d1 fd 3b 55 29 90 bc
       -0.13159022 -0.09792437 0.0077459244 -0.017597834
0001b0 20 f9 e2 3d f2 86 cd bd 81 27 6d 3d f4 70 00 3e
       0.11082673 -0.100355044 0.057899002 0.12543088
0001c0 80 54 da 3d da 24 12 be 8b 82 7c 3d cf 95 d1 bd
       0.10660648 -0.1427187 0.061647933 -0.10233652
0001d0 d0 3f e4 3d 4c 75 9f bd cc 71 8e 3b a4 66 13 3e
       0.11144984 -0.077860445 0.0043470617 0.14394623
0001e0 ad 98 e1 bd 5c 87 94 bb 49 d9 b7 3c 98 36 11 3e
       -0.11015449 -0.0045327377 0.022442477 0.14180982
0001f0 63 fe cd 3d 76 f2 ef bc bd 14 c9 bc cc f8 cf 3d
       0.10058286 -0.02929042 -0.024546022 0.10154876
000200 25 14 fd 3b 2a 36 04 3d 39 72 16 be 4e e2 25 3d
       0.0077233487 0.032278217 -0.1469201 0.040499024
000210 c6 dc 89 3d 50 5b e0 bd 3b e9 05 3e 9c 22 13 bd
       0.06731562 -0.109549165 0.13077252 -0.035921678
000220 40 99 db 3d 92 23 db bc 84 16 85 3d 95 0d b2 3d
       0.107225895 -0.02675036 0.06498435 0.08693997
000230 b0 bf d6 bd 72 e6 dc bd 4b 03 0c be 71 75 4b bd
       -0.1048578 -0.107861415 -0.13673131 -0.049672548
000240 45 3f 12 bd 21 bd b2 3c a1 67 7e bc 59 09 6a bd
       -0.03570487 0.0218187 -0.015527637 -0.05713782
000250 6f fa f7 bd 10 94 00 be 88 ae 84 3d 42 ad 00 3e
       -0.12108313 -0.12556481 0.06478602 0.12566093
000260 9f 5a a8 3d a0 ff 47 3d 28 da 27 3c 1b 41 ed 3d
       0.082204096 0.048827767 0.010244884 0.115846835
000270 bd 58 97 3d a5 ca c8 bd 83 cb b7 3d e4 0f 9d bd
       0.07389972 -0.098042764 0.08974364 -0.076690465
000280 2e 06 a2 bc 6a c5 b5 3d 5d eb 16 be c1 ea 90 bd
       -0.019778337 0.08875544 -0.14738221 -0.07076026
000290 d6 e8 99 bd c8 52 f0 3c b7 97 16 be d7 71 ac bd
       -0.07515113 0.029336348 -0.14706312 -0.08420151
0002a0 c8 ae 15 3c c2 a5 bd b9 31 56 84 bc a3 60 82 bd
       0.009135909 -0.00036172388 -0.01615438 -0.06366088
0002b0 f4 df 4a 3d 16 e7 34 3e bb 45 b1 3d 1f 53 d8 3c
       0.049529985 0.17666277 0.08655878 0.026406823
0002c0 40 c9 0b be 3b 4e 90 3d 12 91 41 3c a2 b6 4c 3d
       -0.1365099 0.07046171 0.011814373 0.04997886
0002d0 f8 12 ac bc 0e 97 ba 3d 05 6d 82 3c 83 5e eb 3d
       -0.021005139 0.09110843 0.015921125 0.11492636
0002e0 27 7e 17 3e 3c ba 75 3d 8d eb c5 3c 3b 5c 81 3d
       0.14794217 0.05999206 0.02416017 0.0631642
0002f0 dc d2 16 3e e1 1b 52 bd 7a 7a b2 3d c3 d9 db 3d
       0.14728874 -0.05129612 0.08714767 0.10734894
000300 94 b6 57 3e 7e 48 4a 3e 50 46 3c 3e 24 4e 4f bc
       0.21065742 0.19754216 0.18386197 -0.0126529075
000310 68 54 71 3d 72 5a 97 3d 52 8b e7 bd 2b 20 81 3d
       0.058918387 0.07390298 -0.1130587 0.06304964
000320 a5 95 d1 3d b0 77 90 bd 0c 0b 97 bc 13 60 17 bc
       0.102336206 -0.070540786 -0.018437885 -0.0092392145
000330 fe 2a 8a 3d 38 1d 03 be b3 26 27 3d c8 bc d0 bb
       0.06746481 -0.12804115 0.04080839 -0.0063701607
000340 5e a7 76 3d 06 dd a2 bc 5e b6 00 3e cf cd eb bd
       0.060218208 -0.019880783 0.12569568 -0.11513864
000350 a4 8d d5 bd 48 3e 3e bd 16 2e 84 3c c6 6c 95 3d
       -0.104274064 -0.046446115 0.016135257 0.072961375
000360 97 06 18 3e 00 3e 9a bd c8 79 cb bd 6d 50 e5 bd
       0.14846264 -0.07531357 -0.09935337 -0.111969806
000370 71 61 d0 bd d6 eb f6 3d e2 dc 3d 3d 47 26 85 3d
       -0.101748355 0.12056701 0.04635323 0.065014414
000380 e1 17 0a 3e 32 55 6e 3d 16 8d c8 bd db 4d 3e 3d
       0.13485672 0.058186717 -0.09792535 0.046460968
000390 cf b7 e1 bd b8 77 35 b9 a2 28 a5 3d ab 9f f9 3c
       -0.11021387 -0.00017306104 0.08064391 0.030471643
0003a0 15 61 b4 bc c7 e8 d3 3b 6f d2 4e 3d 10 14 e5 3d
       -0.022018949 0.006466958 0.050493654 0.11185467
0003b0 5b 02 05 be 98 64 58 3a 90 f5 8a 3d 15 35 e9 bc
       -0.1298918 0.0008254736 0.067851186 -0.028467694
0003c0 36 d0 03 3e 49 e9 5b bb 95 10 90 3a f8 d8 1f 3d
       0.12872395 -0.0033555797 0.001099127 0.039025277
0003d0 b1 cc 67 bc a8 db 12 3e fa c7 24 3d 4d 82 0d 3d
       -0.014147923 0.14341605 0.040229775 0.034548093
0003e0 e3 2d 57 bd 4a de f9 bc ff 7d d9 bd ea 0c 0d bd
       -0.052533995 -0.030501503 -0.10619735 -0.034436144
0003f0 d0 f1 ab 3d df bd 8d bd c7 40 8d 3d 56 13 fc bd
       0.083957314 -0.06920981 0.06897121 -0.123083755

conv1.0.bias f4 [8]
000000 0d 6c 7d bd c0 a4 eb bd f1 d3 d3 3d 00 51 a4 bd
       -0.061870623 -0.11506033 0.10343159 -0.08023262
000010 45 0e 0c 3e 6b d7 c7 bd 5e 48 e0 3d 15 87 39 3d
       0.13677318 -0.097578846 0.10951303 0.04529484

conv1.1.weight f4 [8]
000000 b5 eb 7e 3f cb 5f 7c 3f 29 e6 80 3f de e6 83 3f
       0.9957841 0.9858367 1.0070239 1.030483
000010 28 1a 81 3f 3e 24 82 3f 8a 7d 81 3f 17 cf 7a 3f
       1.0086107 1.016731 1.0116436 0.97972244

conv1.1.bias f4 [8]
000000 59 13 4f bc 0a 77 54 bc a8 a9 c0 bd e7 83 b9 3d
       -0.01263889 -0.012967834 -0.09407359 0.090583615
000010 24 50 15 bd d2 29 2b 3d c1 86 0b 3d 60 55 37 3c
       -0.03645338 0.04178793 0.03406406 0.011189789

conv1.1.running_mean f4 [8]
000000 12 07 82 bd 47 1d 1c be 99 5c d6 3d 18 c9 ef bd
       -0.06349005 -0.15245543 0.1046688 -0.117082775
000010 5e 95 d8 3c 65 ff e3 bd 47 71 4d 3e 61 85 3c 3d
       0.026438411 -0.11132697 0.20062743 0.046025638

conv1.1.running_var f4 [8]
000000 c0 e9 d4 3c 92 2a 1c 3d 7b 95 8f 3c 24 e4 01 3e
       0.025990367 0.038126536 0.017527333 0.12684685
000010 49 fe 0a 3e 75 dd ef 3c 17 91 ec 3d a0 c6 3e 3c
       0.13573565 0.029280404 0.11551111 0.011644036

conv2.0.weight f4 [16, 8, 4, 4]
000000 ae c2 5e 3d 91 0a c4 3c 51 fb b2 bd 38 8f 81 bd
       0.05438488 0.02393082 -0.08739341 -0.06326145
000010 ce 55 24 3d 17 1b 33 3d db 81 0a bd 39 20 19 3d
       0.040120892 0.043727007 -0.033815246 0.037384246
000020 e0 19 3a bc c6 3d d3 bc e6 57 8f 3d 41 15 8e 3d
       -0.011358708 -0.025786292 0.06999187 0.069376476
000030 43 62 31 bd 81 04 42 3d b6 0b dc 3c b8 86 ab 3d
       -0.0433066 0.047367577 0.026861053 0.08375305
000040 76 a1 34 3d 5e 66 aa 3c 2d 7c df 3d 19 06 ae 3d
       0.044099294 0.020800766 0.109123565 0.08497257
000050 06 e7 0d bd 79 cc d4 3c 4a 8d 00 bd 4e 6c 47 3d
       -0.03464415 0.025976406 -0.031384744 0.04868727
000060 cf ac 9b 3d 4f 15 a2 bc 75 ae bb bc b7 86 7b 3b
       0.0760132 -0.019785551 -0.022910336 0.0038379857
000070 37 84 e2 bc 1f ed 59 3d 03 ea 15 3e f1 3f 08 3e
       -0.027650936 0.053204652 0.1464005 0.13305642
000080 0d 61 0b bd 2a 47 1d bd c2 5e 61 bc 8a ef 43 bc
       -0.0340281 -0.038397945 -0.013755502 -0.011958966
000090 13 39 79 3d b7 d7 df 3c ed 44 40 3b ab 3c ab 3d
       0.060845446 0.02732454 0.0029337958 0.08361181
0000a0 a5 17 59 ba 88 71 23 3d 42 ad c8 3d ca d4 12 bd
       -0.00082814164 0.039903194 0.09798671 -0.035847463
0000b0 5f e3 90 3c 3f 47 92 3c 66 b9 2f bd 5f ba e7 bc
       0.017686544 0.017856238 -0.04290142 -0.02828711
0000c0 f6 51 19 bd 3d ee 37 bd e0 7f bc 3c 7d 6a 50 bc
       -0.03743168 -0.044904936 0.023010194 -0.012720701
0000d0 49 42 31 bd ee d4 8c bd 1d ea a7 3d c3 ca c1 3b
       -0.043276105 -0.068765506 0.081989504 0.0059140637
0000e0 ee 5b 48 3d 61 23 da 3c 52 33 20 3d a0 85 14 3c
       0.048915796 0.026628198 0.039111443 0.009065062
0000f0 5a 29 6d bd fa 97 a4 3d ee 05 5d bd e6 cb 9f 3b
       -0.057900764 0.080368 -0.053960733 0.0048766015
000100 2f 97 96 3b 6b a6 88 3d 39 c8 e0 bc cb 00 92 3d
       0.004595659 0.06672367 -0.027439224 0.071290575
000110 46 4a 29 bd dc c4 5b bc 98 3f c8 3c 8a da ba 3d
       -0.0413306 -0.013413634 0.024444386 0.09123714
000120 66 71 7b 3d 1f c0 a2 3d b3 f4 71 bc 4d 85 f0 3d
       0.061387442 0.079468004 -0.0147678135 0.11744175
000130 b0 b9 9d 3d b9 41 d1 3d 5c 5a b2 3d 80 e4 ae 3c
       0.07701433 0.10217614 0.08708641 0.021349192
000140 1b c0 85 bc 01 9d 97 bc 3f f8 6e 3d 64 6f 35 3d
       -0.016326955 -0.018507482 0.058342215 0.044295684
000150 f5 b4 10 3d 86 2f b0 bc 7b 50 8f 3c 78 a8 d1 3a
       0.035328824 -0.021507036 0.01749443 0.0015995642
000160 70 49 31 3d fc 24 82 bd df cc 48 bd 8b aa f7 3c
       0.043282926 -0.063547105 -0.049023505 0.030232688
000170 c5 fb 11 3d 30 41 ad 3b 14 0d 3b bd 5d fa 0c bd
       0.035640497 0.005287312 -0.04566677 -0.034418453
000180 ae 29 7f bd 8b f9 4f 3d 60 c7 10 3d 8c 4d 02 3d
       -0.06229561 0.050775092 0.03534639 0.031812236
000190 12 b1 89 3d b7 fa e7 bc 53 d3 bf 3b 5d 71 16 bd
       0.067232266 -0.028317792 0.005854049 -0.036729205
0001a0 ae 14 21 3d d2 ee 1c bd 7e 00 c5 3d a9 b2 a5 bb
       0.039326362 -0.038313694 0.096192345 -0.0050566983
0001b0 4b 92 13 3d fd 29 81 3d 4b 1d ad bc 1c 7b bb 3c
       0.036028188 0.06306837 -0.021132132 0.022885852
0001c0 9a 47 01 bd 4b 87 0f 3d 0d c9 6f bd 7e 5e 84 3d
       -0.031562425 0.035041135 -0.058541346 0.064633355
0001d0 ae a5 98 bd d4 95 02 3d 13 a1 cc 3c ea 33 5e 39
       -0.07453476 0.03188117 0.02497915 0.0002119091
0001e0 9a fc a7 bc 7c ab bd 3d de 7f d6 bc ea 8a df bc
       -0.020506192 0.09261224 -0.026184019 -0.02728792
0001f0 bc 15 a7 bb 73 a8 55 3d 22 85 c4 bc e7 96 7b 3d
       -0.0050990265 0.0521626 -0.023989264 0.06142321
000200 95 7a 00 bd bd ee d6 bc f2 93 48 3d 64 36 6a 3d
       -0.031366903 -0.026236886 0.048969217 0.057180777
000210 a7 c3 76 bd 5c 14 fc 3c 7b 7c f3 bc c9 8c bc bd
       -0.060245182 0.030771427 -0.029722443 -0.0920654
000220 f7 56 75 3d 0b fe 63 3c 4d 35 78 3d 8f 34 a0 bc
       0.05989739 0.013915549 0.060597707 -0.019556312
000230 a7 ed b6 bd 3b 48 23 3d 79 ed df bc af ac 97 bc
       -0.08932047 0.039863806 -0.027334915 -0.01851496
000240 91 3d 6e ba 8d 7a 99 3d aa d0 f8 bc dc 3b fe 3c
       -0.00090881536 0.07494078 -0.030372936 0.031034403
000250 49 41 d0 3c 67 cd 88 3c fc ee 2a bd ee d0 a6 3c
       0.025421755 0.016699506 -0.04173182 0.020363297
000260 58 cb 62 3d 3a 28 5f 3d da 65 4e 3d 35 85 93 3c
       0.055369705 0.054481722 0.050390102 0.018007854
000270 55 b3 48 bd 60 99 b1 bc b9 17 8a 3c a1 ef e8 3c
       -0.04899915 -0.02167958 0.016857015 0.028434576
000280 00 83 9c 3d 1d e7 81 3d 32 fe ea bb c4 e5 9d 3c
       0.07642174 0.063429095 -0.0071714157 0.0192746
000290 c8 f9 61 bd 9e a7 ca bd b7 0d d2 bd dc 7f 8e bd
       -0.05516985 -0.09895252 -0.10256522 -0.06957981
0002a0 d5 c8 05 be 5d fa 51 bc cd cd 9c bb 49 76 da bd
       -0.13064893 -0.012816039 -0.0047852756 -0.10667092
0002b0 a0 db cf 3c 33 c8 6b 3b 85 75 78 bc fa 45 84 3c
       0.02537328 0.0035977482 -0.015164738 0.016146649
0002c0 ba 25 c6 3d 3b bb fb 3b 49 c0 ae 3d 3c 0b 71 bc
       0.096751645 0.0076822317 0.08532769 -0.014712151
0002d0 b9 46 b6 bc 74 a3 4c bd 1f 8f b2 bc 6c c5 5f 3d
       -0.02225052 -0.04996057 -0.021796761 0.054631636
0002e0 76 11 4a bd ec e9 ab bd 94 01 83 3c e6 02 e8 3c
       -0.04933306 -0.083942264 0.015991963 0.028321695
0002f0 73 de 9d 3d e8 d3 0c bd a1 b0 57 3d 8c 86 17 3c
       0.077084444 -0.034381777 0.05265868 0.009248387
000300 7d de 90 3c b5 df d5 ba 40 8a c5 3b 99 7c 86 3c
       0.017684216 -0.001631728 0.0060284436 0.016416835
000310 31 03 35 3d 11 f5 91 3c d8 63 2a bd 50 a5 1e 3d
       0.044192497 0.017817052 -0.041599125 0.038731873
000320 bc 18 5e 3d 96 77 83 3d f0 67 fe bc 9b 29 90 bd
       0.054222807 0.064192936 -0.03105542 -0.070391856
000330 0d b8 84 bd 87 78 bd 3c 2e b1 94 bd 23 82 b3 3c
       -0.064804174 0.023128761 -0.07260357 0.02191264
000340 8d 4a ef bb e8 f4 d5 3d d4 ad 75 3d 2a 90 70 3d
       -0.0073025883 0.10447103 0.05998023 0.058731236
000350 a0 f5 67 bd 71 87 b3 3d a0 93 be 3d a7 51 c0 3d
       -0.05663073 0.08766068 0.09305501 0.09390574
000360 40 ed cf 3c 45 f6 53 bd fd c0 48 bd d6 17 64 3d
       0.025381684 -0.051748533 -0.049012173 0.055686794
000370 1f d1 c2 bd 92 e0 e8 bd 69 37 f7 bd c7 76 e7 bc
       -0.09512543 -0.113709584 -0.120711155 -0.02825488
000380 6a 4d 90 3d 07 43 ca 3c f1 09 85 bd 91 60 fc 3c
       0.070460156 0.024690164 -0.06496037 0.030807765
000390 06 26 12 bd 2d 48 f6 bb c9 e6 21 3d ea 20 a1 bc
       -0.035680793 -0.0075159282 0.039526735 -0.019669015
0003a0 6c bc 3a bc 2c 7e 8a ba 08 04 73 bd 78 6a 80 3d
       -0.011397462 -0.0010566167 -0.059330016 0.06270307
0003b0 b1 fe a8 3d 3a 36 23 3d b1 e4 b4 bc e4 21 80 3c
       0.082517035 0.039846636 -0.022081705 0.01564116
0003c0 98 b4 f5 3c 20 71 6a 3d 06 c4 bf 3d 5a 63 40 3a
       0.02999334 0.05723679 0.093635604 0.0007339023
0003d0 a8 78 2e 3d 73 c6 40 bc d7 00 b1 3d 51 6a 46 3d
       0.042595536 -0.011766064 0.08642738 0.048441235
0003e0 25 1b e1 3c c7 59 51 3a 7d 2e 8b bd d8 c2 fd bc
       0.027478764 0.0007986095 -0.06795976 -0.030976698
0003f0 71 fb d8 bd 31 43 83 bd ef 27 32 bd 62 e5 89 bd
       -0.10594834 -0.064093 -0.043495115 -0.067332044

conv2.0.bias f4 [16]
000000 2f a0 3c 3d a2 e4 43 3d f9 12 92 bd fc 17 47 3d
       0.0460512 0.047825463 -0.07132525 0.048606858
000010 ec 96 68 3d 58 e8 91 bd b1 39 6c 3d 70 6a e7 bc
       0.056784555 -0.07124394 0.057672206 -0.028248996
000020 fb 89 11 3d 76 8b d9 3b c2 90 d3 3c ec 07 1d 3d
       0.03553198 0.0066389395 0.025825862 0.038337633
000030 38 0d 8f bd 21 35 a2 3d d5 2b 41 bd 43 e8 60 3d
       -0.06984943 0.0792029 -0.047160942 0.054909002

conv2.1.weight f4 [16]
000000 a6 27 80 3f 68 9d 7d 3f 72 a8 89 3f bc 33 7f 3f
       1.00121 0.9906831 1.075453 0.99688315
000010 e5 15 87 3f c2 3b 7c 3f 11 28 87 3f e9 34 7c 3f
       1.0553557 0.98528683 1.0559102 0.98518234
000020 bf 2e 79 3f 28 18 7d 3f c5 8b 7f 3f 9a 8b 7c 3f
       0.97336954 0.98864985 0.99822646 0.98650515
000030 12 4a 84 3f e8 a6 7e 3f da fc 7f 3f 0e 6c 7b 3f
       1.0335104 0.9947343 0.99995196 0.98211753

conv2.1.bias f4 [16]
000000 8b 65 ea bd be e6 08 bc 4a 1d 1f bc 19 86 ec 3c
       -0.11445149 -0.0083557945 -0.009711573 0.028872536
000010 a9 de 7f 3d 47 98 8d bc 59 36 09 3d 1c 40 af 3c
       0.062468205 -0.017284526 0.033499096 0.021392874
000020 73 75 29 3c 88 b8 3b 3d 96 49 0d bd 8d 02 4d bc
       0.0103429435 0.04583028 -0.034494005 -0.012512815
000030 70 78 41 3d 26 cc dd 3c 5a 23 e8 3c 95 79 8e bc
       0.047234 0.027074885 0.02833717 -0.01739196

conv2.1.running_mean f4 [16]
000000 6a 6d 4a 3f b1 9d 3c 3e 85 cb 0a bf 74 1c 0e bf
       0.790732 0.1841953 -0.54216796 -0.55512166
000010 50 d9 81 be 64 16 7e bd 3b d3 f2 be d2 4d 9c bd
       -0.2536111 -0.062033072 -0.4742678 -0.076320305
000020 d1 57 42 3e 2e 95 15 3d 99 44 78 3e 36 a7 6f 3e
       0.18978812 0.036519222 0.24244918 0.2340363
000030 45 95 05 bd ce 8a 79 3e 3c 69 07 bf 75 19 af 3e
       -0.032613058 0.24369356 -0.5289495 0.3419911

conv2.1.running_var f4 [16]
000000 40 f3 60 3e 2b 42 ac 3e 9b 6f 88 3e fe b9 5f 3e
       0.21967793 0.33644232 0.26647648 0.21848294
000010 e0 dc e9 3d e4 aa 31 3e 0a 13 98 3e e4 23 1f 3e
       0.11419082 0.17350346 0.29702026 0.15541035
000020 bf 20 4e 3e c1 c7 2f 3e cc cb 81 3e 60 33 ec 3e
       0.20129679 0.17166044 0.25350797 0.46132946
000030 93 74 ee 3d 67 8d cb 3d e0 01 43 3f aa 84 46 3e
       0.116433285 0.0993908 0.76174736 0.19386545

conv3.0.weight f4 [32, 16, 4, 4]
000000 dc c4 67 3d 54 5e 99 3d 84 bd c6 3c 5b 26 85 3d
       0.056584224 0.07488695 0.02426029 0.06501456
000010 0f 07 03 3d bc 79 37 3d f0 85 bb 3c 8d 50 21 3d
       0.031989153 0.04479383 0.022891015 0.03938346
000020 3e 4e 78 3d 3c dc e5 3d f1 85 d0 3d ac ba c9 3d
       0.060621493 0.11223647 0.10181797 0.09850058
000030 49 4e a2 3c b1 4e c1 3d d1 88 8b 3d 1c 14 e5 3d
       0.01981272 0.09438837 0.06813205 0.11185476
000040 9a 1b 3b bd db 20 1d 3d f3 87 af 3c 63 ad ed bb
       -0.04568062 0.03836141 0.02142713 -0.0072533353
000050 cb 5b 24 3d a5 24 82 3d da dd 00 3d be da 13 bd
       0.040126603 0.06354646 0.031461574 -0.03609728
000060 9e 8d 0a 3d 30 7d f9 bc 2f 88 50 bc 56 f5 e8 bc
       0.033826463 -0.030455202 -0.012727781 -0.028437298
000070 cd b4 4e 3c 11 df 36 bd 5d f2 ef 3c e0 f1 bd bb
       0.012616348 -0.044646326 0.029290373 -0.005796656
000080 12 ee a2 3c 15 2f e3 b9 47 ef 83 3d 3a bc 45 3c
       0.019888911 -0.00043331893 0.06442123 0.0120688025
000090 6a 53 10 3d 6d e8 18 3d fb 4e c4 3c 83 6c f9 bc
       0.0352358 0.037331033 0.023963442 -0.03044725
0000a0 ba 62 36 3d 7d 7c 34 3c 86 e3 1c 3d 9f 55 e7 bb
       0.044527747 0.011016008 0.03830292 -0.0070597674
0000b0 07 56 67 bd 89 67 fe bc 8d c8 83 3c 5d 45 e7 3c
       -0.056478526 -0.031055229 0.016086841 0.028231317
0000c0 34 12 dd bc bd 3a 2e 3d 65 1a 19 3c 60 5c 50 ba
       -0.026986219 0.042536486 0.009344672 -0.0007948335
0000d0 be cb 51 3d 62 ac 21 3d 89 1f 96 3d d1 c1 1e 3d
       0.051219694 0.039471038 0.073302336 0.038759056
0000e0 2a 38 06 3d 20 c9 80 3d c6 96 4a 3d f4 16 a0 bc
       0.032768406 0.062883615 0.049460195 -0.019542195
0000f0 12 46 2a bd a5 78 d0 bc a0 0a c9 3c 59 25 df 3c
       -0.04157073 -0.025448153 0.0245412 0.027239488
000100 63 3b fa bc 34 22 63 bd a0 a4 bf bc 05 ee 9a bc
       -0.030545896 -0.05545254 -0.023393929 -0.018912325
000110 9e 0d 60 bd 20 b9 f0 3c 71 16 6f 3d bf b8 53 3d
       -0.054700486 0.02938515 0.05837101 0.05168986
000120 97 81 a1 ba a2 f0 b6 3b 6a 10 ce 3c 91 05 c4 3c
       -0.0012321946 0.005582885 0.025154311 0.023928436
000130 67 4c 7a bd 7f a5 90 3c a9 d7 6f bb 95 e2 c2 bb
       -0.06110802 0.01765704 -0.003659705 -0.005947421
000140 c6 84 1c 3d 99 cb a8 3c 63 82 b6 3d 92 0d b0 3d
       0.03821256 0.020604895 0.08911588 0.08596338
000150 ed b3 3e 3d d5 6f 94 3a 9d 6e 88 3c eb 44 1e 3d
       0.04655831 0.0011324832 0.016654307 0.038639944
000160 5e 7b b1 bc cc 7e 51 3d 37 63 f4 3c 5b 75 24 3c
       -0.021665271 0.051146314 0.029832466 0.010037745
000170 40 8f 80 3c 4b d1 34 bd 48 a1 98 3d ab 10 17 3d
       0.015693307 -0.04414491 0.07452637 0.03688113
000180 bf 53 4d bd ca 29 19 bd 35 93 4f bd 4e 12 70 bd
       -0.050128695 -0.03739337 -0.050677497 -0.058611207
000190 76 74 8c 3d 08 2a 4f 3d 00 69 dc 3d 08 e2 93 3d
       0.06858151 0.050577193 0.10762215 0.072208464
0001a0 8a a1 b6 bc 76 71 37 3d f9 93 a1 3c f1 8e 94 bc
       -0.022293825 0.04478594 0.01972388 -0.018134566
0001b0 c1 71 6a bd 8d 9a 4b 3d 0b d5 49 3d ac 2b 14 3c
       -0.05723739 0.049707938 0.04927544 0.009043615
0001c0 18 31 c5 bc 19 e9 14 3d 66 a2 ea 3c 2f bb 9c bb
       -0.024071261 0.03635511 0.02864189 -0.004783056
0001d0 c6 86 7e 3b 65 7e 68 3c d8 a6 65 bc 18 f2 4d bd
       0.0038837655 0.014190291 -0.014016829 -0.050279707
0001e0 c4 90 6f 3b a4 e6 5b 3d 77 81 82 3d bb 80 b3 bc
       0.0036554793 0.053686753 0.0637235 -0.02191197
0001f0 a0 69 00 bd 8b 70 e2 bc 90 c1 a3 3b f1 5f f2 3c
       -0.03135073 -0.027641555 0.0049974397 0.029586764
000200 8b a0 85 bb 5b 1a 54 3c f5 67 45 3c 4c d1 03 3d
       -0.004077976 0.012945737 0.012048711 0.032182023
000210 63 a2 95 bd 78 6c 02 3d d3 c2 9b 3c 0f 5d 19 3d
       -0.073063634 0.031841725 0.019013798 0.037442263
000220 e4 4d 83 3a cc 98 43 bd d4 d0 08 3d 73 d4 6e 3d
       0.001001772 -0.04775314 0.03340228 0.058308076
000230 26 5c bb 3c 07 11 01 bc 34 92 50 3c 67 d8 b7 3c
       0.022871088 -0.007877595 0.01273017 0.022442056
000240 b3 4b 26 bd 39 a3 2d bd 08 5d 4e bd 1c fa c6 bc
       -0.040599536 -0.04239199 -0.05038169 -0.024289183
000250 1e 35 3c ba a2 54 85 bd c2 d3 8c bc 3e d9 ad bc
       -0.0007179546 -0.06510283 -0.017190818 -0.021221753
000260 cd 7c 6d bc 7e 3c 03 3d 9c 62 10 bd 02 a4 16 bc
       -0.014495087 0.03204011 -0.03525029 -0.009194376
000270 d1 3b 2b bc c6 dd 62 bd 44 ed 5b bd ad 81 a6 bc
       -0.010451273 -0.05538728 -0.05369307 -0.020325506
000280 9a f0 87 3c 6b 55 bf 3c b6 f6 9e 3d 08 f6 a6 bc
       0.01659422 0.02335616 0.077619 -0.020380989
000290 b1 52 82 3d cd 1a 87 3d ce 4f 46 3d af 39 cc 3c
       0.063634284 0.06596909 0.04841595 0.02492985
0002a0 6c d0 0e 3d 76 69 89 3d cd fc 8d 3b de 9b fe 3c
       0.034866735 0.06709568 0.0043331147 0.031080183
0002b0 54 77 69 3d 45 54 c0 3c 06 2f 8b ba a1 ed 5a bc
       0.056998566 0.023477683 -0.0010618872 -0.013362319
0002c0 0b 75 62 3c 35 78 8d bd cb 22 36 bd 38 44 e5 bc
       0.0138218505 -0.06907693 -0.044466775 -0.02798663
0002d0 f4 0d e3 3b f1 8e 64 bd 7e 6d 2e 3d 4a 58 09 bc
       0.0069291536 -0.055800382 0.04258489 -0.008382866
0002e0 10 ea af 3b c3 07 f0 3c 38 1d bd bc 57 45 de bc
       0.0053684786 0.029300576 -0.023085222 -0.027132673
0002f0 f4 99 2c 3d 66 0e 14 3d 1d 8a 03 bd 3d de a7 3c
       0.04213901 0.036146544 -0.032114137 0.020491714
000300 c8 c0 ae bd 52 51 04 bd 16 ca 98 bd 90 ac 98 bc
       -0.08532864 -0.032304116 -0.0746042 -0.018636972
000310 a4 51 39 bc 1e f2 c1 3c f9 bb 83 bd 43 b3 10 bd
       -0.011310969 0.02367502 -0.06432337 -0.035327207
000320 cc 09 9f 3a df e1 bb 3a 1a 5e c3 bb 5f 65 b0 bc
       0.0012133657 0.0014334283 -0.0059621455 -0.021532713
000330 ef 39 8c bc 7b 99 64 3d d7 ad 1b bc 7a 06 b6 3c
       -0.017117469 0.055810433 -0.009501896 0.022219885
000340 c3 55 51 bd f2 da a5 3c 86 41 e3 3c 2b ef c1 3c
       -0.05110718 0.020246003 0.027741205 0.023673614
000350 78 44 9f bc 77 9d 20 3d 4b 58 04 3d 43 fc 0e 3d
       -0.019441828 0.03921267 0.032310765 0.034908544
000360 2a 43 01 bd cf 5b 95 3c 8f b9 ff 3c f0 a8 0c 3d
       -0.031558193 0.018232254 0.03121641 0.0343408
000370 1c 8e c9 38 c0 2d 99 bc 69 57 49 3d bd 2a 93 bc
       9.610897e-05 -0.018698573 0.049155626 -0.017964715
000380 64 bb f1 bc 2a 84 05 bd d3 ba 90 bd 1d f8 84 bc
       -0.0295083 -0.032596745 -0.07066884 -0.01623159
000390 15 6e d2 3b b4 c1 49 3b e2 7a 4b bd 7b ff 4d bd
       0.006421814 0.0030785622 -0.049677737 -0.050292473
0003a0 aa 30 10 3c ea 7f 0b 3d ff 0c 07 bd 01 de b6 3c
       0.008800665 0.034057535 -0.03297138 0.022322657
0003b0 79 5f 9a bb 53 f8 69 3d 43 00 2b 3d 71 32 b6 3c
       -0.0047110883 0.057121586 0.041748296 0.02224085
0003c0 8d 7a a6 bc 3f c7 a7 bc e3 4a 69 bc 14 21 13 bd
       -0.020322109 -0.02048075 -0.014239046 -0.035920218
0003d0 09 68 7a 3d d5 d0 6b 3c 8a 81 e4 bc aa 2e 2e 3c
       0.061134372 0.014393051 -0.0278938 0.010631243
0003e0 7a 8e e0 bc 47 31 8c bc 39 72 41 bd 97 47 c9 3c
       -0.027411688 -0.017113341 -0.04722807 0.02457027
0003f0 62 7c c8 bb c9 32 cf 3b 06 1f c7 3c 6d 14 47 bc
       -0.006118343 0.0063231927 0.024306785 -0.012150866

conv3.0.bias f4 [32]
000000 9c b7 de 3c e4 7c f1 3c e6 76 34 3c c1 70 b7 bb
       0.027187161 0.029478498 0.011014676 -0.005598158
000010 88 3d 6f bc fa b4 99 3c df 3a 7e bd 43 ec 09 3c
       -0.014602073 0.018763054 -0.062067863 0.008418146
000020 78 4e 23 bd 3d 1e 29 3d 9d a1 d1 3b 71 08 95 3c
       -0.039869756 0.041288603 0.0063974396 0.018192502
000030 9d db 69 3a 5a de 55 3d 54 72 33 bd 4c 68 4e bd
       0.00089209696 0.052214004 -0.043810204 -0.050392434
000040 e9 3f 5e bd d3 d3 ed 3c 38 a0 ae bc 6f 2e 65 3d
       -0.05426017 0.02903167 -0.021316633 0.055952486
000050 76 8d 7e bd 78 5f 08 bd d6 68 2d 3d 68 c7 9a 3c
       -0.062146626 -0.03329417 0.042336307 0.018893912
000060 58 76 a8 bc e1 15 59 3d de a0 33 3c 22 7d 73 3c
       -0.020564243 0.05299938 0.010963647 0.014861377
000070 49 8c 71 3d 5a c3 3e bd 35 ce 04 bc 5d 56 5b 3c
       0.058971677 -0.04657302 -0.008105804 0.01338729

conv3.1.weight f4 [32]
000000 5f 90 89 3f e9 49 7f 3f 9d a4 81 3f a6 a9 79 3f
       1.0747184 0.9972215 1.0128361 0.9752449
000010 4c da 7f 3f 53 cd 81 3f 81 92 7b 3f 6c e0 7c 3f
       0.9994247 1.0140785 0.9827042 0.9877994
000020 8c 9d 84 3f 5b 6d 81 3f 3e 88 80 3f c1 20 7f 3f
       1.036058 1.0111498 1.0041578 0.99659353
000030 0d fc 77 3f 27 c0 88 3f f8 99 85 3f c7 27 7d 3f
       0.96868974 1.068364 1.0437613 0.9888882
000040 da 10 82 3f 52 ef 7f 3f 94 60 7a 3f bb 65 80 3f
       1.0161393 0.9997455 0.97803617 1.0031046
000050 f1 da 84 3f 80 08 82 3f a6 24 79 3f 94 de 7f 3f
       1.0379316 1.0158844 0.97321546 0.99949
000060 dd 78 78 3f 48 14 80 3f bf 20 7b 3f ab c7 83 3f
       0.9705942 1.0006189 0.9809684 1.0295309
000070 c8 35 7e 3f 15 46 7c 3f 76 3b 7f 3f c8 de 7e 3f
       0.99300814 0.98544437 0.99700105 0.9955869

conv3.1.bias f4 [32]
000000 47 e4 dd bd 54 9e 46 bc 42 85 a4 bd e1 fd fd bc
       -0.10834556 -0.012122709 -0.080332294 -0.031004848
000010 0e 9e aa bb 66 37 bf bc 1e a4 38 bd fe 41 a3 bb
       -0.00520683 -0.023341846 -0.04507839 -0.004982232
000020 ad 34 cb 3c e1 02 a1 bb d9 68 96 bc af a7 ef bc
       0.024805391 -0.0049136733 -0.018360542 -0.029254762
000030 d5 16 aa bb 0f 74 42 bd 1f e2 d8 3d 82 11 01 bc
       -0.00519071 -0.047473963 0.10590004 -0.007877709
000040 ed 3e ad 3c bb c5 44 bc dd f8 16 bd e8 ad e4 bd
       0.02114817 -0.012010033 -0.03685843 -0.111659825
000050 e9 c1 6f bd 87 f0 47 bd 6c af c8 bb f6 30 18 3d
       -0.058534537 -0.04881337 -0.0061244275 0.037156068
000060 94 ba 00 bc ab 07 b4 bc f1 51 81 3b 19 31 d3 3c
       -0.007856984 -0.021976313 0.0039465358 0.025780248
000070 6d 9f c6 bc 1e ce 78 bc 3a c0 2e bd 9d 06 23 3c
       -0.024245942 -0.015185861 -0.04266379 0.009950307

conv3.1.running_mean f4 [32]
000000 7d b0 52 3f 6e 1b 87 3d 37 6f e2 3e 5a 32 12 3d
       0.8230055 0.06597029 0.44225475 0.03569255
000010 b6 4c 9a bd 30 11 87 bf e7 3f 22 bf f8 8b 25 be
       -0.07534163 -1.055212 -0.6337876 -0.16166675
000020 57 7b dd 3d 6c b0 0d 3f 25 a5 aa 3e e0 2d c6 bd
       0.10814541 0.55347323 0.3332912 -0.09676719
000030 e4 51 c9 be 71 8e ce 3e 1e 25 8c bf e0 18 e1 be
       -0.3932029 0.4034305 -1.0948827 -0.4396429
000040 ed 57 2d bf da 6d dc 3d 20 83 33 3e 9d 40 75 bf
       -0.6771229 0.1076314 0.17530489 -0.9580172
000050 06 ce 96 bd b7 2e bb 3e fe d1 82 3e e5 18 d4 be
       -0.073635146 0.36559078 0.25550836 -0.41425243
000060 e1 e0 15 bf e7 b8 b7 be ab 0d fe 3d d2 23 2f bf
       -0.5854626 -0.35883257 0.12404951 -0.6841403
000070 fb db 9b 3e 17 64 95 be 41 2b b2 be 06 11 de 3e
       0.3044127 -0.29177925 -0.34798625 0.43372363

conv3.1.running_var f4 [32]
000000 4c 60 20 3f 6e fa 83 3e e2 18 90 3e 7c 9d db 3e
       0.6264694 0.25777 0.28143984 0.4289359
000010 e6 d6 ed 3e 2d 91 66 3e 8a 5e 35 3e 73 90 6e 3e
       0.46453017 0.22516318 0.17711845 0.2329729
000020 68 2d 40 3e 07 eb 12 3e 83 72 a8 3e b6 5e 05 3e
       0.18767321 0.14347468 0.32899866 0.1302441
000030 b9 22 3e 3e 76 ae d5 3e 17 4e 21 3f 4c 50 50 3e
       0.18567933 0.41734666 0.6300978 0.20343131
000040 8c 82 51 3e df 02 a8 3e fa 49 8d 3e d1 d4 71 3e
       0.20459956 0.3281469 0.27595502 0.2361634
000050 7a 29 3c 3e b0 a6 91 3e f8 9e 51 3e 42 68 75 3e
       0.18375197 0.28447485 0.20470798 0.23965552
000060 ff da 45 3e b1 b9 be 3e 22 66 96 3e cb 15 e7 3e
       0.19321822 0.37251046 0.29374796 0.45133814
000070 49 18 00 3e 2a 99 18 3e cd 9f 15 3e b6 e4 ee 3e
       0.12509264 0.14902177 0.1461174 0.46658868

deconv2.0.weight f4 [32, 16, 4, 4]
000000 93 e5 5b bd 02 0e 34 bd a6 5a 03 3d 60 55 1e bd
       -0.053685736 -0.04395867 0.03206887 -0.03865564
000010 cf 7c b6 3c f9 fa 77 bd 07 91 88 bd 38 60 2e bd
       0.02227631 -0.06054208 -0.06668287 -0.04257223
000020 3e 9e ec bc ff 39 34 3c bf 10 0d bc 42 42 c0 3b
       -0.02888405 0.0110001555 -0.00860995 0.0058672735
000030 6a 09 f8 bc ff a2 7b bd f3 de 4b 3d a9 7f e1 3a
       -0.030277926 -0.061434742 0.049773168 0.0017204183
000040 9f c7 0c bc f0 83 7b bd b4 c2 a9 bc a0 62 29 3d
       -0.008592515 -0.061405122 -0.020722724 0.04135382
000050 c5 55 50 3d 87 d6 5a 3d 40 e3 88 3d 4e 87 40 3d
       0.050863046 0.053427245 0.066839695 0.047004037
000060 5f 35 1e bd 3f 64 13 3d 0b 76 33 ba a9 b3 a5 bc
       -0.038625117 0.035984274 -0.0006845898 -0.02022727
000070 4f 49 16 3d e6 a1 8e 3c 2e c5 35 bd c0 e8 b4 3c
       0.036691006 0.017411184 -0.0443775 0.02208364
000080 4b e7 24 3d 01 05 75 bd ce 81 b8 3c 74 44 57 3d
       0.04025964 -0.059819225 0.022522833 0.052555516
000090 d3 28 c9 3c 0c 46 02 3d b0 72 2c bd 6b af 51 bd
       0.0245556 0.031805083 -0.042101562 -0.051192682
0000a0 c3 e0 32 bb 33 e4 84 bc 9d 26 87 3d 54 d4 11 3d
       -0.0027294613 -0.016222095 0.06599162 0.035602883
0000b0 04 b7 90 3c 34 9a 80 3c d9 62 c7 bc c7 5e 9a bd
       0.017665394 0.01569853 -0.024339126 -0.075376086
0000c0 76 21 29 bd 6b 30 c9 3b ac 57 b0 3c 14 d2 24 bd
       -0.041291676 0.006139805 0.02152618 -0.04023941
0000d0 95 dc 43 3b 9a 2e 03 bd 3f 45 f1 3b f7 6b cf bc
       0.0029886116 -0.032026865 0.007362991 -0.025320036
0000e0 a6 fd 82 3d 4c 07 bd 3d 4f f1 66 bd b0 ad b1 bc
       0.06396036 0.092299074 -0.056382474 -0.021689266
0000f0 79 9d d8 3c f7 8c 60 bd 81 e0 ad bc 8f f9 be bd
       0.026442276 -0.054821935 -0.021225216 -0.09324943
000100 11 af cb 3b 2d 3e 7b bd 1b 68 da bb 7f 0c ff 3b
       0.006215938 -0.061338592 -0.0066652424 0.007783472
000110 b4 5d 42 bd 7e af b0 3c 22 ba 1f bd 58 a1 87 bd
       -0.047452644 0.021568056 -0.03899587 -0.06622571
000120 cc 25 44 bd 48 ee 3e bd 9b 9a e7 3c 9a 64 ea 3a
       -0.04788761 -0.04661396 0.028271964 0.0017882765
000130 3f 20 99 bd 60 58 93 bc b9 d2 13 3d 08 2e 72 3d
       -0.074768536 -0.017986476 0.036089633 0.05912593
000140 15 ef 19 bd 7b 21 2c bd c0 23 b8 bd 6b 81 78 bd
       -0.037581522 -0.042024117 -0.08991194 -0.060670298
000150 73 93 29 3c 98 40 0f bc 46 ea e5 bc 17 5b d3 bb
       0.010350096 -0.008743428 -0.028065812 -0.0064500677
000160 41 8c 8b bd e1 6c 8c bd ea 4e a5 bd 27 23 75 bc
       -0.06813861 -0.068567045 -0.08071692 -0.014961994
000170 12 79 cb bc 98 c9 01 3d 8b cf a6 bc 7e b7 16 bc
       -0.024838004 0.031686395 -0.020362636 -0.009199021
000180 f3 11 7a bc 45 04 f8 bd 83 16 51 bd 54 3a 6d bd
       -0.0152630685 -0.12110189 -0.05104686 -0.057916954
000190 07 57 06 3d 7b b0 cc 3c 42 dc db bc ab 5a 85 bc
       0.03279784 0.024986496 -0.026838426 -0.016278585
0001a0 7b 82 21 bd 7f ea 17 be b9 cf d6 bd 99 31 31 be
       -0.039431076 -0.14835547 -0.10488839 -0.17304076
0001b0 a3 25 e8 3c 24 0e 9d bd e2 fe 26 3d 45 8b c7 3c
       0.02833826 -0.07668713 0.04077042 0.024358401
0001c0 4e 9c be bc 3a 85 85 bd a2 15 e8 bd 87 ef a3 bd
       -0.023267891 -0.065195516 -0.11332251 -0.080046706
0001d0 f2 0b a8 bc 97 74 8d bd 7f d1 10 bc d3 40 1d be
       -0.020513508 -0.069070034 -0.00883901 -0.1535676
0001e0 23 f5 ff 3c 39 f2 33 bd ce 91 90 3a a9 9a 2a 3c
       0.03124482 -0.043932173 0.0011029781 0.01041285
0001f0 7c 83 17 3d 11 ba ae bd 51 fe a8 3c 74 7e 0a be
       0.036990628 -0.08531583 0.02062908 -0.135248
000200 71 14 90 bd 97 68 27 ba ea 36 7b 3c e8 15 39 3d
       -0.07035149 -0.00063861295 0.015332917 0.045186907
000210 67 ac 90 3d 6a a1 2d 3d 24 06 9c 3c 48 1f 3a 3d
       0.07064133 0.042390265 0.019045897 0.04543999
000220 f7 74 c9 bd ea 56 ba bc 4b e1 1d bd 56 8d e0 ba
       -0.098367624 -0.022746522 -0.038544934 -0.0017131965
000230 5b d7 1f bd f9 a2 11 bd 0c 3b 7a bc 54 bd 45 3d
       -0.03902374 -0.035555813 -0.015272867 0.04827626
000240 a1 b7 b4 bd 14 ce db bb 14 4c c1 bc bd b9 bb bb
       -0.08824087 -0.006707916 -0.023595847 -0.005728929
000250 56 ba 28 bd eb c8 a3 bd c8 55 57 3c 2f ee aa 3c
       -0.04119333 -0.079973064 0.01314301 0.020865528
000260 34 d2 a8 bd 94 e6 23 bd fa 32 19 be 3e 04 1b 3d
       -0.08243218 -0.04001482 -0.14960852 0.037845843
000270 1c a1 20 3d 93 bf 3a bd 59 3b 1e 3b bf ad b7 bd
       0.039216146 -0.045592856 0.002414426 -0.08968686
000280 82 9d 67 3c c4 f8 e4 3c 12 c9 56 3d ae bf 49 bd
       0.014136674 0.027950652 0.05243785 -0.049255066
000290 62 de 17 3d 39 74 34 bd 65 f3 39 bd 48 a3 da bd
       0.037077315 -0.04405615 -0.045398135 -0.10675675
0002a0 ed c0 8a 3d e5 eb 59 3d 8a ae 1a bd 23 c2 6b bc
       0.06775079 0.053203482 -0.03776411 -0.0143895475
0002b0 ef 2b 71 3c 36 44 13 bd e8 1b 9a 3b 51 5e a1 3b
       0.014719947 -0.035953723 0.0047030337 0.0049245735
0002c0 18 58 20 bd 59 ed bc bc d2 0c 52 bd ae e3 40 3c
       -0.039146513 -0.023062395 -0.051281758 0.011773033
0002d0 b6 9a 1b 3c ae 5a 2c bd bd e5 90 bd 74 ea f6 3a
       0.009497335 -0.042078666 -0.07075069 0.0018838183
0002e0 1f 26 01 bd 26 40 1b 3c ac 0d 3c 3c 06 28 8e bd
       -0.031530496 0.009475743 0.011477869 -0.069412276
0002f0 ce 88 ac 3c 38 04 53 bd de a2 c9 3c de 3a 3e 3b
       0.021061327 -0.051517695 0.024613794 0.0029026787
000300 b1 0b 54 3c e8 bf 3f 3c 1a 20 3e bd 39 4f f7 3c
       0.012942241 0.011703469 -0.046417333 0.030189143
000310 db d9 e7 bc 0c f3 83 bd a2 63 98 bc ff 7e 4c bd
       -0.028302124 -0.06442842 -0.018602196 -0.0499258
000320 99 d0 a3 bd ee b7 15 bd f4 9f a9 bd c4 4f 9c bb
       -0.07998771 -0.036552362 -0.08282462 -0.004770251
000330 49 69 cd bc 21 4a b9 bb 58 83 c1 3c e7 2f 3f bd
       -0.025074618 -0.005654589 0.0236222 -0.046676543
000340 51 75 74 3a a2 5e 57 bd 94 92 7f 3c 9a 6a 78 bd
       0.0009325343 -0.052580483 0.015598912 -0.06064854
000350 04 40 7d bd e7 1d df 3c 96 55 8e bd 1e 38 df 3c
       -0.06182863 0.027235938 -0.06949918 0.027248438
000360 3b e8 cc 3c 84 32 fd 3c 56 6d 16 bd a4 4b 93 bd
       0.02501308 0.030907877 -0.036725365 -0.07192162
000370 ab ae 3a bd 14 86 5c bd f8 77 7b bd 73 ea 38 3d
       -0.045576733 -0.053838804 -0.061393708 0.045145463
000380 e4 4a 4a 3d ef 61 fb 3c f5 fc 59 3d 3c 87 4b bd
       0.049387828 0.030686347 0.053219754 -0.049689516
000390 c3 33 cc bb ca 2a 43 bd fa c6 08 3d 69 84 2f 3c
       -0.0062317564 -0.04764823 0.033392884 0.010712721
0003a0 0a 91 5a bc c3 af 5a bd 67 03 37 bd f0 88 1a bd
       -0.013340244 -0.053390276 -0.04468098 -0.03772825
0003b0 c2 da 1d 3d 06 dc ae bd 5f a4 28 bd 0d 5c 25 bd
       0.0385387 -0.0853806 -0.04117238 -0.04037099
0003c0 e3 9a ad bc 98 19 b7 bd e2 9e 2d bc 50 d4 6a 3b
       -0.02119202 -0.089404285 -0.010596963 0.0035832115
0003d0 55 18 cb bc 64 90 6e bc 62 cc b6 bd 31 ab c7 bc
       -0.024791876 -0.014560793 -0.08925702 -0.024373623
0003e0 a0 86 c4 bc c7 31 40 bc 7b fe b2 bc 3a 95 e7 3c
       -0.023989975 -0.011730618 -0.021849861 0.028269399
0003f0 29 af 31 bd ab 30 b5 bc 4c 64 f6 bc 52 53 a3 3c
       -0.043379936 -0.022117933 -0.030077122 0.019937191

deconv2.0.bias f4 [16]
000000 22 08 b0 bc 8e 5d 7d bd 6e a8 6e bb 0c fc 3f 3d
       -0.021488253 -0.0618568 -0.003641631 0.04687123
000010 00 e0 f8 3b 4e 34 51 bd 3f 17 4d 3c 0d 54 0f 3d
       0.0075950623 -0.051075272 0.012517749 0.034992266
000020 1b 76 22 bd 03 09 29 3d b8 76 4e bd 58 83 44 bd
       -0.039663415 0.04126836 -0.050406188 -0.04797682
000030 6c c6 2f 3c 0a 8e b2 bc 2a d4 4d 3d dc dc 92 bb
       0.01072846 -0.021796245 0.050251164 -0.004481895

deconv2.1.weight f4 [16]
000000 b9 ab 6c 3f 11 4b 76 3f 17 b8 7a 3f b4 29 7f 3f
       0.9244953 0.9620829 0.9793715 0.9967301
000010 cb 04 78 3f bb 0d 88 3f d5 ab 86 3f 4c 3f 85 3f
       0.96882313 1.062919 1.0521189 1.0409942
000020 9d fe 75 3f 1a 8b 7b 3f ee a9 7c 3f 58 58 7f 3f
       0.96091634 0.9825913 0.9869679 0.99744177
000030 98 85 7e 3f 8f 86 7f 3f 4b e2 81 3f df d2 8c 3f
       0.994226 0.99814695 1.0147184 1.1001853

deconv2.1.bias f4 [16]
000000 1c bf c6 bc 77 c1 bc 3c 76 fa 42 3c b4 55 3b 3d
       -0.02426105 0.02304147 0.011900535 0.04573603
000010 94 33 0b 3d 91 2f e9 bc 64 69 b4 3d 93 28 40 bc
       0.033984736 -0.028465064 0.08809164 -0.011728424
000020 40 39 04 3d 84 74 4b bd 33 ce 7e 3d 1f ba 07 3d
       0.03228116 -0.049671665 0.062208366 0.033136483
000030 62 05 b7 3c 12 74 4e 3d 04 bb df 3c 11 76 ad bd
       0.022341434 0.050403662 0.027310856 -0.08469785

deconv2.1.running_mean f4 [16]
000000 1c 2d cf be 00 9a 0b bf 96 1b 18 bf 4c ac 0f bf
       -0.40464103 -0.5453186 -0.5941709 -0.5612228
000010 80 3a 2e bf 81 6f 25 bf 40 4b f9 be 7e 94 d3 be
       -0.68058014 -0.64623266 -0.48690224 -0.41324228
000020 55 ec 2b bf 40 69 9c be 53 e1 56 bf a4 d5 3d bf
       -0.6715749 -0.3054905 -0.8393757 -0.74154115
000030 fd 12 26 bf 71 22 85 bf b5 65 03 bf ff ad fa be
       -0.64872724 -1.0401136 -0.5132707 -0.48960873

deconv2.1.running_var f4 [16]
000000 7b f2 1c 3f 6a fe 21 3f 77 d5 35 3f 3f 5d 5d 3f
       0.61307496 0.6327883 0.71028847 0.8647041
000010 bb ac ed 3e a1 cf 09 3e d4 60 3c 3f 1b d6 ba 3e
       0.46420845 0.1345811 0.7358525 0.36491475
000020 7d 81 1f 3f 2c 03 90 3e 62 cb d8 3f 8d 8a 1e 3f
       0.6230696 0.2812742 1.6937068 0.6193016
000030 95 8d 95 3f 1b 28 b4 3f c9 43 82 3e 62 1a fc 3d
       1.1683832 1.4074739 0.2544234 0.123097196

deconv3.0.weight f4 [16, 8, 4, 4]
000000 25 30 7c 3c dc 30 b6 3c 6b 9f 07 3d 8f aa d8 3d
       0.015392338 0.022240095 0.033111017 0.105794065
000010 20 3a 34 3c f7 06 e5 bc c0 ea 63 3d 3b d9 47 3d
       0.011000186 -0.027957423 0.055643797 0.04879115
000020 91 9a 93 bb 6d f9 32 3d f3 c5 87 3d c4 46 c1 3c
       -0.0045045097 0.043694902 0.06629553 0.023593314
000030 ff c6 db bc 93 e2 3b 3d 55 d8 44 3d ac 65 49 bd
       -0.026828287 0.045870375 0.048057873 -0.049169227
000040 02 fa 73 bd 62 13 72 3d f0 a7 0b bd ac eb 62 bc
       -0.059564598 0.059100516 -0.034095705 -0.013850134
000050 15 ff 70 bd 90 38 c5 3b cf ed e1 bc 0a 14 d5 bc
       -0.058837015 0.0060187057 -0.027579216 -0.026010532
000060 e3 50 ba 3c 6b b1 8c bd 7d 02 d7 3c a0 b0 3a bd
       0.022743648 -0.06869777 0.026246304 -0.0455786
000070 7d 51 cb 3c 5f 28 b6 3c 18 80 c9 bb 45 42 e8 bb
       0.02481913 0.022236047 -0.006149303 -0.007087978
000080 fb d1 d9 bb 74 32 80 3d 38 aa 86 3c 17 31 a1 3c
       -0.006647346 0.06259623 0.016438589 0.019676728
000090 65 96 3e ba 8e 90 18 bd 80 8b 28 bd 0a 57 43 bd
       -0.00072703353 -0.037247233 -0.041148663 -0.04769043
0000a0 6f 19 a1 3c f5 b4 8c 3c d8 94 67 bc 41 b0 d9 3b
       0.019665448 0.01717613 -0.014134608 0.0066433256
0000b0 b2 ca 2c 3d 21 6e 0d 3d 4e 10 46 3d a9 2e 7f 3d
       0.042185493 0.034528855 0.048355393 0.062300358
0000c0 1e 5b 1c 3e bb 8b 4f bd 65 57 91 bc b7 58 0a 3d
       0.15269133 -0.050670367 -0.017741868 0.03377601
0000d0 fb fa 15 3d a4 0b a4 3d ca 3a 62 3b e8 76 ae 3c
       0.036616307 0.08010033 0.0034519904 0.021296933
0000e0 b3 80 76 3c 9d af ed bc 9c 5f f0 3b b2 9c d7 bc
       0.015045333 -0.029014403 0.0073356163 -0.026319835
0000f0 bf 77 80 3c 12 a2 34 3d bd 3a d4 3c 6e 81 ae bc
       0.0156821 0.044099875 0.025906915 -0.021301951
000100 1a 2d 74 3d 92 c6 35 bd 73 70 87 3d 7f c9 57 3d
       0.059613325 -0.044378825 0.06613245 0.052682396
000110 80 32 03 bc 31 85 aa bc 4a 85 f8 bc be 54 1e bc
       -0.008007646 -0.020815464 -0.030336995 -0.009663759
000120 b6 e0 3e 3d 82 ea 3a 3d 32 12 88 3d 46 04 3b 3c
       0.04660102 0.0456338 0.066440955 0.011414593
000130 a7 29 12 3c 79 a2 19 bd 18 1c 9f 3c f3 cd e2 bc
       0.0089210635 -0.03750846 0.019422576 -0.027686095
000140 34 8a 09 3b f1 21 19 3d db 25 0d bd a9 c0 40 3d
       0.0020986916 0.037385885 -0.03445993 0.047058735
000150 9e fa 42 bd d6 d3 da 3c 49 36 6f bd 69 94 ad 3d
       -0.04760229 0.02671234 -0.05840138 0.084755726
000160 f2 1f a1 bc a0 6c 46 bd 14 be 8f bc 2f 99 ad 3d
       -0.019668553 -0.048443437 -0.017546691 0.08476483
000170 4f c9 71 3d 28 86 07 3d 19 1c 17 3d a4 4b 55 bd
       0.059029873 0.033086926 0.03689203 -0.05207409
000180 b5 41 16 bd b5 49 b6 3b 66 cb 21 3c 6c 7d 84 bc
       -0.036683757 0.005562986 0.009875154 -0.016173087
000190 fd 6f 82 3d 88 eb 65 3c 3f 48 18 3d c6 b3 2d bd
       0.06369016 0.014033206 0.037178274 -0.042407773
0001a0 25 7c 4c bc 2f af c5 3d fa 4f 02 3c 70 65 d5 bb
       -0.01248077 0.09652554 0.007953638 -0.0065123364
0001b0 ca f0 07 bc ba 6e 02 bd 4a e0 9f bd 32 91 22 3c
       -0.008297155 -0.03184388 -0.078064516 0.009922313
0001c0 c9 35 07 bc 8a 99 6c 3d c3 03 76 bc f5 62 d7 3c
       -0.0082525695 0.057763614 -0.015015545 0.026292304
0001d0 d6 13 22 bd 83 ec 95 b9 b8 bc 74 3c 5f 9c 47 bd
       -0.0395697 -0.0002859571 0.014937572 -0.04873311
0001e0 b8 ea 6c bc af de 6f 3c e9 d2 0a bd c0 a2 70 3d
       -0.014460258 0.014640494 -0.033892546 0.05874896
0001f0 b4 b9 61 3c 8d 83 aa bc b8 f6 88 3d d4 22 21 3d
       0.013777185 -0.020814681 0.06687683 0.039339855
000200 c8 be bc 3c bd 62 2c 3d 11 1b 0b bd 67 00 58 bd
       0.02304019 0.04208635 -0.03396136 -0.05273476
000210 15 e8 55 3d 53 46 78 3c 31 9f d6 bc 0a 9c f4 bc
       0.052223284 0.015153485 -0.026198955 -0.029859561
000220 90 1f 6b bd 96 00 82 3d 38 08 29 3d a2 e1 4a bb
       -0.057403147 0.06347768 0.041267604 -0.0030957242
000230 a7 37 91 3c 6a cd 78 bc e0 e0 22 3d ff 69 04 bd
       0.017726732 -0.015185693 0.03976524 -0.03232765
000240 a4 5d a1 bd 6a cb 65 bd 9a 9c 1e 3c 9b 32 d0 3c
       -0.07879189 -0.056102194 0.009680891 0.025414756
000250 e7 1a a6 3b fa 03 ad bc 3f 35 6d bc f6 1b 3c bd
       0.005069125 -0.02112006 -0.014478027 -0.045925103
000260 92 86 5f 3d 64 8d 96 bd e9 b6 e4 3c 40 ca 07 bd
       0.054571696 -0.07351187 0.02791925 -0.033151865
000270 bd f7 2c bd 5d 64 19 bd 04 3d 61 bc f5 67 43 3b
       -0.04222845 -0.03744923 -0.013747457 0.0029816602
000280 d5 1f d9 3c 26 8a a9 bb ba 8f 9b bd 56 46 ef bc
       0.026504437 -0.0051739393 -0.07595773 -0.029208343
000290 50 35 a3 3c 87 7e c2 3d f0 6d 34 3d bb 27 c0 3d
       0.019922882 0.094967894 0.044050157 0.09382578
0002a0 d6 3f ba 3b 33 06 0e bc 22 8f a4 bd f7 73 b1 3d
       0.0056838794 -0.00866847 -0.08035113 0.08664697
0002b0 4f d3 58 bc bc a9 91 bd fb 64 c5 3c 84 cd 80 bd
       -0.013233974 -0.071124524 0.024096003 -0.06289199
0002c0 64 5e e0 bc 12 9f 52 3d 0d 1f c1 bc 81 b3 0d 3c
       -0.027388759 0.051421233 -0.023574376 0.008648754
0002d0 19 a6 93 3d 81 4d 45 3b 6f d4 06 bd 2a cf 4c 3c
       0.07209415 0.003010601 -0.032917436 0.012500564
0002e0 ae 5f 83 bd d4 cc 2b 3c e2 c7 53 3d 33 20 00 bd
       -0.06414734 0.010485847 0.051704295 -0.031280708
0002f0 2c 20 9c bd 8e e1 db 3c b1 f7 0e bd 1a 58 ad 3c
       -0.07623324 0.026840951 -0.034904186 0.021160174
000300 ac 8c 62 bd dc a4 50 3d 8d f4 7b 3c d1 f0 dd bc
       -0.055309936 0.050938472 0.01537813 -0.02709237
000310 2e de c6 bc ed c5 22 bd a9 8b 04 3b 56 8e 89 bd
       -0.024275865 -0.039739538 0.0020224846 -0.067166016
000320 c9 d1 1a bd 51 c7 fe 3c cd 72 59 3d 55 ee cd 3d
       -0.037797723 0.0311009 0.053088 0.10055224
000330 b4 cf 47 3d 6b 1e 79 bc d3 95 2a 3d 2d 99 55 bb
       0.048782066 -0.015205006 0.04164679 -0.003259252
000340 98 6f ae 3c 5d e4 20 3c 23 93 48 3c b4 13 c1 3c
       0.021293446 0.009820071 0.012242111 0.023568965
000350 04 70 fa bc a3 22 b5 3c 3e d5 2e 3d f1 2f 0d 3d
       -0.030570991 0.022111243 0.042683832 0.03446955
000360 fc 41 05 3d 7e 0d 99 3b 6d 06 3e bc dd a7 e5 3c
       0.03253363 0.004670798 -0.011598212 0.028034145
000370 a8 dd 08 3d 8e a1 64 3d 60 fc f0 3b 34 97 9f 3d
       0.033414513 0.055818133 0.007354304 0.077925116
000380 42 b4 13 bc a5 1a b3 bd 9d 7c ee 3c 18 7a 89 3d
       -0.009015145 -0.087453164 0.029112155 0.06712741
000390 e6 31 42 bb a6 54 1c bd 98 66 84 bd 37 80 c1 bc
       -0.0029631793 -0.038166665 -0.06464881 -0.023620708
0003a0 f5 bf 06 3a 83 b9 9d 3d 19 f5 e5 3b c4 06 d7 bb
       0.0005140298 0.07701399 0.0070177433 -0.006562086
0003b0 87 51 87 3c 88 7c 71 3d cb 22 be bc 87 ed 95 3d
       0.016518367 0.058956653 -0.02320995 0.07320695
0003c0 36 ee 26 3c ac 64 c2 3c 52 ba 78 bd cf 9f c3 bc
       0.01018863 0.023729645 -0.060724564 -0.023879914
0003d0 84 6a 32 3c fe 52 44 bd c3 79 a8 bc 58 bc 05 3d
       0.010889653 -0.04793071 -0.020565873 0.03265032
0003e0 d2 f0 02 bd 0e 70 6f 3d e1 ec 90 bd 05 7c cd bc
       -0.031967945 0.058456473 -0.07076431 -0.025083551
0003f0 6e 38 b4 3b 16 91 2a bc 13 77 ac 3c e9 b2 8a 3d
       0.005499891 -0.010410568 0.021052873 0.06772406

deconv3.0.bias f4 [8]
000000 fc 7b cf 3b aa b4 8d 3d ba 25 9e 3d 26 28 92 bc
       0.0063319188 0.069192246 0.077220395 -0.01784141
000010 c1 ba 73 3d 8c d0 f7 3b d1 84 5d 3d 99 15 fb bc
       0.059504274 0.0075627025 0.05408174 -0.030649947

deconv3.1.weight f4 [8]
000000 e2 c4 97 3f 60 40 99 3f ac 9f 9a 3f d0 ae 96 3f
       1.1856959 1.1972771 1.2079978 1.1772099
000010 20 d2 9a 3f fa 99 96 3f 5f 8e 9a 3f c3 77 9b 3f
       1.2095375 1.176574 1.2074698 1.2145923

deconv3.1.bias f4 [8]
000000 0c f9 3c 3e be 59 48 3e c5 45 56 3e 6e 90 33 3e
       0.18454379 0.19565484 0.20925052 0.17535564
000010 24 ae 56 3e 68 9f 32 3e 50 43 57 3e 6f 7b 5b 3e
       0.20964867 0.17443621 0.21021771 0.21433805

deconv3.1.running_mean f4 [8]
000000 83 31 13 3d 1e d4 8b be fb a7 ad 3c 7f be 5b be
       0.03593589 -0.2731027 0.021198263 -0.21459387
000010 b8 4a a5 3d 86 bb cf b9 f3 02 e7 bd 23 e9 55 be
       0.08070892 -0.00039621833 -0.112798594 -0.20889716

deconv3.1.running_var f4 [8]
000000 6e c8 a4 3d 60 1b 00 3e c0 d8 d8 3d 4c 45 ea 3d
       0.080460414 0.12510443 0.10588217 0.114389986
000010 fd 92 22 3e bc 94 17 3e 26 7c 04 3e 5b 34 26 3e
       0.15876384 0.14802831 0.12937984 0.1623091
