Pix2Pix/checkpoints/pix2pix_model_epoch_110.pth (torch, 99191 bytes, 32 tensors)

conv1.0.weight f4 [8, 3, 4, 4]
0.124338344 0.117013715 -0.08271118 0.14823416 0.06850006 0.0065581463 -0.07014281 0.108966
-0.09482532 -0.021101354 0.008071887 -0.022329783 0.117866814 0.09250633 -0.13281496 -0.1424641
-0.053279355 0.08620228 0.011456141 0.16215381 -0.05956339 -0.049062405 0.17872317 -0.076437324
-0.14232174 -0.12161115 -0.0919686 -0.12809089 -0.09399575 0.005366204 0.11751569 -0.08880702
0.0649079 0.11650826 -0.074991845 -0.113096274 -0.06799321 -0.008362306 0.1252958 -0.026207512
-0.06779412 -0.10141223 -0.13783425 0.020601885 0.115624815 -0.084001176 0.15704651 0.010145849
0.011045015 0.01783038 -0.06756966 0.13776174 0.124271154 0.070962474 0.105165325 0.012142809
0.01149072 -0.07343833 -0.09672837 0.10283262 -0.06382925 0.0365958 -0.07608964 0.14014216
-0.028382676 -0.066939525 0.120148614 -0.12852345 -0.057295386 -0.119454205 0.047382645 -0.044141762
-0.0039680563 0.048706327 0.047930118 0.1101013 0.04960333 -0.13883473 -0.12611693 0.04152059
0.040632036 0.08059204 -0.12465684 -0.13515294 0.10405192 -0.07148507 -0.016261661 -0.065942064
-0.03266418 -0.08665732 -0.111779846 0.062023055 -0.04108267 -0.038004193 -0.1191229 0.045625906
0.08650581 -0.0875781 0.018648293 0.14790429 -0.13236906 -0.09485212 -0.080898285 0.048375543
-0.13375288 -0.095790215 0.006042857 -0.024739781 0.10536941 -0.099701785 0.049362812 0.114365466
0.11415323 -0.13759509 0.06332653 -0.10403227 0.11698112 -0.070807844 0.0066769193 0.14645535
-0.10475941 0.005459237 0.028481964 0.14458713 0.103339955 -0.02056147 -0.02478093 0.10052126
0.005039145 0.027980242 -0.15338266 0.031265702 0.0648752 -0.11019854 0.12687361 -0.03970983
0.10678828 -0.022933286 0.0658649 0.08509668 -0.10655679 -0.10424959 -0.14061087 -0.054454423
-0.040900957 0.016970977 -0.027285827 -0.07461725 -0.12454147 -0.12447286 0.06495475 0.1226373
0.082791775 0.05107194 0.0068673682 0.11454157 0.08678707 -0.08712378 0.10202514 -0.06929985
-0.019259637 0.09324265 -0.15018262 -0.07686296 -0.07810849 0.037403457 -0.13840093 -0.07634874
0.0066951574 0.0024666148 -0.015182738 -0.055088215 0.053254392 0.1829874 0.101552956 0.038606867
-0.140675 0.06616096 0.00089682045 0.037211798 -0.0348966 0.084314786 0.012133877 0.11361314
0.12496406 0.035673875 -0.0014147455 0.05587514 0.12973857 -0.0862867 0.06909937 0.10063342
0.1937547 0.1817151 0.17724006 -0.017289262 0.037141666 0.067768194 -0.11479264 0.053443898
0.09025801 -0.076467365 -0.026854312 -0.015145778 0.06729998 -0.11814728 0.05671287 0.0053000045
0.051952 -0.030032359 0.1234459 -0.12357175 -0.12167758 -0.051982738 0.013525679 0.058015116
0.14010786 -0.08021795 -0.106857285 -0.12042725 -0.10211422 0.12659405 0.056773473 0.06935581
0.14579329 0.06092086 -0.090848394 0.05117608 -0.11016171 0.0013289965 0.08317008 0.026277354
-0.02162524 0.005429611 0.04664509 0.107982986 -0.12638731 0.005238077 0.07478643 -0.025592143
0.12745643 -0.0046949033 0.0028645438 0.038437564 -0.01641702 0.14245191 0.041150652 0.034352235
-0.05221205 -0.029240258 -0.10233577 -0.032828093 0.08522544 -0.06735754 0.07331104 -0.12165256
00000000: 1aa5 fe3d e3a4 ef3d 7b64 a9bd b2ca 173e
00000010: c249 8c3d b8e5 d63b 09a7 8fbd 9129 df3d
00000020: c733 c2bd bfdc acbc f33f 043c f3ec b6bc
00000030: 2864 f13d f573 bd3d a500 08be 1ce2 11be
00000040: 743b 5abd d28a b03d 8ab2 3b3c a60b 263e
00000050: bef8 73bd a9f5 48bd 3503 373e 2c8b 9cbd
00000060: cabc 11be 440f f9bd 095a bcbd 422a 03be
00000070: d880 c0bd fbd6 af3b 11ac f03d 74e0 b5bd
00000080: 6fee 843d e29b ee3d 5395 99bd 059f e7bd
00000090: 0640 8bbd 0e02 09bc 8b4d 003e 23b1 d6bc
000000a0: a5d7 8abd 37b1 cfbd 6c24 0dbe 49c5 a83c
000000b0: b4cc ec3d cf08 acbd cdd0 203e c63a 263c
000000c0: 27f6 343c 0411 923c f661 8abd 6a11 0d3e
000000d0: e081 fe3d c654 913d eb60 d73d a2f2 463c
000000e0: 9343 3c3c d666 96bd 8619 c6bd e999 d23d
000000f0: e9b8 82bd 7ae5 153d e3d4 9bbd 6d81 0f3e
00000100: c982 e8bc 9717 89bd 7a10 f63d a79b 03be
00000110: 91ae 6abd 68a4 f4bd 4e14 423d fecd 34bd
00000120: 7806 82bb 4980 473d 5f52 443d ca7c e13d
00000130: dd2c 4b3d b12a 0ebe cc24 01be 7f11 2a3d
00000140: c76d 263d 710d a53d 164c ffbd 8865 0abe
00000150: 2c19 d53d c466 92bd 2d37 85bc a20c 87bd
00000160: e0ca 05bd 6579 b1bd d5ec e4bd e30b 7e3d
00000170: 4d46 28bd 49aa 1bbd b5f6 f3bd 3be2 3a3d
00000180: f529 b13d 265c b3bd 4ec4 983c 3974 173e
00000190: c18b 07be d441 c2bd 00ae a5bd 6f25 463d
000001a0: 84f6 08be a92d c4bd 2903 c63b 15ab cabc
000001b0: ebcb d73d 7330 ccbd a930 4a3d 7138 ea3d
000001c0: 2bc9 e93d bae5 0cbe 57b1 813d df0e d5bd
000001d0: cc93 ef3d b403 91bd 0fca da3b 64f8 153e
000001e0: 1a8c d6bd 66e3 b23b 0253 e93c a60e 143e
000001f0: e6a3 d33d 8770 a8bc 6001 cbbc 17de cd3d
00000200: 691f a53b d236 e53c 5810 1dbe 7710 003d
00000210: 4add 843d c6af e1bd 28eb 013e c6a6 22bd
00000220: d0b3 da3d 96de bbbc 2de4 863d 2b47 ae3d
00000230: 723a dabd cf80 d5bd 4cfc 0fbe 9a0b 5fbd
00000240: c387 27bd b806 8b3c 8786 dfbc eed0 98bd
00000250: 990f ffbd a0eb febd ff06 853d 4429 fb3d
00000260: bc8e a93d d030 513d a907 e13b c594 ea3d
00000270: 6bbd b13d f46d b2bd 8ef2 d03d 14ed 8dbd
00000280: 63c6 9dbc 01f6 be3d 79c9 19be 546a 9dbd
00000290: 58f7 9fbd 5e34 193d f9b8 0dbe ba5c 9cbd
000002a0: 0d63 db3b eea6 213b 05c1 78bc 2ea4 61bd
000002b0: 4721 5a3d 0d61 3b3e fffa cf3d 3c22 1e3d
000002c0: 1b0d 10be 667f 873d 9a18 6b3a 666b 183d
000002d0: bdef 0ebd 3bad ac3d 2bcd 463c 02ae e83d
000002e0: 28ed ff3d c51e 123d fb6e b9ba 55dd 643d
000002f0: 30da 043e 15b7 b0bd f883 8d3d e518 ce3d
00000300: a267 463e 8613 3a3e 6b7e 353e 36a2 8dbc
00000310: dc21 183d 0dca 8a3d 6718 ebbd fde7 5a3d
00000320: 31d9 b83d ec9a 9cbd 93fd dbbc ff25 78bc
00000330: 92d4 893d 33f7 f1bd c14b 683d a9ab ad3b
00000340: 9fcb 543d 6c06 f6bc 34d1 fc3d 3013 fdbd
00000350: 1832 f9bd daeb 54bd cf9a 5d3c 42a1 6d3d
00000360: 6f78 0f3e 4f49 a4bd fed7 dabd 90a2 f6bd
00000370: 4321 d1bd dfa1 013e 4d8b 683d 6b0a 8e3d
00000380: d64a 153e 2788 793d b90e babd 029e 513d
00000390: 769c e1bd b931 ae3a 1355 aa3d 9b43 d73c
000003a0: 6a27 b1bc e1ea b13b ec0e 3f3d 2f26 dd3d
000003b0: ad6b 01be 2da4 ab3b a129 993d 9da6 d1bc
000003c0: f083 023e b4d7 99bb 12bb 3b3b b570 1d3d
000003d0: fc7c 86bc eade 113e 968d 283d eeb4 0c3d
000003e0: 4ddc 55bd 4489 efbc 6b95 d1bd c076 06bd
000003f0: ad8a ae3d c0f2 89bd 1924 963d fa24 f9bd

conv1.0.bias f4 [8]
-0.063029505 -0.11280334 0.10832181 -0.08027088 0.13773663 -0.09519059 0.10761056 0.044204656
00000000: 9d15 81bd 7005 e7bd d3d7 dd3d 0f65 a4bd
00000010: d50a 0d3e 49f3 c2bd ed62 dc3d f10f 353d

conv1.1.weight f4 [8]
1.0010635 0.9943175 0.99593335 1.0001404 1.0043308 1.0203543 1.0113449 0.9762369
00000000: d922 803f 978b 7e3f 7df5 7e3f 9a04 803f
00000010: e98d 803f f89a 823f c073 813f a9ea 793f

conv1.1.bias f4 [8]
-0.01722566 -0.0067373975 -0.046712134 0.038666356 -0.037557974 0.029695611 0.035444643 -0.014497448
00000000: d41c 8dbc 63c5 dcbb 3955 3fbd 9d60 1e3d
00000010: 64d6 19bd 3644 f33c 672e 113d b486 6dbc

conv1.1.running_mean f4 [8]
-0.060049683 -0.13132204 0.11189478 -0.11401663 0.04682899 -0.11250655 0.19908772 0.048257254
00000000: a8f6 75bd 4979 06be 1729 e53d 8d81 e9bd
00000010: c1cf 3f3d d669 e6bd a7dd 4b3e 66a9 453d

conv1.1.running_var f4 [8]
0.035613716 0.041461695 0.015236805 0.08745876 0.09634327 0.028402368 0.093553565 0.0101756025
00000000: b0df 113d bdd3 293d cba3 793c 941d b33d
00000010: 9f4f c53d 15ac e83c 0399 bf3d 92b7 263c

conv2.0.weight f4 [16, 8, 4, 4]
0.04821228 0.024506753 -0.08218265 -0.059676833 0.057517163 0.06711783 -0.02142786 0.05035883
-0.025095008 -0.037205584 0.06534293 0.07002258 -0.039172497 0.04930958 0.0373678 0.08724842
0.046653006 0.004265348 0.10458408 0.079094596 -0.041294 0.009514893 -0.04335003 0.031991433
0.07602321 -0.039540682 -0.032785654 -0.007829989 -0.027502745 0.051676027 0.12960768 0.1189973
-0.033394884 -0.055296455 -0.044916082 -0.018172892 0.065985836 0.035264023 -0.001314713 0.07294233
0.0069928947 0.044058576 0.08749591 -0.038437318 0.03638172 0.03232361 -0.04811125 -0.033664126
-0.034935877 -0.041794024 0.028983437 -0.012914306 -0.04147739 -0.06893016 0.082910374 0.0062602498
0.04618435 0.023653682 0.036035746 0.009346159 -0.06760423 0.070443004 -0.0628916 -0.002195655
-0.0057471986 0.061199132 -0.033224463 0.06439082 -0.047435433 -0.02035237 0.016600076 0.080560155
0.060185727 0.075540505 -0.019751962 0.11277111 0.069680855 0.097197786 0.083134875 0.015056709
-0.018578194 -0.01705088 0.06210461 0.05197665 0.056276884 0.0014900909 0.016767608 0.0032510746
0.038261496 -0.06045532 -0.044208594 0.0378186 0.05990626 0.028121464 -0.036080386 -0.03320979
-0.073865585 0.03869505 0.02455054 0.024884237 0.0598608 -0.031489037 -0.0029523596 -0.04336835
0.041880053 -0.035992388 0.09773076 -0.003154042 0.04608563 0.0737635 -0.011346194 0.027987253
-0.020206077 0.025209254 -0.07018996 0.060842402 -0.07728522 0.03595311 0.0061067464 -0.011793742
-0.04093506 0.048305962 -0.049661215 -0.050412223 -0.028300747 0.024207145 -0.044342097 0.020780044
-0.04052925 -0.024136478 0.054518852 0.059807163 -0.06858415 0.0129221175 -0.043076824 -0.09386131
0.07743752 0.03128678 0.05548721 -0.013963122 -0.0810686 0.046654955 -0.025272412 -0.01162603
0.0013659999 0.069389716 -0.02904705 0.034843206 0.027887464 0.014899641 -0.044715527 0.023013134
0.056820937 0.05109687 0.052530687 0.020381592 -0.039768137 -0.015110366 0.023721365 0.040563423
0.089501925 0.07229565 0.012611843 0.026312215 -0.043261513 -0.073737204 -0.09900649 -0.0711944
-0.13595478 0.003045304 -0.0051997965 -0.09558359 0.004982659 0.01483061 -0.015221323 -0.011421743
0.09293909 0.0038069459 0.08222668 -0.017773144 -0.013893104 -0.039339643 -0.011499895 0.06509781
-0.048101064 -0.083198555 0.019513944 0.03064065 0.07618508 -0.035648447 0.052995738 0.008417133
0.0067095417 -0.010094461 0.0047531193 0.014355791 0.029807284 0.005679712 -0.05083847 0.033354033
0.057905223 0.06613945 -0.02648607 -0.061925035 -0.07014448 0.012383559 -0.07913212 0.017208088
-0.016711643 0.10080594 0.05774831 0.060190246 -0.057418756 0.0886597 0.09003551 0.09459666
0.026182856 -0.048710015 -0.038182806 0.06212277 -0.08718973 -0.112884 -0.123561494 -0.023138797
0.07401375 0.027341483 -0.06320638 0.035235517 -0.032684006 -0.004517007 0.039986312 -0.015137642
-0.011408913 -0.0036873077 -0.05934462 0.06469235 0.085724756 0.04172545 -0.02226168 0.022174291
0.03090153 0.05156292 0.0892734 -0.008209686 0.049648166 -0.008363548 0.08686835 0.04635999
0.030559449 -0.0053693866 -0.034139153 -0.007241454 -0.06859099 -0.03663903 -0.036243 -0.04501671
00000000: 3d7a 453d 63c2 c83c 614f a8bd b26f 74bd
00000010: 1e97 6b3d 1375 893d 7b89 afbc 0f45 4e3d
00000020: 0c94 cdbc e264 18bd 84d2 853d 0068 8f3d
00000030: 5773 20bd d8f8 493d fa0e 193d 4daf b23d
00000040: 3917 3f3d 55c4 8b3b 2e30 d63d 59fc a13d
00000050: e623 29bd 5be4 1b3c cd8f 31bd 7309 033d
00000060: 0fb2 9b3d 69f5 21bd 404a 06bd 5b49 00bc
00000070: 704d e1bc 3eaa 533d e0b7 043e dbb4 f33d
00000080: 13c9 08bd 897e 62bd edf9 37bd 51df 94bc
00000090: 9523 873d 0271 103d 7352 acba ca62 953d
000000a0: a724 e53b c476 343d 0e31 b33d 7370 1dbd
000000b0: 0005 153d c365 043d 4d10 45bd 65e3 09bd
000000c0: ec18 0fbd 3630 2bbd ac6e ed3c 8696 53bc
000000d0: 32e4 29bd 412b 8dbd eacc a93d c822 cd3b
000000e0: cd2b 3d3d 5ec5 c13c 389a 133d a220 193c
000000f0: 1674 8abd 6c44 903d 50cd 80bd fae4 0fbb
00000100: ff52 bcbb f1ab 7a3d 6016 08bd 56df 833d
00000110: a84b 42bd 03ba a6bc e2fc 873c b9fc a43d
00000120: 4f85 763d fbb4 9a3d dece a1bc 8af4 e63d
00000130: d6b4 8e3d a20f c73d 9e42 aa3d 6ab0 763c
00000140: 4c31 98bc 49ae 8bbc 6761 7e3d 78e5 543d
00000150: 9782 663d 274f c33a 395c 893c fb0f 553b
00000160: 16b8 1c3d ff9f 77bd 1214 35bd ade7 1a3d
00000170: 4460 753d fc5e e63c 07c9 13bd fd06 08bd
00000180: d746 97bd b37e 1e3d 371e c93c 07da cb3c
00000190: 9930 753d a6fa 00bd 607c 41bb 03a3 31bd
000001a0: 6b8a 2b3d c16c 13bd 1127 c83d 0bb4 4ebb
000001b0: 49c4 3c3d 5111 973d 63e5 39bc 8645 e53c
000001c0: 3787 a5bc a383 ce3c c1bf 8fbd e235 793d
000001d0: b747 9ebd 9143 133d 1a1b c83b 8a3a 41bc
000001e0: 85ab 27bd 79dc 453d 8f69 4bbd 0c7d 4ebd
000001f0: f8d6 e7bc 104e c63c 0fa0 35bd e93a aa3c
00000200: 0002 26bd ddb9 c5bc 294f 5f3d 5bf8 743d
00000210: d975 8cbd 4ab7 533c 5371 30bd 5c3a c0bd
00000220: 9097 9e3d 9126 003d 8f46 633d 94c5 64bc
00000230: 4b07 a6bd 4419 3f3d 1708 cfbc 1b7b 3ebc
00000240: 5a0b b33a 321c 8e3d 14f4 edbc c0b7 0e3d
00000250: 4074 e43c a01d 743c a127 37bd 0a86 bc3c
00000260: 12bd 683d f44a 513d 6b2a 573d 4cf7 a63c
00000270: eae3 22bd 7891 77bc 4f53 c23c d525 263d
00000280: c94c b73d be0f 943d e7a1 4e3c b78c d73c
00000290: fc32 31bd 8803 97bd eac3 cabd 5fce 91bd
000002a0: bb37 0bbe b993 473b 0e63 aabb 54c1 c3bd
000002b0: 9345 a33b 16fc 723c db62 79bc 4322 3bbc
000002c0: da56 be3d f47d 793b 7666 a83d fc98 91bc
000002d0: e79f 63bc 9b22 21bd 0e6a 3cbc 0052 853d
000002e0: 9f05 45bd 0164 aabd b5db 9f3c 1a02 fb3c
000002f0: ec06 9c3d 1b04 12bd 0f12 593d 04e8 093c
00000300: b7db db3b 3d63 25bc 0ec0 9b3b 8d34 6b3c
00000310: 682e f43c e11c ba3b 003c 50bd 3d9e 083d
00000320: 072e 6d3d 1f74 873d 51f9 d8bc 1ba5 7dbd
00000330: e9a7 8fbd 69e4 4a3c 0510 a2bd faf7 8c3c
00000340: dbe6 88bc 5873 ce3d 7e89 6c3d 0c8a 763d
00000350: ee2f 6bbd 3793 b53d 8a64 b83d e5bb c13d
00000360: 6e7d d63c 2784 47bd 9365 1cbd 7274 7e3d
00000370: 8790 b2bd ba2f e7bd cf0d fdbd 938d bdbc
00000380: 8594 973d 3ffb df3c 5972 81bd 1e53 103d
00000390: aadf 05bd 6703 94bb b0c8 233d df03 78bc
000003a0: 73ec 3abc c2a6 71bb 5813 73bd 6c7d 843d
000003b0: 7690 af3d 4ee8 2a3d 205e b6bc dca6 b53c
000003c0: 3525 fd3c a433 533d f9d4 b63d eb81 06bc
000003d0: e05b 4b3d 4307 09bc 09e8 b13d f9e3 3d3d
000003e0: cf57 fa3c aef1 afbb 7fd5 0bbd b849 edbb
000003f0: 6f79 8cbd cf12 16bd 8a73 14bd 7163 38bd

conv2.0.bias f4 [16]
0.04615506 0.04761913 -0.07130811 0.04837256 0.056342337 -0.071275555 0.057308257 -0.028333902
0.035268735 0.006398925 0.025651682 0.038099676 -0.07011812 0.07916757 -0.04707161 0.055028163
00000000: 170d 3d3d 470c 433d fd09 92bd 4e22 463d
00000010: 39c7 663d ebf8 91bd 10bc 6a3d 801c e8bc
00000020: f375 103d 13ae d13b 7a23 d23c 680e 1c3d
00000030: 179a 8fbd 9b22 a23d 29ce 40bd 3665 613d

conv2.1.weight f4 [16]
0.9965158 0.9912859 1.0484519 0.99201465 1.03605 0.9944019 1.0431241 0.9841194
0.9940465 1.0061005 0.9986374 0.9889091 1.0362238 0.9617912 1.0032991 0.9883792
00000000: a91b 7f3f eac4 7d3f ac33 863f acf4 7d3f
00000010: 499d 843f 1f91 7e3f 1785 853f 40ef 7b3f
00000020: d579 7e3f e7c7 803f b3a6 7f3f 2629 7d3f
00000030: fba2 843f f337 763f 1b6c 803f 6b06 7d3f

conv2.1.bias f4 [16]
-0.06896533 -0.0052169817 0.011243309 0.03579837 0.06782359 -0.009201216 0.0378167 0.019251723
0.015595013 0.025928361 -0.022398137 0.0011530262 0.028247287 -0.018106688 0.028688874 -0.010042847
00000000: b23d 8dbd 37f3 aabb db35 383c 50a1 123d
00000010: 18e7 8a3d b2c0 16bc afe5 1a3d cab5 9d3c
00000020: 3a82 7f3c b767 d43c 4c7c b7bc 2421 973a
00000030: db66 e73c 7a54 94bc ee04 eb3c c18a 24bc

conv2.1.running_mean f4 [16]
0.6586691 0.2688867 -0.50707906 -0.5668999 -0.29138702 0.11747839 -0.55287 0.049586575
0.18055038 0.014100046 0.35474393 0.28541237 -0.011126408 0.40713406 -0.5447859 0.34562182
00000000: 8a9e 283f 84ab 893e efcf 01bf 5a20 11bf
00000010: ae30 95be 8398 f03d e388 0dbf 4b1b 4b3d
00000020: 33e2 383e e103 673c ffa0 b53e 9221 923e
00000030: 8a4b 36bc e073 d03e 1777 0bbf 58f5 b03e

conv2.1.running_var f4 [16]
0.17881466 0.2689908 0.19651222 0.19098023 0.114242345 0.17238882 0.2904334 0.13981673
0.15553798 0.16223735 0.25487092 0.44711715 0.104894176 0.10696226 0.7465889 0.17387597
00000000: 311b 373e 2ab9 893e 803a 493e 5290 433e
00000010: e4f7 e93d b286 303e b0b3 943e 1e2c 0f3e
00000020: 5945 1f3e 8c21 263e 717e 823e 8aec e43e
00000030: c2d2 d63d 080f db3d 7320 3f3f 8b0c 323e

conv3.0.weight f4 [32, 16, 4, 4]
0.07237397 0.071561515 0.038271435 0.08323341 0.058942765 0.040323272 0.032907575 0.06663108
0.041060556 0.06582316 0.06991716 0.0722381 0.04117478 0.086771525 0.07468347 0.109130554
-0.029473618 0.052245714 0.029868187 -0.010729274 0.031885356 0.06359162 0.035382934 -0.03489838
0.052845642 -0.023353308 0.00645448 -0.025953507 0.015948232 -0.029859653 0.050728694 0.005480813
0.019969799 -0.008179392 0.042801075 0.017962407 0.042192772 0.04767175 0.0062718634 -0.029090365
0.057820614 0.022902532 0.035407614 0.0008905572 -0.049007304 -0.03117433 -0.003292687 0.02279063
-0.048734747 0.02230629 -0.020074932 -0.022557678 0.022513065 0.0036891112 0.038919017 0.009938441
0.038812496 0.053574752 0.06012715 -0.03729687 -0.0059436155 -0.036241975 0.014961101 0.015321858
-0.036813132 -0.07442811 -0.045743704 -0.030947668 -0.051237464 0.01517924 0.059841193 0.03371305
0.014002923 0.005361085 0.005171699 0.022355843 -0.027157046 -0.00030096795 -0.028782057 -0.030586924
0.034363665 0.014291515 0.08889293 0.08743313 0.044898853 -0.0020081303 0.0024695094 0.022895403
-0.026812436 0.043299355 0.016219165 -0.0009569929 0.0021728033 -0.048624545 0.05960354 0.032469895
-0.018716153 -0.033391204 -0.027979413 -0.042777687 0.06657682 0.018812416 0.09553883 0.041766796
-0.011314063 0.015181223 -0.006120815 -0.059776906 -0.0265373 0.014093687 0.02356507 -0.023451975
-0.044841386 0.018567873 0.0049081487 -0.015196868 0.034019 0.032359183 -0.025468515 -0.056554463
-0.008712379 0.04414197 0.048776273 -0.03548751 -0.002708849 -0.018129362 0.009588697 0.0508934
0.0033919276 0.015974062 0.008511952 0.031399474 -0.06402266 0.03558815 0.03439605 0.049958542
-0.010837149 -0.051518187 0.0325627 0.05439814 0.014507618 0.00040346445 0.024774123 0.022929229
-0.055663913 -0.057790782 -0.051669877 -0.032793093 -0.0051645157 -0.06852863 -0.026409768 -0.015006995
-0.0139806885 0.0224983 -0.02889464 -0.015650516 -0.015717879 -0.03327262 -0.043952823 -0.015200532
0.034057483 0.032078627 0.087746225 -0.005627368 0.067149505 0.07096483 0.05061435 0.033413846
0.032664362 0.056510326 0.0013562497 0.023144346 0.053788714 0.023472527 -0.011083081 -0.020028196
0.028617015 -0.058643546 -0.03984353 0.0036329646 0.026492966 -0.038835723 0.045921482 0.016642598
0.0077724573 0.032877706 -0.025906522 -0.013142661 0.03975681 0.04068455 -0.04266929 0.025758838
-0.058146406 -0.05450295 -0.039195202 -0.048354767 -0.021516057 0.01853947 -0.05729315 -0.023838446
0.02634231 -0.0013306126 0.018957498 -0.0059293834 -0.046475273 0.0071055316 -0.015019534 0.0024926895
-0.047083445 0.03688514 0.042618573 0.029554058 -0.0354996 0.0029829405 -0.006908549 -0.008485453
-0.023119984 0.03596991 0.023401326 0.025603712 0.003978014 -0.018947884 0.03615666 -0.042182446
-0.019224362 -0.03382686 -0.06946406 0.00053168176 0.023220057 0.008543575 -0.039199583 -0.031634137
0.01831636 0.030307706 -0.036831014 0.02306807 0.0039899694 0.053765703 0.037184093 0.02392883
-0.02104257 -0.01290937 -0.009927506 -0.026619013 0.062395465 0.014335463 -0.03189372 0.012041408
-0.035801746 -0.015480337 -0.049151998 0.031844694 -0.011266236 0.012746535 0.03039743 -0.003695245
00000000: ce38 943d d88e 923d 82c2 1c3d 4776 aa3d
00000010: f86d 713d 042a 253d 18ca 063d e075 883d
00000020: 1d2f 283d 4bce 863d ba30 8f3d 92f1 933d
00000030: e3a6 283d 45b5 b13d a6f3 983d d77f df3d
00000040: a872 f1bc 9aff 553d 21ae f43c d6c9 2fbc
00000050: 389a 023d 533c 823d b2ed 103d 9bf1 0ebd
00000060: ac74 583d 704f bfbc 1a80 d33b 739c d4bc
00000070: dea5 823c 3b9c f4bc e4c8 4f3d 6498 b33b
00000080: b497 a33c db02 06bc 2e50 2f3d e625 933c
00000090: 54d2 2c3d 7443 433d 3484 cd3b eb4e eebc
000000a0: 4fd5 6c3d 179e bb3c 9307 113d 4874 693a
000000b0: e2bb 48bd 4f61 ffbc 1fca 57bb 6ab3 ba3c
000000c0: 169e 47bd aebb b63c 2f74 a4bc e1ca b8bc
000000d0: 526d b83c 04c5 713b 8c69 1f3d d8d4 223c
000000e0: daf9 1e3d 3371 5b3d e347 763d 9ac4 18bd
000000f0: a9c2 c2bb 7772 14bd 681f 753c 8808 7b3c
00000100: 5ec9 16bd c46d 98bd c05d 3bbd f785 fdbc
00000110: 60de 51bd 59b2 783c 0a1c 753d b216 0a3d
00000120: 846c 653c 0aac af3b 5b77 a93b 9a23 b73c
00000130: 7478 debc 3ccb 9db9 59c8 ebbc 6e91 fabc
00000140: eac0 0c3d f526 6a3c 7f0d b63d 2410 b33d
00000150: dce7 373d d69a 03bb 7ed7 213b 248f bb3c
00000160: c1a5 dbbc aa5a 313d 0ede 843c b5de 7aba
00000170: 9765 0e3b 882a 47bd d722 743d 27ff 043d
00000180: 9e52 99bc 37c5 08bd 1535 e5bc a837 2fbd
00000190: 6e59 883d 7f1c 9a3c dda9 c33d a913 2b3d
000001a0: 9f5e 39bc aaba 783c 1e91 c8bb a1d8 74bd
000001b0: c064 d9bc 35e9 663c 890b c13c 5b1e c0bc
000001c0: 9aab 37bd a71b 983c 89d4 a03b 49fc 78bc
000001d0: 8257 0b3d 108b 043d 59a3 d0bc a7a5 67bd
000001e0: 5ebe 0ebc 36ce 343d a1c9 473d 5a5b 11bd
000001f0: f286 31bb 0784 94bc e919 1d3c 9975 503d
00000200: 1a4b 5e3b 09dc 823c b775 0b3c bc9c 003d
00000210: 501e 83bd e1c4 113d dfe2 0c3d 54a1 4c3d
00000220: 4c8e 31bc bc04 53bd 7760 053d 96d0 5e3d
00000230: 5cb1 6d3c 1588 d339 1af3 ca3c 14d6 bb3c
00000240: d8ff 63bd 07b6 6cbd cba3 53bd 0d52 06bd
00000250: 193b a9bb bd58 8cbd 4c59 d8bc e6df 75bc
00000260: 420f 65bc 5b4e b83c 74b4 ecbc 8335 80bc
00000270: c8c2 80bc df48 08bd e007 34bd a70b 79bc
00000280: dc7f 0b3d e164 033d 4bb4 b33d c965 b8bb
00000290: ae85 893d 0256 913d fe50 4f3d f5dc 083d
000002a0: 11cb 053d 5f77 673d 30c4 b13a 3699 bd3c
000002b0: 8e51 5c3d 7549 c03c d095 35bc 2c12 a4bc
000002c0: 3b6e ea3c 3734 70bd f832 23bd 0817 6e3b
000002d0: c707 d93c 3512 1fbd 2a18 3c3d 0f56 883c
000002e0: 19b0 fe3b c6aa 063d ea39 d4bc 5154 57bc
000002f0: 09d8 223d d8a4 263d fec5 2ebd 3304 d33c
00000300: ed2a 6ebd 7c3e 5fbd 268b 20bd a60f 46bd
00000310: 7142 b0bc 16e0 973c 39ac 6abd d848 c3bc
00000320: d4cb d73c f367 aeba c14c 9b3c 464b c2bb
00000330: db5c 3ebd 85d5 e83b 7e14 76bc 645c 233b
00000340: 92da 40bd df14 173d d090 2e3d 5a1b f23c
00000350: 0768 11bd 707d 433b 1c61 e2bb 9206 0bbc
00000360: 1f66 bdbc 2f55 133d 23b4 bf3c e0be d13c
00000370: 005a 823b 9838 9bbc 0219 143d 80c7 2cbd
00000380: 697c 9dbc 098e 0abd 2c43 8ebd 8f60 0b3a
00000390: fd37 be3c 5afa 0b3c be8f 20bd cc92 01bd
000003a0: 310c 963c de47 f83c 1edc 16bd 40f9 bc3c
000003b0: 4abe 823b 6d39 5c3d 594e 183d 6506 c43c
000003c0: 7861 acbc d281 53bc faa6 22bc 1e10 dabc
000003d0: 6392 7f3d 4adf 6a3c fda2 02bd 5349 453c
000003e0: daa4 12bd 3da1 7dbc 9b53 49bd 956f 023d
000003f0: 0596 38bc d8d6 503c 0804 f93c ec2b 72bb

conv3.0.bias f4 [32]
0.027198233 0.029364044 0.011016585 -0.005621904 -0.014561289 0.018783698 -0.062026717 0.008333748
-0.039898932 0.04123665 0.006575332 0.018251441 0.0008594899 0.052170984 -0.0437546 -0.050394796
-0.054205626 0.029033968 -0.021173181 0.055874933 -0.062152795 -0.03327308 0.04216516 0.018852971
-0.020370502 0.052956216 0.010935727 0.014974685 0.05887027 -0.046680205 -0.008391513 0.01344987
00000000: d4ce de3c dd8c f03c e87e 343c f337 b8bb
00000010: 7992 6ebc 45e0 993c ba0f 7ebd 468a 083c
00000020: 106d 23bd c3e7 283d e275 d73b 0c84 953c
00000030: 644f 613a 3eb1 553d 0638 33bd c66a 4ebd
00000040: b806 5ebd a5d8 ed3c 6173 adbc 1ddd 643d
00000050: ee93 7ebd 5a49 08bd 60b5 2c3d 8c71 9a3c
00000060: 0ae0 a6bc 9ee8 583d c32b 333c 6258 753c
00000070: f421 713d be33 3fbd 8e7c 09bc d85c 5c3c

conv3.1.weight f4 [32]
1.0340551 0.9977515 1.012087 0.97469914 0.9901754 1.0171772 0.98194146 0.9940588
1.0356909 1.0074158 1.0045635 0.9995588 0.9670881 1.0330622 1.0346624 0.9902965
1.0073617 0.9967461 0.98281753 1.0118241 1.034455 1.0150694 0.9805908 0.9963299
0.9701258 1.0025632 0.98298717 1.0283532 0.9867144 0.9944714 1.001377 0.9963751
00000000: eb5b 843f a46c 7f3f 118c 813f e285 793f
00000010: 237c 7d3f dd32 823f 8460 7b3f a37a 7e3f
00000020: 8591 843f 00f3 803f 8995 803f 16e3 7f3f
00000030: 1693 773f 623b 843f d16f 843f 1284 7d3f
00000040: 3af1 803f c12a 7f3f ee99 7b3f 7483 813f
00000050: 0569 843f cbed 813f 0008 7b3f 7a0f 7f3f
00000060: 2a5a 783f fe53 803f 0ca5 7b3f 14a1 833f
00000070: 5199 7c3f ad95 7e3f 1f2d 803f 7012 7f3f

conv3.1.bias f4 [32]
-0.08024154 -0.0030375 -0.056833565 -0.021393424 -0.002649131 -0.004998109 -0.019879336 0.0058674696
0.03682401 0.015132889 -0.014592069 -0.023793485 0.013594367 -0.037489146 0.086858824 0.0021527002
0.02772183 -0.01950646 -0.012391294 -0.07518017 -0.002427083 -0.027285844 -0.008764032 0.02842591
0.015108891 -0.0061244615 0.005197029 0.047347534 -0.002814214 -0.0016909662 -0.0045294124 0.020888425
00000000: ad55 a4bd cb10 47bb 50ca 68bd 4341 afbc
00000010: 0b9d 2dbb 2dc7 a3bb fdd9 a2bc e743 c03b
00000020: c6d4 163d f0ef 773c 9313 6fbc 8eea c2bc
00000030: e8ba 5e3c 388e 19bd 0ae3 b13d 5114 0d3b
00000040: e418 e33c 03cc 9fbc db04 4bbc 10f8 99bd
00000050: b20f 1fbb 9086 dfbc 0497 0fbc 74dd e83c
00000060: 488b 773c b5af c8bb d74b aa3b 7def 413d
00000070: ad6e 38bb 69a3 ddba 776b 94bb 341e ab3c

conv3.1.running_mean f4 [32]
0.7063052 0.010144486 0.13827135 0.08114634 0.11312854 -0.9775293 -0.25061238 -0.018963005
-0.1824443 0.49528277 0.14426027 -0.05107179 -0.24512705 0.4411117 -0.9616794 -0.6891204
-0.86813736 0.20747536 0.006614318 -0.75597066 -0.3810581 0.30786043 0.35955328 -0.33140498
-0.6490397 -0.21943043 0.052570116 -0.59712154 0.19506332 -0.39436486 -0.5184431 0.16263498
00000000: 6bd0 343f 0f35 263c 0197 0d3e 0d30 a63d
00000010: f0af e73d 5c3f 7abf 4450 80be 4e58 9bbc
00000020: aed2 3abe b495 fd3e f7b8 133e a730 51bd
00000030: 9602 7bbe 65d9 e13e 9f30 76bf 326a 30bf
00000040: 403e 5ebf 6c74 543e ecbc d83b 4b87 41bf
00000050: 0c1a c3be e29f 9d3e 5e17 b83e eaad a9be
00000060: 7727 26bf 5fb2 60be c353 573d f5dc 18bf
00000070: aebe 473e 31ea c9be b0b8 04bf c989 263e

conv3.1.running_var f4 [32]
0.7727474 0.23369321 0.41918513 0.4325037 0.49309954 0.18873999 0.25366175 0.24257281
0.20048092 0.20112231 0.33269972 0.12043536 0.25621098 0.52507955 0.5206928 0.47709134
0.2583058 0.4472393 0.2852057 0.232479 0.1535415 0.3116082 0.2150308 0.5422748
0.17458835 0.3339339 0.31287313 0.40115857 0.15180138 0.15816636 0.19413005 0.4938717
00000000: c6d2 453f 464d 6f3e 6f9f d63e 2071 dd3e
00000010: 8b77 fc3e 0e45 413e f4df 813e 0265 783e
00000020: df4a 4d3e 02f3 4d3e 9e57 aa3e d0a6 f63d
00000030: 162e 833e 9d6b 063f 204c 053f 5145 f43e
00000040: a840 843e 8dfc e43e 7b06 923e fa0e 6e3e
00000050: fc39 1d3e 1c8b 9f3e 0931 5c3e 85d2 0a3f
00000060: 4ac7 323e 62f9 aa3e e830 a03e a864 cd3e
00000070: d271 1b3e 5df6 213e 07ca 463e c0dc fc3e

deconv2.0.weight f4 [32, 16, 4, 4]
-0.050035477 -0.040747248 0.03949925 -0.031535633 0.023749363 -0.05731293 -0.06327727 -0.036025647
-0.027671745 0.012151594 -0.0025053897 0.009781205 -0.029409772 -0.06537941 0.05241494 0.0015593385
-0.012593797 -0.06551508 -0.016545018 0.03958858 0.044116694 0.051079206 0.060029067 0.049076665
-0.03654923 0.036021665 0.00992432 -0.018514708 0.027791372 0.011106868 -0.054971468 0.017679958
0.041204564 -0.061998446 0.029762082 0.04849491 0.032987215 0.041739535 -0.031539235 -0.039983116
-0.0046684383 -0.017177198 0.071742125 0.032102223 0.0189476 0.026070395 -0.020829562 -0.06360854
-0.036172744 -0.008835054 0.024237297 -0.047702633 0.0056055775 -0.027578231 0.0103542805 -0.020913748
0.06606674 0.07476906 -0.058692157 -0.035382424 0.024730632 -0.050359692 -0.02307315 -0.08895544
0.0005281392 -0.057064 -0.005002627 0.01514685 -0.04428979 0.035852645 -0.022227308 -0.05570207
-0.0533218 -0.04128448 0.031213857 0.0074347076 -0.07802679 -0.037359864 0.038526244 0.03970468
-0.021153882 -0.033044267 -0.07945467 -0.044754125 0.027325105 -0.011550565 -0.021460526 -0.0040540784
-0.047548622 -0.06916773 -0.06496377 -0.0023647416 -0.030189997 0.019319953 -0.03522965 -0.012475388
-0.035058826 -0.09034178 -0.0416457 -0.047077663 0.04207336 0.0135899065 -0.027554804 -0.02727841
-0.04917775 -0.11470026 -0.07184394 -0.1460844 0.033798926 -0.07728659 0.037243884 0.022514965
-0.005189646 -0.064830445 -0.10029363 -0.07278064 -0.0035677485 -0.029531144 0.0036274765 -0.11629075
0.029394083 -0.04599697 -0.0009318464 0.023904655 0.04278598 -0.04719016 0.023513434 -0.10380062
-0.062327437 0.002687318 0.022913968 0.053076994 0.06668037 0.036035772 0.015407119 0.04269847
-0.09016751 -0.027938584 -0.031026177 -0.0053910576 -0.03219702 -0.044266555 -0.009222309 0.04442004
-0.08096596 -0.001865975 -0.0060377396 0.00010997022 -0.04871072 -0.06926223 0.0054895706 0.038344335
-0.06238993 -0.041187752 -0.12096069 0.0396143 0.03342193 -0.04657393 -0.004251485 -0.084836304
0.01437536 0.034303628 0.053848136 -0.04504596 0.04051726 -0.027776694 -0.046608515 -0.09108006
0.06793519 0.059612542 -0.035027143 -0.009969073 0.018341413 -0.018467987 0.0027684846 0.021780659
-0.03821374 -0.017387003 -0.044938374 0.01493075 0.01245169 -0.041466936 -0.06487337 0.0023626185
-0.024303727 0.015720967 0.027029814 -0.06602924 0.028922588 -0.05100462 0.035422314 0.0031833996
0.02144752 0.011940642 -0.04061052 0.030004961 -0.018716678 -0.054704435 -0.008364702 -0.04004447
-0.07424774 -0.036572203 -0.07675416 -0.006676012 -0.019153893 0.005027767 0.030288622 -0.035825353
0.011595515 -0.04642805 0.028332707 -0.048919313 -0.0530255 0.02111491 -0.061845023 0.025983749
0.035995904 0.03456122 -0.024029743 -0.06473583 -0.03447169 -0.060945578 -0.047884405 0.042478744
0.04980008 0.037422743 0.05480958 -0.050580002 -0.008408215 -0.04722159 0.033983923 0.011614716
-0.015648156 -0.03902977 -0.042316787 -0.03170649 0.048339296 -0.07636475 -0.02842506 -0.030247115
0.010334035 -0.07639441 0.01306271 0.023635691 -0.014855974 -0.014157107 -0.07770294 -0.028797468
-0.022722147 -0.018096762 -0.017171562 0.030801127 -0.051746365 -0.025475862 -0.03298427 0.015638169
00000000: 00f2 4cbd 96e6 26bd f7c9 213d 822b 01bd
00000010: 068e c23c f6c0 6abd 8397 81bd a18f 13bd
00000020: dbaf e2bc 7b17 473c 7731 24bb 5941 203c
00000030: c3ec f0bc a4e5 85bd 0cb1 563d b862 cc3a
00000040: 3756 4ebc c52c 86bd 6b89 87bc a327 223d
00000050: b5b3 343d 6e38 513d 0ae1 753d 9d04 493d
00000060: a5b4 15bd 748b 133d 9d99 223c 28ac 97bc
00000070: bbaa e33c 95f9 353c c329 61bd 8fd5 903c
00000080: 1ec6 283d 15f2 7dbd 9ccf f33c 99a2 463d
00000090: 9a1d 073d 13f7 2a3d 492f 01bd 56c5 23bd
000000a0: b3f9 98bb 32b7 8cbc 89ed 923d 9f7d 033d
000000b0: ff37 9b3c 9591 d53c c2a2 aabc 3245 82bd
000000c0: df29 14bd e7c0 10bc 4c8d c63c d663 43bd
000000d0: feae b73b beeb e1bc 00a5 293c 4f53 abbc
000000e0: 004e 873d 8520 993d 3067 70bd 29ed 10bd
000000f0: e597 ca3c f745 4ebd e703 bdbc 452e b6bd
00000100: d272 0a3a f1bb 69bd 14ed a3bb 7e2a 783c
00000110: 3669 35bd 39da 123d 0b16 b6bc db27 64bd
00000120: f667 5abd ea19 29bd 34b4 ff3c d99e f33b
00000130: 82cc 9fbd a806 19bd b2cd 1d3d 60a1 223d
00000140: e84a adbc 6d59 07bd 21b9 a2bd 1a50 37bd
00000150: e6d8 df3c 953e 3dbc fccd afbc 13d8 84bb
00000160: 58c2 42bd d0a7 8dbd ba0b 85bd c8f9 1abb
00000170: 0351 f7bc e144 9e3c f74c 10bd 9265 4cbc
00000180: d899 0fbd 1c05 b9bd ae94 2abd 82d4 40bd
00000190: 1e55 2c3d 33a8 5e3c 9dba e1bc f976 dfbc
000001a0: 9c6e 49bd f8e7 eabd ea22 93bd 2697 15be
000001b0: be70 0a3d 6f48 9ebd 0b8d 183d 4e71 b83c
000001c0: e80d aabb d3c5 84bd bf66 cdbd 040e 95bd
000001d0: e3d0 69bb 4ceb f1bc f5ba 6d3b d829 eebd
000001e0: dccb f03c 5267 3cbd 2747 74ba b2d3 c33c
000001f0: 5a40 2f3d 784a 41bd 3f9f c03c 6b95 d4bd
00000200: 0e4b 7fbd b71d 303b 13b6 bb3c 4367 593d
00000210: b88f 883d 3f9a 133d 246e 7c3c 97e4 2e3d
00000220: bea9 b8bd 75df e4bc 9c2a febc 78a7 b0bb
00000230: 06e1 03bd d950 35bd 2b19 17bc caf1 353d
00000240: 7bd1 a5bd bb93 f4ba 3bd8 c5bb d09f e638
00000250: e484 47bd 5bd9 8dbd dbe1 b33b f30e 1d3d
00000260: 958c 7fbd 7db4 28bd 3dba f7bd 9b42 223d
00000270: 6fe5 083d 4ec4 3ebd 0b50 8bbb a8be adbd
00000280: a186 6b3c f681 0c3d dd8f 5c3d 1d82 38bd
00000290: 6df5 253d f38b e3bc 92e8 3ebd 2f88 babd
000002a0: 9b21 8b3d 482c 743d 9f78 0fbd 5355 23bc
000002b0: bb40 963c 2d4a 97bc 776f 353b 5a6d b23c
000002c0: 0386 1cbd 306f 8ebc 4d11 38bd 1ba0 743c
000002d0: 2c02 4c3c 3cd9 29bd 54dc 84bd 29d6 1a3b
000002e0: 9c18 c7bc 42c9 803c a16d dd3c 573a 87bd
000002f0: 10ef ec3c 38ea 50bd fd16 113d 95a0 503b
00000300: b6b2 af3c afa2 433c 3757 26bd f7cc f53c
00000310: b853 99bc c211 60bd 1a0c 09bc ac05 24bd
00000320: 330f 98bd bccc 15bd 4931 9dbd 73c2 dabb
00000330: a0e8 9cbc f7bf a43b d81f f83c 9bbd 12bd
00000340: 1dfb 3d3c 572b 3ebd fe19 e83c 9e5f 48bd
00000350: 4431 59bd 2df9 ac3c 3551 7dbd dfdb d43c
00000360: 7170 133d 1190 0d3d 06da c4bc 3894 84bd
00000370: 3032 0dbd 12a2 79bd 7022 44bd 31fe 2d3d
00000380: 2bfb 4b3d 9748 193d 0380 603d fa2c 4fbd
00000390: 9cc2 09bc 6d6b 41bd ba32 0b3d a64b 3e3c
000003a0: 9030 80bc aedd 1fbd 5e54 2dbd aade 01bd
000003b0: 6dff 453d 1f65 9cbd acdb e8bc ccc8 f7bc
000003c0: 1650 293c ac74 9cbd fa04 563c a39f c13c
000003d0: 7966 73bc 36f3 67bc b822 9fbd abe8 ebbc
000003e0: cc23 babc a93f 94bc 60ab 8cbc a552 fc3c
000003f0: fff3 53bd c1b2 d0bc 841a 07bd 9e1b 803c

deconv2.0.bias f4 [16]
-0.0213359 -0.06189738 -0.0036319203 0.046906978 0.007806295 -0.050165 0.012592634 0.03505376
-0.039661374 0.041196622 -0.050345045 -0.047878962 0.01068985 -0.021769853 0.050433345 -0.0037432194
00000000: a0c8 aebc 1b88 7dbd 8305 6ebb 8821 403d
00000010: f3cb ff3b d179 4dbd 5651 4e3c 8894 0f3d
00000020: f773 22bd cabd 283d 9b36 4ebd bb1c 44bd
00000030: 7b24 2f3c b156 b2bc 3293 4e3d cd50 75bb

deconv2.1.weight f4 [16]
0.9410249 0.9714257 0.99281025 0.9972879 0.9779914 1.0468496 1.0449576 1.0130656
0.96976626 0.98038715 1.0057746 0.99928313 1.0078318 1.0025249 1.0218309 1.0623925
00000000: 02e7 703f 5baf 783f d028 7e3f 434e 7f3f
00000010: a55d 7a3f 2bff 853f 2cc1 853f 22ac 813f
00000020: 9a42 783f a7fa 7a3f 39bd 803f 05d1 7f3f
00000030: a200 813f bc52 803f 5bcb 823f 7afc 873f

deconv2.1.bias f4 [16]
-0.012264853 0.023101943 0.027179291 0.03912131 0.04211511 0.0076686237 0.079080194 0.028447194
0.04213058 -0.038130727 0.05961159 0.035551853 0.031145407 0.046980873 0.04129346 -0.011039634
00000000: 86f2 48bc 4940 bd3c 1ba7 de3c ab3d 203d
00000010: e580 2c3d 1449 fb3b ccf4 a13d 170a e93c
00000020: 1d91 2c3d f72e 1cbd 482b 743d d29e 113d
00000030: a724 ff3c 046f 403d 5523 293d 95df 34bc

deconv2.1.running_mean f4 [16]
-0.33871254 -0.4999007 -0.44745797 -0.46938145 -0.5705807 -0.5821519 -0.5443491 -0.40490165
-0.56297445 -0.30476794 -0.6834489 -0.71641976 -0.5313361 -0.7795444 -0.46109197 -0.4385268
00000000: bb6b adbe fcf2 ffbe 3619 e5be c452 f0be
00000010: 9411 12bf e807 15bf 765a 0bbf 454f cfbe
00000020: 181f 10bf 8b0a 9cbe 82f6 2ebf 4967 37bf
00000030: a505 08bf 3990 47bf 3f14 ecbe 9686 e0be

deconv2.1.running_var f4 [16]
0.48627198 0.5270177 0.4706457 0.70089656 0.35442087 0.13684893 0.5931512 0.3263332
0.50895786 0.2720333 1.0027696 0.586322 0.7649007 0.9580676 0.22416346 0.13928822
00000000: a4f8 f83e a2ea 063f 79f8 f03e f56d 333f
00000010: a776 b53e 2022 0c3e c2d8 173f 2515 a73e
00000020: 104b 023f f347 8b3e c15a 803f 3319 163f
00000030: 88d0 433f eb43 753f 1b8b 653e 92a1 0e3e

deconv3.0.weight f4 [16, 8, 4, 4]
-0.0031633668 0.0059417747 0.009409755 0.10136139 0.014841787 -0.040771075 0.044356134 0.039881043
-0.026514255 0.024991225 0.058223132 -0.0017526352 -0.055834506 0.052357692 0.037083052 -0.060908396
-0.045899533 0.061864752 -0.040543605 -0.027849194 -0.04874533 0.007531978 -0.026552357 0.0078351535
0.028642386 -0.070188 0.046726745 -0.05078641 0.053210117 0.019359274 -0.0018449984 0.021878967
-0.017822094 0.07280265 0.00055467564 0.005732005 -0.029599968 -0.04864197 -0.04882889 -0.061832674
0.0014441231 0.012516685 -0.016839847 0.0014229702 0.015328824 0.03157485 0.04898115 0.0730204
0.133751 -0.049707446 -0.010012492 0.03291543 0.06331934 0.08312108 -0.007921122 0.04731043
0.017202474 -0.0332463 0.020805607 -0.027271528 0.021312684 0.05445608 0.01926606 -0.013358816
0.06382983 -0.023252837 0.070349894 0.065662846 -0.019790048 -0.014621005 -0.026748441 -0.014242144
0.05469585 0.059144497 0.07767318 0.007467869 -0.008167907 -0.021666082 0.017953223 -0.033515923
-0.006284833 0.039346382 -0.054572053 0.03744643 -0.051515564 0.0233547 -0.063683115 0.07190166
-0.031031806 -0.06278629 -0.03152902 0.081073985 0.053147938 0.053506337 0.03215995 -0.05063266
-0.028061816 0.0054351776 0.016692523 0.012733667 0.061760817 0.008289877 0.072183885 -0.03764246
-0.020430576 0.108592845 0.026538502 -0.008751365 0.009372294 -0.020541502 -0.06652099 0.01841013
-0.01906587 0.06627259 -0.007478436 0.046669904 -0.06879187 0.010522514 0.023797203 -0.06027435
-0.022038082 0.0030995638 -0.022866884 0.09486201 0.054282796 -0.017833201 0.09346572 0.051097743
0.04240929 0.06403982 -0.027434792 -0.061178993 0.046921518 0.008184876 -0.01387236 -0.03898028
-0.04924445 0.06274523 0.024638146 0.0023316797 0.005002384 -0.032185346 0.045990147 -0.042518105
-0.0698309 -0.02471968 0.024776757 0.03500285 0.011890227 -0.028194014 -0.018934675 -0.030504702
0.060919818 -0.063856274 0.029963955 -0.02123626 -0.045548066 -0.058230396 -0.022318013 0.026250564
0.029113458 0.002529351 -0.073510215 -0.03473857 0.032972 0.100460425 0.0370013 0.08396876
-0.0015733676 -0.0031611172 -0.0700146 0.0828847 -0.015675945 -0.07052719 0.01006143 -0.07535167
-0.015685804 0.05561409 -0.021654854 0.01749716 0.08919884 0.0028491267 -0.03212608 0.038820658
-0.07422235 0.030512976 0.05995257 -0.051126037 -0.06928995 0.014077034 -0.033500932 0.023648214
-0.04038321 0.057096716 0.020114409 -0.026447076 -0.03345995 -0.054319438 0.016675143 -0.08068774
-0.04056122 0.037630424 0.06204147 0.074717715 0.042796936 -0.0152748395 0.042983543 -0.023810241
0.033795036 0.014009741 0.02358183 0.023513762 -0.030033834 0.017386768 0.03612735 0.031258367
0.03520071 0.009121425 -0.0028400791 0.02352335 0.023085084 0.056994196 -0.014274554 0.078408234
0.022537261 -0.07903032 0.05440497 0.08175008 0.002012392 -0.026082499 -0.06930957 -0.011065789
0.009105821 0.070401505 -0.0048016524 -0.0016779931 0.007805012 0.054894082 -0.012507735 0.08346529
0.011542493 0.016597198 -0.057106834 -0.007257785 0.042230193 -0.04661497 -0.037950568 0.024646392
-0.047441646 0.060268246 -0.07663904 -0.011811759 0.010989277 -0.013780755 0.017774485 0.06672212
00000000: 7d50 4fbb 38b3 c23b 5f2b 1a3c 8f96 cf3d
00000010: f72a 733c 92ff 26bd c7ae 353d 4e5a 233d
00000020: 6c34 d9bc 66ba cc3c 617b 6e3d aeb8 e5ba
00000030: b9b2 64bd 0575 563d 66e4 173d 157b 79bd
00000040: 2601 3cbd e565 7d3d 0d11 26bd fe23 e4bc
00000050: 2fa9 47bd d0ce f63b 5484 d9bc 045f 003c
00000060: 70a3 ea3c babe 8fbd 8b64 3f3d 6905 50bd
00000070: daf2 593d 5797 9e3c e0d3 f1ba 853b b33c
00000080: a4ff 91bc 8e19 953d a767 113a 8bd3 bb3b
00000090: a27b f2bc cd3c 47bd cd00 48bd 4244 7dbd
000000a0: bb48 bd3a c812 4d3c b8f3 89bc f582 ba3a
000000b0: bf25 7b3c a154 013d 75a0 483d b88b 953d
000000c0: 06f6 083e 099a 4bbd 6f0b 24bc 54d2 063d
000000d0: 92ad 813d 633b aa3d 98c7 01bc 95c8 413d
000000e0: 34ec 8c3c 462d 08bd 8570 aa3c 8a68 dfbc
000000f0: f097 ae3c 570d 5f3d dbd3 9d3c efde 5abc
00000100: 37b9 823d bc7c bebc 9b13 903d 3e7a 863d
00000110: bd1e a2bc f18c 6fbc 8c1f dbbc e257 69bc
00000120: c108 603d 8041 723d 1e13 9f3d 07b5 f43b
00000130: afd2 05bc 117d b1bc a312 933c fe47 09bd
00000140: 00f1 cdbb ac29 213d f286 5fbd 6e61 193d
00000150: fc01 53bd 5b52 bf3c 4b6c 82bd 2d41 933d
00000160: 6a36 febc 1996 80bd 9324 01bd 1e0a a63d
00000170: a7b1 593d 7629 5b3d 27ba 033d 3164 4fbd
00000180: e5e1 e5bc 9319 b23b c2be 883c dfa0 503c
00000190: e9f8 7c3d 44d2 073c 25d5 933d fb2e 1abd
000001a0: 065e a7bc ed65 de3d 4667 d93c e361 0fbc
000001b0: 408e 193c a746 a8bc 283c 88bd d7d0 963c
000001c0: 0730 9cbc ecb9 873d ab0d f5bb f128 3f3d
000001d0: c0e2 8cbd 9f66 2c3c 5af2 c23c 3de2 76bd
000001e0: 3589 b4bc 0d22 4b3b 5553 bbbc 0347 c23d
000001f0: a357 5e3d ef16 92bc f56a bf3d de4b 513d
00000200: 5db5 2d3d 4f27 833d eebe e0bc d396 7abd
00000210: c730 403d dc19 063c e548 63bc c9a9 1fbd
00000220: 8cb4 49bd 9280 803d f0d5 c93c 18cf 183b
00000230: 0aeb a33b c8d4 03bd 2a60 3c3d 7727 2ebd
00000240: 8103 8fbd ed80 cabc a0f8 ca3c 265f 0f3d
00000250: 3acf 423c 22f7 e6bc e41c 9bbc ffe4 f9bc
00000260: 0f87 793d 14c7 82bd f876 f53c aaf7 adbc
00000270: 9c90 3abd ff82 6ebd 44d4 b6bc 6c0b d73c
00000280: 597f ee3c 78c3 253b 868c 96bd 084a 0ebd
00000290: a60d 073d 32be cd3d ad8e 173d d0f7 ab3d
000002a0: 7539 ceba bf2a 4fbb d163 8fbd 74bf a93d
000002b0: d76a 80bc 8f70 90bd b2d8 243c fa51 9abd
000002c0: 847f 80bc 9acb 633d 8565 b1bc 3456 8f3c
000002d0: e2ad b63d 6ab8 3a3b a396 03bd 6902 1f3d
000002e0: e301 98bd 59f6 f93c d390 753d 8969 51bd
000002f0: e4e7 8dbd 5ca3 663c 4638 09bd e6b9 c13c
00000300: dd68 25bd 3fde 693d f9c6 a43c 8aa7 d8bc
00000310: 4d0d 09bd 0f7e 5ebd 4f9a 883c 9d3f a5bd
00000320: 8623 26bd 5c22 1a3d 321f 7e3d 9a05 993d
00000330: d74b 2f3d 5243 7abc 830f 303d b20d c3bc
00000340: aa6c 0a3d 1d89 653c af2e c13c ef9f c03c
00000350: 8409 f6bc b26e 8e3c 46fa 133d c608 003d
00000360: 9f2e 103d 0872 153c 9f20 3abb 0ab4 c03c
00000370: ee1c bd3c bf72 693d d2df 69bc 7f94 a03d
00000380: 10a0 b83c a6da a1bd bfd7 5e3d 966c a73d
00000390: 56e2 033b f7aa d5bc 2df2 8dbd 484d 35bc
000003a0: 9530 153c aa2e 903d 2e57 9dbb 1bf0 dbba
000003b0: 30c1 ff3b 9ed8 603d 3eed 4cbc daef aa3d
000003c0: b91c 3d3c d9f6 873c dbe8 69bd b7d2 edbb
000003d0: 91f9 2c3d 57ef 3ebd 0e72 1bbd 3be7 c93c
000003e0: 2c52 42bd d6db 763d eef4 9cbd 1c86 41bc
000003f0: 5e0c 343c adc8 61bc cc9b 913c 9ba5 883d

deconv3.0.bias f4 [8]
0.0025193773 0.061801545 0.07604065 -0.022234641 0.05528458 0.0053122244 0.0508496 -0.03441397
00000000: 231c 253b 9e23 7d3d 33bb 9b3d 6c25 b6bc
00000010: 1572 623d 2b12 ae3b ac47 503d aaf5 0cbd

deconv3.1.weight f4 [8]
1.1251239 1.1334405 1.1389669 1.1199582 1.1424004 1.1191884 1.1392726 1.1459372
00000000: 0f04 903f 9414 913f abc9 913f ca5a 8f3f
00000010: 2d3a 923f 9141 8f3f afd3 913f 12ae 923f

deconv3.1.bias f4 [8]
0.12512787 0.13043112 0.13969442 0.116961926 0.14130586 0.11717468 0.1399363 0.14504899
00000000: 8521 003e bc8f 053e 0e0c 0f3e bc89 ef3d
00000010: 7cb2 103e 47f9 ef3d 764b 0f3e b987 143e

deconv3.1.running_mean f4 [8]
-0.02288366 -0.128163 0.012330074 -0.091232054 0.13940455 0.017572165 0.037962534 -0.11134528
00000000: 8376 bbbc 293d 03be 1404 4a3c dfd7 babd
00000010: 11c0 0e3e 80f3 8f3c 9a7e 1b3d ff08 e4bd

deconv3.1.running_var f4 [8]
0.13554938 0.16696419 0.16261964 0.15737404 0.2327941 0.20096976 0.18044518 0.22313629
00000000: 75cd 0a3e a9f8 2a3e c385 263e a926 213e
00000010: 9461 6e3e 04cb 4d3e 9fc6 383e d77d 643e

deconv4.0.weight f4 [8, 3, 4, 4]
0.04105343 -0.004708325 -0.018866932 -0.021723352 0.045848653 -0.0069112587 0.21284781 0.12401997
0.17019576 0.19324292 0.19655816 0.14955905 0.037532207 0.09098955 0.11750263 0.20662335
-0.19056405 -0.010061758 -0.0057005156 -0.06637162 0.04950964 -0.19622226 -0.07925394 -0.14520615
-0.08300705 -0.117231086 -0.19519845 -0.044558518 -0.0071717035 -0.16447929 -0.18673289 -0.20719256
0.011757143 -0.002097927 -0.030893449 0.020466203 0.043547206 -0.19931184 -0.107531525 -0.036898177
-0.19064273 -0.23963374 -0.20665663 0.025421537 -0.101845935 -0.12185304 -0.21756661 -0.16621415
0.06714479 0.027853254 0.068506144 -0.014049152 -0.061017398 0.07133733 0.17496131 0.03509842
0.14298634 0.06677533 0.15634963 0.09760151 -0.040803954 0.15329872 -0.07312983 0.06502112
0.03452301 -0.21205606 -0.22140527 -0.09373482 -0.22139394 -0.117567286 -0.14851238 -0.0016475037
-0.16966152 0.01411612 -0.10033826 0.0025827654 -0.03659634 -0.2051597 -0.017722437 -0.12237181
0.050838493 -0.20565408 0.029838504 -0.0747483 -0.12199499 -0.14968956 -0.22454704 -0.1950697
-0.14927584 -0.21827473 -0.057034034 -0.19992201 0.045206137 -0.08120761 -0.036773663 -0.08630941
0.1477587 0.05551218 -0.010678469 0.10203708 0.15757315 0.076736294 0.12887958 0.030621279
0.13639036 -0.05591534 0.124441065 0.0666897 -0.0056212596 0.051764052 0.10847643 0.096727364
-0.04138144 -0.08177788 -0.06596866 -0.05706903 -0.24012834 0.0026431845 -0.19292806 -0.17877404
0.0051532816 -0.016876336 -0.0854294 -0.082346685 -0.22861792 -0.07984735 -0.0013938108 -0.058136
-0.049236145 0.024407139 -0.20779906 -0.092123166 -0.09228506 -0.1448251 -0.15375996 -0.20098709
-0.02516592 -0.07816815 -0.101125814 -0.020726906 -0.049294926 -0.16450745 0.04035122 -0.19448978
0.12445629 0.0008399965 0.13292634 0.14434353 0.043404978 0.076596 0.0488176 0.039625596
0.083650984 -0.077089384 0.08939112 0.16153121 0.15798542 0.04469697 0.1197232 0.10517028
-0.19538395 -0.08761651 0.032189883 0.044855896 -0.0013244083 -0.08314842 -0.07036918 -0.14990333
-0.1832412 -0.23588222 -0.04679447 -0.11841565 -0.22115456 -0.14992973 -0.1737254 -0.16863024
-0.12191539 -0.19608346 -0.0329735 -0.0013151005 -0.0879448 -0.014932168 -0.09626874 -0.054949638
-0.12793562 -0.08087946 -0.0023519616 -0.1342026 -0.22590917 -0.20670678 -0.13939306 -0.11710998
-0.05484007 0.12708628 0.018689105 0.20285884 -0.052039493 0.16873075 0.061822735 -0.019464552
0.21207505 0.1304696 -0.068810955 0.07159555 0.0540649 0.14636295 0.09601931 0.016866567
-0.09941689 -0.094867125 -0.11982551 -0.21709026 -0.08819122 0.018834688 -0.12113273 -0.14628302
-0.19879916 -0.12606956 -0.19016407 -0.18240185 -0.21525244 -0.03247878 -0.11064923 -0.052070886
-0.044554763 -0.13198514 -0.18285961 -0.008721407 -0.12462032 -0.07640604 0.018705012 -0.07460861
0.009115388 -0.14011386 -0.09401029 -0.028537879 -0.11470382 -0.047769047 0.03808295 -0.14716801
0.061705332 0.1589996 0.022429138 0.12822564 0.019517908 -0.014315962 0.17680015 0.1388341
0.042694226 0.10979666 0.11583366 0.15063852 0.20980658 -0.03316266 0.101573214 0.049044203
00000000: a427 283d 4b48 9abb d38e 9abc 2cf5 b1bc
00000010: cccb 3b3d d777 e2bb c7f4 593e 2ffe fd3d
00000020: cc47 2e3e 79e1 453e 8b46 493e 0226 193e
00000030: 5fbb 193d bb58 ba3d 38a5 f03d 1295 533e
00000040: 3923 43be 12da 24bc 64cb babb d8ed 87bd
00000050: 9fca 4a3d 7dee 48be e44f a2bd ecb0 14be
00000060: 9aff a9bd da16 f0bd 1ae2 47be fe82 36bd
00000070: 9c00 ebbb 426d 28be e836 3fbe 492a 54be
00000080: 08a1 403c 607d 09bb 4214 fdbc bda8 a73c
00000090: 8e5e 323d 6718 4cbe 7d39 dcbd 8b22 17bd
000000a0: d937 43be 8c62 75be cc9d 53be d440 d03c
000000b0: 9a94 d0bd 168e f9bd c8c9 5ebe 0b34 2abe
000000c0: 3583 893d 822c e43c f34c 8c3d 6a2e 66bc
000000d0: 61ed 79bd 4e19 923d 0f29 333e 5cc3 0f3d
000000e0: 036b 123e 81c1 883d 1e1a 203e 4de3 c73d
000000f0: 0c22 27bd 57fa 1c3e 18c5 95bd cb29 853d
00000100: 0068 0d3d 3925 59be 10b8 62be 0bf8 bfbd
00000110: 18b5 62be 1ec7 f0bd a113 18be 0df1 d7ba
00000120: c0bb 2dbe 4c47 673c 257e cdbd 9d43 293b
00000130: 0be6 15bd 6215 52be a52e 91bc 129e fabd
00000140: 063c 503d fc96 52be e16f f43c a315 99bd
00000150: 82d8 f9bd 3848 19be a9ef 65be 5ac0 47be
00000160: c4db 18be 6983 5fbe 859c 69bd 5bb8 4cbe
00000170: 122a 393d 2d50 a6bd fb9f 16bd fdc2 b0bd
00000180: 0f4e 173e bd60 633d bff4 2ebc d1f8 d03d
00000190: db5a 213e eb27 9d3d 02f9 033e 7ad9 fa3c
000001a0: eaa9 0b3e 7c07 65bd f5da fe3d 9c94 883d
000001b0: 8b32 b8bb 8b06 543d e428 de3d ff18 c63d
000001c0: 967f 29bd 297b a7bd 941a 87bd 37c1 69bd
000001d0: 34e4 75be 4739 2d3b ef8e 45be 8b10 37be
000001e0: dcdc a83b 3e40 8abc 9cf5 aebd 61a5 a8bd
000001f0: d11a 6abe 0287 a3bd 88b0 b6ba 0420 6ebd
00000200: d7ab 49bd 7bf1 c73c 47c9 54be 12ab bcbd
00000210: f3ff bcbd 084d 14be 4073 1dbe 8fcf 4dbe
00000220: c228 cebc 9f16 a0bd 0d1b cfbd 79cb a9bc
00000230: 7ae9 49bd a474 28be 5247 253d 5428 47be
00000240: f0e2 fe3d 3633 5c3a d81d 083e cace 133e
00000250: 6bc9 313d 5dde 9c3d f7f4 473d 734e 223d
00000260: 3551 ab3d 0ae1 9dbd b112 b73d 7068 253e
00000270: eec6 213e 2c14 373d 7031 f53d 8463 d73d
00000280: bb12 48be 4970 b3bd 8ad9 033d d1ba 373d
00000290: c597 adba b849 aabd b71d 90bd 4280 19be
000002a0: 95a3 3bbe 1c8b 71be 8fab 3fbd e883 f2bd
000002b0: 5776 62be 2e87 19be 12e5 31be 68ad 2cbe
000002c0: c7ae f9bd 1aca 48be 390f 07bd 735f acba
000002d0: 671c b4bd 0da6 74bc 8c28 c5bd df12 61bd
000002e0: 8e01 03be 21a4 a5bd 5e23 1abb 686c 09be
000002f0: bc54 67be f1aa 53be 0ebd 0ebe 5bd7 efbd
00000300: fb9f 60bd e822 023e e519 993c 3aba 4f3e
00000310: 5d27 55bd c1c7 2c3e d639 7d3d 2074 9fbc
00000320: 342a 593e d399 053e c2ec 8cbd b0a0 923d
00000330: 2873 5d3d 2be0 153e c6a5 c43d c12b 8a3c
00000340: 159b cbbd b249 c2bd 1467 f5bd e94c 5ebe
00000350: 999d b4bd 344b 9a3c 7014 f8bd 37cb 15be
00000360: 0292 4bbe 6118 01be 5fba 42be 8dc7 3abe
00000370: 236b 5cbe 7808 05bd 109c e2bd 4848 55bd
00000380: 0e7f 36bd 1d27 07be 8d3f 3bbe 3be4 0ebc
00000390: f038 ffbd c57a 9cbd 413b 993c 66cc 98bd
000003a0: b558 153c 027a 0fbe 7888 c0bd 45c8 e9bc
000003b0: d6e9 eabd 7aa9 43bd defc 1b3d 36b3 16be
000003c0: bbbe 7c3d cbd0 223e 50bd b73c 954d 033e
000003d0: 05e4 9f3c 7f8d 6abc 190b 353e 872a 0e3e
000003e0: 24e0 2e3d 12dd e03d 333a ed3d fc40 1a3e
000003f0: 89d7 563e 92d5 07bd 9e05 d03d 93e2 483d

deconv4.0.bias f4 [3]
-0.056060288 -0.016695632 -0.2137855
00000000: 799f 65bd 47c5 88bc 96ea 5abe
