Pix2Pix/checkpoints/pix2pix_model_epoch_140.pth (torch, 99191 bytes, 32 tensors)

conv1.0.weight f4 [8, 3, 4, 4]
00000000: 46cd fa3d b277 e93d 8427 adbd c693 173e
00000010: 7a9c 8a3d 3438 953b 24c7 8fbd 44dc e13d
00000020: 1f81 cdbd 0f8c e6bc c30c 5a3b f254 c7bc
00000030: 14a1 ee3d 9828 b93d 6a79 09be 8157 10be
00000040: b55a 52bd 0f1c b23d 7603 5a3c 2e48 293e
00000050: 5da0 67bd 013e 41bd 83bc 3a3e 1bfe 92bd
00000060: 1488 12be bd5d fdbd e95c bcbd 1dbd 00be
00000070: 8e8f bcbd 25cf de3b 6df5 f43d aa17 acbd
00000080: 9ee5 8a3d ea50 f23d 5b6f 93bd 61f2 debd
00000090: 127d 85bd 0971 d7bb f8f9 033e 3aa6 b1bc
000000a0: 9f73 8fbd c3e2 d6bd 0671 0ebe 5692 b03c
000000b0: 8ef9 ed3d e5ca abbd 64c1 213e ce63 5e3c
000000c0: 1c24 373c 6e66 963c 39f9 87bd 89aa 0c3e
000000d0: f313 013e 357e 953d e053 db3d 2b2c 513c
000000e0: 441d 5a3c fe03 8fbd deb0 bcbd 1d4c d53d
000000f0: 38f7 71bd f47e 393d bc01 88bd 393a 143e
00000100: faaf d1bc e3f8 82bd bf43 fc3d 13e9 01be
00000110: cc4a 5ebd 44c9 eebd 67b9 4a3d 9eb0 2fbd
00000120: 9b18 c0ba 415b 573d 9e9a 553d 22f9 e33d
00000130: f8d6 5e3d 9c7c 05be 49ab efbd 4396 393d
00000140: 801e 223d c2e5 a13d 6097 01be 405f 0dbe
00000150: 802f d13d 2780 98bd 7c29 a5bc d96d 8fbd
00000160: be9d 1abd a2c8 bcbd 9a6e eebd 55ed 663d
00000170: e4e3 38bd f518 26bd 8256 f6bd fa93 2b3d
00000180: 9eb7 ac3d 6ebb b3bd f1f1 a33c 0424 1b3e
00000190: bb76 07be 1afa bfbd 4b04 a0bd 4882 553d
000001a0: ecd6 07be cf31 c4bd e783 f23b e3c3 aebc
000001b0: 3db4 dc3d de28 cbbd d36d 593d f56f f43d
000001c0: 329a e33d e27f 0ebe 3f4e 813d fdbe d2bd
000001d0: b0c0 eb3d ce77 93bd f94f e63b d797 163e
000001e0: acb4 d9bd 4c23 333b 345a de3c 2011 143e
000001f0: a301 d23d 9a84 bdbc aaa4 c6bc 2f63 d03d
00000200: 9e27 b53b a9bb f23c 256f 1abe 1153 0f3d
00000210: 21ac 863d 66d7 debd e464 043e 2090 17bd
00000220: 275d db3d c6fa c1bc 406c 873d 5020 b13d
00000230: ab7c d9bd 3cdf d7bd 0590 0ebe a87e 56bd
00000240: 3281 26bd 4979 813c 9141 cdbc fc8c 8ebd
00000250: e1be fcbd d5fe 00be bc8d 843d 6805 fe3d
00000260: ea63 a83d af38 453d 4ed9 fc3b 0e77 ed3d
00000270: eda6 ad3d 915b b8bd 5471 ca3d 3d0f 91bd
00000280: 8114 98bc ebee b93d 0cd8 18be be5d 97bd
00000290: b0e2 98bd ae39 123d 61da 0ebe ad23 9dbd
000002a0: de41 233c 8c3f d73a 9f05 5cbc f3bb 5ebd
000002b0: b78c 693d dd72 3d3e b985 cd3d d77f 1a3d
000002c0: bded 0ebe 522f 853d 5ef6 333b 60fa 243d
000002d0: bb85 f1bc fe9a ae3d caa2 533c c42c e93d
000002e0: 1664 073e 4aec 223d 40c6 b13b 5227 703d
000002f0: 1e71 0d3e f6e9 98bd 9daf 993d 9dca d13d
00000300: 8b90 4d3e 94a0 413e c3ba 373e bd8c 96bc
00000310: 4734 363d ceb6 903d f352 ebbd b9b4 623d
00000320: 4185 c23d 85b7 98bd 1e7f c6bc cf5c 52bc
00000330: cb4e 873d 84b1 fdbd 4b86 453d 1c90 aeba
00000340: 921a 6e3d 8680 bfbc 5604 013e 2d8e f9bd
00000350: 7b35 eabd 9a75 45bd 2763 7c3c 1936 823d
00000360: 27ea 133e 8549 9fbd 4545 d4bd 0b33 eebd
00000370: c7ef cfbd fc77 fe3d abff 573d c0b5 8a3d
00000380: 209b 113e 8bfe 743d ef9b c0bd f0f9 413d
00000390: 6592 e2bd 515b 233a 5142 a73d 664d da3c
000003a0: 8469 afbc 4e4c b73b 6654 433d de3a e03d
000003b0: 1ba0 02be 53d1 4d3b 4bfc 923d 3304 ddbc
000003c0: e4cd 033e df0d 68bb e2e1 3a3b 4eb7 203d
000003d0: 7e1b 7ebc a328 123e aaae 263d 6117 0c3d
000003e0: 5e04 57bd 7ab2 f4bc 28f2 d4bd 589b 0abd
000003f0: f606 ae3d 1fec 8abd e33a 933d 7c34 fabd
0.12246184 0.11399783 -0.08454803 0.14802465 0.06768127 0.004553819 -0.07020405 0.110283405
-0.100343935 -0.028142957 0.0033271767 -0.024332497 0.11651817 0.09040946 -0.13425222 -0.1409588
-0.051356036 0.08696758 0.013306489 0.1653144 -0.05654942 -0.047178272 0.18235974 -0.07177373
-0.14309722 -0.12371395 -0.09197409 -0.12572141 -0.092070684 0.006799596 0.11960874 -0.08402951
0.06782077 0.118318394 -0.07198974 -0.10886074 -0.06517996 -0.006574754 0.12888324 -0.021685708
-0.07004475 -0.1049247 -0.13910303 0.021554153 0.116198644 -0.083883084 0.15796429 0.0135736
0.011178043 0.01835939 -0.06639332 0.13736929 0.12605266 0.07299463 0.10709357 0.012766878
0.0133126415 -0.06983183 -0.09213422 0.10414908 -0.059073657 0.045287088 -0.06640956 0.14475335
-0.025596607 -0.063951276 0.12317609 -0.12686567 -0.05427055 -0.11659482 0.04949322 -0.042893045
-0.001465577 0.05257726 0.052149408 0.11131503 0.05440423 -0.13035816 -0.11702592 0.045309316
0.03957987 0.07905151 -0.12655401 -0.13805866 0.10214138 -0.07446318 -0.020161383 -0.07003374
-0.03774809 -0.09217955 -0.11642189 0.05637868 -0.04513921 -0.040551145 -0.12028219 0.04188917
0.0843346 -0.08775984 0.020012828 0.15150458 -0.13228886 -0.09373875 -0.07813319 0.0521262
-0.1326558 -0.09579813 0.007400978 -0.02133364 0.10776565 -0.09919904 0.053083252 0.119354166
0.11113395 -0.13915971 0.063137524 -0.102903344 0.115113616 -0.07200585 0.0070285765 0.1470636
-0.106301636 0.002733427 0.027142622 0.14459658 0.102542184 -0.023134518 -0.02424844 0.10175168
0.0055284044 0.029630499 -0.15081461 0.034991328 0.065758 -0.10880928 0.12929112 -0.037002683
0.10711127 -0.023679148 0.06612444 0.08648741 -0.10619482 -0.105406255 -0.13922127 -0.052366883
-0.040650554 0.015804904 -0.025055679 -0.069604844 -0.12341095 -0.1259721 0.06472346 0.12403375
0.08222182 0.04814976 0.0077163344 0.115949735 0.08479104 -0.0900184 0.09884897 -0.070829846
-0.018564465 0.09078773 -0.14926165 -0.07390927 -0.07465112 0.03569954 -0.13950492 -0.0767282
0.009964434 0.0016422137 -0.013429075 -0.05437846 0.05701896 0.18500848 0.10035271 0.037719574
-0.13957877 0.06503166 0.0027460079 0.04027784 -0.029482713 0.08525656 0.01291723 0.113854915
0.13221774 0.039776124 0.0054252446 0.05863125 0.13812682 -0.074664995 0.07504199 0.102437235
0.2007467 0.18908912 0.17942338 -0.018377656 0.04448345 0.07066117 -0.11490431 0.05534813
0.094980724 -0.074568786 -0.024230536 -0.01283951 0.066068254 -0.12387374 0.048223775 -0.0013318094
0.05813081 -0.023376714 0.1259931 -0.12185321 -0.11435982 -0.048207857 0.015404499 0.063579746
0.14444791 -0.077776946 -0.103647746 -0.116308294 -0.10153156 0.12425229 0.05273406 0.06772947
0.14219332 0.059813064 -0.09404742 0.0473575 -0.11063079 0.0006231564 0.08166946 0.026648235
-0.021412618 0.005593813 0.04768791 0.10948728 -0.12756388 0.0031405285 0.07177027 -0.026979541
0.1287151 -0.0035408658 0.0028515984 0.039237313 -0.015509484 0.14273314 0.040693916 0.034201983
-0.0524944 -0.02987026 -0.1039775 -0.033839554 0.084974214 -0.06783318 0.07188966 -0.12217042

conv1.0.bias f4 [8]
00000000: 2b36 7fbd 027d e8bd 8d6b dd3d 6408 a5bd
00000010: 3bc9 0c3e ef6b c5bd 1c84 dd3d 5144 383d
-0.062307518 -0.11351968 0.10811529 -0.08058241 0.13748638 -0.09639727 0.108162135 0.044987027

conv1.1.weight f4 [8]
00000000: b9c0 7f3f 02d2 7d3f 2d83 7f3f d111 813f
00000010: 0dbd 803f 8385 823f 0c80 813f 9459 7a3f
0.99903446 0.9914857 0.99809533 1.0083562 1.0057694 1.0196995 1.0117202 0.97792935

conv1.1.bias f4 [8]
00000000: b08f 8fbc 15cb f9bb 066e 85bd f88b 713d
00000010: 6299 18bd 46ac 0c3d fb9f 153d 927f d138
-0.01752457 -0.007623086 -0.06515126 0.058971375 -0.037255652 0.03434398 0.036529522 9.9896584e-05

conv1.1.running_mean f4 [8]
00000000: c5b1 80bd 2b6f 0fbe 2e16 e33d ff53 edbd
00000010: b929 2b3d 3c9e e5bd 6fb6 4b3e 8f93 423d
-0.06283907 -0.14007251 0.11088215 -0.115882866 0.041787837 -0.112118214 0.19893812 0.047504004

conv1.1.running_var f4 [8]
00000000: a963 f23c 8009 263d e1fa 833c 9971 cb3d
00000010: 2124 da3d fe4a eb3c bd0a cf3d 24b3 2f3c
0.029588537 0.040536404 0.01611084 0.099337764 0.10651422 0.028722282 0.1010947 0.010723863

conv2.0.weight f4 [16, 8, 4, 4]
00000000: 2a84 3e3d bf5d ad3c 7deb b1bd d80a 82bd
00000010: 0294 393d 39eb 5a3d 7327 f8bc c40e 293d
00000020: 1c96 9dbc a37b 05bd 1300 873d 3e54 8e3d
00000030: f9fb 3dbd 01d2 323d 98b5 013d 3be4 a93d
00000040: e909 453d 0d54 5a3c 63b8 db3d 2ede aa3d
00000050: e984 17bd 25ae 8d3c d294 18bd 7558 243d
00000060: 3a1e a33d 2eb0 f5bc 8c00 d4bc 5cde efba
00000070: b211 bebc e66d 653d f3a9 0e3e de0d 033e
00000080: 7a62 16bd 7e28 49bd d7f1 19bd d18f 93bc
00000090: a678 7b3d 4b22 0b3d 5c37 26bb ec68 993d
000000a0: 538f 063b 8736 313d 433d b63d ff85 1fbd
000000b0: 17be eb3c 26a5 e53c 747c 35bd dda7 01bd
000000c0: 7d12 17bd 3e2b 32bd 735d df3c 440e 53bc
000000d0: 7271 2abd 45dd 8bbd f342 ac3d 21cb d13b
000000e0: 62b6 3c3d e755 be3c 9543 163d e740 133c
000000f0: 773c 85bd 0133 943d 2f86 77bd a309 ceb9
00000100: ec94 4aba e92e 853d f312 ecbc 7b59 8d3d
00000110: 1e32 35bd 3453 88bc 9ef6 ad3c 196d b03d
00000120: 0c55 803d d580 a13d c285 7dbc 6dcc ee3d
00000130: b7cb 953d f3b2 cb3d 3fd7 af3d 97b6 963c
00000140: 1bdc 97bc f50a 9ebc 3674 743d a4ff 443d
00000150: c360 3b3d 943f 20bc a1a5 623c b0c3 883a
00000160: 0aab 2a3d d18c 77bd 7a93 34bd 9fe5 093d
00000170: 16fe 483d 7061 a53c 06c5 19bd 2ae0 08bd
00000180: af9d 90bd c8ed 2b3d 83c5 df3c b2ed d83c
00000190: 6b8a 743d 2bd0 05bd ca1e caba e1be 2cbd
000001a0: 5653 263d cf65 19bd 97f6 c43d 33e4 bebb
000001b0: c594 2c3d a10f 8e3d e24e 7bbc f128 d33c
000001c0: 1d77 c4bc 2daf ed3c 00fd 8bbd 6b3e 793d
000001d0: 8253 9dbd 6b3c 0d3d 2583 223c 9477 a3bb
000001e0: 5bb1 01bd cedc 883d 3a98 25bd 2df8 3cbd
000001f0: ed0e 93bc 1bee 173d 338d 04bd 56c1 293d
00000200: ec74 19bd e4c4 c8bc 2793 563d ab02 6c3d
00000210: e73b 81bd b21a b13c 4e41 16bd 7b7d bcbd
00000220: 35fc 893d 5eb8 af3c f997 593d c72a 96bc
00000230: c8a5 aabd f394 363d 9f26 dabc 9cf4 73bc
00000240: 636c 8239 c0fe 913d 6c39 f8bc 6efd 053d
00000250: 4608 db3c b402 823c b9fd 33bd 708f b33c
00000260: b68f 693d 5260 573d e90a 553d 20ec a63c
00000270: 87cb 2dbd ac8d 85bc b57c b23c 8add 173d
00000280: f6a5 b23d f0cc 903d 4bf4 a03b 9dc5 cb3c
00000290: 45bb 40bd ccc8 a3bd a990 d2bd 9c0a 92bd
000002a0: 09b1 08be e571 c9ba 621f f6bb 50b7 cabd
000002b0: d8b9 5c3c 0198 363c 62ec 8abc cbcc 43bb
000002c0: 13cf bf3d 9688 9e3b 5614 ab3d 122e 86bc
000002d0: ff22 9abc c85a 37bd 7ccd 87bc f29f 743d
000002e0: 4821 4dbd fcfe adbd 1434 8e3c ef49 eb3c
000002f0: 20df 993d 0acd 13bd fb9b 563d 6505 053c
00000300: 7e39 1c3c 0a98 01bc 7d4f 973b eb45 663c
00000310: 94c4 0d3d d6e0 233c d829 42bd 96c0 103d
00000320: 0e0a 643d 7fe9 833d f281 ecbc 45c9 85bd
00000330: ddcf 8dbd 5ad9 743c 712b 9ebd 6048 983c
00000340: 3e39 47bc 1f42 d33d a655 723d 4b86 753d
00000350: 0d49 66bd 8fc4 b73d 137a bd3d 46a8 c23d
00000360: 3ab0 cb3c dff4 4ebd 0b4d 23bd 8498 783d
00000370: e4de babd 0b8d e8bd 5db7 fcbd f0f1 e0bc
00000380: a454 943d 8352 d43c d9f7 83bd 87db 063d
00000390: d15d 09bd 2619 a8bb 314d 253d add9 84bc
000003a0: 0b66 32bc f28f 0cbb 9325 6fbd 25f6 843d
000003b0: f28f ae3d add7 2a3d ba5a afbc 3a76 a93c
000003c0: 9069 0d3d 7a72 673d ea39 bf3d ed61 3dbb
000003d0: 7d18 413d 7de1 1abc c98a b23d 3a40 423d
000003e0: ff2c f73c e3aa be37 8d4f 2dbd d5d0 3ebc
000003f0: b606 aebd 693c 4abd 5f16 2abd ed8d 62bd
0.04651276 0.021162866 -0.08687494 -0.063497245 0.045307167 0.053446982 -0.030292248 0.041273847
-0.019236617 -0.032588612 0.06591811 0.06949662 -0.046382878 0.043657307 0.031667322 0.08295485
0.048105154 0.013325703 0.10728528 0.08343159 -0.036991987 0.017294953 -0.0372513 0.04012342
0.0796475 -0.029991236 -0.025879167 -0.0018300521 -0.023201797 0.05601301 0.13932018 0.12798259
-0.03671501 -0.049110882 -0.037584152 -0.018012913 0.061394356 0.03396825 -0.0025362587 0.074907154
0.0020532205 0.043264892 0.088984035 -0.038946148 0.028777165 0.02803285 -0.04430814 -0.031654228
-0.036882866 -0.04349827 0.02726624 -0.012881819 -0.041612096 -0.06829313 0.08411207 0.0064023887
0.04607237 0.02323432 0.036685545 0.008987642 -0.065056734 0.07236291 -0.0604307 -0.00039298562
-0.00077278796 0.06503088 -0.02881763 0.06901833 -0.04423725 -0.016641237 0.02123576 0.08614559
0.062662214 0.07885901 -0.015473785 0.11660085 0.07314246 0.09946241 0.08585977 0.018397612
-0.018537572 -0.019292334 0.05968114 0.04809536 0.045746576 -0.009780783 0.013833434 0.0010434296
0.04166702 -0.060437027 -0.044085957 0.03366625 0.04907044 0.020188063 -0.03754141 -0.033416905
-0.07061326 0.041974813 0.02731586 0.02648053 0.05970232 -0.032669228 -0.0015420553 -0.042174224
0.04060682 -0.037450608 0.09617346 -0.0058255433 0.042134065 0.06936575 -0.015338631 0.025776358
-0.023982579 0.029014194 -0.06835365 0.060850542 -0.076819435 0.034481447 0.009918963 -0.00498862
-0.03166328 0.0668274 -0.040428378 -0.046135116 -0.017951453 0.03709231 -0.03236122 0.041444145
-0.03746502 -0.024507947 0.05238643 0.057619732 -0.063102536 0.021619175 -0.036683373 -0.09203621
0.06737558 0.021450218 0.053123448 -0.018330945 -0.083324015 0.044575643 -0.026629744 -0.014889862
0.00024876287 0.07128668 -0.030300818 0.032712393 0.026737344 0.01587043 -0.04394314 0.021918982
0.05702182 0.052582093 0.052012358 0.020376265 -0.042430427 -0.016302906 0.02178798 0.03707651
0.08723061 0.07070339 0.0049119345 0.024874503 -0.047053594 -0.07997283 -0.10281498 -0.0713093
-0.13348784 -0.0015369026 -0.0075110653 -0.09898245 0.013472043 0.011144639 -0.01695842 -0.0029876705
0.09365668 0.0048380597 0.08353488 -0.01637939 -0.018815516 -0.04476431 -0.016577475 0.05972285
-0.050080568 -0.084959 0.017358817 0.028721778 0.07513261 -0.036084212 0.05239485 0.008118962
0.009535192 -0.007909784 0.00461763 0.014054756 0.0346113 0.0100023355 -0.047403187 0.035339914
0.05567365 0.0644102 -0.028870557 -0.0653253 -0.069244124 0.014944399 -0.077231295 0.018589199
-0.012159644 0.10315346 0.059163712 0.059942525 -0.05622201 0.089730375 0.092517994 0.09504752
0.024864305 -0.050526496 -0.039868396 0.060692325 -0.09124544 -0.11355027 -0.12339661 -0.027459115
0.072427064 0.02591825 -0.064437576 0.0329242 -0.033536736 -0.005129951 0.04035682 -0.016217077
-0.010888587 -0.0021448103 -0.058385443 0.06492261 0.08523549 0.04170959 -0.021405566 0.020686258
0.0345245 0.056505658 0.09337218 -0.002889748 0.047142494 -0.009453175 0.087178774 0.047424532
0.030172823 2.272934e-05 -0.042312194 -0.011646469 -0.08497374 -0.049374018 -0.04152524 -0.055311132

conv2.0.bias f4 [16]
00000000: 2267 3c3d aa16 433d d8e4 91bd 9b6d 453d
00000010: 4434 673d c830 92bd 7ee7 6a3d 2472 e7bc
00000020: 7881 103d 8e5e cf3b 8735 d33c a397 1c3d
00000030: ef4c 8fbd 7746 a23d ea0a 41bd ad3c 613d
0.045996793 0.047629036 -0.071237266 0.04820023 0.05644633 -0.071382105 0.057349674 -0.028252669
0.03527972 0.0063284105 0.02578236 0.03823055 -0.06997096 0.07923596 -0.04712955 0.054989506

conv2.1.weight f4 [16]
00000000: d92c 803f 190a 7e3f 9e89 873f 53fc 7d3f
00000010: 087e 853f b5aa 7d3f 2a00 863f b675 7c3f
00000020: a89e 7c3f 9e5a 803f 6a70 7f3f aa1e 7d3f
00000030: 0e98 843f 8148 783f ca43 803f 9074 7c3f
1.0013686 0.9923416 1.0588872 0.9921314 1.0429087 0.99088603 1.04688 0.9861711
0.9867959 1.0027654 0.99780905 0.98874915 1.0358903 0.9698563 1.0020688 0.9861536

conv2.1.bias f4 [16]
00000000: 12cb abbd 74af 87bb 05ad ab3b 8fa8 133d
00000010: c13b 8a3d 3af6 44bc 10b9 0e3d d22f b33c
00000020: 49b5 623c 3030 123d e494 dabc ceae d3ba
00000030: 1d1c 0f3d 8b2a c63a 7f52 e83c b81d 45bc
-0.08388342 -0.0041407887 0.0052391314 0.036049422 0.067496784 -0.012021596 0.034844458 0.021873388
0.013837167 0.035690486 -0.026682325 -0.0016150118 0.03493892 0.001511888 0.02835965 -0.012031011

conv2.1.running_mean f4 [16]
00000000: a06c 323f 12fc 6c3e 12b4 03bf 285c 08bf
00000010: 25c2 8fbe 10cb 7d3d 34e6 08bf cc86 aebc
00000020: 075f 3f3e 7d9d dd3c 2bc9 943e 15fb 843e
00000030: c0d2 dfbb a3d6 943e 54c9 0ebf 463a b23e
0.69697 0.23143032 -0.5144664 -0.5326562 -0.28077808 0.061961234 -0.5347626 -0.02130451
0.18688594 0.027052635 0.2905973 0.2597281 -0.0068305433 0.29070005 -0.5577595 0.34810084

conv2.1.running_var f4 [16]
00000000: b0d7 433e 466a 983e f939 6b3e 54cc 413e
00000010: 258f eb3d a7d6 2a3e 722f 9d3e 5787 1a3e
00000020: 48b9 323e 2c1c 333e 4b4c 803e 31e9 ea3e
00000030: 14ab e03d 723d c13d aeb5 4d3f 15ab 353e
0.19125247 0.2976858 0.22971334 0.18925601 0.11501912 0.16683446 0.3070026 0.1509069
0.17453492 0.17491215 0.25058207 0.45881036 0.109701306 0.09435548 0.80355346 0.17741044

conv3.0.weight f4 [32, 16, 4, 4]
00000000: b7b4 8b3d bf68 9c3d 9000 123d a4ad ad3d
00000010: 2192 523d 1abc 2d3d 76c1 f53c 8b88 823d
00000020: 73ad 433d 9bdc a83d a015 a43d c5e2 ac3d
00000030: 8bcb 433d da4e cf3d d30f ac3d 51f5 fa3d
00000040: e67c 04bd e63f 4b3d 091f df3c 23df 06bc
00000050: ebac 123d 2c0c 873d bafd 143d 8f59 03bd
00000060: 0346 433d c68a c0bc 3610 193b 11f9 d0bc
00000070: 262e 8d3c ba47 febc 1660 403d 4fb8 893b
00000080: 6223 993c baab 03bc 5ca5 4d3d 0698 653c
00000090: 5462 183d d405 2b3d d0eb 473c 09c5 01bd
000000a0: 8674 5c3d cc7a 913c 5aad 1e3d 38b7 4aba
000000b0: 52c2 51bd df20 09bd 171e 883b 2536 bf3c
000000c0: 47fe 31bd d1d2 f13c 77f0 0fbc beb9 7dbc
000000d0: 53e5 1f3d 2feb b93c 5b32 743d d112 e33c
000000e0: 95c6 193d cf7b 7a3d 0c9e 773d bb2a dabc
000000f0: 06af d1bc 46c0 1dbd f844 713c 25ad 7c3c
00000100: 4138 1fbd a12f 93bd 5e2f 1abd 3d87 e3bc
00000110: 4ff3 55bd 065b 9d3c 4b63 813d bd72 2d3d
00000120: 8c02 c93b 9197 8c3b 375a 513c 992d de3c
00000130: c3ab 2fbd ce58 323a 71a6 93bc 90bd 93bc
00000140: c533 173d 5cb5 913c bbdc b43d 5ab9 b33d
00000150: f486 313d af07 4cbb 5208 853b d032 cf3c
00000160: c700 babc b26a 453d bea4 a83c 09ad 693b
00000170: 71ef ad3b a612 47bd ce6d 7e3d d209 033d
00000180: 212e edbc 8203 0fbd 0f1c 07bd c5ee 3fbd
00000190: 4b73 873d 2482 f73c c41b cb3d ac73 5f3d
000001a0: 4192 7fbc 800e d43c d692 833b 167a 30bd
000001b0: 505e 1abd b8f6 c73c ba5a 043d bfe8 42bc
000001c0: 5073 29bd a6b9 bf3c 5801 203c 1cf1 49bc
000001d0: 0f49 ba3c e005 d33c d825 bdbc 9e9e 63bd
000001e0: 5d2c 0dbc 63b9 333d acbe 503d 3722 0cbd
000001f0: b413 43bc 98c1 bdbc 46c7 e03b 23de 313d
00000200: 01c7 323b 46d4 783c d26e 263c 3bb7 093d
00000210: 4deb 89bd 2e36 073d ce80 da3c 39a5 373d
00000220: 39f3 27bc 222a 5ebd 6b82 f83c 5f2e 563d
00000230: 58ad 783c ce1e d1bb ccd1 853c 1814 9e3c
00000240: 5067 59bd c12a 73bd ac7c 73bd 7825 13bd
00000250: 1da5 bcbb d0cb 8abd 504d bdbc 75a0 a6bc
00000260: c9cc 61bc 1d46 cd3c 29a0 04bd 740d 89bc
00000270: 4008 82bc d650 30bd a938 50bd 65d4 9ebc
00000280: fd3f 013d 6fe1 f93c 6afc b13d 9e2f f4bb
00000290: c99c 863d 427c 8e3d 4599 523d 1f32 043d
000002a0: 543f 103d eb8c 793d 369a 983b 6991 df3c
000002b0: b15b 663d 135f d73c 73bf bdbb 5017 70bc
000002c0: dd46 bd3c 5636 7dbd 262e 2ebd 6263 05bc
000002d0: 7825 9b3c 952e 35bd 1b4e 333d 5f23 f33b
000002e0: 0c7f c03b badb fb3c a0b6 debc 6522 a4bc
000002f0: a1eb 203d 86ed 1d3d 6cbb 28bd 1057 b83c
00000300: 6d58 85bd c0e5 5fbd 3818 68bd 266c 0abd
00000310: b751 93bc 8251 7c3c e307 73bd 01d5 a7bc
00000320: 5e26 c33c 7198 a1b9 eec3 8e3c 8e08 20bb
00000330: 5dbd 19bd 7cfc a43c 7806 67bc 2c2c 3f3c
00000340: 67e1 39bd 840b f03c 40e2 103d 3de5 d13c
00000350: d10e 0dbd 8172 3e3c 0e04 663b 4ee1 223b
00000360: a945 dfbc 4a17 dd3c 890a 963c 13f6 ba3c
00000370: dc4d 9938 0168 b5bc 724c 083d dc5b 1bbd
00000380: c07c cbbc c590 0ebd 31b4 91bd 69da dfbb
00000390: 64ec 813c af2d b73b bb2b 35bd 582b 23bd
000003a0: cc2f 613c 7584 fe3c 60d4 14bd 3051 af3c
000003b0: beff 97ba 5219 5c3d 2b4a 163d 3ea9 b23c
000003c0: af2c 9fbc 02a6 61bc 048a 2abc a1ec e1bc
000003d0: eae9 783d 6d4d 573c 3e2b 03bd dd6b 273c
000003e0: 502b 07bd 1957 89bc 3a16 4bbd 510b ec3c
000003f0: 3f76 2abc 932b 203c 6bc1 dc3c 498c fdbb
0.06821578 0.07637166 0.035645068 0.08480385 0.05140889 0.042415716 0.029999476 0.063737
0.047772836 0.08245202 0.08011937 0.0844169 0.047801536 0.101224616 0.08401456 0.12253822
-0.032345675 0.049621485 0.027236478 -0.008231911 0.03580944 0.065941185 0.036374785 -0.03206783
0.04767419 -0.023503672 0.002335561 -0.02550939 0.01723392 -0.031040061 0.046966635 0.0042028795
0.01869363 -0.008036548 0.050206527 0.014013296 0.037203148 0.041753605 0.012202218 -0.031682048
0.053822063 0.01775875 0.03873954 -0.000773299 -0.05121071 -0.033478614 0.0041539776 0.023341248
-0.04345539 0.02951947 -0.008785359 -0.015486179 0.03903706 0.022695152 0.059618335 0.027718933
0.0375429 0.06115323 0.06045346 -0.026631704 -0.025596153 -0.038513444 0.014725916 0.01542214
-0.038872007 -0.07186819 -0.03764283 -0.027774448 -0.05223399 0.019208442 0.06317767 0.04234575
0.006134337 0.004290529 0.012777857 0.027121352 -0.042888414 0.0006803394 -0.018023701 -0.018034726
0.036914606 0.017786674 0.088311635 0.087755874 0.043341592 -0.003113251 0.0040598297 0.025292784
-0.022705449 0.048197456 0.020586368 0.0035656116 0.0053080847 -0.04860177 0.062116437 0.031991787
-0.02895266 -0.034915455 -0.032985743 -0.046858568 0.06613787 0.030213423 0.09917405 0.054553673
-0.0155988345 0.02588582 0.004015307 -0.04308518 -0.0376876 0.024409637 0.032313086 -0.011896311
-0.041369736 0.023403954 0.009765945 -0.012325551 0.022739915 0.025759637 -0.023089334 -0.05557119
-0.008616534 0.04387797 0.05096309 -0.034212317 -0.011906553 -0.023163602 0.0068596927 0.043424737
0.002727926 0.015187329 0.010158258 0.033622008 -0.06734333 0.033010654 0.026672747 0.044835303
-0.01025086 -0.0542394 0.030335626 0.052290317 0.015178047 -0.006381846 0.01633539 0.01929669
-0.053077042 -0.059366945 -0.05944507 -0.035924405 -0.0057569877 -0.067771554 -0.023108155 -0.020340184
-0.013781735 0.025057847 -0.032379303 -0.016730048 -0.015873075 -0.04304584 -0.050835285 -0.019388387
0.031555165 0.030503003 0.08690722 -0.0074519655 0.06572873 0.06957294 0.0514157 0.03227436
0.035216644 0.060925405 0.0046570553 0.027291017 0.056239787 0.026290452 -0.005790645 -0.014653996
0.02310508 -0.061819397 -0.04252448 -0.0081413705 0.018938765 -0.044233877 0.04377566 0.007419988
0.00587452 0.030744422 -0.027186692 -0.020035932 0.039287213 0.038556598 -0.041194364 0.022502452
-0.065110065 -0.054662466 -0.05666372 -0.033794545 -0.0179833 0.015400292 -0.059333693 -0.02048731
0.023822006 -0.0003082189 0.01742741 -0.0024419161 -0.037534107 0.020139925 -0.014100663 0.011668246
-0.045380976 0.029302366 0.03537202 0.025622005 -0.03443796 0.01162398 0.0035097632 0.002485353
-0.027254896 0.026988644 0.01831557 0.022822415 7.310111e-05 -0.02214432 0.03327603 -0.0379294
-0.024839759 -0.03480603 -0.07114447 -0.0068314564 0.01585979 0.0055901627 -0.044231158 -0.039836258
0.013744306 0.03106902 -0.03633535 0.021401018 -0.0011596603 0.053735085 0.036691826 0.021809217
-0.019430486 -0.0137724895 -0.010408882 -0.027578654 0.060769953 0.013141018 -0.03202366 0.010218588
-0.03300029 -0.016765164 -0.049581744 0.02881399 -0.010404169 0.009776014 0.026947698 -0.0077376706

conv3.0.bias f4 [32]
00000000: e0c0 de3c 10af f03c 17af 343c c15c b9bb
00000010: 15b7 6ebc b9da 9a3c 5128 7ebd 78af 093c
00000020: 1518 23bd c620 293d 3c1a d83b 1c56 943c
00000030: 2a1f 623a 96ba 553d df56 33bd d84f 4ebd
00000040: 55f9 5dbd 8dc6 ed3c a6c5 adbc d20b 653d
00000050: d77a 7ebd b749 08bd 79d2 2c3d 798b 9a3c
00000060: 63e0 a6bc c395 583d 9b16 343c 789e 743c
00000070: 5721 713d 710c 3fbd f985 08bc 8d61 5c3c
0.02719158 0.029380351 0.011028073 -0.005656809 -0.014570017 0.018903123 -0.062050167 0.008403651
-0.03981789 0.04129102 0.0065949243 0.018107466 0.00086258596 0.052179895 -0.04378402 -0.050369114
-0.05419286 0.02902534 -0.02121241 0.055919476 -0.062128868 -0.033273425 0.04219291 0.018865334
-0.020370668 0.0528772 0.010991718 0.01493036 0.058869686 -0.046642724 -0.008332723 0.013450992

conv3.1.weight f4 [32]
00000000: ab5e 863f f950 7f3f c3c0 813f 6e5d 793f
00000010: 41e7 7d3f 3eff 813f 9553 7b3f 67e3 7d3f
00000020: 8f96 843f b438 813f bab3 803f 75af 7f3f
00000030: c9eb 773f a137 863f 2ff1 843f eab6 7d3f
00000040: e737 813f c545 7f3f 38e2 7a3f 592e 813f
00000050: 115e 843f 57f7 813f 7185 7a3f 1544 7f3f
00000060: 87f1 773f 5e65 803f ac36 7b3f 79af 833f
00000070: 6648 7d3f 64c6 7d3f bb09 803f 9b0d 7f3f
1.049764 0.9973293 1.0136951 0.9740819 0.9918099 1.0156019 0.9817441 0.99175113
1.0358447 1.009543 1.0054848 0.998771 0.96844155 1.0485727 1.0386103 0.9910723
1.0095185 0.99715835 0.9800143 1.0092269 1.0341207 1.0153607 0.97859865 0.9971326
0.96852916 1.0030935 0.981303 1.0287925 0.98938596 0.99130845 1.000297 0.99630135

conv3.1.bias f4 [32]
00000000: 824e b9bd a358 c4bb cbe4 84bd 1b9d cfbc
00000010: a69f 95bb 15b2 4abc 4694 dfbc 1ca1 2d3b
00000020: f390 073d 7411 1b3c 1c7d 83bc e823 d9bc
00000030: c9cd 033c 82cb 1ebd 0a24 c33d 5907 e939
00000040: 9a32 dc3c eb1a 9bbc ee2d b3bc 9bfe b6bd
00000050: d94e b3bc 5351 0dbd fb42 03bc d3f2 013d
00000060: abaa ef3b 978c 51bc fed0 9b3b 8213 393d
00000070: 6efa f9bb 5720 a6bb bc8e 8dbc 07e1 953c
-0.09048177 -0.0059920116 -0.06488951 -0.025343468 -0.0045661507 -0.01237156 -0.027292382 0.0026493734
0.03309722 0.00946461 -0.016050868 -0.02650638 0.0080446685 -0.0387683 0.09528358 0.00044446698
0.026879597 -0.018933734 -0.021872487 -0.08935281 -0.021888183 -0.034501385 -0.008011575 0.031725716
0.0073140464 -0.012789867 0.0047551384 0.04518462 -0.0076287305 -0.005069773 -0.017279975 0.018295778

conv3.1.running_mean f4 [32]
00000000: b048 363f 8c21 333c 7c57 893e 5967 0a3e
00000010: abdc f23d 741a 84bf 6dfe ccbe 112f 0abd
00000020: 97cc 88bd 0244 093f e705 623e bd6a 80bd
00000030: 6289 a3be b81e e23e 864d 82bf daf9 1abf
00000040: 94e3 50bf 92c9 703e a454 2e3d b723 56bf
00000050: 4d07 8cbe 78a8 c63e 9b28 9c3e 3f9b acbe
00000060: 6305 1fbf ee73 84be ea8f 743d cc22 28bf
00000070: 8549 8e3e bad2 bdbe 22b3 efbe cf7f 923e
0.7120466 0.010933291 0.26824558 0.13515987 0.11858495 -1.0320573 -0.4003786 -0.033736292
-0.066796474 0.53619397 0.22072564 -0.06270359 -0.31940752 0.44164062 -1.0179908 -0.60537493
-0.81597257 0.23514393 0.04256119 -0.83648247 -0.2734932 0.38800406 0.3049973 -0.33712193
-0.62117594 -0.25869697 0.05970756 -0.65678096 0.27790466 -0.37074834 -0.46816355 0.28613135

conv3.1.running_var f4 [32]
00000000: 589f 493f 79ac 7a3e 9c85 cf3e 374e d63e
00000010: 777e 023f a49a 543e aa03 673e eeb7 823e
00000020: 339c 473e 69e8 303e 5c24 aa3e e9fe fd3d
00000030: 8ee3 6c3e af1d 023f a2f1 113f 2d51 a03e
00000040: b5ca 683e c53b d43e 41e0 933e e79b 783e
00000050: 8975 243e ea9e a53e d01a 5f3e e8b8 e43e
00000060: face 323e a0c7 b03e 7541 a43e 4c2d e53e
00000070: bc69 0f3e 40f8 213e e41f 243e bc88 f53e
0.78758764 0.24479856 0.40531623 0.41856548 0.5097422 0.20762116 0.22559991 0.25530952
0.19493179 0.17276157 0.33230865 0.12402136 0.2313368 0.50826544 0.5700933 0.31311932
0.22733577 0.4145185 0.2888203 0.24278222 0.16060461 0.32347804 0.21787572 0.44672322
0.17461768 0.34527302 0.3208119 0.4476112 0.14005178 0.15817356 0.1602779 0.47955883

deconv2.0.weight f4 [32, 16, 4, 4]
00000000: 147e 4dbd 6988 2abd ce63 1a3d a03e 09bd
00000010: 3dd0 be3c 3d8f 6dbd 1729 84bd 0ab7 1abd
00000020: fa64 debc 1e47 393c d139 82bb ba79 073c
00000030: 5ccb f3bc 5fca 80bd 9b64 523d 16ed 303b
00000040: cc6c 42bc 6dda 83bd ecbd 9abc 989e 233d
00000050: 3259 3b3d 958f 533d 2613 7d3d bc4e 463d
00000060: 694c 1bbd 4e09 133d b822 b13b 1825 9cbc
00000070: d858 f93c 3886 613c da08 54bd 5096 a13c
00000080: 6b90 223d 90e6 7bbd d7b1 d53c f41a 4a3d
00000090: 6072 ee3c 2658 1c3d 92d4 13bd e93d 35bd
000000a0: f354 a9bb 9b41 8dbc 524a 8c3d 7ebb 053d
000000b0: d55c 8e3c 24c3 b73c 95e1 bdbc ad53 8bbd
000000c0: d94f 23bd 479e a0bb 99a3 b23c b990 41bd
000000d0: 32fa 953b 0a62 efbc 0556 173c 65c9 b8bc
000000e0: 2e86 813d 24c9 a63d 315f 73bd a7ea fbbc
000000f0: f1f3 d13c 19b5 54bd 86e6 b3bc a14d b9bd
00000100: 036b 453a e9a8 73bd e3cc efbb 0e95 353c
00000110: 1133 3abd 362a ff3c 8a0f f3bc 93bd 77bd
00000120: 5720 59bd e34c 32bd e6b4 ea3c ef2c 923b
00000130: 46ff 9cbd 5d00 03bd d2a4 0e3d 0206 353d
00000140: e3d6 e2bc aa6a 17bd 92ec acbd 3e81 4ebd
00000150: a8ac b53c dff0 12bc 7153 bcbc 8223 67bb
00000160: b739 5abd 13c3 8bbd 4734 8dbd 187b b8bb
00000170: 5763 dfbc bdce c73c 454c eebc 56af 2abc
00000180: cff3 e8bc edc7 dbbd 31a2 46bd 1ab4 68bd
00000190: 45df 253d 5f63 8e3c a2c5 d1bc ce4a babc
000001a0: e816 46bd a357 06be c4ab b3bd 111a 24be
000001b0: 502d 063d 3f19 9ebd 9ade 1f3d 1d4a c03c
000001c0: 4428 2cbc c695 79bd cbe5 d7bd ea51 98bd
000001d0: 3fbd 0cbc 3fbe 36bd f7a2 0039 04e8 06be
000001e0: c581 063d 4d41 2bbd 1c17 8ab9 43b3 9d3c
000001f0: c1f2 213d 8259 76bd 27f8 a53c 7e33 ebbd
00000200: 98c1 85bd 4412 683a 7215 9c3c db7c 4c3d
00000210: adc6 883d 5091 1b3d 1182 7c3c c237 313d
00000220: 1c13 bfbd 6778 ddbc 9f34 10bd 43a8 9cbb
00000230: 61d8 0fbd 7800 29bd d8cd 44bc abef 3b3d
00000240: e3b2 aebd 4eb1 72bb f6ea 6cbc 83b8 f3ba
00000250: d995 38bd 664b 94bd a0cb 113c 5d64 123d
00000260: 376d 95bd 5e5f 26bd 2c30 0abe 1c40 223d
00000270: a298 173d 7884 46bd d197 10ba 7163 b0bd
00000280: 4f90 6d3c 8232 0a3d f2b5 5a3d d153 3abd
00000290: 4f0e 1c3d cd73 09bd 0c60 41bd d2d6 c5bd
000002a0: 2c8f 8a3d c706 723d 0be6 14bd 80f4 29bc
000002b0: 006b 8a3c 8646 c9bc eec3 503b 418a 823c
000002c0: e88a 27bd b7b9 9ebc aa9d 4abd 7332 613c
000002d0: 1da2 373c f753 2bbd a734 88bd bc8a 053b
000002e0: 8d4f e6bc bd49 5e3c 348d a63c 57c7 89bd
000002f0: 3061 d93c 0422 52bd 12b4 043d f1d3 413b
00000300: 4714 913c 19af 453c f0e6 2fbd a2bf fa3c
00000310: b783 b3bc 37f4 6ebd 1921 40bc 001e 33bd
00000320: 8130 9fbd 6fe1 16bd 5a1b a4bd 6801 cabb
00000330: 2e36 aebc 9196 903a ea64 e43c 6f0a 23bd
00000340: 8cc8 023c ceb8 4fbd d686 c03c c1f5 60bd
00000350: df4f 64bd 30dd b03c 4a79 84bd 26ac c93c
00000360: b751 043d 08fb 013d f45a ebbc e583 8cbd
00000370: 458d 1cbd a3cd 72bd ff88 58bd a5f2 2d3d
00000380: 05b7 4f3d b8db 0a3d 3838 603d 7ff1 51bd
00000390: 7171 05bc 91ce 4cbd bd6f 083d bfb9 1f3c
000003a0: 7444 67bc da2c 37bd d3c5 2fbd 6e2e 0fbd
000003b0: 7a1b 3c3d 1bd6 a4bd 79ba 03bd a05d 0cbd
000003c0: 5b97 07bb aeb8 a4bd f5e1 993b 4087 943c
000003d0: 82e3 91bc 6148 41bc 5351 a3bd 3118 c9bc
000003e0: c06b bbbc 8960 6fbc af04 91bc 0c53 fc3c
000003f0: b3c7 45bd b976 bebc ef41 f9bc b691 963c
-0.050169066 -0.041633997 0.037692837 -0.03350699 0.023292655 -0.05799793 -0.0645315 -0.037772216
-0.027147759 0.01130846 -0.0039741774 0.008268768 -0.029760055 -0.06288599 0.051365476 0.0026996783
-0.0118667595 -0.06438146 -0.01888939 0.03994617 0.04573936 0.051650602 0.06178584 0.04841493
-0.037914667 0.035897546 0.00540575 -0.019060656 0.030437872 0.01376491 -0.051766254 0.019724995
0.03968851 -0.06149918 0.026085777 0.04934211 0.029107273 0.038170002 -0.036091395 -0.044248495
-0.0051675974 -0.017243197 0.06850113 0.03264951 0.01737825 0.022431917 -0.023178855 -0.06803069
-0.03987107 -0.0049016806 0.021806525 -0.04725716 0.0045769447 -0.029221553 0.009236817 -0.02255697
0.06324421 0.08143833 -0.059416953 -0.03075154 0.025629016 -0.05193052 -0.021960508 -0.0904801
0.00075308996 -0.059487257 -0.0073181256 0.011082901 -0.045458857 0.031148057 -0.029670496 -0.060483526
-0.053009357 -0.043530356 0.028650712 0.004460923 -0.07665877 -0.03198277 0.034825154 0.044195183
-0.027690357 -0.036966957 -0.0844356 -0.050416224 0.022177055 -0.008968561 -0.022989007 -0.0035268967
-0.053277697 -0.06824317 -0.06894737 -0.0056299083 -0.027269049 0.024390573 -0.029089103 -0.01041778
-0.02843657 -0.10731492 -0.04849452 -0.056812383 0.04049613 0.017381368 -0.025606934 -0.022740748
-0.04836169 -0.13119368 -0.08772996 -0.16025569 0.032758057 -0.07719659 0.03903065 0.02347284
-0.010507647 -0.06093385 -0.105418764 -0.07437499 -0.008590042 -0.044615027 0.0001226774 -0.13174444
0.0328386 -0.041810323 -0.0002633863 0.019250518 0.03953815 -0.060143955 0.02025993 -0.11484431
-0.06531066 0.00088528194 0.019053195 0.04992376 0.066785194 0.037980378 0.01541187 0.043266065
-0.09329817 -0.027034951 -0.035206433 -0.0047808005 -0.035118464 -0.041260213 -0.012011968 0.045882862
-0.08530214 -0.0037031951 -0.014460316 -0.0018594417 -0.04506478 -0.072409436 0.008898646 0.035740245
-0.07296222 -0.040618293 -0.13494939 0.03961192 0.037010796 -0.048466176 -0.00055157865 -0.08612717
0.014499738 0.033739574 0.053396173 -0.04549009 0.038099583 -0.0335577 -0.047210738 -0.09660114
0.06765589 0.059088495 -0.0363522 -0.010373235 0.016896725 -0.024569761 0.0031855064 0.015935065
-0.040903956 -0.019375665 -0.049466766 0.013744938 0.011208084 -0.041828122 -0.06650668 0.0020376882
-0.028114105 0.013567385 0.020331003 -0.06727474 0.0265356 -0.05130197 0.03239829 0.002957579
0.017709864 0.012065672 -0.04294485 0.030608956 -0.021913392 -0.05833837 -0.011726641 -0.043729782
-0.07772923 -0.036836084 -0.080130294 -0.0061647184 -0.02126607 0.00110312 0.02788015 -0.039804872
0.007982384 -0.050713353 0.023501795 -0.05492187 -0.055740234 0.021589845 -0.064684466 0.02461822
0.03230449 0.031733543 -0.028729893 -0.068610944 -0.038220663 -0.05927814 -0.052865025 0.042467732
0.05071165 0.033900946 0.054741114 -0.0512557 -0.008144722 -0.050001685 0.033309687 0.009748875
-0.014115442 -0.04472051 -0.04291327 -0.03495639 0.04592464 -0.0804865 -0.032160256 -0.034268975
-0.002068958 -0.08043037 0.0046961256 0.018130898 -0.01780868 -0.011797042 -0.07974496 -0.024547668
-0.022878528 -0.014610418 -0.017702429 0.030801319 -0.04828615 -0.02324997 -0.030426947 0.018380027

deconv2.0.bias f4 [16]
00000000: f746 afbc 085c 7dbd 42d7 6ebb 0d0f 403d
00000010: adb4 fe3b cf6e 4fbd 73d4 4e3c c05c 0f3d
00000020: 1e85 22bd f4c7 283d fa77 4ebd 1622 44bd
00000030: f8ec 2e3c 0939 b2bc 02a8 4e3d bf28 7abb
-0.021396143 -0.061855346 -0.0036444222 0.046889354 0.007773003 -0.050642785 0.012623894 0.035000563
-0.03967773 0.041206315 -0.050407387 -0.04788407 0.010676615 -0.021755712 0.050453193 -0.003817126

deconv2.1.weight f4 [16]
00000000: 4f23 6f3f 8de2 773f 1cee 7c3f 3a2d 7f3f
00000010: ab37 793f 2608 873f 2f45 863f 0606 833f
00000020: e77a 773f b1a2 7b3f c407 803f 95c2 7f3f
00000030: 1368 803f f719 803f b977 823f d9ec 893f
0.9341325 0.96830064 0.98800826 0.99678385 0.9735057 1.0549362 1.0489863 1.0236213
0.9667191 0.9829512 1.000237 0.99906284 1.0031761 1.0007924 1.0192786 1.0775405

deconv2.1.bias f4 [16]
00000000: a686 86bc e09f c73c c0a0 bc3c ce3a 273d
00000010: 6c34 263d ff42 49bb 7ba0 ab3d 302a c33c
00000020: b7bf 2b3d 328c 29bd d10f 803d 6b67 143d
00000030: 7567 eb3c b0e4 443d ef1b 0e3d b9bb 1ebd
-0.016421627 0.024368227 0.02302587 0.040827565 0.040577337 -0.0030710099 0.083802186 0.023823828
0.04193088 -0.041393466 0.06253017 0.03623144 0.028735856 0.048069656 0.03469461 -0.038753245

deconv2.1.running_mean f4 [16]
00000000: ce41 bfbe 3eeb 09bf 3842 02bf ba7c 01bf
00000010: 4ad6 20bf ec6d 1cbf b043 0dbf 9b95 d6be
00000020: a152 1dbf 8fa7 a6be 6530 40bf 4da6 3fbf
00000030: 3d0a 16bf 98a1 62bf b195 fcbe b316 eabe
-0.37354892 -0.53874576 -0.5088229 -0.5058094 -0.6282698 -0.6110523 -0.5518141 -0.41911015
-0.61454207 -0.32549712 -0.75073844 -0.7486313 -0.5860937 -0.8852782 -0.49332955 -0.45720443

deconv2.1.running_var f4 [16]
00000000: d22d 0c3f 5b38 143f 19f7 0d3f fc07 493f
00000010: e814 d13e 26ab 0d3e 863f 2a3f 0b67 af3e
00000020: a765 0f3f 1fe6 8b3e 54e2 9c3f 0e46 203f
00000030: 3cc5 6c3f 3b73 8f3f 2817 733e 9842 0b3e
0.54757416 0.5789849 0.55455166 0.7852781 0.40836263 0.13834819 0.6650318 0.34258303
0.56014484 0.27324006 1.225657 0.62606895 0.92488456 1.120704 0.23739302 0.13599622

deconv3.0.weight f4 [16, 8, 4, 4]
00000000: a0c2 8a3b cc80 2c3c f3b4 843c 120d d13d
00000010: d10f cd3b 0879 18bd d559 483d c638 383d
00000020: 6081 cbbc e3f6 f53c 0599 623d 88a5 27bb
00000030: 66db 55bd 9e91 513d 2131 263d 0b32 6dbd
00000040: ecc0 4dbd 9907 6a3d 8a0e 1fbd bd4d b5bc
00000050: 66f3 49bd 2196 0f3c 3b59 c5bc d4f3 77bb
00000060: 72c1 cd3c e7d8 8fbd 5060 203d 8477 47bd
00000070: 901b 383d 830d b23c 9585 12bb 1362 503c
00000080: 3716 73bc c0b7 8b3d b623 d83b 2740 313c
00000090: 113a ccbc b2e9 39bd 817a 54bd b0df 61bd
000000a0: 3e42 f43b 3bf7 213c 70fa 7ebc 6ca0 e43a
000000b0: 9e12 e13c 07b0 003d b31d 363d 2ff1 8d3d
000000c0: e8d2 113e 2635 49bd c5df 68bc 3f7b 073d
000000d0: 97e2 5f3d eba5 ae3d 5dbd adbb d587 283d
000000e0: 059d 8c3c 1722 0abd 7d56 443c 84d0 d6bc
000000f0: 5b4a 843c 78e6 523d e912 b43c 71fe 8bbc
00000100: 8e59 803d d392 f3bc 5721 8d3d 005b 733d
00000110: 2246 8fbc cece 6bbc 2c5c 00bd ae74 51bc
00000120: cddd 533d bebe 6f3d a775 903d eabc 6f3b
00000130: ce98 9eba f52e ebbc 4856 ba3c 6fc7 03bd
00000140: 3f3b 71bb e148 1b3d c427 40bd ed7f 203d
00000150: 0a2e 44bd ef41 df3c 978f 81bd a72f a03d
00000160: c214 ddbc bdad 7abd 11a1 d9bc dd91 a93d
00000170: 9858 633d f6d1 383d ee25 053d 1482 57bd
00000180: 2fca dfbc 69ab a03b 33de 803c 1aaf 253b
00000190: bd99 843d 6048 4c3c eb52 823d e0b0 19bd
000001a0: 02b2 6cbc 34b1 db3d 703a bd3c 01cc e2bb
000001b0: 88d2 1d3b b05d b3bc 675e 8cbd e49e 953c
000001c0: eab7 80bc da78 883d 3e30 3dbc 3200 1a3d
000001d0: dbb9 86bd 0810 a23b c255 a23c ae4a 6ebd
000001e0: 5edc a0bc f641 ee3b 1672 debc 7aea a53d
000001f0: 94c3 1e3d 3338 a7bc c43d af3d 6933 403d
00000200: eb30 173d 403a 763d 0020 f7bc 2ecd 74bd
00000210: 2d79 4a3d 043d 083c c428 a0bc a901 13bd
00000220: ce95 55bd a0e8 813d 98ae ef3c c97c b83a
00000230: 44e4 243c 96ef dbbc 0849 3e3d 5d75 25bd
00000240: c0b1 99bd 0c05 1abd ddd1 a03c 94ce fa3c
00000250: 07ea 0c3c 0b75 cdbc fb43 98bc 4ecc 0fbd
00000260: 1525 683d 73d6 8abd a216 f53c 04c4 d2bc
00000270: 6b17 30bd c5a6 5abd 5704 9abc ac89 893c
00000280: 7177 dc3c ef58 aa38 3a8e 9cbd b68f 05bd
00000290: 9c6d f03c cacc c93d 3f2b 243d e5fb b23d
000002a0: 7525 14bb b7c3 cebb d0b8 97bd 3fd9 a93d
000002b0: 3edd 75bc 8fd4 93bd b24c 5c3c 5708 95bd
000002c0: bd0c abbc 6d16 5b3d 73fb b6bc 90eb 603c
000002d0: cf7d a73d 4589 633b e052 07bd 0d18 fa3c
000002e0: f753 94bd 7066 c03c a4a5 6e3d a843 3bbd
000002f0: 9961 96bd e8ee 903c 168e 14bd 73c1 b53c
00000300: 1cf9 39bd be1e 633d 13f6 9d3c 3bd9 f9bc
00000310: 85a7 ffbc b29e 4ebd b508 193c bcde 9dbd
00000320: f348 21bd 4840 1e3d cc10 753d 98f3 a43d
00000330: 74a7 3e3d d861 7ebc f9a6 1c3d 7dc8 87bc
00000340: 0956 e73c 4828 5c3c 6747 9d3c 8ebc b73c
00000350: f9af 01bd bcaa 8f3c 1950 203d 97d0 063d
00000360: 8653 063d 4fd6 f63b 149b ddbb 154c c73c
00000370: db32 cf3c 2ed0 633d a89e 02bc f47d 9f3d
00000380: 46f8 353c f970 a9bd 04e0 373d 1b36 a03d
00000390: c000 ffba 0e76 00bd effd 8abd b4ac 61bc
000003a0: 6a5e aa3b 3061 953d 0e2f 4cbb 6a3f 4aba
000003b0: f375 393c f7bd 6d3d 88f2 6dbc 822d a83d
000003c0: 17dd 1b3c 3df7 973c a2e8 75bd c4c1 7bbc
000003d0: bf29 063d cf11 44bd ce0f 0abd dfaa e33c
000003e0: c43d 2cbd 72fe 743d db35 9abd 18d4 94bc
000003f0: 2cbf 1d3c f12e 54bc dc15 923c 63f1 853d
0.004234627 0.010528754 0.016199565 0.10207571 0.006257989 -0.0372248 0.048913796 0.04497602
-0.024841964 0.030024951 0.055321712 -0.0025580842 -0.052211188 0.051164262 0.040574197 -0.057909053
-0.050232813 0.057136152 -0.038832225 -0.022131795 -0.04930439 0.008763821 -0.0240904 -0.0037834542
0.025116656 -0.07023793 0.03915435 -0.048697963 0.04494816 0.021734959 -0.0022357453 0.012718695
-0.014836839 0.06822157 0.006596054 0.010818518 -0.024930032 -0.045388885 -0.05187464 -0.055144966
0.0074541857 0.0098856045 -0.015562639 0.0017442829 0.027474698 0.031417873 0.044461917 0.06930768
0.1424061 -0.049122952 -0.014213507 0.03307652 0.054659452 0.0852774 -0.005302115 0.041145165
0.017164716 -0.033723917 0.011983511 -0.026222475 0.016148737 0.051489323 0.021981673 -0.0170891
0.06267081 -0.029733097 0.06891125 0.059412956 -0.017489497 -0.014392568 -0.031337902 -0.012784166
0.051725198 0.058531515 0.070536904 0.0036581107 -0.0012099983 -0.028708914 0.02274622 -0.032172617
-0.0036808995 0.0379113 -0.046912923 0.0391845 -0.04789547 0.02725312 -0.06326216 0.07821589
-0.026987437 -0.061200846 -0.02656606 0.08279774 0.05550441 0.04512211 0.032506876 -0.052614287
-0.027318088 0.004903246 0.015730953 0.002528137 0.06474636 0.012468427 0.063634716 -0.037522197
-0.014446737 0.10727158 0.023099154 -0.006921292 0.0024081785 -0.02189526 -0.06853943 0.018264242
-0.015712697 0.066636756 -0.011547146 0.037597843 -0.06578418 0.0049457587 0.019816283 -0.05817669
-0.01963633 0.0072710468 -0.02715401 0.081013635 0.038760737 -0.02041254 0.08556703 0.04692403
0.036911886 0.060114145 -0.030166626 -0.059765987 0.04943197 0.0083153285 -0.019550689 -0.035890255
-0.052144818 0.06343198 0.029258057 0.0014075275 0.010064188 -0.026847642 0.046456367 -0.04039513
-0.07504606 -0.03760247 0.01963132 0.030616082 0.008600718 -0.025080224 -0.018587103 -0.03510695
0.05667599 -0.06779184 0.029918019 -0.025728233 -0.042991083 -0.0533817 -0.018800898 0.01678928
0.026912423 8.122797e-05 -0.07644315 -0.032607757 0.02934914 0.098535135 0.040080305 0.08739451
-0.0022605334 -0.006309952 -0.07408297 0.082933895 -0.0150063615 -0.07218277 0.01344602 -0.07276981
-0.020880098 0.053488184 -0.022336697 0.0137280375 0.08178293 0.003471927 -0.03303802 0.030529046
-0.072425775 0.023486346 0.058263436 -0.04571882 -0.07342834 0.017692044 -0.036268316 0.02218697
-0.045403585 0.05544924 0.019282376 -0.030499091 -0.03120781 -0.050444312 0.009340455 -0.07708499
-0.03937621 0.038635522 0.059830472 0.08054274 0.046546414 -0.015526257 0.038245175 -0.016575092
0.028239267 0.013437338 0.019199086 0.022428777 -0.03166196 0.017537467 0.039138887 0.03291377
0.032794498 0.007532872 -0.0067628715 0.02432827 0.025292804 0.055618457 -0.007972397 0.077876955
0.011106556 -0.08273501 0.044891372 0.0782282 -0.001945518 -0.031362586 -0.06786715 -0.013774086
0.0051992433 0.07293928 -0.0031155976 -0.0007715138 0.011319625 0.058042493 -0.014523156 0.08211805
0.009513161 0.01855051 -0.06003631 -0.015366022 0.032754656 -0.047868546 -0.03370648 0.027791439
-0.04205109 0.05981297 -0.07529803 -0.01816754 0.009628098 -0.012950645 0.017832689 0.065401815

deconv3.0.bias f4 [8]
00000000: c598 843b 685e 7f3d 16bb 9b3d cfaf a9bc
00000010: b6e7 6f3d 7f69 cf3b b42a 5a3d db1a 09bd
0.004046532 0.062345892 0.07604043 -0.020713715 0.058570586 0.006329715 0.05326338 -0.033472877

deconv3.1.weight f4 [8]
00000000: d9ec 923f c329 943f 6721 953f df20 923f
00000010: 727c 953f 100c 923f 8d1f 953f 9806 963f
1.147853 1.1575245 1.1650819 1.1416281 1.1678603 1.1409931 1.1650254 1.1720762

deconv3.1.bias f4 [8]
00000000: ab9c 173e ea98 1e3e d530 2a3e 9235 0e3e
00000010: 2e52 2b3e c554 0e3e 3c45 2a3e 0074 2f3e
0.14805858 0.1548802 0.1662019 0.13887623 0.16730568 0.13899525 0.16627973 0.17134094

deconv3.1.running_mean f4 [8]
00000000: 039e d3bc ea58 46be b3ed 3abb f1d6 14be
00000010: 0e5b c83d cda1 91b9 1db2 9cbb c8fb 2abe
-0.025832182 -0.19369856 -0.0028523027 -0.14535119 0.09782992 -0.00027777106 -0.004781975 -0.1669761

deconv3.1.running_var f4 [8]
00000000: 61b5 f73d 2fe1 1d3e 42e6 143e e522 163e
00000010: 726f 653e 9217 423e ee25 2d3e 39a6 583e
0.12095142 0.15417932 0.14540961 0.14661749 0.22405794 0.18954304 0.16909 0.21157159

deconv4.0.weight f4 [8, 3, 4, 4]
00000000: 843f 463d 6e1c 9bba 28be 34bc e02e 70bc
00000010: 12e6 593d 066e d839 7248 603e cd8f 063e
00000020: 6b7d 343e 0786 493e 8de5 503e 9919 203e
00000030: 0f8a 353d 724c c53d 2f57 fe3d 70c4 5a3e
00000040: fbb5 51be 18a0 cfbc d7b6 a7bc 59ab a6bd
00000050: 6ad7 0f3d 8765 57be 90ea c0bd 9b12 23be
00000060: f086 c6bd 4cfd 06be 97e8 56be dea4 71bd
00000070: fca7 abbc da98 37be 3c91 4dbe d7fb 62be
00000080: 3911 d8ba 8203 92bc 00b2 38bd b4ed 993b
00000090: 31dd ee3c c949 5abe 3397 fabd 02fb 4dbd
000000a0: 5a2e 51be 689e 82be de97 62be 9f1e 203c
000000b0: b7fa eabd bf24 0bbe 50ac 6cbe 3438 38be
000000c0: bcad 863d 8e2f aa3c 3409 8c3d a814 9ebc
000000d0: fe03 72bd d17e 993d c9c1 323e 68c7 233d
000000e0: f8f7 123e 95de 803d f737 203e 4bc8 bd3d
000000f0: b547 29bd c03d 1d3e 356b 95bd a600 883d
00000100: 9776 9e3c 304b 68be a69b 72be 1eed ddbd
00000110: f673 72be e80f 09be 1cb7 28be d4a8 8ebc
00000120: 4a57 3dbe 29d9 ceba f4db eebd 3eb6 5abc
00000130: 3a22 56bd 2f5d 61be b278 09bd 4e41 0cbe
00000140: b43a 163d 8799 61be 0c44 773c 8f4c b8bd
00000150: 82e1 0bbe 0e70 28be f755 74be 7726 56be
00000160: 3f73 27be 554a 6fbe 7590 93bd 55be 5cbe
00000170: 7f5a f93c 6100 c3bd cd94 52bd 67ab cdbd
00000180: 919b 1d3e 8e0a 773d a34e 87bb cf84 d63d
00000190: c7b6 273e aca7 a93d 1a41 0a3e 7c8d 1d3d
000001a0: 0f49 113e 8e61 57bd c5cb 043e 3124 933d
000001b0: 3303 543a 9c53 6e3d 2da1 e93d 920c d43d
000001c0: 584a 65bd b848 c6bd 3632 a6bd d08a 94bd
000001d0: 65e1 82be 9865 55bc 792b 55be a7ab 46be
000001e0: fc33 2ebc 4ff2 06bd 9fe5 cebd 8345 c8bd
000001f0: 4b16 79be 1e8a c2bd e38e 8bbc f01c 96bd
00000200: aa42 81bd c8ff 0d3c 2563 63be 43a3 dcbd
00000210: 7d3d dcbd 0312 24be 5f07 2dbe a2f4 5cbe
00000220: affd 24bd a005 c2bd 2153 eebd 4314 17bd
00000230: 4378 83bd 82d1 36be d856 d13c b484 55be
00000240: 0121 fb3d a246 a1bb d9b3 073e c15d 113e
00000250: e82f 3c3d 9080 a33d b114 4b3d 7d5b 353d
00000260: d126 ac3d 73dd a1bd 8515 b43d 692d 1e3e
00000270: 1e8e 213e 6344 343d 3be4 f53d af37 d83d
00000280: 79a7 57be e2a2 d2bd 560e 8a3c 1771 f53c
00000290: 65eb 85bc a179 cabd bd33 b0bd 234c 29be
000002a0: 0fce 4abe d0a9 80be 12f7 7ebd ca3d 09be
000002b0: 801d 72be cd43 29be 4658 41be 96d9 3bbe
000002c0: 7e71 0bbe 1cf2 57be d0b7 41bd 31c8 86bc
000002d0: 022d d1bd da25 efbc 5a5b e2bd 3128 8dbd
000002e0: 577f 11be 98f4 c4bd 6245 88bc d59c 18be
000002f0: 7521 76be 9d63 62be c047 1dbe f050 06be
00000300: 90b5 4abd 30a8 043e 01ad cc3c 2cf0 533e
00000310: 7adc 3dbd 9429 313e 7a98 8b3d e9e4 51bc
00000320: fb45 5e3e 8f2b 073e 7f7a 80bd 9e06 9f3d
00000330: 38d9 743d 9a1a 1c3e 261a d03d 75da be3c
00000340: b2bd eabd eafe e2bd 848c 0abe 592e 6ebe
00000350: 2e47 d4bd 3749 4f3b 27a8 0bbe ff44 25be
00000360: 909d 5bbe 3759 11be db9a 52be b615 4abe
00000370: eaab 6bbe 353c 45bd 94bf 00be c5f7 89bd
00000380: cd24 72bd f7f1 17be 0634 4abe a6ad c9bc
00000390: 974a 0fbe 739f babd b0a6 463b ca7e b6bd
000003a0: 39b4 ccbb 08a2 20be 79a0 dfbd 7c1f 37bd
000003b0: b827 04be 9af7 7dbd 4396 bc3c d620 25be
000003c0: 462f 7e3d 6f0a 213e 7398 d43c cf05 033e
000003d0: 10db bc3c bd74 11bc 6c69 363e 185b 103e
000003e0: 1a9a 393d ce17 dd3d 09bc f53d b05f 193e
000003f0: 39bd 593e 4361 eebc e7e9 d43d 093b 603d
0.048400417 -0.0011834034 -0.011031665 -0.014659613 0.053197928 0.00041280704 0.21902636 0.13140793
0.17625968 0.19680034 0.20400067 0.15634765 0.044321116 0.096337214 0.12418973 0.21363997
-0.20479576 -0.025344893 -0.020472927 -0.08138151 0.035117544 -0.21034823 -0.09419739 -0.15925066
-0.09693706 -0.13182563 -0.20987163 -0.05899512 -0.020954125 -0.17929402 -0.20074934 -0.22166382
-0.0016484625 -0.017823938 -0.04509163 0.004697526 0.029158207 -0.2131721 -0.1223587 -0.050288208
-0.20427838 -0.2551148 -0.22128245 0.009772926 -0.11473601 -0.13588236 -0.23112607 -0.1799019
0.06576106 0.020774629 0.06837693 -0.019296959 -0.05908584 0.074948914 0.17456736 0.03998509
0.14352405 0.06292454 0.15646349 0.092667185 -0.04132815 0.15355587 -0.07295839 0.06640749
0.019343657 -0.22684932 -0.23692188 -0.10836242 -0.23677048 -0.13384974 -0.164761 -0.017414488
-0.1849033 -0.0015781272 -0.116630465 -0.013349114 -0.052278735 -0.22008203 -0.03356237 -0.13696787
0.036677077 -0.22031222 0.015091907 -0.089989774 -0.13660243 -0.16448995 -0.23860918 -0.2091311
-0.16352557 -0.23368199 -0.07205287 -0.21556981 0.03043866 -0.09521557 -0.05141144 -0.10042458
0.15391375 0.0603128 -0.0041292473 0.1047455 0.16378318 0.08283934 0.13501397 0.03846501
0.14188026 -0.05258327 0.12968357 0.07184637 0.0008087635 0.058185205 0.11407695 0.1035396
-0.055979103 -0.09681839 -0.08115046 -0.07253039 -0.25562587 -0.01302471 -0.20817365 -0.19401418
-0.010632511 -0.032945927 -0.101023905 -0.09778883 -0.2432491 -0.09499 -0.017035907 -0.07329738
-0.06311543 0.00866694 -0.2220579 -0.10773327 -0.107539155 -0.16022496 -0.16897343 -0.21577695
-0.040280994 -0.09473729 -0.11636949 -0.036884557 -0.064194225 -0.17853358 0.025554106 -0.20851403
0.12262154 -0.00492175 0.132522 0.1419592 0.045944124 0.07983506 0.04958028 0.044276703
0.08405841 -0.07903566 0.08793167 0.1544701 0.1577687 0.04401053 0.12006422 0.10557496
-0.2105998 -0.10284974 0.016852539 0.029961152 -0.016347596 -0.0988648 -0.08603618 -0.1653295
-0.19805168 -0.25129557 -0.062247343 -0.13402477 -0.23644066 -0.1652977 -0.1888133 -0.18344721
-0.13617513 -0.21088451 -0.047294438 -0.01645288 -0.10213663 -0.029192854 -0.1105258 -0.068924315
-0.14208733 -0.09616965 -0.016634647 -0.14903577 -0.240362 -0.22108312 -0.15359402 -0.13116813
-0.049489558 0.12954783 0.024984838 0.20697087 -0.04635284 0.17301017 0.06816192 -0.012810924
0.21706383 0.1320021 -0.06273364 0.07764934 0.05977747 0.15244523 0.101612374 0.023297528
-0.11461963 -0.11083777 -0.13530165 -0.23259868 -0.10365139 0.0031629333 -0.13638364 -0.16139601
-0.21446824 -0.14194189 -0.20566885 -0.19734845 -0.23014799 -0.04815312 -0.12573081 -0.067367114
-0.059117127 -0.14838396 -0.19746408 -0.024618935 -0.13993298 -0.09112444 0.0030311756 -0.08910902
-0.00624707 -0.1568681 -0.109192796 -0.04470776 -0.12905777 -0.06200371 0.02302087 -0.16125807
0.062056802 0.15726636 0.0259516 0.12795185 0.023053676 -0.00887793 0.17813653 0.1409725
0.04531298 0.10795556 0.119987555 0.14977908 0.21263589 -0.029099112 0.10396176 0.0547438

deconv4.0.bias f4 [3]
00000000: a6d4 82bd 6311 ffbc f43a 66be
-0.06388216 -0.03113622 -0.22483426
