Pix2Pix/checkpoints/pix2pix_model_epoch_40.pth (torch, 99150 bytes, 32 tensors)

conv1.0.weight f4 [8, 3, 4, 4]
0.12537466 0.123135805 -0.078318775 0.14837356 0.0675899 0.010698217 -0.06955914 0.10515442
-0.07089759 0.008183793 0.031100739 -0.0065189647 0.11921403 0.096624635 -0.13458775 -0.15290403
-0.06956966 0.07501074 -0.001939934 0.1454675 -0.081267044 -0.06603294 0.15766306 -0.100396305
-0.1430977 -0.11549644 -0.0926811 -0.13646227 -0.113252 -0.01183842 0.09349039 -0.120117836
0.05047485 0.10729362 -0.08641475 -0.12771916 -0.08194042 -0.016935956 0.11276765 -0.04190909
-0.047914755 -0.07396111 -0.11767942 0.03275278 0.109491214 -0.08757531 0.14657627 -0.008215437
0.0026284843 0.012385623 -0.07025992 0.13630137 0.11876659 0.06608273 0.104916394 0.013677429
-0.0025006747 -0.09204089 -0.113233425 0.09706925 -0.07089886 0.022799907 -0.09232546 0.13581908
-0.03347698 -0.067188054 0.12520352 -0.12460503 -0.056176163 -0.11549459 0.05810838 -0.034273945
-0.008647808 0.04197725 0.045608655 0.11496559 0.05773708 -0.1323826 -0.12085155 0.05176164
0.033070456 0.07881021 -0.120267056 -0.13214391 0.10539077 -0.0660127 -0.0028448054 -0.054063816
-0.035400443 -0.08969872 -0.109716326 0.070860386 -0.027035378 -0.021062844 -0.104250595 0.062798314
0.102460735 -0.07919627 0.024916304 0.14633922 -0.12284968 -0.09441542 -0.08274166 0.038239907
-0.12984465 -0.09368622 0.0058721122 -0.035864186 0.1130992 -0.09191637 0.053432737 0.11433989
0.13008407 -0.12793626 0.07149908 -0.10142636 0.12867501 -0.0667488 0.009215953 0.14302033
-0.0962725 0.012312516 0.033919454 0.14152224 0.11616514 -0.007925998 -0.0149892345 0.10816717
0.015364426 0.03285777 -0.14958046 0.02993525 0.07203878 -0.109735884 0.12632993 -0.04549073
0.11246154 -0.018748624 0.06903136 0.08127257 -0.09590202 -0.09386736 -0.13264497 -0.0487692
-0.038792007 0.03299482 -0.019614488 -0.07625785 -0.13129444 -0.114097126 0.07011208 0.11907366
0.0750267 0.062142372 0.0038066413 0.10599268 0.07041637 -0.09149566 0.09106184 -0.086113065
-0.024018275 0.107259914 -0.1429371 -0.07809105 -0.09394431 0.043735925 -0.13493127 -0.08052408
-0.012396756 0.005828627 -0.024861654 -0.06791387 0.024555612 0.16480775 0.08009605 0.014673892
-0.1314846 0.09541194 0.02597912 0.059368853 -0.037450705 0.10837572 0.036647383 0.1370279
0.11574885 0.058836263 0.012832814 0.07381625 0.10484037 -0.09496966 0.05812517 0.0905406
0.17153637 0.15689686 0.16940202 -0.025780307 0.03128544 0.07027205 -0.10377462 0.057460263
0.07558427 -0.08762428 -0.040617168 -0.032196578 0.08826555 -0.08806269 0.10136835 0.037443098
0.028249195 -0.05287469 0.121630296 -0.13497484 -0.12592982 -0.04831254 0.025846303 0.058315568
0.12459586 -0.09134922 -0.11738806 -0.13811955 -0.09125534 0.14078468 0.08018451 0.080266744
0.14468925 0.056681294 -0.08450512 0.052982 -0.103523806 0.008162839 0.0925715 0.02919923
-0.031005586 -0.003348828 0.03705097 0.09436483 -0.12291246 0.008519526 0.08203253 -0.02600721
0.12290304 -0.009795515 0.00017806048 0.031852674 -0.017948184 0.14305273 0.04373484 0.03476934
-0.04713264 -0.023947412 -0.09321573 -0.02452998 0.087724976 -0.06568665 0.07772047 -0.1178148
00000000: 3762 003e a02e fc3d 9865 a0bd 3def 173e
00000010: 936c 8a3d 9347 2f3c 0675 8ebd 335b d73d
00000020: c132 91bd 5115 063c fac6 fe3c 0a9d d5bb
00000030: 7c26 f43d 23e3 c53d 5fd1 09be e092 1cbe
00000040: 8a7a 8ebd 3b9f 993d 6245 feba 6ff5 143e
00000050: 566f a6bd 473c 87bd 6d72 213e 949c cdbd
00000060: 3488 12be 6689 ecbd 97cf bdbd c4bc 0bbe
00000070: aaf0 e7bd eff5 41bc e477 bf3d 5700 f6bd
00000080: b7be 4e3d c2bc db3d 37fa b0bd d0c8 02be
00000090: 61d0 a7bd 46bd 8abc baf2 e63d dea8 2bbd
000000a0: 4342 44bd ec78 97bd e801 f1bd c727 063d
000000b0: ee3c e03d af5a b3bd 1718 163e 0a9a 06bc
000000c0: a642 2c3b 11ed 4a3c 6fe4 8fbd 9692 0b3e
000000d0: e63b f33d 6256 873d 68de d63d 4c17 603c
000000e0: 5ce2 23bb ef7f bcbd ede6 e7bd 3ecc c63d
000000f0: 6c33 91bd dfc6 ba3c 2115 bdbd 2814 0b3e
00000100: 281f 09bd e499 89bd 5a35 003e ec30 ffbd
00000110: fa18 66bd 6d88 ecbd 0d03 6e3d d662 0cbd
00000120: 89af 0dbc 56f0 2b3d 24d0 3a3d 1473 eb3d
00000130: b77d 6c3d 4e8f 07be 0481 f7bd 0304 543d
00000140: e374 073d 3f67 a13d 934e f6bd bc50 07be
00000150: 1ed7 d73d ab31 87bd ea6f 3abb 0572 5dbd
00000160: 0e00 11bd f6b3 b7bd f4b2 e0bd 401f 913d
00000170: 4c79 ddbc fc8b acbc 5681 d5bd 679c 803d
00000180: efd6 d13d a731 a2bd 471d cc3c f3d9 153e
00000190: 9d98 fbbd df5c c1bd 7674 a9bd 73a1 1c3d
000001a0: fff5 04be 90de bfbd d96a c03b 53e6 12bd
000001b0: 8ea0 e73d a63e bcbd 49dc 5a3d 082b ea3d
000001c0: c234 053e b901 03be 1c6e 923d a0b8 cfbd
000001d0: 62c3 033e 98b3 88bd 82fe 163c ec73 123e
000001e0: 842a c5bd 6fba 493c 20ef 0a3d 35eb 103e
000001f0: fde7 ed3d 0cdc 01bc 6895 75bc c086 dd3d
00000200: 13bb 7b3c de95 063d 9f2b 19be c53a f53c
00000210: 1189 933d 35bd e0bd a25c 013e 7d54 3abd
00000220: 3c52 e63d b796 99bc 5060 8d3d 3c72 a63d
00000230: 4768 c4bd 883d c0bd 15d4 07be 36c2 47bd
00000240: 5ee4 1ebd 9425 073d 90ae a0bc 132d 9cbd
00000250: 0d72 06be c1ab e9bd ec96 8f3d e4dc f33d
00000260: 99a7 993d 0089 7e3d d878 793b b112 d93d
00000270: 7536 903d 1462 bbbd a17e ba3d 0c5c b0bd
00000280: f9c1 c4bc 16ab db3d 1a5e 12be 33ee 9fbd
00000290: e065 c0bd 7124 333d 6c2b 0abe cfe9 a4bd
000002a0: c31b 4bbc 11fe be3b abaa cbbc 6d16 8bbd
000002b0: da28 c93c 5dc3 283e 6609 a43d c46a 703c
000002c0: e6a3 06be 5667 c33d 2ad2 d43c c12c 733d
000002d0: e965 19bd 17f4 dd3d 911b 163d 0b51 0c3e
000002e0: bc0d ed3d 4bfe 703d b940 523c f92c 973d
000002f0: 8cb6 d63d 747f c2bd a914 6e3d 5a6d b93d
00000300: 3ba7 2f3e 92a9 203e b977 2d3e 3931 d3bc
00000310: 2925 003d cbea 8f3d ca87 d4bd 745b 6b3d
00000320: edcb 9a3d 5c74 b3bd 305e 26bd 8fe0 03bd
00000330: 92c4 b43d 365a b4bd 369a cf3d ef5d 193d
00000340: db6a e73c 2293 58bd 4e19 f93d d836 0abe
00000350: bff3 00be 5fe3 45bd a0bb d33c 4edc 6e3d
00000360: 1d2c ff3d 4d15 bbbd 2769 f0bd 366f 0dbe
00000370: 14e4 babd dc29 103e c737 a43d e462 a43d
00000380: 6b29 143e a52a 683d 0511 adbd a703 593d
00000390: 4a04 d4bd 6ebd 053c 2096 bd3d 3933 ef3c
000003a0: 6dff fdbc 0378 5bbb c2c2 173d 5942 c13d
000003b0: 87b9 fbbd 7b95 0b3c ac00 a83d 130d d5bc
000003c0: 97b4 fb3d 5e7d 20bc bfb5 3a39 f377 023d
000003d0: 1208 93bc 6a7c 123e 4e23 333d 4c6a 0e3d
000003e0: 280e 41bd 5d2d c4bc e3e7 bebd 19f3 c8bc
000003f0: 27a9 b33d b986 86bd e92b 9f3d e348 f1bd

conv1.0.bias f4 [8]
-0.06259977 -0.11298597 0.10852157 -0.08045962 0.13860607 -0.091767855 0.108327985 0.03999355
00000000: 4f34 80bd 3065 e7bd 8f40 de3d 03c8 a4bd
00000010: c0ee 0d3e c9f0 bbbd 10db dd3d 47d0 233d

conv1.1.weight f4 [8]
1.0071064 0.9941908 0.9969276 0.9866688 1.0014871 1.0153741 1.0197002 0.97628796
00000000: dde8 803f 4a83 7e3f a636 7f3f 5496 7c3f
00000010: bb30 803f c7f7 813f 8985 823f 02ee 793f

conv1.1.bias f4 [8]
-0.010837618 -0.014228024 -0.017982908 -0.0004538967 -0.02635459 0.018356962 0.019309832 -0.025351034
00000000: 4490 31bc a81c 69bc e450 93bc fcf8 edb9
00000010: 95e5 d7bc 5761 963c a72f 9e3c f9ac cfbc

conv1.1.running_mean f4 [8]
-0.056141872 -0.11199212 0.0882605 -0.09619924 0.055212684 -0.12551327 0.16920647 0.05472296
00000000: 05f5 65bd 205c e5bd ecc1 b43d 1b04 c5bd
00000010: b226 623d 8d86 00be 7644 2d3e 2f25 603d

conv1.1.running_var f4 [8]
0.069416486 0.055160165 0.039816495 0.081838615 0.113409884 0.055522926 0.06779219 0.02235926
00000000: 3b2a 8e3d a0ef 613d 9f16 233d 019b a73d
00000010: 7143 e83d 026c 633d a2d6 8a3d c42a b73c

conv2.0.weight f4 [16, 8, 4, 4]
0.073063314 0.04946634 -0.05640495 -0.044933833 0.06956866 0.07654187 -0.024182288 0.051234186
-0.035023663 -0.045790803 0.05960663 0.06400945 -0.028064735 0.054165997 0.03700623 0.08665172
0.042994782 -0.021444585 0.09165753 0.0575795 -0.05171148 -0.013121537 -0.06760371 0.00012180227
0.06257469 -0.070567444 -0.062826194 -0.03854829 -0.047354557 0.025184885 0.0958686 0.084304236
-0.016561775 -0.070257306 -0.056016248 -0.020567672 0.08833511 0.036951188 0.0050296257 0.06555632
0.024955716 0.04528292 0.086073376 -0.042683236 0.055886343 0.03900373 -0.056433696 -0.043378983
-0.032608625 -0.03882447 0.03323461 -0.0061431667 -0.04297016 -0.06990899 0.08298587 0.013097042
0.053476397 0.032147564 0.04104594 0.017715825 -0.0700099 0.068110265 -0.064654864 0.0019745752
-0.023013968 0.046098046 -0.049152862 0.05034438 -0.06639192 -0.038672287 -0.0046789357 0.062473904
0.040054988 0.057294935 -0.03944845 0.097835466 0.052423347 0.08351086 0.06963924 0.0044193757
-0.0031085794 -0.0045447443 0.076122925 0.07848596 0.078676715 0.017631847 0.017266959 0.0132482
0.027569491 -0.064679764 -0.054939926 0.046681624 0.08121104 0.044874106 -0.03612477 -0.029725146
-0.0766536 0.035846073 0.018804053 0.021025164 0.061829142 -0.030062985 -0.0074115703 -0.050613545
0.04033934 -0.03945167 0.091886334 -0.006256325 0.04560596 0.07346152 -0.013399642 0.021814791
-0.007779952 0.023918634 -0.073627114 0.06877847 -0.06590866 0.047176536 0.0178199 -0.02069401
-0.06861433 0.0022764686 -0.07484762 -0.06070558 -0.031662084 0.0051801135 -0.06627265 -0.03906164
-0.041338213 -0.016627248 0.070780315 0.08058494 -0.07014476 0.0072509344 -0.04034797 -0.07872956
0.089163415 0.039484818 0.05272483 -0.013727552 -0.076619245 0.05221556 -0.017985512 0.00043654634
0.007431017 0.070837446 -0.021554159 0.047920115 0.037467014 0.025372311 -0.036318522 0.036834013
0.058731873 0.054342516 0.058386255 0.025734255 -0.03190076 -0.0073385215 0.03422976 0.055318296
0.08848072 0.0746171 0.014247432 0.028964423 -0.028198596 -0.059354406 -0.100412086 -0.073429875
-0.12193891 0.022394482 -0.005227481 -0.09041025 0.0064030904 0.030956365 -0.009379206 -0.020315982
0.08322248 -0.008311735 0.06912032 -0.031391516 -0.0045238133 -0.029089196 -0.004365069 0.07163237
-0.041056886 -0.07575798 0.026578594 0.03802134 0.07821942 -0.036803626 0.050072297 0.0044070585
-0.0009773899 -0.015996424 0.002410636 0.013460424 0.015067881 -0.009922235 -0.06551585 0.021318732
0.06433049 0.071297035 -0.023537215 -0.05628327 -0.060911655 0.02151107 -0.0699681 0.0252758
-0.034221593 0.08801204 0.048326403 0.057058983 -0.06107338 0.08319088 0.08191536 0.09233503
0.00880858 -0.07780707 -0.07067989 0.030432038 -0.06668188 -0.10190241 -0.10949148 -0.006846082
0.08263815 0.036366254 -0.05289293 0.05014745 -0.024217512 0.0045793406 0.050491087 2.9461502e-05
-0.012778514 -0.0062440992 -0.05897803 0.069263235 0.08735143 0.042755965 -0.020599158 0.031447627
0.017330322 0.035921857 0.070386186 -0.02284806 0.05353855 -0.0061800624 0.08649424 0.04408722
0.016777208 -0.028209371 -0.06367724 -0.038733132 -0.014822756 0.0066288 -0.0027565688 -0.004053975
00000000: 38a2 953d 389d 4a3d e008 67bd 8a0c 38bd
00000010: 037a 8e3d fcc1 9c3d ef19 c6bc f0da 513d
00000020: f974 0fbd 238f 3bbd 1526 743d 6317 833d
00000030: 04e8 e5bc 2add 5d3d d893 173d 7576 b13d
00000040: 4c1b 303d 8eac afbc f1b6 bb3d 7bd8 6b3d
00000050: 6bcf 53bd b7fb 56bc d073 8abd 1970 ff38
00000060: 2927 803d aa85 90bd 05ab 80bd d0e4 1dbd
00000070: daf6 41bd 8850 ce3c c256 c43d b3a7 ac3d
00000080: 8fac 87bc 10e3 8fbd 4b71 65bd 897d a8bc
00000090: 0ae9 b43d 215a 173d 8fcf a43b 6442 863d
000000a0: ee6f cc3c 957a 393d 3d47 b03d 9ed4 2ebd
000000b0: 14e9 643d 60c2 1f3d 0527 67bd 29ae 31bd
000000c0: 9f90 05bd 6806 1fbd 0421 083d 9e4c c9bb
000000d0: 7a01 30bd 722c 8fbd 7ff4 a93d fa94 563c
000000e0: 110a 5b3d 2aad 033d ca1f 283d c720 913c
000000f0: 5a61 8fbd 657d 8b3d c569 84bd e067 013b
00000100: ca87 bcbc 4ed1 3c3d 8354 49bd e935 4e3d
00000110: 7df8 87bd d566 1ebd c251 99bb a3e4 7f3d
00000120: b310 243d 18ae 6a3d b394 21bd f65d c83d
00000130: ddb9 563d be07 ab3d 059f 8e3d 69d0 903b
00000140: 4fb9 4bbb 14ec 94bb 56e6 9b3d 3fbd a03d
00000150: 4221 a13d aa70 903c 7073 8d3c fa0e 593c
00000160: 6ad9 e13c d376 84bd b008 61bd 3b35 3f3d
00000170: f951 a63d e9cd 373d 91f7 13bd 2682 f3bc
00000180: 90fc 9cbd 55d3 123d f50a 9a3c f73c ac3c
00000190: 8e40 7d3d a646 f6bc c2dc f2bb 2650 4fbd
000001a0: dd3a 253d 1398 21bd e72e bc3d dc01 cdbb
000001b0: 51cd 3a3d fe72 963d 2c8a 5bbc efb4 b23c
000001c0: f8ee febb 03f1 c33c d0c9 96bd badb 8c3d
000001d0: 1ffb 86bd 2f3c 413d 0afb 913c 7c86 a9bc
000001e0: ab85 8cbd ce30 153b b649 99bd 6aa6 78bd
000001f0: 1ab0 01bd f1bd a93b f5b9 87bd 19ff 1fbd
00000200: 4252 29bd de35 88bc 45f5 903d b809 a53d
00000210: 0ea8 8fbd 3f99 ed3b ea43 25bd f73c a1bd
00000220: 4f9b b63d d5ba 213d fef5 573d 87e9 60bc
00000230: 8dea 9cbd fcdf 553d 5a56 93bc 42e0 e439
00000240: e37f f33b 3913 913d 5992 b0bc e247 443d
00000250: 0377 193d 98d9 cf3c bbc2 14bd 43df 163d
00000260: d590 703d 4296 5e3d 6d26 6f3d a5d0 d23c
00000270: 5faa 02bd fb77 f0bb 8134 0c3d 7095 623d
00000280: 6135 b53d dad0 983d 106e 693c cc46 ed3c
00000290: be00 e7bc 9b1d 73bd daa4 cdbd 6762 96bd
000002a0: 1bbb f9bd a274 b73c 4a4b abbb 0229 b9bd
000002b0: 04d1 d13b 3498 fd3c 3eab 19bc b46d a6bc
000002c0: 8c70 aa3d f12d 08bc f48e 8d3d 6494 00bd
000002d0: 7f3c 94bb 774c eebc da08 8fbb feb3 923d
000002e0: 442b 28bd 0027 9bbd 5abb d93c 44bc 1b3d
000002f0: 8131 a03d 66bf 16bd 9c18 4d3d 1669 903b
00000300: c31b 80ba ef0a 83bc c3fb 1d3b 1c89 5c3c
00000310: 46df 763c df90 22bc 2d2d 86bd 9fa4 ae3c
00000320: b4bf 833d 2e04 923d 1ed1 c0bc 4989 66bd
00000330: 807e 79bd fc37 b03c 6f4b 8fbd 320f cf3c
00000340: f12b 0cbd a83f b43d e8f1 453d aeb6 693d
00000350: 1528 7abd fb5f aa3d 3ec3 a73d 261a bd3d
00000360: dd51 103c 5059 9fbd 9ec0 90bd 9c4c f93c
00000370: 8290 88bd 36b2 d0bd 123d e0bd 1955 e0bb
00000380: 313e a93d c8f4 143d 42a6 58bd 6a67 4d3d
00000390: ce63 c6bc 4b0e 963b becf 4e3d 1824 f737
000003a0: f95c 51bc 4d9b ccbb f292 71bd e2d9 8d3d
000003b0: 4ee5 b23d e120 2f3d 91bf a8bc 3acf 003d
000003c0: 52f8 8d3c cc22 133d a226 903d db2b bbbc
000003d0: 3d4b 5b3d 1f82 cabb e423 b13d cd94 343d
000003e0: 5b70 893c 5717 e7bc 3669 82bd a2a6 1ebd
000003f0: 25db 72bc 6836 d93b 8da7 34bb 35d7 84bb

conv2.0.bias f4 [16]
0.046139136 0.047660846 -0.07160883 0.048703577 0.05685179 -0.071254194 0.056940086 -0.028176399
0.035074376 0.0060107503 0.025837697 0.037901502 -0.06973096 0.079243295 -0.047090586 0.05482571
00000000: 64fc 3c3d 0538 433d a6a7 92bd 677d 473d
00000010: 6cdd 683d b8ed 91bd 023a 693d 31d2 e6bc
00000020: 26aa 0f3d d4f5 c43b 94a9 d33c 9b3e 1b3d
00000030: 1bcf 8ebd 4f4a a23d 0fe2 40bd ec90 603d

conv2.1.weight f4 [16]
0.99419224 0.99348295 1.0033917 1.0031418 1.0203098 1.0027293 1.0230123 0.9932169
1.0076605 0.98619866 1.0045986 0.99217135 1.0224321 0.9725288 1.0015819 0.9978385
00000000: 6283 7e3f e654 7e3f 246f 803f f366 803f
00000010: 8399 823f 6f59 803f 11f2 823f 7643 7e3f
00000020: 05fb 803f 8477 7c3f b096 803f f1fe 7d3f
00000030: 0edf 823f a6f7 783f d633 803f 5872 7f3f

conv2.1.bias f4 [16]
-0.023660462 -0.010216324 0.0068343855 0.014399206 0.0395702 -0.0069611003 0.030283134 0.01452531
0.017730987 -0.00048616857 0.0043705953 0.006700799 0.021384079 -0.02067604 0.025586894 -0.008136477
00000000: 96d3 c1bc 5e62 27bc fbf2 df3b a6ea 6b3c
00000010: 5d14 223d f119 e4bb 5614 f83c 91fb 6d3c
00000020: 9340 913c 71e4 feb9 3637 8f3b 6092 db3b
00000030: aa2d af3c cc60 a9bc 9b9b d13c dc4e 05bc

conv2.1.running_mean f4 [16]
0.4154328 0.35567796 -0.393709 -0.36493483 -0.2924397 0.1624993 -0.58089405 0.30867225
0.072294384 0.014786282 0.37586704 0.11365188 -0.054586906 0.507745 -0.48224655 0.32589248
00000000: 9cb3 d43e 6c1b b63e 3a94 c9be bdd8 babe
00000010: a8ba 95be 3766 263e 79b5 14bf 4a0a 9e3e
00000020: 140f 943d 2942 723c a571 c03e 51c2 e83d
00000030: 8596 5fbd 94fb 013f 05e9 f6be 61db a63e

conv2.1.running_var f4 [16]
0.14288166 0.2746341 0.12470646 0.17434245 0.14106975 0.17045215 0.2169714 0.19279283
0.16909382 0.101404615 0.40969384 0.26405105 0.08109706 0.1341048 0.42243913 0.17088953
00000000: 924f 123e d79c 8c3e 1a66 ff3d d486 323e
00000010: 9774 103e 028b 2e3e c02d 5e3e 7c6b 453e
00000020: ee26 2d3e 39ad cf3d 64c3 d13e b331 873e
00000030: 3716 a63d c552 093e f149 d83e aafd 2e3e

conv3.0.weight f4 [32, 16, 4, 4]
0.048392873 0.036813755 0.027644163 0.0492341 0.044990078 0.019420441 0.02902655 0.053440567
0.042977117 0.03901731 0.045879945 0.034014855 0.015237549 0.04248067 0.035469986 0.061015274
-0.035129484 0.043226004 0.026538413 -0.033099506 0.032519117 0.060151476 0.03553672 -0.042106178
0.06395026 -0.02559244 0.009446371 -0.030657653 0.019824736 -0.02782608 0.058808893 0.006784553
0.027221052 0.0015731694 0.0381204 0.053674277 0.053404983 0.061078086 -0.00188821 -0.009671805
0.06165216 0.031464137 0.03051205 0.017742824 -0.052026056 -0.029023735 -0.014646133 0.039578937
-0.033068575 0.028724067 -0.02016223 -0.008576778 -0.013408586 -0.04026481 -0.002908134 -0.013320219
0.010248683 0.008524185 0.028724099 -0.061494198 0.009480831 -0.043940224 0.021641042 0.039348684
-0.014058668 -0.07564945 -0.05523732 -0.020305317 -0.051754884 -0.015180616 0.030459771 0.013651111
0.035608016 -0.009024136 -0.014720933 0.019956082 0.017736822 -0.0045736423 -0.037364002 -0.030446008
0.019961929 -0.0011999295 0.07918002 0.07937761 0.037774812 -0.010571521 -0.010954675 0.011817487
-0.035860304 0.034207936 0.003649591 -0.012012849 -0.0008947496 -0.05177245 0.05045376 0.025231885
0.013204258 -0.017268999 -0.013933818 -0.015211504 0.04864426 -0.030618291 0.058706995 0.017150056
-0.024415683 -0.017174387 -0.030942325 -0.07690446 0.0019822558 0.011294612 0.034568876 0.00019079159
-0.04589752 0.013118905 0.0005145841 -0.020334413 0.05951775 0.052154165 -0.022853065 -0.049229138
0.009478547 0.058980428 0.056829188 -0.030070817 0.014715751 -0.0063904054 0.01339841 0.062433314
-0.00045562664 0.014498086 0.0006669211 0.0026572023 -0.06182724 0.039038643 0.045202132 0.03980934
-0.0018197214 -0.042298984 0.042973608 0.053182017 0.031127203 0.023373721 0.048640806 0.03223277
-0.06005761 -0.05999447 -0.051055335 -0.064707026 0.024146518 -0.04857539 -0.023366643 0.019246656
0.006541646 0.038141318 -0.011967746 0.01143582 0.0025324963 -0.0025177114 -0.029874831 -0.0003626048
0.026318913 0.023939278 0.073401265 -0.0148951085 0.063407965 0.06629224 0.035880726 0.027556412
0.029950507 0.0480855 -0.013392439 0.015716506 0.046861485 0.015205698 -0.03167701 -0.03202467
0.037588518 -0.05091544 -0.03108969 0.027511826 0.042867597 -0.027170243 0.054313973 0.03434108
0.023844065 0.050102387 -0.012530744 0.0073027043 0.047821365 0.051135328 -0.040894043 0.0309403
-0.019009918 -0.025178302 0.010215869 -0.04277459 0.0023285206 0.053316657 -0.036419734 -0.013710606
0.014435493 -0.020493943 -0.0026779766 -0.032663472 -0.024727596 0.017726261 0.013762548 0.036702182
-0.050574243 0.042617712 0.056696154 0.06864196 -0.015745223 0.0053095194 -0.0070869853 0.012728265
-0.020669535 0.040808797 0.036531422 0.042804487 0.029160887 -0.0049309707 0.065719366 -0.026863646
0.00885964 -0.019587602 -0.050300904 0.04223994 0.045965683 0.015741557 -0.024348697 0.0054959273
0.03655952 0.036374934 -0.028848955 0.047369607 0.03209648 0.06744288 0.05331268 0.054845948
-0.029858567 -0.017707575 -0.013461491 -0.038728066 0.060046237 0.011611975 -0.037590485 -0.00034069616
-0.03364631 -0.009573659 -0.043973956 0.03552986 -0.0059669917 0.021027332 0.038138002 -0.0054229335
00000000: 9b37 463d 05ca 163d 0376 e23c b2a9 493d
00000010: 8447 383d 9e17 9f3c 16c9 ed3c 7fe4 5a3d
00000020: c608 303d 9dd0 1f3d 9cec 3b3d 2953 0b3d
00000030: eaa6 793c 3600 2e3d fa48 113d 27eb 793d
00000040: efe3 0fbd c00d 313d 1667 d93c 5993 07bd
00000050: c432 053d 6561 763d f48e 113d 8777 2cbd
00000060: 5bf8 823d 3da7 d1bc f4c4 1a3c c225 fbbc
00000070: 7c67 a23c 85f3 e3bc 98e1 703d f550 de3b
00000080: affe de3c ce32 ce3a 2324 1c3d 8fd9 5b3d
00000090: 2fbf 5a3d 042d 7a3d d07d f7ba 7e76 1ebc
000000a0: fa86 7c3d 8ae0 003d 68f4 f93c 6659 913c
000000b0: 4619 55bd 2fc3 edbc 56f6 6fbc 861d 223d
000000c0: ea72 07bd bc4e eb3c 432b a5bc 9d85 0cbc
000000d0: b0af 5bbc b7ec 24bd 6496 3ebb 0c3d 5abc
000000e0: 18ea 273c 06a9 0b3c cd4e eb3c 57e1 7bbd
000000f0: 7d55 1b3c aafa 33bd 8e48 b13c 162c 213d
00000100: 5456 66bc 19ee 9abd 8740 62bd 5657 a6bc
00000110: eefc 53bd 1eb8 78bc c586 f93c e9a8 5f3c
00000120: b6d9 113d f8d9 13bc 1130 71bc f07a a33c
00000130: d04c 913c 7ede 95bb ff0a 19bd e869 f9bc
00000140: 3387 a33c f446 9dba 2229 a23d ba90 a23d
00000150: c3b9 1a3d 2c34 2dbc 3d7b 33bc 229e 413c
00000160: 41e2 12bd 9f1d 0c3d fa2d 6f3b 8ad1 44bc
00000170: a18d 6aba 590f 54bd 9aa8 4e3d 19b3 ce3c
00000180: ac56 583c b777 8dbc ab4a 64bc ac39 79bc
00000190: 343f 473d 36d3 fabc bf76 703d 467e 8c3c
000001a0: 6603 c8bc 4db1 8cbc c27a fdbc 1680 9dbd
000001b0: bce8 013b 090d 393c 1898 0d3d 3a0f 4839
000001c0: 0aff 3bbd adf0 563c 28e5 063a 5b94 a6bc
000001d0: e2c8 733d 9b9f 553d 5a36 bbbc 7ea4 49bd
000001e0: e84b 1b3c 7695 713d b9c5 683d 1357 f6bc
000001f0: 551a 713c 9b66 d1bb 0185 5b3c 13ba 7f3d
00000200: 2ce1 eeb9 6189 6d3c 51d4 2e3a 7524 2e3b
00000210: 8f3e 7dbd fce6 1f3d df25 393d 1e0f 233d
00000220: b883 eeba b341 2dbd 1805 303d 63d5 593d
00000230: 7afe fe3c 3f7a bf3c 953b 473d 8206 043d
00000240: f8fe 75bd c3bc 75bd 661f 51bd 1e85 84bd
00000250: ebce c53c fdf6 46bd 676b bfbc 2aab 9d3c
00000260: 4e5b d63b 123a 1c3d 5d14 44bc 4e5d 3b3c
00000270: 3df8 253b 3000 25bb 10bc f4bc fe1b beb9
00000280: c39a d73c 4e1c c43c 6753 963d 9d0a 74bc
00000290: 09dc 813d 3ac4 873d abf7 123d fcbd e13c
000002a0: c45a f53c 4df5 443d f66b 5bbc e7bf 803c
000002b0: d4f1 3f3d 5221 793c c1bf 01bd 4d2c 03bd
000002c0: 6bf6 193d b58c 50bd ceaf febc 7b60 e13c
000002d0: ef95 2f3d 2194 debc 5478 5e3d 3ba9 0c3d
000002e0: a154 c33c 2938 4d3d c04d 4dbc 864b ef3b
000002f0: 56e0 433d 4773 513d 8380 27bd 8376 fd3c
00000300: b0ba 9bbc ba42 cebc 7660 273c 6934 2fbd
00000310: 189a 183b 9162 5a3d dc2c 15bd 73a2 60bc
00000320: d982 6c3c eae2 a7bc fe80 2fbb 22ca 05bd
00000330: 8791 cabc aa36 913c 4f7c 613c 0755 163d
00000340: f026 4fbd e98f 2e3d 3a3a 683d 2894 8c3d
00000350: 20fc 80bc 7afb ad3b f139 e8bb 368a 503c
00000360: 2853 a9bc 2027 273d f9a1 153d c253 2f3d
00000370: d0e2 ee3c fb93 a1bb e097 863d 2611 dcbc
00000380: 0628 113c 2e76 a0bc 5208 4ebd ca03 2d3d
00000390: 8346 3c3d 70f4 803c eb76 c7bc 2e17 b43b
000003a0: 6fbf 153d e2fd 143d a554 ecbc a206 423d
000003b0: 9977 033d 7e1f 8a3d 665e 5a3d 25a6 603d
000003c0: f499 f4bc 7a0f 91bc 968d 5cbc 52a1 1ebd
000003d0: 0bf3 753d 2740 3e3c 7bf8 19bd 779f b2b9
000003e0: b7d0 09bd d6da 1cbc 091e 34bd c287 113d
000003f0: c186 c3bb 8341 ac3c 9836 1c3d ddb2 b1bb

conv3.0.bias f4 [32]
0.02718798 0.029267106 0.011016236 -0.0056274575 -0.014504506 0.018872038 -0.061971307 0.0083881095
-0.039734095 0.04138689 0.006612614 0.018102711 0.0006393067 0.052164342 -0.043843493 -0.05038099
-0.054301668 0.029032838 -0.021328066 0.055821832 -0.062188912 -0.033282604 0.04231265 0.018845527
-0.02029821 0.053063907 0.01107732 0.01498105 0.05882532 -0.04661465 -0.0082842065 0.013467358
00000000: 54b9 de3c 92c1 ef3c 717d 343c 8966 b8bb
00000010: 4fa4 6dbc 8899 9a3c a0d5 7dbd 486e 093c
00000020: 38c0 22bd 4d85 293d a0ae d83b 234c 943c
00000030: 2597 273a 47aa 553d 3c95 33bd 4c5c 4ebd
00000040: 6d6b 5ebd 46d6 ed3c 32b8 aebc 6fa5 643d
00000050: cdb9 7ebd 5753 08bd 0750 2d3d ef61 9a3c
00000060: 6f48 a6bc 8a59 593d a67d 353c 1473 753c
00000070: d2f2 703d 01ef 3ebd 7bba 07bc 32a6 5c3c

conv3.1.weight f4 [32]
1.0098759 0.9965858 0.9983007 0.97496104 0.9891384 1.0173786 0.9853919 1.0000296
1.0277925 1.0070559 1.0047029 0.99292654 0.97270244 1.0059116 0.9982203 0.989683
1.0115367 1.0021169 0.986799 1.0086342 1.0127983 1.0116231 0.9911317 0.9972076
0.9828175 1.0040834 0.9876872 1.0187031 0.9921913 1.0014753 1.005141 0.99682873
00000000: 9d43 813f 3f20 7f3f a290 7f3f 0c97 793f
00000010: 2d38 7d3f 7639 823f a542 7c3f f800 803f
00000020: b48e 833f 35e7 803f 1b9a 803f 6f30 7e3f
00000030: 0703 793f b6c1 803f 5e8b 7f3f dd5b 7d3f
00000040: 097a 813f 5e45 803f dc9e 7c3f ed1a 813f
00000050: 60a3 813f de7c 813f cfba 7d3f ff48 7f3f
00000060: ed99 7b3f ce85 803f 11d9 7c3f dd64 823f
00000070: 4000 7e3f 5830 803f 76a8 803f 2b30 7f3f

conv3.1.bias f4 [32]
-0.012337112 -0.0024141765 -0.02001829 -0.016385457 0.0004174957 0.009598116 -0.009385655 0.009030346
0.03832277 0.021169893 0.003565293 -0.016323518 0.025941616 -0.0016195916 0.03745503 0.002774908
0.020929711 -0.0052844845 -0.0026351202 -0.017957905 0.031313565 -0.014822278 0.0034912128 0.017365271
0.020590434 0.009194797 -0.0004777058 0.030013198 0.010925421 0.0077996757 0.013200015 0.024218526
00000000: 9921 4abc 2937 1ebb 66fd a3bc cb3a 86bc
00000010: 53e3 da39 6b41 1d3c 4ac6 19bc 04f4 133c
00000020: 56f8 1c3d 7c6c ad3c b1a7 693b e6b8 85bc
00000030: 8383 d43c 7a48 d4ba 726a 193d 3bdb 353b
00000040: c974 ab3c 7829 adbb fbb1 2cbb 751c 93bc
00000050: a742 003d 24d9 72bc d5cc 643b 9d41 8e3c
00000060: 45ad a83c c6a5 163c 9674 fab9 3dde f53c
00000070: 8900 333c 6c94 ff3b e044 583c ee65 c63c

conv3.1.running_mean f4 [32]
0.8692383 0.20578189 -0.0039802156 -0.12813103 -0.15160951 -0.66727245 -0.26120147 -0.29507202
-0.4812909 -0.013471961 0.15706028 -0.34186503 -0.0044569094 0.47835657 -0.634095 -0.6475285
-0.83578366 -0.022880565 -0.018195646 -0.40742868 -0.71228707 0.37746066 0.48785585 -0.31919253
-0.6029095 0.06015754 -0.0061458587 -0.6042205 -0.38331825 -0.48649344 -0.57714033 -0.42216533
00000000: 6786 5e3f 7db8 523e 786c 82bb c834 03be
00000010: 863f 1bbe 5ed2 2abf 33bc 85be ae13 97be
00000020: c36b f6be 80b9 5cbc 69d4 203e ef08 afbe
00000030: 440b 92bb 27eb f43e 0d54 22bf 6ec4 25bf
00000040: ebf5 55bf 0670 bbbc 090f 95bc 7e9a d0be
00000050: 7258 36bf 8642 c13e 3ec8 f93e 346d a3be
00000060: 4758 1abf c167 763d 3363 c9bb 32ae 1abf
00000070: 4a42 c4be ab15 f9be 78bf 13bf 0e26 d8be

conv3.1.running_var f4 [32]
0.69007635 0.33026624 0.4681431 0.40033755 0.37284255 0.13685605 0.277285 0.30678928
0.35045645 0.43286344 0.3338504 0.1252522 0.23562454 0.60196364 0.8224931 0.6078945
0.30915478 0.42065996 0.18904783 0.20387086 0.21729377 0.37001404 0.16431665 0.4342293
0.14850229 0.27636966 0.20021537 0.52582324 0.2699718 0.14753227 0.30626824 0.67357665
00000000: d8a8 303f a818 a93e 74b0 ef3e 0bf9 cc3e
00000010: 38e5 be3e fe23 0c3e 4df8 8d3e 7c13 9d3e
00000020: 076f b33e 47a0 dd3e 71ee aa3e 1d42 003e
00000030: 8f47 713e 4a1a 1a3f e88e 523f f99e 1b3f
00000040: 8949 9e3e be60 d73e c195 413e 86c3 503e
00000050: 4282 5e3e 7b72 bd3e a042 283e 4e53 de3e
00000060: fc10 183e 5380 8d3e 4205 4d3e 5a9c 063f
00000070: be39 8a3e b312 173e 31cf 9c3e 856f 2c3f

deconv2.0.weight f4 [32, 16, 4, 4]
-0.05205494 -0.04180531 0.042525016 -0.0301488 0.027509391 -0.055786707 -0.05749334 -0.03279899
-0.029716728 0.011087831 0.0008214855 0.010125954 -0.025767718 -0.073885195 0.0577509 -0.004582619
-0.014796482 -0.06605824 -0.011074556 0.040386915 0.04526391 0.051558845 0.06078488 0.051151652
-0.030869253 0.04011302 0.023440233 -0.014795464 0.029547779 0.0043085986 -0.054387577 0.011842356
0.053694256 -0.054166105 0.03617686 0.055498946 0.039286725 0.051754013 -0.023156809 -0.030147387
-0.0012409379 -0.009047939 0.071305014 0.038338955 0.018788924 0.035694662 -0.019109186 -0.053796172
-0.03267832 -0.02219066 0.023967672 -0.05178232 0.0100801 -0.025036395 0.0135816345 -0.018396389
0.065590486 0.05645146 -0.063212305 -0.049134314 0.027046971 -0.047719125 -0.02278921 -0.08640631
0.0054814448 -0.052547082 0.0049908496 0.023985533 -0.04150016 0.059851766 -0.016701566 -0.03383135
-0.04751225 -0.036493268 0.043099448 0.01469217 -0.07410232 -0.034737594 0.04793968 0.039278504
-0.007771845 -0.028226746 -0.06355739 -0.048654787 0.03810214 -0.015100806 -0.017806534 -0.0062270556
-0.03553104 -0.061913144 -0.05235992 0.0051707593 -0.02793418 0.01250018 -0.03889487 -0.015453779
-0.052296016 -0.04213242 -0.044744562 -0.01742027 0.042920526 0.009075184 -0.030806577 -0.032799516
-0.045616567 -0.058756527 -0.041903846 -0.094504066 0.032077886 -0.07602065 0.03601131 0.021966502
0.0042098127 -0.0780266 -0.08355016 -0.07891914 0.010322546 0.021905592 0.013925046 -0.067997135
0.027032472 -0.05777226 0.0114634335 0.02717047 0.052261993 -0.0029978964 0.03277025 -0.073164806
-0.05179994 0.0048336764 0.0320913 0.057956085 0.069598146 0.040772613 0.013689094 0.05233659
-0.07519218 -0.034622397 -0.0153657915 -0.012321806 -0.029655911 -0.043523718 -0.012661433 0.05005582
-0.05481048 -0.010056148 0.028287338 -0.0040623704 -0.05246249 -0.06883579 0.005109859 0.036311127
-0.019821677 -0.054099757 -0.06781081 0.030425698 0.029279785 -0.035279498 -0.007239446 -0.07531131
0.01765264 0.040559933 0.05716836 -0.03972063 0.051028952 -0.011898243 -0.042137288 -0.07617162
0.06749713 0.062213596 -0.03517735 -0.009007572 0.020238081 -0.0019822433 -0.0007696365 0.037380956
-0.030014485 -0.006843535 -0.03365026 0.022962116 0.014563376 -0.037247986 -0.063488446 0.006088964
-0.015324339 0.022947388 0.04126154 -0.061528563 0.03048051 -0.047235195 0.037092377 0.006485738
0.040273614 0.011674562 -0.029095864 0.030943519 -0.009547114 -0.038577102 0.0040835147 -0.024494493
-0.056078434 -0.03689466 -0.061017066 -0.006570824 -0.017622737 0.022257224 0.03593512 -0.01895175
0.025770219 -0.038874026 0.046202492 -0.038291335 -0.042053636 0.023663023 -0.050506067 0.036387794
0.051808026 0.040902466 -0.005947232 -0.057661157 -0.020067165 -0.061223492 -0.031333063 0.049650043
0.050037637 0.04027186 0.05834073 -0.054027427 -0.00772205 -0.032606356 0.037367176 0.025297852
-0.0145328995 -0.028773418 -0.036131497 -0.025881106 0.051054772 -0.06801482 -0.02332527 -0.021661514
0.03654202 -0.06564066 0.026777921 0.036235243 0.008937964 -0.018716872 -0.0638547 -0.04895933
-0.022974871 -0.012903694 -0.02246038 0.038290523 -0.067847915 -0.023769196 -0.043146927 0.009282221
00000000: 9037 55bd 0b3c 2bbd b62e 2e3d 9efa f6bc
00000010: 605b e13c 9a80 64bd 237e 6bbd 3c58 06bd
00000020: 7f70 f3bc bca9 353c f558 573a 54e7 253c
00000030: d216 d3bc 1f51 97bd 358c 6c3d cb29 96bb
00000040: f26c 72bc 8b49 87bd 0e72 35bc c06c 253d
00000050: a666 393d 5e2f 533d 91f9 783d 6584 513d
00000060: 84e1 fcbc 8d4d 243d bb05 c03c ad68 72bc
00000070: 2f0e f23c 252f 8d3b 82c5 5ebd 7106 423c
00000080: 82ee 5b3d 47dd 5dbd 302e 143d dd52 633d
00000090: 1eeb 203d 04fc 533d 59b3 bdbc a7f7 f6bc
000000a0: f7a6 a2ba cf3d 14bc 5d08 923d 4f09 1d3d
000000b0: 3beb 993c 9134 123d de8a 9cbc 6059 5cbd
000000c0: b4d9 05bd 30c9 b5bc da57 c43c b319 54bd
000000d0: 0127 253c 2019 cdbc 8185 5e3c 06b4 96bc
000000e0: 4e54 863d a539 673d 7475 81bd 1041 49bd
000000f0: 9c91 dd3c 2175 43bd 70b0 babc cbf5 b0bd
00000100: b19d b33b 9c3b 57bd 488a a33b 4f7d c43c
00000110: 12fc 29bd 2027 753d b9d1 88bc be92 0abd
00000120: 349c 42bd f779 15bd 0c89 303d 6db7 703c
00000130: f5c2 97bd 0249 0ebd 665c 443d 7fe2 203d
00000140: f6aa febb c73b e7bc 602a 82bd 3e4a 47bd
00000150: fd10 1c3d 5f69 77bc 02df 91bc 540c ccbb
00000160: ff88 11bd a398 7dbd 5b77 56bd 796f a93b
00000170: 39d6 e4bc 8ecd 4c3c 3a50 1fbd d931 7dbc
00000180: 5934 56bd 0b93 2cbd 1346 37bd f4b4 8ebc
00000190: 6fcd 2f3d 15b0 143c 135e fcbc c958 06bd
000001a0: 70d8 3abd afaa 70bd 5ea3 2bbd 598b c1bd
000001b0: 1a64 033d b7b0 9bbd 9880 133d 18f3 b33c
000001c0: 78f2 893b 69cc 9fbd 591c abbd 5ca0 a1bd
000001d0: e51f 293c 5b73 b33c e025 643c 1542 8bbd
000001e0: 3473 dd3c 9ba2 6cbd 20d1 3b3c 9b94 de3c
000001f0: ac10 563d 5b78 44bb 193a 063d 6ed7 95bd
00000200: 2d2c 54bd d163 9e3b 2b72 033d 5c63 6d3d
00000210: 7989 8e3d 2f01 273d 3948 603c e45e 563d
00000220: 5cfe 99bd 37d0 0dbd cdc0 7bbc 66e1 49bc
00000230: f4f0 f2bc ed45 32bd e671 4fbc 5507 4d3d
00000240: f480 60bd 8bc2 24bc d9ba e73c a21d 85bb
00000250: e8e2 56bd c7f9 8cbd 9b70 a73b faba 143d
00000260: 1261 a2bc b597 5dbd 65e0 8abd 503f f93c
00000270: 29dc ef3c 3c81 10bd e038 edbb d13c 9abd
00000280: 459c 903c 2c22 263d 5f29 6a3d 19b2 22bd
00000290: bc03 513d d9f0 42bc 2698 2cbd deff 9bbd
000002a0: ef3b 8a3d afd3 7e3d 2016 10bd 7f94 13bc
000002b0: 55ca a53c 86e8 01bb 6ec1 49ba c61c 193d
000002c0: f0e0 f5bc bc3f e0bb dbd4 09bd 0c1b bc3c
000002d0: 3a9b 6e3c 5891 18bd 3b06 82bd ef85 c73b
000002e0: f012 7bbc 29fc bb3c dc01 293d 6005 7cbd
000002f0: 43b2 f93c b179 41bd 2dee 173d 5086 d43b
00000300: f2f5 243d a946 3f3c 735a eebc 437d fd3c
00000310: 806b 1cbc 0603 1ebd 01cf 853b ada8 c8bc
00000320: 80b2 65bd db1e 17bd 08ed 79bd 1150 d7bb
00000330: 8f5d 90bc c854 b63c b430 133d b340 9bbc
00000340: 111c d33c 5f3a 1fbd d33e 3d3d 60d7 1cbd
00000350: 6f40 2cbd f5d8 c13c 73df 4ebd 5e0b 153d
00000360: a734 543d 5889 273d ffe0 c2bb 1b2e 6cbd
00000370: e563 a4bc 7cc5 7abd 1957 00bd d85d 4b3d
00000380: 44f4 4c3d 1bf4 243d b0f6 6e3d dd4b 5dbd
00000390: 4009 fdbb 3e8e 05bd 530e 193d 713d cf3c
000003a0: 661b 6ebc 3bb6 ebbc 9ffe 13bd 9d04 d4bc
000003b0: cf1e 513d 5b4b 8bbd a314 bfbc 7d73 b1bc
000003c0: 16ad 153d 9c6e 86bd 5f5d db3c 686b 143d
000003d0: 8a70 123c 2054 99bc 41c6 82bd 9489 48bd
000003e0: cc35 bcbc 046a 53bc d5fe b7bc 86d6 1c3d
000003f0: d9f3 8abd 9eb7 c2bc d5ba 30bd 7514 183c

deconv2.0.bias f4 [16]
-0.02162717 -0.06185502 -0.003664055 0.046884447 0.007865309 -0.04961171 0.01260547 0.035060387
-0.039668866 0.04118174 -0.05042794 -0.04786702 0.010679798 -0.021734778 0.05030213 -0.0038755506
00000000: 762b b1bc b05b 7dbd a420 70bb e809 403d
00000010: 7fdd 003c a635 4bbd 2c87 4e3c 7b9b 0f3d
00000020: d27b 22bd 2fae 283d 878d 4ebd 3510 44bd
00000030: 52fa 2e3c 220d b2bc 9b09 4e3d f3fc 7dbb

deconv2.1.weight f4 [16]
0.96430624 0.9855492 1.0012743 0.9954705 0.9957676 1.007054 1.0143045 0.9899513
0.9850554 0.98203963 1.0118701 0.99964195 1.0214201 1.0064241 1.0270272 0.99460566
00000000: c6dc 763f f44c 7c3f c229 803f 28d7 7e3f
00000010: a0ea 7e3f 25e7 803f bbd4 813f 736d 7d3f
00000020: 972c 7c3f f366 7b3f f684 813f 89e8 7f3f
00000030: e5bd 823f 81d2 803f a175 833f 7a9e 7e3f

deconv2.1.bias f4 [16]
-0.013952893 0.016678466 0.021453558 0.028609913 0.031425126 0.029264007 0.042768035 0.02476901
0.028440604 -0.01867783 0.039427944 0.025299799 0.030668007 0.025816584 0.037794203 0.033142477
00000000: ad9a 64bc 47a1 883c 5fbf af3c 565f ea3c
00000010: a2b7 003d 12bb ef3c 892d 2f3d 61e8 ca3c
00000020: 45fc e83c 4002 99bc 327f 213d 8641 cf3c
00000030: 793b fb3c 4d7d d33c 18ce 1a3d 68c0 073d

deconv2.1.running_mean f4 [16]
-0.13791451 -0.19706325 -0.13055679 -0.2823388 -0.249502 -0.45584583 -0.34871268 -0.25944075
-0.26879108 -0.1626027 -0.31084475 -0.42416197 -0.15700328 -0.2758838 -0.15854158 -0.36026198
00000000: 7639 0dbe f3ca 49be aeb0 05be b68e 90be
00000010: 747d 7fbe a064 e9be 788a b2be 6bd5 84be
00000020: fc9e 89be 5281 26be 0b27 9fbe c22b d9be
00000030: 78c5 20be a440 8dbe b958 22be 4274 b8be

deconv2.1.running_var f4 [16]
0.21280576 0.28087974 0.25614524 0.4005007 0.23165561 0.20190468 0.30151808 0.32696226
0.25806555 0.26006725 0.44033632 0.3348244 0.29408133 0.45410326 0.15437527 0.2498282
00000000: c1e9 593e 78cf 8f3e 7825 833e 6e0e cd3e
00000010: 2137 6d3e 1ac0 4e3e 9460 9a3e 9967 a73e
00000020: 2b21 843e 8927 853e c373 e13e 1b6e ab3e
00000030: d491 963e 3980 e83e 8d14 1e3e f7d2 7f3e

deconv3.0.weight f4 [16, 8, 4, 4]
-0.012877569 0.0017230555 -0.01207014 0.10702421 0.049328655 -0.042121775 0.046371553 0.03279508
0.014472411 0.0051628808 0.07094273 0.04372528 -0.05255416 0.067117974 0.05772796 -0.060382526
-0.028431676 0.067900166 -0.041386228 -0.037889432 -0.045388512 0.04835629 -0.040228684 0.046826273
0.050347984 -0.057834882 0.04321236 -0.035872027 0.065222435 0.012823537 0.0008629306 0.012767776
0.0031353002 0.08627845 -0.021285545 0.009591313 -0.012078091 -0.04452626 -0.029054452 -0.049530867
-0.012616219 0.020230712 -0.02876969 0.010454894 -0.007053983 0.073569566 0.07016079 0.08273915
0.10067252 -0.053772178 0.012906324 0.03320804 0.08201977 0.091060914 -0.03337388 0.06914512
0.03519493 -0.023785228 0.04075138 -0.03896844 0.055940542 0.068228 -0.0001175753 -0.02005774
0.060661998 0.02334721 0.06644474 0.062241495 -0.030366043 -0.043283522 -0.020663148 0.0007124589
0.061774544 0.045575354 0.08803936 0.03382801 -0.021895623 0.004741222 0.02518836 -0.034072876
0.00844674 0.051044974 -0.06979849 0.045138843 -0.06012165 -0.0029005425 -0.052012924 0.071897216
-0.05117833 -0.049808126 -0.05573298 0.060669217 0.058039352 0.08060355 0.026582642 -0.034471266
-0.04916495 0.022077503 0.04119003 0.057315387 0.04974461 -0.013531815 0.0752645 -0.04365683
-0.037294053 0.09575088 0.020331005 -0.0016375872 0.06363746 -0.0137978 -0.033947982 0.0030320494
-0.024522759 0.071021795 0.010630939 0.08691431 -0.04385651 0.04595604 0.017339582 -0.045148745
-0.019365432 -0.015626155 -0.02217518 0.108649164 0.09834162 -0.0070402054 0.08018947 0.04985725
0.06044416 0.06986633 -0.017841434 -0.056906287 0.06392303 0.005454689 0.0097303465 -0.029477896
-0.021926913 0.059961718 0.012096682 0.01981491 0.02379639 -0.03954115 0.056579325 -0.028196491
-0.048339378 0.029038725 0.03456664 0.04442503 0.018865563 -0.028790966 -0.011129673 -0.028774364
0.080215245 -0.045129385 0.02641914 -0.004768916 -0.044739414 -0.06282573 -0.02366434 0.050432276
0.05844808 0.009919903 -0.03663219 -0.03859668 0.052394338 0.103010304 0.022079388 0.0620467
0.016992448 0.01699317 -0.054906424 0.101490185 0.0026367202 -0.048499588 0.02348525 -0.042793907
0.0013056208 0.07209387 -0.017564652 0.02667973 0.10859842 0.0034891 -0.020747982 0.04971058
-0.06843112 0.051592972 0.06713075 -0.05188791 -0.062044427 0.022217888 -0.0055104624 0.028064072
-0.02648458 0.076312 0.019104304 -0.02231493 -0.057676665 -0.044663895 0.040116835 -0.073403
-0.033875924 0.011843351 0.07241523 0.07609959 0.017693175 -0.013733608 0.073080055 -0.030387975
0.070333496 0.014896377 0.045350555 0.025235943 -0.015449332 0.020943819 0.017501246 0.0184461
0.05867137 0.0083498005 0.015124451 0.029731644 0.025407901 0.06217897 -0.026964255 0.07891836
0.06307627 -0.067475654 0.078738794 0.07619014 0.019694595 -0.012023363 -0.058048483 -0.017190712
0.027984148 0.07128522 0.010486031 -0.015138113 0.007251804 0.04757713 -0.003479207 0.07893729
0.048399273 0.0053750533 -0.036138695 0.004827868 0.06884734 -0.04137514 -0.05030956 0.013626211
-0.05512337 0.04892148 -0.07960568 -0.019249436 0.02027616 -0.030736707 0.024793532 0.06649564
00000000: 70fc 52bc 26d8 e13a d6c1 45bc 822f db3d
00000010: d80c 4a3d e287 2cbd 19f0 3d3d 2254 063d
00000020: b11d 6d3c 622d a93b 6c4a 913d 4719 333d
00000030: 0843 57bd 2675 893d 2774 6c3d ab53 77bd
00000040: 8ce9 e8bc 3e0f 8b3d 9b84 29bd f331 1bbd
00000050: 4ee9 39bd 3f11 463d d5c6 24bd e8cc 3f3d
00000060: b039 4e3d 45e4 6cbd 72ff 303d 8cee 12bd
00000070: 5793 853d d019 523c 4b36 623a ef2f 513c
00000080: 9c79 4d3b c2b2 b03d 065f aebc e224 1d3c
00000090: 2fe3 45bc 2b61 36bd 9a03 eebc e1e0 4abd
000000a0: 42b4 4ebc e1ba a53c 6aae ebbc 014b 2b3c
000000b0: 1925 e7bb a4ab 963d 76b0 8f3d 2573 a93d
000000c0: 652d ce3d 3740 5cbd 0c75 533c 2705 083d
000000d0: fbf9 a73d 257e ba3d 0db3 08bd f59b 8d3d
000000e0: 8f28 103d 3dd9 c2bc ebea 263d 5f9d 1fbd
000000f0: e921 653d 1fbb 8b3d c292 f6b8 2150 a4bc
00000100: b778 783d a642 bf3c 2e14 883d f0f0 7e3d
00000110: 35c2 f8bc 104a 31bd c345 a9bc 4fc4 3a3a
00000120: 4e07 7d3d 39ad 3a3d fb4d b43d 3d8f 0a3d
00000130: 735e b3bc 415c 9b3b d257 ce3c 0090 0bbd
00000140: 3264 0a3c 8914 513d 83f2 8ebd 82e3 383d
00000150: 1f42 76bd 0717 3ebb 810b 55bd d93e 933d
00000160: 5ea0 51bd 9b03 4cbd 4448 64bd 4980 783d
00000170: acba 6d3d 7913 a53d d7c3 d93c be31 0dbd
00000180: 3061 49bd e1db b43c e0b6 283d 8ac3 6a3d
00000190: 01c1 4b3d 8cb4 5dbc 4624 9a3d 81d1 32bd
000001a0: a6c1 18bd 0a19 c43d 358d a63c 4fa4 d6ba
000001b0: 5b54 823d 2b10 62bc 0a0d 0bbd 59b5 463b
000001c0: f4e3 c8bc e073 913d 642d 2e3c 2100 b23d
000001d0: e2a2 33bd 673c 3c3d bd0b 8e3c e4ed 38bd
000001e0: 41a4 9ebc 6c02 80bc b9a8 b5bc 7483 de3d
000001f0: 5567 c93d 86b1 e6bb 603a a43d 1e37 4c3d
00000200: 4c94 773d 1416 8f3d 3328 92bc 9116 69bd
00000210: 14ea 823d 3fbd b23b 086c 1f3c a17b f1bc
00000220: 12a0 b3bc 6b9a 753d 2931 463c e152 a23c
00000230: a6f0 c23c e7f5 21bd b9bf 673d 54fc e6bc
00000240: 83ff 45bd 9fe2 ed3c c095 0d3d 05f7 353d
00000250: f48b 9a3c 08db ebbc 3b59 36bc 37b8 ebbc
00000260: e447 a43d 97d9 38bd f46c d83c 9144 9cbb
00000270: ad40 37bd c7aa 80bd b8db c1bc 1392 4e3d
00000280: 4167 6f3d 1787 223c a30b 16bd 8d17 1ebd
00000290: 729b 563d 11f7 d23d d5df b43c ae24 7e3d
000002a0: bf33 8b3c 4335 8b3c 8fe5 60bd 16da cf3d
000002b0: d3cc 2c3b 81a7 46bd 2464 c03c aa48 2fbd
000002c0: 5d21 ab3a f3a5 933d bfe3 8fbc 738f da3c
000002d0: d968 de3d 62a9 643b acf7 a9bc 529d 4b3d
000002e0: 9d25 8cbd 2753 533d d97b 893d 6b88 54bd
000002f0: 4c22 7ebd 4a02 b63c 1c91 b4bb a0e6 e53c
00000300: 31f6 d8bc 7749 9c3d a180 9c3c cdcd b6bc
00000310: 5e3e 6cbd 7df1 36bd 8d51 243d 5054 96bd
00000320: 7bc1 0abd 9d0a 423c 704e 943d 1ada 9b3d
00000330: 47f1 903c ed02 61bc ffaa 953d 34f0 f8bc
00000340: 020b 903d ef0f 743c 81c1 393d 9cbb ce3c
00000350: 321f 7dbc 5f92 ab3c c65e 8f3c 471c 973c
00000360: 6451 703d 9acd 083c 8ccc 773c c78f f33c
00000370: 3b24 d03c 60af 7e3d 24e4 dcbc f39f a13d
00000380: 222e 813d ad30 8abd ce41 a13d 9309 9c3d
00000390: 8f56 a13c a4fd 44bc 3fc4 6dbd 89d3 8cbc
000003a0: 033f e53c fcfd 913d 9acd 2b3c d905 78bc
000003b0: 8ba0 ed3b 3de0 423d 6803 64bb e0a9 a13d
000003c0: 513e 463d 3721 b03b 2b06 14bd 1833 9e3b
000003d0: d6ff 8c3d fb78 29bd 6611 4ebd 7940 5f3c
000003e0: 0bc9 61bd e461 483d 4e08 a3bd feb0 9dbc
000003f0: 311a a63c 8ccb fbbc ce1b cb3c de2e 883d

deconv3.0.bias f4 [8]
-0.0035970302 0.060025718 0.071101554 -0.028407512 0.050404444 0.0053299717 0.05007337 -0.04180247
00000000: 27bc 6bbb 87dd 753d b19d 913d dfb6 e8bc
00000010: e474 4e3d 0ba7 ae3b bc19 4d3d 1139 2bbd

deconv3.1.weight f4 [8]
1.0517147 1.054955 1.0528828 1.0497384 1.0585163 1.0487084 1.0536121 1.0585512
00000000: 969e 863f c408 873f ddc4 863f d45d 863f
00000010: 767d 873f 143c 863f c3dc 863f 9b7e 873f

deconv3.1.bias f4 [8]
0.050446086 0.052534066 0.052777607 0.047211517 0.05696967 0.047332976 0.053673886 0.05990607
00000000: 8ea0 4e3d f62d 573d 552d 583d dd60 413d
00000010: 0759 693d 39e0 413d 26d9 5b3d 1160 753d

deconv3.1.running_mean f4 [8]
0.14143339 0.13253866 0.20413902 0.09824217 0.24309711 0.1679407 0.14815469 -0.04565971
00000000: ead3 103e 37b8 073e d209 513e 3133 c93d
00000010: 73ee 783e a6f8 2b3e ddb5 173e ad05 3bbd

deconv3.1.running_var f4 [8]
0.12360255 0.1566031 0.14492981 0.13312612 0.18666637 0.14569683 0.119613715 0.23773384
00000000: 5523 fd3d 905c 203e 7b68 143e 3752 083e
00000010: 7825 3f3e 8d31 153e 09f8 f43d 8070 733e

deconv4.0.weight f4 [8, 3, 4, 4]
0.012527484 -0.026158769 -0.04976757 -0.047632188 0.013858398 -0.04503575 0.18225208 0.08852895
0.14565198 0.17176631 0.16720198 0.12394665 0.007264271 0.058369055 0.085403495 0.17148344
-0.13948047 0.04278764 0.04629049 -0.013720643 0.10124712 -0.14633204 -0.026479064 -0.09512858
-0.032845717 -0.06616826 -0.14334159 0.0063829888 0.042906377 -0.11259311 -0.13652617 -0.15586169
0.060041886 0.0526513 0.019084942 0.07541301 0.09430973 -0.15050265 -0.055718742 0.011130627
-0.14187162 -0.18560608 -0.1556702 0.07970113 -0.05505388 -0.073058516 -0.16932523 -0.11768216
0.051483627 0.020302542 0.04969781 -0.021919008 -0.09078833 0.036013726 0.15300961 -0.0037016533
0.1211183 0.05162387 0.13654394 0.088495374 -0.063949 0.12497636 -0.09936044 0.035121012
0.08654718 -0.16134702 -0.16883203 -0.04307661 -0.1693741 -0.06366501 -0.094182596 0.050941616
-0.11769336 0.06731705 -0.046090323 0.056426693 0.01742914 -0.15430866 0.035838947 -0.07225192
0.100547634 -0.15371244 0.080481455 -0.021150697 -0.07146727 -0.099613845 -0.17615661 -0.14693883
-0.09993544 -0.16453029 -0.0067335204 -0.14570943 0.0968246 -0.032384943 0.0141337 -0.03655168
0.11796775 0.028989108 -0.04013659 0.08199392 0.12585445 0.042795505 0.09370975 -0.0070820237
0.10804081 -0.08087992 0.09552983 0.038711507 -0.03976389 0.011543696 0.07627137 0.05692811
0.010711552 -0.028744208 -0.012647977 -0.0029077244 -0.18592004 0.05574836 -0.1395987 -0.12644954
0.05974296 0.037935242 -0.031198043 -0.028656363 -0.17680007 -0.026852494 0.053227756 -0.0051727
0.0007067924 0.07983684 -0.15715395 -0.036974676 -0.03900606 -0.092085056 -0.10061703 -0.14959979
0.027583884 -0.020937309 -0.04811685 0.035657372 0.0027456894 -0.11467382 0.09182001 -0.1446624
0.111073665 -0.0061852266 0.11646211 0.1306181 0.014400279 0.043547105 0.026236326 0.002151114
0.06365516 -0.09391061 0.07476596 0.15655293 0.13675551 0.020289307 0.09517877 0.08008059
-0.14319566 -0.036204524 0.08435504 0.09622097 0.04987612 -0.030689163 -0.017032169 -0.098191194
-0.13236469 -0.18362144 0.005810614 -0.0651826 -0.16855064 -0.09840761 -0.1219361 -0.11765848
-0.071969405 -0.14438531 0.016595637 0.051721044 -0.038639553 0.033563953 -0.047389183 -0.006863198
-0.07875562 -0.027942749 0.046689656 -0.08209862 -0.1755388 -0.15740114 -0.08967063 -0.06772859
-0.08464371 0.102748126 -0.013411548 0.17724872 -0.087166 0.1380645 0.02679131 -0.058600396
0.18168129 0.106929414 -0.10066156 0.04118111 0.019295974 0.10700529 0.06430489 -0.022681657
-0.046764005 -0.040202197 -0.066497825 -0.16383664 -0.03465224 0.07205644 -0.068582065 -0.09460462
-0.14530599 -0.072388396 -0.1372733 -0.13079229 -0.16319959 0.021169215 -0.058490265 0.0006364933
0.006784255 -0.07494925 -0.13131134 0.047021154 -0.071057715 -0.024978863 0.0727515 -0.023920842
0.062211238 -0.082824394 -0.041526936 0.027551753 -0.06395591 0.0020546336 0.09010455 -0.09742158
0.04534442 0.14666304 -0.0023761194 0.11246004 -0.008196715 -0.05135408 0.153121 0.11345935
0.020587496 0.09750022 0.0879788 0.13600299 0.18237066 -0.0669354 0.07569849 0.011184219
00000000: 1440 4d3c ea4a d6bc 14d9 4bbd f819 43bd
00000010: 560e 633c 6877 38bd 4aa0 3a3e ab4e b53d
00000020: cb25 153e 82e3 2f3e ff36 2b3e bed7 fd3d
00000030: 1f09 ee3b 6414 6f3d 07e8 ae3d 5b99 2f3e
00000040: f8d3 0ebe 1842 2f3d 199b 3d3d 8ccc 60bc
00000050: a65a cf3d 11d8 15be 9fea d8bc c6d2 c2bd
00000060: 3b89 06bd 3a83 87bd 23c8 12be 6428 d13b
00000070: 99be 2f3d 3797 e6bd 84cd 0bbe 359a 1fbe
00000080: 7bee 753d e4a8 573d 0658 9c3c 2372 9a3d
00000090: 7625 c13d 5e1d 1abe 5639 64bd 3c5d 363c
000000a0: cb46 11be 850f 3ebe 0268 1fbe 593a a33d
000000b0: 2d80 61bd b49f 95bd 9863 2dbe 5803 f1bd
000000c0: 7fe0 523d 8451 a63c ee8f 4b3d 7e8f b3bc
000000d0: 3bef b9bd 2183 133d 8dae 1c3e 7097 72bb
000000e0: df0c f83d 8d73 533d 2dd2 0b3e 103d b53d
000000f0: b1f7 82bd 9bf3 ff3d 7d7d cbbd 0ddb 0f3d
00000100: a63f b13d 2738 25be 4ee2 2cbe 1971 30bd
00000110: 6770 2dbe cd62 82bd cee2 c0bd 28a8 503d
00000120: 3709 f1bd 86dd 893d 35c9 3cbd ad1f 673d
00000130: 8ec7 8e3c 1703 1ebe dccb 123d d1f8 93bd
00000140: ebeb cd3d cb66 1dbe 76d3 a43d 3a44 adbc
00000150: 6f5d 92bd 5802 ccbd 6662 34be 2277 16be
00000160: f4aa ccbd a17a 28be dda4 dcbb da34 15be
00000170: fa4b c63d 13a6 04bd 0991 673c 37b7 15bd
00000180: 1399 f13d 917a ed3c 4466 24bd 6eec a73d
00000190: fddf 003e 574a 2f3d e6ea bf3d 5210 e8bb
000001a0: 8044 dd3d 5fa4 a5bd 25a5 c33d f58f 1e3d
000001b0: 76df 22bd c521 3d3c 2a34 9c3d 732d 693d
000001c0: 817f 2f3c f978 ebbc 7639 4fbc 858f 3ebb
000001d0: d361 3ebe 6458 643d f6f2 0ebe fd7b 01be
000001e0: 09b5 743d fc61 1b3d 0a93 ffbc c0c0 eabc
000001f0: 140b 35be c3f9 dbbc 5905 5a3d c17f a9bb
00000200: 0948 393a 7f81 a33d f7ec 20be c272 17bd
00000210: d2c4 1fbd 1797 bcbd 4d10 cebd b030 19be
00000220: 99f7 e13c b884 abbc 2d16 45bd 770d 123d
00000230: 06f1 333b 1cda eabd 210c bc3d 6122 14be
00000240: 977a e33d 71ad cabb b083 ee3d c0c0 053e
00000250: 26ef 6b3c 735e 323d 90ed d63c b4f9 0c3b
00000260: a35d 823d 3554 c0bd e51e 993d 694f 203e
00000270: a309 0c3e c335 a63c 16ed c23d 4b01 a43d
00000280: e2a1 12be 324b 14bd 56c2 ac3d 800f c53d
00000290: e74a 4c3d d767 fbbc 0c87 8bbc 7718 c9bd
000002a0: 9c8a 07be 4207 3cbe f766 be3b 747e 85bd
000002b0: 8a98 2cbe ee89 c9bd a2b9 f9bd eef6 f0bd
000002c0: b264 93bd bed9 13be 93f3 873c 72d9 533d
000002d0: 8244 1ebd 5b7a 093d 291b 42bd ade4 e0bb
000002e0: a04a a1bd 31e8 e4bc a73d 3f3d 5223 a8bd
000002f0: 71c0 33be c42d 21be 3ca5 b7bd 49b5 8abd
00000300: ae59 adbd 9c6d d23d 1cbc 5bbc b080 353e
00000310: 1684 b2bd c860 0d3e 7379 db3c f806 70bd
00000320: a90a 3a3e cffd da3d a627 cebd 86ad 283d
00000330: 9712 9e3c 9725 db3d 48b2 833d e2ce b9bc
00000340: 9d8b 3fbd 0fab 24bd 0330 88bd cbc4 27be
00000350: 82ef 0dbd 5492 933d c174 8cbd 11c0 c1bd
00000360: 18cb 14be 5e40 94bd 5f91 0cbe 6aee 05be
00000370: cb1d 27be 106b ad3c 7d93 6fbd 58da 263a
00000380: 754e de3b fe7e 99bd 7b76 06be 4199 403d
00000390: b586 91bd 79a0 ccbc bdfe 943d a4f5 c3bc
000003a0: 36d1 7e3d d69f a9bd 2618 2abd 37b4 e13c
000003b0: 51fb 82bd 08a7 063b bc88 b83d f784 c7bd
000003c0: 12bb 393d d62e 163e abb8 1bbb 7351 e63d
000003d0: 844b 06bc a858 52bd c0cb 1c3e 605d e83d
000003e0: 1ca7 a83c 32ae c73d 3b2e b43d 5e44 0b3e
000003f0: 60bf 3a3e 6d15 89bd cf07 9b3d 043e 373c

deconv4.0.bias f4 [3]
-0.0670933 0.031754334 -0.17090394
00000000: 3668 89bd d510 023d 7101 2fbe
