Pix2Pix/checkpoints/pix2pix_model_epoch_160.pth (torch, 99191 bytes, 32 tensors)

conv1.0.weight f4 [8, 3, 4, 4]
00000000: b3c6 fa3d 40a7 e73d 018d adbd 846e 183e
00000010: d7cd 8b3d dcdb 8c3b 13fa 8dbd 3c78 e53d
00000020: 3966 d0bd a121 fcbc 8768 013b 1289 c5bc
00000030: 140d f03d 3a64 b93d f843 09be 2932 0ebe
00000040: d075 4abd 9635 b43d bf38 743c c9b5 2b3e
00000050: b0d9 5dbd 32dc 3abd ca50 3d3e cf86 8cbd
00000060: bbc5 11be 960d febd 0ce5 babd e250 fdbd
00000070: d25e b8bd f240 0a3c bd6d f83d ca30 a5bd
00000080: 28f4 8f3d cf8b f53d b0f8 8ebd 9603 d9bd
00000090: aaf9 80bd 45a6 a8bb bb65 063e 3eab 99bc
000000a0: 8176 8fbd 460d d9bd 3d6a 0ebe cb41 ba3c
000000b0: 3fb5 f03d 72f2 a9bd 17ca 223e e5a1 833c
000000c0: c487 363c 86a8 9b3c 7bc3 85bd 7db4 0c3e
000000d0: fa3b 023e 6fa2 983d 5187 de3d 72bc 5f3c
000000e0: 30f1 533c 0ffc 8dbd 336a b9bd 5c17 d63d
000000f0: cb96 6dbd edf8 453d 2880 7fbd 625d 163e
00000100: ceb1 bcbc 0f0d 79bd ed8a 013e b164 ffbd
00000110: 8029 53bd ebce e8bd 313d 553d 4ea7 27bd
00000120: 7174 30ba 811b 5d3d d7b0 5e3d dbf9 e53d
00000130: e13a 673d 3c85 01be bb05 e6bd 125d 433d
00000140: 31ec 243d 9ee0 a33d 19cc 00be 39c9 0dbe
00000150: ff34 d13d ce1d 99bd 844b acbc 55e5 91bd
00000160: 0511 29bd 6aeb c4bd 9893 f4bd 17f3 593d
00000170: 1d14 42bd 012d 2bbd e912 f7bd 96a0 243d
00000180: 5a31 ab3d c2ba b3bd 48d8 ac3c ddca 1d3e
00000190: fd2d 07be 4417 c0bd 3cbc 9dbd 34b1 5c3d
000001a0: 3769 07be bd98 c5bd 2012 fe3b a0e7 9fbc
000001b0: c372 df3d 59f7 cabd 2117 633d c7d5 fa3d
000001c0: 5614 e03d e2d1 0fbe 6c97 803d 5180 d1bd
000001d0: d7eb e83d 5252 97bd 698f cc3b d8f7 153e
000001e0: dbdd dcbd 8b9b 5a38 7cc3 d03c d961 133e
000001f0: 8649 d03d 2745 cebc 63a6 c5bc a77b d13d
00000200: f9ac c53b 9017 f93c 34fa 18be 617b 183d
00000210: cb77 873d 9e24 dfbd 0b0a 053e f643 14bd
00000220: 75e5 da3d ef5c ccbc 6372 863d 92e7 b13d
00000230: bd2f d9bd e3b5 d9bd 8d9a 0dbe a6e9 50bd
00000240: c332 24bd 2e00 853c cb4d bebc fe61 89bd
00000250: 8929 fdbd a481 02be 0d25 823d b3b9 fb3d
00000260: f7aa a63d c806 3f3d e8ad ef3b a825 eb3d
00000270: b3c9 a43d 6aae c0bd 9d15 c13d d973 98bd
00000280: 551b 93bc e21d b93d 72d6 17be 024f 95bd
00000290: beb0 96bd fbea 0a3d 54c0 10be 8c53 a2bd
000002a0: 6f69 3e3c 39d5 e03a ac45 59bc 2fa8 66bd
000002b0: 87a6 663d 64da 3b3e 7381 c53d cbea 0b3d
000002c0: 626c 0cbe b4f3 893d d7e1 ce3b 1582 323d
000002d0: 59b5 cdbc 5a96 b33d 96a5 713c 07f0 e93d
000002e0: 09c4 0e3e cc3a 413d 5855 533c 8b54 7c3d
000002f0: 50fd 113e e772 87bd aa1f a23d 8b55 d43d
00000300: b1eb 503e baa8 443e 3d1b 383e 53c4 99bc
00000310: db3d 4b3d 45c0 943d 0678 eabd 0269 6e3d
00000320: b89c c63d c2a0 96bd 571f babc 9d78 3dbc
00000330: 1108 873d 6e1a 01be df0f 383d 96a0 63bb
00000340: 8972 7a3d ebe3 a3bc b8a6 023e 36cb f4bd
00000350: 184a dfbd 3fc9 39bd ae97 8e3c 12d2 8c3d
00000360: 72db 153e df5b 9cbd ae0a d0bd ed1e e9bd
00000370: e9f3 cebd 67bd fc3d c4c9 513d 0094 8a3d
00000380: 5182 0f3e 6bb4 733d 2037 c3bd 90d9 3d3d
00000390: 8c1d e1bd f16a 8e3a 0c71 a73d 0655 e93c
000003a0: 8c99 b1bc b22a c13b ef32 473d e098 e23d
000003b0: 2f51 03be 0f98 183b 93a2 903d 7c46 debc
000003c0: 2c20 043e c4fe 5cbb 892b 1b3b abf8 203d
000003d0: 6502 76bc 903d 123e 9f84 253d c1f9 0b3d
000003e0: c3bd 57bd dfca f8bc 890f d7bd 4eaa 0cbd
000003f0: 5828 ad3d 793a 8cbd f8ec 903d 9637 fbbd
0.1224493 0.11311197 -0.0847416 0.14885908 0.0682637 0.00429867 -0.069324635 0.112045735
-0.101757474 -0.030777754 0.001974614 -0.024113212 0.117212445 0.0905232 -0.13404834 -0.13886322
-0.04942876 0.08799283 0.014906107 0.16768564 -0.05416268 -0.04562015 0.1848785 -0.0686165
-0.14235584 -0.12404935 -0.091257185 -0.12368943 -0.090024605 0.008438336 0.12130306 -0.080659464
0.07028991 0.11989557 -0.06981027 -0.10596387 -0.0629762 -0.005146774 0.13124745 -0.018758412
-0.07005025 -0.10598235 -0.13907714 0.02273645 0.1175332 -0.08298196 0.15897404 0.016068408
0.0111407675 0.019001257 -0.065314256 0.13740726 0.12718192 0.07452857 0.10865653 0.013655769
0.012935922 -0.06932842 -0.09053459 0.10453674 -0.058005136 0.048333097 -0.06237808 0.1468406
-0.023034003 -0.06080347 0.12650652 -0.12470377 -0.05155325 -0.113675915 0.05206031 -0.04093104
-0.00067312183 0.053981308 0.054367866 0.11229297 0.056452636 -0.12648481 -0.11231562 0.04769618
0.040264312 0.08001827 -0.12577857 -0.13846292 0.10215186 -0.07476388 -0.021032102 -0.0712382
-0.041275997 -0.09615214 -0.11942214 0.053210344 -0.047382463 -0.041790966 -0.12064154 0.04019221
0.083590224 -0.087758556 0.021099225 0.15409417 -0.13201137 -0.093794376 -0.077019185 0.05387993
-0.1322373 -0.09648273 0.0077536255 -0.019519627 0.10910561 -0.09910459 0.05544198 0.12247806
0.10941379 -0.14044908 0.062788814 -0.102295525 0.11373108 -0.07388748 0.0062426818 0.14645326
-0.10784503 5.212011e-05 0.02548384 0.14392795 0.101702735 -0.025179459 -0.024127191 0.10228663
0.006032583 0.030406743 -0.14939195 0.03722704 0.066146456 -0.10895656 0.12992112 -0.036197625
0.10688297 -0.024946658 0.06564786 0.08686747 -0.106048085 -0.10630395 -0.13828488 -0.051004075
-0.040087473 0.016235437 -0.023230454 -0.06708144 -0.12361438 -0.12744766 0.06354723 0.12291279
0.08138078 0.046637326 0.0073144324 0.11481792 0.080462836 -0.09408267 0.094279505 -0.07443971
-0.017957369 0.09038903 -0.14827898 -0.0729046 -0.0735793 0.0339155 -0.14135867 -0.079260916
0.011621817 0.0017153389 -0.01326124 -0.056312736 0.056311157 0.18345028 0.09643831 0.034159463
-0.1371322 0.06735936 0.0063135433 0.043581087 -0.025110887 0.08768912 0.014748951 0.11422735
0.13941969 0.047175214 0.0128987655 0.061604064 0.14256787 -0.06613713 0.07916196 0.103678785
0.20402409 0.19204989 0.1797914 -0.018770372 0.049619537 0.07263235 -0.11448674 0.058205612
0.096978605 -0.07354881 -0.022720022 -0.011564401 0.065933354 -0.12607738 0.04493701 -0.0034733168
0.061144385 -0.02000614 0.1275891 -0.11952822 -0.10902804 -0.04535794 0.01740631 0.06876005
0.14634493 -0.076347105 -0.10158287 -0.11382852 -0.10105116 0.12340813 0.05121781 0.0676651
0.14014556 0.05949823 -0.09531999 0.046350062 -0.10991964 0.0010865611 0.08175859 0.028482925
-0.021679662 0.0058949823 0.04863256 0.11064315 -0.12823938 0.0023283993 0.070622586 -0.027133219
0.12902898 -0.0033721188 0.0023677072 0.03929965 -0.015015219 0.14281297 0.04040968 0.03417373
-0.052671205 -0.030370174 -0.1050101 -0.034342103 0.084549606 -0.0684709 0.07076448 -0.122664616

conv1.0.bias f4 [8]
00000000: 773e 7ebd 6277 eabd 45d3 d73d c048 a5bd
00000010: 18c4 0c3e e76c c5bd 459a dd3d d103 373d
-0.06207129 -0.11448552 0.10538343 -0.080705166 0.13746679 -0.09639912 0.1082044 0.044681374

conv1.1.weight f4 [8]
00000000: aa4d 7f3f ad79 7d3f 2ba7 7f3f 55ec 813f
00000010: 47f4 803f 907c 823f 2e80 813f 785f 7a3f
0.9972788 0.9901379 0.99864453 1.0150248 1.0074548 1.0194263 1.0117242 0.97801924

conv1.1.bias f4 [8]
00000000: 274e 8abc 2187 08bc 88b0 a1bd 1d42 923d
00000010: 7915 17bd 96ed 163d c179 143d aaa6 603b
-0.016882969 -0.0083329985 -0.07894999 0.07141516 -0.036885712 0.036847673 0.036248926 0.0034279027

conv1.1.running_mean f4 [8]
00000000: 9d13 81bd e754 14be 9a25 e03d 8acf eabd
00000010: 2447 143d 5db5 e4bd 5923 4c3e 3aab 3d3d
-0.06302569 -0.14485513 0.10944672 -0.11465366 0.036200657 -0.11167405 0.19935359 0.046305872

conv1.1.running_var f4 [8]
00000000: 47af e23c 7d73 223d 4a79 883c 7e36 dc3d
00000010: c147 f23d 6a8a ed3c 6bda d83d 30ff 343c
0.02767147 0.03966092 0.016659398 0.10752581 0.11830092 0.028996665 0.10588535 0.01104717

conv2.0.weight f4 [16, 8, 4, 4]
00000000: 79ac 463d 69d1 ac3c 702e b4bd f955 83bd
00000010: e575 273d bb61 443d 0a3a 06bd a819 1c3d
00000020: 2229 88bc 9b16 f7bc 9501 883d ecb7 8c3d
00000030: 1439 41bd 73f7 313d 6920 f53c 16f6 a83d
00000040: 3aaf 443d 76d6 8a3c 6e1d dd3d a132 ac3d
00000050: 48c0 0ebd 810e aa3c 96ab 0cbd 710a 343d
00000060: be44 a33d 979b d2bc 066a bfbc 524a c039
00000070: 32c6 babc cdfb 653d f92a 133e 494f 063e
00000080: 023c 1cbd 0340 3bbd 6050 06bd 7e2c 92bc
00000090: ca23 743d e9fd fa3c 11d8 33bb 2995 9c3d
000000a0: ed46 5bb9 edca 273d 72c6 b83d 2a02 1dbd
000000b0: bf3a c53c 4833 bf3c 80a9 31bd 8c15 f4bc
000000c0: 396f 1abd 49e3 35bd e901 d33c 7bf6 52bc
000000d0: f171 28bd 882f 8abd 3d8f ad3d b75d e83b
000000e0: ca20 413d e30e c63c 7f89 193d 8342 153c
000000f0: 475b 7fbd 0268 993d 3e60 6ebd 0fa5 cf3a
00000100: b3bd 273b 4364 893d 83d0 d9bc 876f 923d
00000110: 5c2f 2fbd 0bc3 75bc b047 bc3c f796 b53d
00000120: 601c 813d 9558 a33d db2e 6cbc 9a18 f13d
00000130: 7d24 9a3d 5887 ce3d a80d b23d e0ae a33c
00000140: 21bc 8fbc 4495 a0bc 499e 713d bd55 3d3d
00000150: 20cc 243d e062 84bc d8f8 543c c4ae 8639
00000160: 352b 293d f7f4 7dbd 4383 40bd 218e fb3c
00000170: 10cf 2d3d 6b58 6e3c a11d 29bd 4c60 0dbd
00000180: c366 8bbd 1c65 363d 549c ef3c c731 e13c
00000190: b8e0 7c3d 4a6e 01bd 9991 6d3a 734e 25bd
000001a0: 0607 233d fc17 1cbd 1a91 c33d eb4a ddbb
000001b0: f0d5 223d fd1e 893d 074f 90bc b6f4 c83c
000001c0: d4fd d8bc 0c47 043d 9f7e 84bd 41e6 7d3d
000001d0: 654a 9bbd 1c99 0c3d e5ae 743c f7f5 63ba
000001e0: 76ad d5bc 4dbf 9e3d 249a 0ebd 74e6 23bd
000001f0: 7bd9 3cbc 34d2 343d 18f8 d9bc 223f 503d
00000200: 8990 13bd bac5 d2bc 3619 4f3d 9a3a 673d
00000210: 0417 7cbd 19c5 ce3c 71c5 0bbd 9d13 bcbd
00000220: ed47 7c3d 0066 7d3c 57cf 553d 5ce3 acbc
00000230: 1fcc afbd 3c97 2d3d 3a11 e5bc 40e7 8ebc
00000240: 5de8 6eba ff25 933d 9973 00bd 55f2 fd3c
00000250: f299 d13c 7f94 803c ba9c 34bd 818d a83c
00000260: e530 653d a7ab 563d 5186 4f3d 7926 9c3c
00000270: 8959 3abd 93b9 9abc 5afe 9e3c 6861 093d
00000280: 3eeb ac3d 052a 8d3d 5956 6e3a e801 be3c
00000290: eb89 49bd f2bd adbd c8c1 d4bd 5df4 92bd
000002a0: 9922 07be 6b6d afbb e6c2 0cbc 2ce9 d0bd
000002b0: 4ebd 9b3c 2bc3 ef3b 14ab 8ebc a005 383b
000002c0: 8ca5 c23d 319f ca3b 1bc0 ad3d 1047 76bc
000002d0: ddb2 a5bc b0f4 3ebd f0c1 96bc df7f 6c3d
000002e0: 1b91 4bbd e4de acbd d7c8 8c3c ad63 eb3c
000002f0: 6471 9b3d 0f1c 10bd d74e 583d 043e 0f3c
00000300: 4aef 4e3c c62d adbb 5158 be3b 892c 793c
00000310: a4ca 1e3d 6f4a 5e3c 5bd5 35bd 216b 193d
00000320: c4aa 643d 7309 853d 6139 ecbc 469a 87bd
00000330: afd3 88bd 3bdc 983c a740 98bd cdd0 aa3c
00000340: 73f3 21bc 03ae d53d 9ae1 743d eb82 753d
00000350: bb6a 64bd cfc5 b73d b5d4 bf3d 6924 c43d
00000360: bbc8 bc3c cb59 56bd a394 2fbd 9255 703d
00000370: bf18 c0bd 7a01 e9bd 7b23 fabd d1b1 ebbc
00000380: 6544 913d 1283 c93c 2665 86bd 4c8c fe3c
00000390: 8560 0ebd 00ca d4bb c1cf 213d 7da7 93bc
000003a0: 30e2 40bc 7348 20bb 4b83 72bd 0050 823d
000003b0: 9b27 ab3d cc46 253d 4cde b6bc 80a0 953c
000003c0: 4115 103d cddb 6f3d c6ad c23d 4c91 20ba
000003d0: 55d6 3d3d a3eb 22bc be8d b43d e428 483d
000003e0: 3004 e13c e99f 853a 88e9 4bbd 868d 8fbc
000003f0: 0df7 bfbd 695f 65bd d263 30bd f1f2 73bd
0.048504326 0.021095948 -0.0879792 -0.06412882 0.040883917 0.047944766 -0.032770194 0.038110405
-0.016621176 -0.030162146 0.06640927 0.06871018 -0.047173575 0.043448877 0.02992268 0.08250062
0.04801867 0.016947966 0.10796629 0.08408094 -0.034851342 0.02075887 -0.034343325 0.04395527
0.07972096 -0.025708957 -0.023365986 0.00036676467 -0.022799585 0.05614834 0.14371862 0.13116182
-0.038143165 -0.045715343 -0.032791495 -0.017843481 0.059604444 0.030638652 -0.0027442018 0.076456375
-0.0002091189 0.04096501 0.090222254 -0.038332142 0.024075864 0.023339882 -0.04337454 -0.02979543
-0.037703726 -0.04440621 0.025757747 -0.012876148 -0.041124288 -0.06747347 0.08474586 0.00709125
0.04715041 0.02417702 0.037484642 0.009110096 -0.06234291 0.07490541 -0.058197252 0.0015842038
0.0025595247 0.067085765 -0.026588684 0.071501784 -0.042769775 -0.015000115 0.022983402 0.08866685
0.0630424 0.0797588 -0.014415468 0.117722705 0.07526491 0.100844085 0.08694011 0.019980848
-0.017545762 -0.019602425 0.058988843 0.046224345 0.04023373 -0.016160429 0.012998782 0.00025688682
0.04130097 -0.062001195 -0.04700018 0.03070742 0.0424338 0.014547448 -0.041288022 -0.034515664
-0.068067096 0.04453002 0.029249348 0.027489556 0.061737746 -0.03159932 0.0009062528 -0.040358018
0.03980162 -0.03810881 0.0954916 -0.0067533157 0.039754808 0.06695364 -0.017615808 0.02453075
-0.026488222 0.032294318 -0.064694636 0.061987165 -0.07582549 0.034325704 0.014934276 -0.00086960144
-0.02608369 0.077513315 -0.03481497 -0.0400147 -0.011526461 0.044145778 -0.026607558 0.05084146
-0.03602651 -0.025729049 0.050561152 0.05645237 -0.061545387 0.025240468 -0.03412384 -0.091834284
0.06159203 0.015466213 0.052199688 -0.021104507 -0.08583855 0.042380556 -0.027962316 -0.017444253
-0.00091136043 0.071849816 -0.031360243 0.030999342 0.025586102 0.015695808 -0.04409478 0.020575287
0.055954833 0.052409794 0.050665203 0.019061314 -0.045495544 -0.018887317 0.019408394 0.03354016
0.084433064 0.0689278 0.00090918463 0.023194268 -0.049203794 -0.08483495 -0.10388523 -0.07175515
-0.13196792 -0.00535362 -0.008591389 -0.10200724 0.019011166 0.007316967 -0.01741556 0.0028079525
0.09504232 0.006183528 0.08483907 -0.015031591 -0.02022689 -0.04662007 -0.018403023 0.057739135
-0.04969893 -0.084409505 0.017185612 0.028734053 0.07589987 -0.03518301 0.052809563 0.008742813
0.012630293 -0.0052849976 0.005808868 0.015208372 0.038767472 0.013567551 -0.044392925 0.03745568
0.055826917 0.06495943 -0.028835954 -0.06621222 -0.066810004 0.018659702 -0.074342065 0.020851517
-0.009884703 0.10433581 0.059785463 0.059939306 -0.05576585 0.08973276 0.093667425 0.09577257
0.023044934 -0.052331727 -0.04286636 0.058675356 -0.0937972 -0.11377235 -0.122137986 -0.028771313
0.07093123 0.024598632 -0.06562261 0.031072758 -0.034760017 -0.006493807 0.03950477 -0.0180242
-0.011772677 -0.0024457246 -0.059207242 0.06362915 0.083571635 0.04035072 -0.022322796 0.018265009
0.03517652 0.058559228 0.09505801 -0.00061251665 0.04634698 -0.0099438755 0.08816098 0.04886712
0.027467817 0.0010194752 -0.04978326 -0.017523538 -0.09373293 -0.055999193 -0.043063946 -0.05955786

conv2.0.bias f4 [16]
00000000: e341 3c3d ca66 433d a72a 92bd 4b65 463d
00000010: 3469 683d 6020 92bd 046a 6b3d 738a e8bc
00000020: 6e94 103d ff1f d03b 0479 d23c fcdd 1c3d
00000030: 201f 8fbd 5835 a23d 834f 41bd edef 603d
0.045961272 0.04770545 -0.071370415 0.048436444 0.056740955 -0.07135081 0.05747415 -0.02838633
0.035297804 0.0063514705 0.02569247 0.03829764 -0.069883585 0.07920331 -0.04719497 0.05491631

conv2.1.weight f4 [16]
00000000: 7e34 803f 61cd 7d3f 896d 883f bf24 7e3f
00000010: ffe3 853f 843d 7d3f f370 863f ea53 7c3f
00000020: f648 7b3f c0e4 7f3f 2772 7f3f 0eea 7c3f
00000030: 4590 843f ad67 7a3f d13d 803f 68e9 7b3f
1.0016019 0.9914151 1.0658427 0.9927482 1.0460204 0.9892199 1.0503219 0.9856554
0.98158205 0.9995842 0.9978356 0.9879464 1.0356528 0.97814447 1.0018865 0.98403025

conv2.1.bias f4 [16]
00000000: a483 c3bd 2c69 babb af28 783a 9e74 053d
00000010: 5a79 863d 1f8d 5cbc 6f7d 0b3d 657e b13c
00000020: 5fcf 4a3c 794f 2a3d 29a0 f0bc 9388 93bb
00000030: 4cff 213d b029 263c 07df ea3c 3278 6bbc
-0.09546593 -0.005688807 0.00094665115 0.032581918 0.06566115 -0.01346138 0.03405517 0.021666715
0.012378543 0.041579697 -0.029373245 -0.004502365 0.03955011 0.010141775 0.0286708 -0.0143719185

conv2.1.running_mean f4 [16]
00000000: 973c 393f 9e14 553e 248e 08bf 393c 08bf
00000010: 3cf2 8abe e6da 1c3c 7eb0 04bf 36c9 41bd
00000020: 11b5 3f3e 73fd e33c 4554 8a3e 0663 743e
00000030: e44f a0bc ba9e 7f3e 3c0d 0fbf 3cd2 b13e
0.7235808 0.20808646 -0.5334189 -0.5321689 -0.27137935 0.009573674 -0.51831806 -0.04731103
0.18721415 0.027830815 0.27017418 0.238659 -0.019569345 0.24962893 -0.5587957 0.3473071

conv2.1.running_var f4 [16]
00000000: 844a 4d3e 2954 9f3e 7ad2 7c3e 575d 4b3e
00000010: b86f eb3d 3b87 283e fbc5 9d3e 4557 1d3e
00000020: b419 3d3e e43a 343e 74a6 793e 6e48 ed3e
00000030: 16b8 e53d d7c4 c03d 0f73 513f 10a2 3a3e
0.20047957 0.31118897 0.24689665 0.19859825 0.11495918 0.16457836 0.3081511 0.15365322
0.18466836 0.1760059 0.24379903 0.46344322 0.11216752 0.09412544 0.8181619 0.18225884

conv3.0.weight f4 [32, 16, 4, 4]
00000000: 1a52 893d 96a3 a53d 2623 163d 4400 af3d
00000010: d5c2 423d 9bd2 3a3d 0f0e fe3c 4899 793d
00000020: ce7f 553d c653 c03d 5a12 b53d bd3a be3d
00000030: 45ed 3d3d 129c da3d 34d9 b23d 24d5 033e
00000040: b55b 12bd 905b 403d e2f9 d33c 2098 ecbb
00000050: f972 213d f4cb 8a3d 8c04 193d 1421 fcbc
00000060: e2f5 353d a220 c4bc 8b07 27ba 2e53 cbbc
00000070: 944a 8d3c 8c44 08bd b34c 313d 7568 2a3b
00000080: dc6d 8b3c d2a6 04bc 074c 573d 7498 3f3c
00000090: 66b2 0a3d 2f48 1b3d 6294 613c 3d90 08bd
000000a0: b6c1 483d 3c03 583c f21d 163d deaf 8abb
000000b0: 26a1 64bd d683 15bd b74b a73b 957f b53c
000000c0: cf27 23bd 3315 063d da74 53bb ce3e 34bc
000000d0: 416e 2e3d 6bdb ea3c 4348 853d 3654 043d
000000e0: 9ea9 063d 1846 793d 5db0 623d 9da2 cabc
000000f0: 0246 0bbd 73a0 12bd e781 8f3c 3d3a 9b3c
00000100: 97a0 0ebd 7c46 89bd 9fea f9bc 6a0d bebc
00000110: 672f 4bbd 9cd9 c23c 5b92 853d bd5d 473d
00000120: 0fad 093c bb7f e93b 88f2 ab3c ddda 043d
00000130: 7d3f 39bd c96c f63b fd7b 04bc 7ccc f0bb
00000140: fce5 213d 44db aa3c bebf b83d 9b70 b73d
00000150: 2974 393d 4437 2aba 9434 123c b8c7 fb3c
00000160: 1737 a1bc 3c03 543d d70b cf3c 4f60 043c
00000170: 9f46 1c3c bdd1 3dbd 69e1 873d 68f4 0b3d
00000180: c818 1cbd 8535 1bbd 8085 24bd 468d 54bd
00000190: 3e3e 853d 3008 133d 6d9f cb3d c4c6 773d
000001a0: c8e9 a0bc 3efa 003d d883 0d3c e843 0ebd
000001b0: 863d 3abd 3fa6 fc3c 8d2e 133d 12c5 94bb
000001c0: adda 1fbd 7d1b d53c 8677 5f3c 4cb9 2abc
000001d0: 6f9a 883c 3f70 bc3c 40d6 9dbc d516 56bd
000001e0: 8dc7 ffbb 8ca8 343d 19a9 573d 2144 05bd
000001f0: c8da 95bc 7ba0 d2bc ce96 bb3b 9ea7 1e3d
00000200: f615 b63a 6578 6a3c 47ce 383c 6865 083d
00000210: 6014 8bbd 0dba 083d 4173 ca3c dce7 303d
00000220: 3921 dbbb 0ff4 57bd a7a1 013d e900 5d3d
00000230: 8b4a 933c 0eb8 f5bb 5ce2 6e3c b010 a83c
00000240: ddc7 4fbd b7d9 68bd 8acf 75bd f50a 0bbd
00000250: 705a 4dbb a97c 85bd 108a 9fbc 86c1 a5bc
00000260: ba6d 47bc dcc9 ec3c 98f5 01bd 0b7e 4fbc
00000270: 9081 54bc 8619 3dbd aba7 50bd a30c 97bc
00000280: c0ac e13c 7f54 e63c 243c ad3d 205e 2bbc
00000290: edfb 833d a31b 8b3d 6452 503d 1fa8 f83c
000002a0: 7346 0f3d 00d5 7e3d 2de3 9b3b 4a2f eb3c
000002b0: e233 633d 6dde cc3c c1ee 92bb 0acf 5dbc
000002c0: 9778 ab3c 52dd 80bd 1040 2fbd 7b80 69bc
000002d0: bbf2 823c 6998 3dbd 4101 353d d7be 4f3b
000002e0: 4929 dc3b 1b73 003d 032d d1bc 5ccb b2bc
000002f0: a07a 2c3d c16d 243d a8c8 16bd 8a91 c03c
00000300: 3767 99bd 041b 58bd 37d3 88bd eec7 f5bc
00000310: 6fb3 84bc 62dc 833c 8927 7bbd b2ef bdbc
00000320: f4e5 8f3c 39cd 33b9 68e6 323c 981e c5bb
00000330: 4ea3 02bd 8854 ff3c 613a 6bbc e8e0 873c
00000340: 1f17 39bd 86fd d33c 9dec 013d 82f8 dc3c
00000350: bd0a 00bd 5750 a03c f628 493c 0a08 653c
00000360: 0ec5 fcbc 3c59 b83c e2fe 9d3c 91d7 d13c
00000370: 9b97 79ba 1a90 adbc b2f5 163d e8dc fcbc
00000380: 4729 e5bc 93d9 11bd 6711 94bd 7d4b 31bc
00000390: 71f4 303c 33ba 413b 8aed 43bd ca7e 36bd
000003a0: d7ed 203c 7da9 f63c 34ed 17bd 6247 a53c
000003b0: 7f53 a9bb b43e 573d 69ef 113d 0b7d a33c
000003c0: 91d8 8fbc f156 63bc 9edd 1ebc d3a7 e5bc
000003d0: fb5d 7c3d 61b4 6a3c 20ec f2bc 803c 363c
000003e0: 3d9c f1bc 9975 80bc db07 43bd 6862 ea3c
000003f0: 67d1 fcbb 8af8 1f3c 1fac dc3c d4b5 04bc
0.06705113 0.08087842 0.036654614 0.085449725 0.047549088 0.045611005 0.031012563 0.060937196
0.052123837 0.093909785 0.08841391 0.09288547 0.046368856 0.10674299 0.087328345 0.12874275
-0.03573199 0.04696232 0.02587599 -0.007220283 0.039416287 0.06777182 0.037357852 -0.030777492
0.044423945 -0.023941342 -0.00063716684 -0.024819937 0.017247476 -0.033268496 0.043286037 0.0026002203
0.017020158 -0.008096414 0.05256274 0.0116940625 0.03386154 0.037910637 0.013768287 -0.03334068
0.049012862 0.013184365 0.03664965 -0.004232391 -0.055817746 -0.03650268 0.0051054615 0.022155562
-0.039832886 0.03273506 -0.0032265694 -0.011001302 0.042585615 0.02866908 0.065079235 0.032306872
0.032876603 0.060857862 0.055343974 -0.024735743 -0.03400231 -0.035797548 0.017517997 0.018948669
-0.03482112 -0.06702897 -0.030507384 -0.023199756 -0.049605753 0.023785405 0.06522056 0.04867338
0.008403077 0.0071258224 0.020989671 0.032435287 -0.045226563 0.0075202924 -0.008086202 -0.007348595
0.03952597 0.020856507 0.09020947 0.08957025 0.045276795 -0.00064932206 0.008923668 0.030734882
-0.01967959 0.051760897 0.0252742 0.008079602 0.009538322 -0.0463426 0.066347905 0.03416863
-0.03810957 -0.037892837 -0.040166378 -0.05189254 0.065060124 0.03589648 0.099425174 0.060492292
-0.019642726 0.03148865 0.008637391 -0.03473273 -0.04546883 0.030840991 0.035933066 -0.004540094
-0.039026905 0.026014084 0.013639336 -0.010420155 0.016675202 0.023002742 -0.019267201 -0.052267868
-0.0078057707 0.04410605 0.0526515 -0.032535676 -0.0182928 -0.025711289 0.0057247644 0.03873407
0.0013892043 0.014310931 0.011279649 0.033299834 -0.067909956 0.033380557 0.02471316 0.04318987
-0.00668731 -0.052722987 0.031648304 0.053955946 0.01797988 -0.0074987477 0.0145803355 0.02051577
-0.050727714 -0.056848254 -0.060012378 -0.033945996 -0.0031334423 -0.06517918 -0.019475013 -0.02023388
-0.012172157 0.028904848 -0.031728357 -0.012664328 -0.012970343 -0.04616692 -0.05094115 -0.018438643
0.027548194 0.028116463 0.084587365 -0.010459453 0.064445354 0.06792381 0.050859824 0.030353604
0.034979295 0.06221485 0.004757306 0.028709073 0.0554694 0.025008405 -0.004484028 -0.0135381315
0.020931525 -0.062922135 -0.042785704 -0.014251824 0.015984884 -0.046287928 0.04419065 0.0031699443
0.0067187888 0.031359773 -0.025534159 -0.021825485 0.04210913 0.040143732 -0.036812454 0.023506898
-0.0749039 -0.05276014 -0.06680911 -0.03000256 -0.016198842 0.016096298 -0.061317 -0.023185585
0.017565705 -0.00017147222 0.010919191 -0.00601561 -0.03189402 0.031168237 -0.01435718 0.016586736
-0.045188066 0.025877725 0.031719793 0.026973967 -0.03126024 0.019569559 0.012277832 0.013978967
-0.030855682 0.022503488 0.019286577 0.025615485 -0.0009521187 -0.021186877 0.036855407 -0.030867055
-0.027973784 -0.035607886 -0.07229882 -0.01082122 0.010800467 0.0029560446 -0.047833957 -0.04455451
0.00982233 0.030110115 -0.03709145 0.02017564 -0.005167424 0.052550033 0.03562871 0.019957086
-0.017559322 -0.013875709 -0.009696392 -0.028034126 0.061613064 0.014325232 -0.029653609 0.011122823
-0.029493446 -0.015681075 -0.047614913 0.028611377 -0.0077153924 0.009763846 0.026937542 -0.008099992

conv3.0.bias f4 [32]
00000000: dfbd de3c d3ac f03c c4a3 343c 44f1 b8bb
00000010: e9eb 6ebc 9dcb 9b3c 1980 7ebd 34e7 093c
00000020: 6e1c 23bd 9f1e 293d 5c0d d53b 8c63 943c
00000030: aeb5 613a 10c1 553d df65 33bd 303c 4ebd
00000040: 8e2d 5ebd 17e0 ed3c 239a adbc 16b6 653d
00000050: f62e 7ebd c64f 08bd 5044 2d3d 0c9b 9a3c
00000060: 233f a7bc 7479 583d 4543 333c 35f8 743c
00000070: ef48 713d 8809 3fbd 8c6a 07bc e569 5c3c
0.027190147 0.029379284 0.011025373 -0.0056439955 -0.014582613 0.019017989 -0.062133882 0.0084169395
-0.039822035 0.04128897 0.0065018367 0.018113874 0.0008610141 0.052186072 -0.043798324 -0.050350368
-0.054242663 0.029037518 -0.021191662 0.056081854 -0.062056504 -0.033279203 0.042301476 0.01887276
-0.020415848 0.0528502 0.010941331 0.014951755 0.058907446 -0.04663995 -0.008265149 0.013452982

conv3.1.weight f4 [32]
00000000: 55b6 873f 6f5e 7f3f 2bf9 813f cc84 793f
00000010: 393e 7e3f d6f0 813f af80 7b3f d68b 7d3f
00000020: 159a 843f ec39 813f 5593 803f f0aa 7f3f
00000030: 65b2 773f 2b0e 873f 7d4b 853f 8e5c 7d3f
00000040: 687a 813f eda2 7f3f 66bc 7a3f d0d3 803f
00000050: 4289 843f 690b 823f b6ea 793f af7d 7f3f
00000060: e042 783f a064 803f a73e 7b3f f2ad 833f
00000070: 47a8 7d3f c175 7d3f 689b 7f3f 14d1 7e3f
1.0602518 0.9975347 1.0154165 0.97468257 0.99313694 1.0151622 0.9824323 0.990415
1.0359522 1.0095801 1.0044962 0.99870205 0.96756583 1.0551199 1.0413662 0.9896935
1.011548 0.9985798 0.97943723 1.006464 1.0354388 1.0159732 0.97623765 0.9980115
0.96977043 1.0030708 0.98142475 1.0287459 0.99084896 0.99007803 0.99846506 0.9953778

conv3.1.bias f4 [32]
00000000: d867 c1bd 3b6c f6bb 86b9 8ebd 7757 dbbc
00000010: 9c7f aabb 693a 81bc 4412 09bd 730c 8139
00000020: 714f f53c 327d 8f3b 9202 93bc ed9c dabc
00000030: 6556 1c3b 2da9 30bd 97fa cc3d 479c 2abb
00000040: 2bf4 d03c 8a7c 88bc 5f30 debc 762c cabd
00000050: 61ea 16bd 6e91 1fbd 5209 0abc bf07 0a3d
00000060: 34ee 893b 0c14 85bc 6e37 a83b 67e9 243d
00000070: 005b 56bc bba5 fabb 67b0 d6bc 02d3 793c
-0.09443635 -0.0075202263 -0.069689795 -0.026775105 -0.0052032005 -0.015774922 -0.033464685 0.00024614073
0.029945107 0.004378938 -0.017945562 -0.026686156 0.0023855206 -0.04313009 0.10008734 -0.002603309
0.025507053 -0.016660947 -0.027122675 -0.098717615 -0.036844615 -0.038957052 -0.008425074 0.033698794
0.004209304 -0.01624491 0.005133561 0.040261652 -0.0130832195 -0.007649151 -0.026207162 0.015248062

conv3.1.running_mean f4 [32]
00000000: 295f 483f c9d1 fe3c ed3f ba3e dad4 143e
00000010: a098 b43d 85fb 85bf e77e fcbe 7730 96bd
00000020: bbca d8bb 07c1 043f 2562 863e 85fd 90bd
00000030: 45f8 b8be 21c0 d33e a1a9 87bf b41e 0ebf
00000040: b627 44bf 4ccd 443e 47c4 b43d 1048 62bf
00000050: 8cca 55be 063c e33e e7b2 8d3e fc3f bdbe
00000060: 25a2 19bf fcb8 97be 7283 a23d f619 2bbf
00000070: 5a82 953e 36e9 afbe c12e dbbe 8b2d a33e
0.782702 0.031105893 0.36376897 0.14534321 0.088181734 -1.0467383 -0.4931557 -0.07333463
-0.006615964 0.51857036 0.26246753 -0.07079605 -0.36126915 0.4135752 -1.0598642 -0.555156
-0.76623094 0.1921894 0.088264994 -0.8839121 -0.20878047 0.44381732 0.27675554 -0.3696288
-0.6001304 -0.2963332 0.079352275 -0.6683649 0.29201013 -0.34357613 -0.42809108 0.31870684

conv3.1.running_var f4 [32]
00000000: 642a 493f c6b3 833e 2290 c73e 3a91 de3e
00000010: 086d ff3e 8578 5e3e b3a3 543e 30db 813e
00000020: 274a 463e 6bf1 2c3e afb9 a83e a339 023e
00000030: 3d8c 573e 1074 fe3e 39cc 173f 5590 823e
00000040: 05fc 5b3e c246 c93e 1459 933e a88c 793e
00000050: 798f 2d3e fa7d a93e 2e04 5d3e 092f c53e
00000060: f21f 363e ba70 b83e 292a 9f3e 3e66 ec3e
00000070: 152c 143e a9cb 1f3e 74c2 1d3e ab1a 003f
0.7858031 0.25723094 0.38977152 0.43470174 0.49887872 0.21725662 0.20765571 0.2536254
0.19364224 0.16888969 0.32954165 0.12717299 0.2104959 0.49697924 0.59295994 0.25500742
0.21482857 0.39311796 0.287789 0.24370062 0.16949262 0.33103925 0.21583626 0.38512447
0.17785624 0.36023504 0.31086853 0.46171755 0.14469941 0.15605034 0.15406209 0.5004069

deconv2.0.weight f4 [32, 16, 4, 4]
00000000: 0bd4 4ebd 123a 2fbd 0630 153d 5b13 11bd
00000010: 9e22 bb3c 3c89 70bd 03ff 85bd 8170 20bd
00000020: 8211 dbbc 4c40 2e3c b723 9bbb 7713 e83b
00000030: c171 f6bc cd69 7cbd 3965 4f3d 419a 4e3b
00000040: 75ae 3cbc fdd4 82bd f7bd a6bc 27b8 233d
00000050: a266 413d 519e 543d 76b0 813d 5321 443d
00000060: ad53 1ebd a843 123d 503a 363b 5c70 a0bc
00000070: 70ab 053d 61c0 7b3c 2a92 49bd 78fd ab3c
00000080: 9a9d 213d d38b 76bd d1f9 c63c 2af3 503d
00000090: 27c9 de3c 997c 133d 60bf 1dbd 96e1 3ebd
000000a0: a528 97bb 7071 85bc 99a7 893d 12a0 0b3d
000000b0: 697d 8d3c 64b3 a53c 7512 c3bc dd5c 90bd
000000c0: 72e7 28bd 5a9c d2ba e1f3 aa3c e448 3bbd
000000d0: 0a48 7b3b d916 f6bc c720 093c 0441 bfbc
000000e0: 03a7 7f3d 7b79 af3d cb11 73bd 1163 e1bc
000000f0: 8404 d53c bba4 57bd 689a b0bc 4db5 babd
00000100: 2b25 063b 3154 7abd 51b3 febb a15d 0f3c
00000110: 41c7 42bd 3785 e23c 2d78 10bd abb9 80bd
00000120: 0919 53bd 5487 37bd 9ffe e63c df51 4a3b
00000130: 1a9e 99bd 64e4 d5bc 80bd 0e3d 4bfc 4d3d
00000140: c864 00bd ed73 24bd 9bc5 b0bd ec6e 61bd
00000150: 3104 983c ff9a 07bc d2f2 c7bc 1399 8ebb
00000160: 54ff 6bbd 3ea3 8dbd d23a 93bd e889 1abc
00000170: 861e e0bc 3476 d73c b745 ddbc d7e4 2fbc
00000180: 56d6 ccbc f9d8 ebbd a06a 57bd c3ed 77bd
00000190: 0044 1d3d 149d a33c 7d67 d1bc ac87 a4bc
000001a0: 29fc 40bd dba1 0ebe 49e2 c5bd 77e4 2abe
000001b0: 323c 003d 66f1 9dbd 179f 213d 20cd c23c
000001c0: 0185 76bc 5e6c 70bd 577d debd 9854 9cbd
000001d0: c996 48bc 9e3b 58bd fead 2dbb d40e 0fbe
000001e0: 66c2 083d 5550 27bd c5d4 5b39 b464 743c
000001f0: 811a 163d 9e6b 8abd e754 913c 75f9 f6bd
00000200: 9b7d 88bd 89bc f339 4b61 903c 5232 473d
00000210: 5297 8b3d 0992 233d 0665 873c 57d9 353d
00000220: 0dd5 c1bd 6ce9 d2bc d41e 16bd 91da 71bb
00000230: 7207 12bd cf1f 1fbd a623 4fbc 809d 413d
00000240: b686 b2bd de9e 77bb 4a2c 9abc 3424 0cbb
00000250: 3d6d 32bd 2864 97bd 9eb8 2a3c a5d4 053d
00000260: 9760 9fbd 05c6 20bd ba5f 11be 757d 253d
00000270: 9d9e 1c3d 2cc0 47bd 0994 613a 7af4 b2bd
00000280: 651b 723c 0596 053d f330 5a3d 2fc9 3dbd
00000290: e699 183d 281a 16bd 06e2 40bd dce8 cbbd
000002a0: a63d 8b3d e5f1 6d3d 3e6d 16bd 3d5f 36bc
000002b0: fc71 863c e733 e4bc 5613 783b e947 513c
000002c0: d53d 29bd d2ee a8bc 2b9f 51bd faea 563c
000002d0: ec4f 283c 9db3 2cbd bf67 8bbd d1af e43a
000002e0: 611a f3bc cf72 473c ce1e 8a3c 6d2c 8bbd
000002f0: b00a ce3c 9862 53bd 6563 f83c f3e7 313b
00000300: fc1e 833c 5757 473c 6085 35bd 9a04 fd3c
00000310: 9e39 c4bc 06d5 77bd 0f57 66bc cb20 3cbd
00000320: 6ee9 a1bd b302 17bd b669 a7bd 559c bbbb
00000330: a65a b8bc 1f79 a6ba 49e6 d73c 77e7 2cbd
00000340: 3b9c c53b 89b7 56bd 69cb ab3c b3c2 6cbd
00000350: 7893 6abd ca11 b53c 995a 87bd 673f c63c
00000360: 2525 f83c 3a7b fc3c b7f9 ffbc c8d8 8fbd
00000370: 2f7c 25bd 282e 6cbd f8d6 63bd 851d 313d
00000380: 76b4 4e3d 4ba6 023d 93eb 5d3d c35a 53bd
00000390: ecc0 06bc 02aa 50bd 5360 053d 7943 143c
000003a0: e4e7 59bc 2349 45bd db5d 31bd 15ec 15bd
000003b0: 6523 323d 3a24 a9bd 7941 11bd 6f77 15bd
000003c0: 3c9d 26bc ce43 aebd 40da a4ba 38a3 4b3c
000003d0: 161b adbc 1e84 3fbc 79b4 aabd ec8f c0bc
000003e0: 4efb c7bc d138 79bc 9b22 a2bc 8e9d ea3c
000003f0: 454f 49bd 0d2b bebc 973a 04bd 2e13 983c
-0.05049519 -0.04277999 0.03642275 -0.03541885 0.022843655 -0.058724627 -0.0654278 -0.039169792
-0.026741747 0.010635447 -0.004734482 0.0070823985 -0.030083539 -0.061624337 0.050633643 0.0031525048
-0.011516203 -0.063882805 -0.020354254 0.039970543 0.04721702 0.051908795 0.063324854 0.047883343
-0.03865402 0.035709053 0.0027805753 -0.019584827 0.0326342 0.015365691 -0.04921166 0.020994887
0.03945694 -0.06019194 0.024289044 0.05101315 0.027195526 0.036007497 -0.038512588 -0.046601854
-0.0046129995 -0.016289443 0.0672142 0.0340882 0.017271714 0.020227142 -0.023812512 -0.07048962
-0.04123635 -0.0016068325 0.020868244 -0.04572381 0.00383425 -0.030040191 0.008369631 -0.023346432
0.062415134 0.085680924 -0.05934314 -0.027513059 0.02600313 -0.052647334 -0.021558002 -0.09116612
0.0020468931 -0.061115447 -0.007772841 0.00875035 -0.047553305 0.027651412 -0.03527086 -0.06285413
-0.051537547 -0.044806793 0.028197585 0.0030871553 -0.075008586 -0.026109882 0.03484869 0.050289433
-0.031346112 -0.040149618 -0.0863144 -0.055037424 0.018556686 -0.0082767 -0.024407778 -0.004351744
-0.057616547 -0.069159016 -0.071889535 -0.0094322935 -0.027358305 0.02630148 -0.027010782 -0.010735712
-0.025004547 -0.115159936 -0.05259192 -0.06052948 0.038394928 0.019972362 -0.025562042 -0.020084225
-0.04711548 -0.1392893 -0.09662301 -0.16688715 0.031307407 -0.07712059 0.03945836 0.023779452
-0.015046359 -0.058697097 -0.108637504 -0.076333225 -0.012242981 -0.05279123 -0.0026501413 -0.139705
0.033388518 -0.040848095 0.0002096473 0.014916588 0.03664637 -0.067588076 0.01774068 -0.12059299
-0.06664582 0.0004648904 0.017624518 0.048631974 0.068159714 0.03993419 0.016527664 0.044396725
-0.09464464 -0.02574607 -0.036650494 -0.0036903957 -0.03565163 -0.038848694 -0.012642777 0.047269344
-0.087171 -0.0037783901 -0.018819947 -0.0021383883 -0.04356121 -0.0739215 0.010419993 0.032673497
-0.07782095 -0.039251346 -0.14196673 0.04040285 0.038237203 -0.048767254 0.0008605128 -0.087380365
0.014777039 0.032613773 0.053269338 -0.04633444 0.037256144 -0.03664604 -0.047090553 -0.09956524
0.06798868 0.058092017 -0.036725275 -0.011131105 0.016411774 -0.02785678 0.0037853322 0.012773492
-0.041318733 -0.02062169 -0.051177185 0.013117546 0.010272961 -0.04216348 -0.06806897 0.0017447417
-0.029675664 0.012173369 0.016860392 -0.06795583 0.02515158 -0.0516077 0.030320833 0.002714631
0.016005985 0.01216682 -0.04431665 0.030885983 -0.023953255 -0.06050589 -0.014058842 -0.04592971
-0.07905851 -0.03686781 -0.0817446 -0.0057254233 -0.022504162 -0.0012700892 0.026354926 -0.04221293
0.006030587 -0.052421127 0.020971017 -0.057802867 -0.057269543 0.022103209 -0.06609077 0.024200154
0.03029115 0.030820478 -0.031247003 -0.070237696 -0.040401634 -0.057661206 -0.055624932 0.043241043
0.05046507 0.03189687 0.05417974 -0.05160023 -0.008224707 -0.050943382 0.032562565 0.00904929
-0.013299916 -0.04816545 -0.0433024 -0.0366021 0.043490786 -0.08258863 -0.03546283 -0.036490854
-0.0101693235 -0.085090265 -0.0012577251 0.012429051 -0.02113108 -0.011689214 -0.08335204 -0.023506127
-0.024411824 -0.0152113 -0.019791892 0.028639581 -0.049147863 -0.023213888 -0.032282438 0.018563833

deconv2.0.bias f4 [16]
00000000: c350 afbc 595b 7dbd ed9d 6dbb 4921 403d
00000010: 585b fd3b e504 50bd c969 4d3c 9e5b 0f3d
00000020: 1b8e 22bd 79c5 283d 4788 4ebd 303b 44bd
00000030: 3553 2f3c 244b b2bc a075 4e3d 92b0 8bbb
-0.021400815 -0.061854694 -0.0036257461 0.046906743 0.0077318363 -0.050785918 0.012537428 0.034999482
-0.039686304 0.04120395 -0.050422933 -0.047908008 0.01070099 -0.021764345 0.050405145 -0.004262992

deconv2.1.weight f4 [16]
00000000: f805 6e3f 6e62 773f 1a41 7c3f a945 7f3f
00000010: 56c5 783f e86d 873f 897e 863f 58db 833f
00000020: d52f 773f abd3 7b3f e848 7f3f c1a9 7f3f
00000030: a106 803f 9217 803f 2139 823f 29ca 8a3f
0.9297786 0.96634567 0.9853684 0.9971567 0.9717611 1.0580416 1.0507365 1.0301313
0.9655736 0.98369855 0.9972062 0.998684 1.0002023 1.0007193 1.0173684 1.0842944

deconv2.1.bias f4 [16]
00000000: ea32 9abc c56f cd3c 7acc a53c 67d0 2e3d
00000010: badd 203d 60b5 56bc d9a9 b03d 6f0a 463c
00000020: 11ee 263d abe9 2ebd 57b5 823d 94fc 143d
00000030: fbd4 dc3c 13f3 4a3d 2583 063d 6cdd 69bd
-0.018823106 0.02507771 0.020239104 0.042679217 0.039273955 -0.013104767 0.08626146 0.0120874485
0.04075438 -0.042703312 0.06382244 0.03637369 0.026957026 0.04954822 0.032839913 -0.05709593

deconv2.1.running_mean f4 [16]
00000000: 3aca c8be 8e0d 0dbf f035 0abf 5af8 06bf
00000010: dc1f 26bf 1385 1fbf ebef 0abf 4eb0 d4be
00000020: cbae 22bf 7315 a8be 4c45 48bf a43d 43bf
00000030: d837 1cbf 8c91 70bf eeda 00bf 468c efbe
-0.39216787 -0.5509881 -0.5398855 -0.52722704 -0.64892364 -0.6231243 -0.54272336 -0.4154076
-0.6354796 -0.32828864 -0.7823074 -0.7626593 -0.6102271 -0.93972087 -0.5033406 -0.46786708

deconv2.1.running_var f4 [16]
00000000: 3b94 143f cf12 1a3f aa96 1b3f 5347 543f
00000010: 6e45 dd3e 5235 133e 6d9e 323f d58b b73e
00000020: c9cc 163f bea0 8d3e a90e af3f 3a23 253f
00000030: 874a 813f f2ed 9a3f ed9d 753e a015 0f3e
0.5803868 0.6018495 0.6077677 0.8292133 0.43217033 0.14375809 0.6977299 0.3584887
0.5890623 0.276617 1.3676349 0.64506876 1.0100869 1.2103865 0.23986025 0.13973093

deconv3.0.weight f4 [16, 8, 4, 4]
00000000: 9df9 fe3b 1a19 553c 267a ac3c 9ee3 d23d
00000010: 359e 6c3b 0561 0dbd 928b 543d 96f9 3e3d
00000020: 9b0b b2bc babe 083d 30e3 663d 3840 e23a
00000030: 2d66 41bd 691b 4b3d cf05 2f3d 8955 64bd
00000040: 8f3e 59bd 90a4 673d 0b29 18bd 2a22 99bc
00000050: d870 56bd d647 173c 9029 c9bc 3622 35bc
00000060: 29f3 c53c 6bea 8fbd d731 0e3d d4af 42bd
00000070: 68d1 1a3d ed0a b53c acf8 5dbb 9f60 823b
00000080: 406c 54bc 3933 883d 88bc 1b3c 9c7f 553c
00000090: 2397 a3bc d3b0 33bd c2d8 50bd 7064 59bd
000000a0: 173e 3d3c f221 293c a689 7cbc e5bf 3e3b
000000b0: b78d 043d 7776 003d e466 323d 6bcc 873d
000000c0: e07d 153e 02b3 48bd 4f21 87bc 4acc 083d
000000d0: 275c 493d 17ce ad3d ae52 46bb 1e80 133d
000000e0: 0416 883c e627 06bd f632 0c3c deaa d5bc
000000f0: 03e1 7a3c 8949 493d a0da ba3c 45f2 9fbc
00000100: ed2c 7a3d 35e7 0dbd bfde 893d ecd3 643d
00000110: 66b9 80bc 7fe1 84bc 3117 04bd 36ca 4cbc
00000120: 688f 4d3d da30 673d ffb8 8b3d 7d5e 343b
00000130: 9c0a ca3a f086 06bd 81f5 b63c a8fe 02bd
00000140: c8fc 1fbb 3f6d 193d c9cd 2fbd 3010 293d
00000150: a0c7 3fbd c70d e43c 11ad 7fbd 5f04 a63d
00000160: 6559 c8bc 9166 70bd 3a6d c7bc bebf aa3d
00000170: 8bdf 673d 26d0 283d a59e 083d b0ef 59bd
00000180: a811 f1bc 403d d53b c6be 733c c4c3 8abb
00000190: 8082 853d c81f 593c 6c47 623d 1b09 22bd
000001a0: f33d 4dbc ec5d d53d 0b18 9d3c ac51 efbb
000001b0: 784f 03bb 86f8 cebc 65e7 8fbd 202f 843c
000001c0: a4b1 69bc 78fe 853d f67c 5fbc a5cc 063d
000001d0: 6848 59bd b00d db3a 9486 8a3c bff1 6abd
000001e0: 4afe 9dbc d49d 263c 1122 f9bc 9ac5 973d
000001f0: 9577 df3c aa56 b6bc 7d32 a03d a8df 353d
00000200: 8dcd 0a3d 5656 673d 882b f7bc 7403 6cbd
00000210: 0840 4f3d 0453 173c 0206 c1bc 7f28 0dbd
00000220: 89aa 58bd 9d3e 833d e69d 083d 9102 d83a
00000230: 2c38 4c3c 2dff c0bc aa62 383d fcfa 1dbd
00000240: ee3c 9cbd 0de9 36bd 410c 8a3c 35ac e63c
00000250: 9482 023c 7d21 babc 577a 8abc a9a0 1bbd
00000260: 47b0 663d b733 90bd 0c41 f93c d875 ecbc
00000270: b312 2abd 4ea8 45bd 0a35 87bc cf28 473c
00000280: 90d2 d33c 99a5 b5ba 6d63 9fbd afed f9bc
00000290: 4959 de3c 1733 c73d bc0d 2b3d 5bc2 b63d
000002a0: 4751 92ba ec94 f3bb 9bc6 9cbd d0d6 ac3d
000002b0: c8ee 58bc f8d1 94bd f2be 823c 9f2d 91bd
000002c0: a82d bfbc b1a1 573d b87b bbbc bfd3 3e3c
000002d0: 3216 a13d 4614 6e3b 23ee 07bd 3281 ce3c
000002e0: 524a 8fbd 1532 9d3c 26d5 673d 1f15 29bd
000002f0: 8933 99bd edcf a73c 8c96 15bd 2e82 b33c
00000300: 97db 45bd d5eb 5e3d dfe8 9d3c 6901 00bd
00000310: 8765 eebc ff6f 47bd 7d2a c43b cb4b 9abd
00000320: d017 1dbd b890 193d 0be6 713d d1e6 af3d
00000330: 2486 423d 6a44 84bc 297d 1a3d a53b 50bc
00000340: 3467 cf3c c93e 4e3c 47bf 883c abbb b53c
00000350: 2a8e 02bd bd51 983c a870 253d 5e62 093d
00000360: 071b 023d 3835 ce3b b1d4 10bc 6566 cc3c
00000370: 61e2 e03c a2dc 613d 3d82 64bb 8312 9f3d
00000380: 7cc6 803b 31fe acbd 6cd4 203d 0977 993d
00000390: 940f 5bbb dc57 0cbd 696d 88bd 797c 86bc
000003a0: a5bc 3c3b 69d6 9b3d a26d 28b9 263f 14bb
000003b0: 7262 4e3c 8e68 713d 87c6 8dbc 6dfd a23d
000003c0: 9c8e 043c 955d a43c 6fbd 7ebd 709e 9abc
000003d0: 77ba ca3c e60c 45bd 1d4e e6bc b628 f13c
000003e0: d643 23bd 9772 763d 8dba 9abd fff1 a9bc
000003f0: 93d5 0f3c 7399 4cbc b986 993c 782a 853d
0.007781221 0.013006473 0.021054339 0.10297321 0.003610504 -0.034516353 0.051890917 0.046624742
-0.02173405 0.033385016 0.056369007 0.001726157 -0.047216583 0.049586687 0.04273015 -0.055745635
-0.053038176 0.056553423 -0.037148517 -0.018693049 -0.05235371 0.009233436 -0.024555951 -0.01105552
0.0241638 -0.070271336 0.0347155 -0.047530964 0.03779736 0.022099936 -0.0033870144 0.0039788033
-0.012965262 0.06650395 0.009505399 0.013030913 -0.019969529 -0.043869805 -0.050987966 -0.0530743
0.011550448 0.010323035 -0.015413677 0.0029106077 0.032361712 0.031362977 0.043555155 0.066307865
0.14598799 -0.04899884 -0.016495375 0.03339795 0.04916015 0.08486574 -0.0030261683 0.036010854
0.01661206 -0.032752894 0.008557072 -0.026082452 0.015312436 0.049142394 0.022809327 -0.019524703
0.061078 -0.034644324 0.067319386 0.055866167 -0.015713405 -0.016220806 -0.03224868 -0.012499383
0.05018559 0.056443073 0.068223946 0.002752214 0.0015414539 -0.03284353 0.022333862 -0.03198114
-0.0024412144 0.0374577 -0.04292086 0.041275203 -0.046821237 0.0278386 -0.06242091 0.081063025
-0.02445669 -0.058691565 -0.024344075 0.08337353 0.05660967 0.04121413 0.03335442 -0.0532071
-0.029427364 0.0065075457 0.014877027 -0.004234763 0.065190315 0.013252206 0.055243894 -0.039559465
-0.012526977 0.10418305 0.019176504 -0.007303437 -0.002003638 -0.02526499 -0.07026557 0.016135752
-0.014263544 0.06542677 -0.013640633 0.032910008 -0.053047568 0.0016712453 0.016909875 -0.057359453
-0.019286294 0.010169465 -0.030411752 0.074107364 0.0272787 -0.022258122 0.0782213 0.04440275
0.033887435 0.05647882 -0.030172125 -0.05762048 0.050598174 0.009236101 -0.023562435 -0.03446245
-0.05289701 0.06408427 0.03335371 0.0016480257 0.012464564 -0.023559177 0.04501597 -0.038569435
-0.07628809 -0.04465585 0.016851546 0.028158287 0.007965703 -0.022721047 -0.01690404 -0.037995014
0.056320455 -0.07041114 0.030426525 -0.028864786 -0.04152174 -0.04825621 -0.016504783 0.012155726
0.02585724 -0.0013858556 -0.07782636 -0.030508844 0.027142184 0.097265415 0.041761145 0.08923789
-0.0011163139 -0.0074335244 -0.076550685 0.0843941 -0.013240524 -0.07266611 0.01596019 -0.0708878
-0.0233372 0.052644435 -0.022886142 0.011647164 0.078655615 0.0036328002 -0.03318609 0.02520809
-0.06996597 0.01918892 0.05659976 -0.04127991 -0.07480533 0.020484889 -0.036520526 0.02191266
-0.04830512 0.054424126 0.01927608 -0.031251345 -0.029101146 -0.048690792 0.0059865103 -0.075339876
-0.038352787 0.03749153 0.059057277 0.085889466 0.047491208 -0.016145904 0.03771702 -0.012709533
0.025317766 0.012588211 0.01669277 0.022184214 -0.03187386 0.018593663 0.04039064 0.033541076
0.031764057 0.0062929653 -0.008839772 0.02495117 0.027451696 0.055142052 -0.0034867667 0.07767203
0.003929911 -0.08446921 0.03926508 0.07493407 -0.0033426033 -0.034263477 -0.06661493 -0.016416775
0.0028798964 0.07609255 -0.0001606257 -0.0022620647 0.012596713 0.0589376 -0.01730658 0.079584934
0.008090641 0.020064155 -0.062192377 -0.018874377 0.024747116 -0.048108004 -0.02811342 0.029438358
-0.039859615 0.060167875 -0.07555113 -0.020745276 0.008778947 -0.012487757 0.018740999 0.06502241

deconv3.0.bias f4 [8]
00000000: 6e5b b53b 1594 853d b36d 9d3d fc5b a3bc
00000010: c6ac 733d ea24 f33b 7e1c 5b3d 6930 07bd
0.005534581 0.06522385 0.07686939 -0.019941323 0.05949094 0.007420172 0.05349397 -0.033005152

deconv3.1.weight f4 [8]
00000000: 4a99 943f f5ee 953f 8d0b 973f 05b8 933f
00000010: 6b59 973f 47a4 933f ce03 973f f9ed 973f
1.160928 1.1713549 1.18004 1.1540533 1.1824163 1.1534508 1.1798036 1.1869498

deconv3.1.bias f4 [8]
00000000: 15e9 243e 1d17 2d3e cdb2 393e 4b32 1b3e
00000010: 828a 3a3e 491a 1b3e 3ee3 393e 42e0 3e3e
0.16104539 0.16903348 0.18134613 0.15155904 0.18216899 0.15146746 0.18153092 0.18640235

deconv3.1.running_mean f4 [8]
00000000: 58f2 3bbc 9325 65be efee f6b9 e950 2cbe
00000010: 16b5 ac3d 6252 8abb d8f4 19bd 4a99 42be
-0.0114713535 -0.22377615 -0.00047098796 -0.1682774 0.08432977 -0.0042212466 -0.037587017 -0.19003788

deconv3.1.running_var f4 [8]
00000000: 2167 e43d 4ffd 163e aeda 0b3e c995 0e3e
00000010: 254d 5a3e 997b 393e 16b5 223e 4fb5 513e
0.11152483 0.14745067 0.13657638 0.13924326 0.21318491 0.18113555 0.15889391 0.2047932

deconv4.0.weight f4 [8, 3, 4, 4]
00000000: 4f65 593d 0591 ad3a 001c d1bb 048c 1dbc
00000010: d179 6c3d ade2 9b3b e708 643e ba2b 0b3e
00000020: a933 383e f5cf 4b3e 6d12 553e 7ac4 243e
00000030: 84da 463d eb52 cb3d fb45 033e 0d04 5f3e
00000040: 60aa 59be 0a73 0abd f306 eabc 5e8d b7bd
00000050: a553 df3c 8a51 5fbe 2ebb d1bd 69ed 2abe
00000060: 4607 d6bd b22e 0fbe 151d 5fbe a7f7 88bd
00000070: c19c e8bc e1e3 3fbe d55e 55be 950d 6bbe
00000080: d2b4 12bc 17d3 d8bc 338f 58bd a624 82bb
00000090: 6fd6 ad3c 311b 62be 0bae 05be b7f4 6bbd
000000a0: 04d2 58be 7df8 86be bbd7 6abe 46f0 953a
000000b0: a957 f9bd f30f 13be c441 74be bce1 3fbe
000000c0: f4fe 803d d8ba 5c3c 52df 863d 719c ccbc
000000d0: 8b60 73bd 7335 9b3d 8d9f 303e d439 2b3d
000000e0: 1192 113e 7ad2 6c3d c0dd 1d3e 1861 b23d
000000f0: e816 31bd b9a4 1b3e b0dd 98bd 71c7 863d
00000100: 7b61 303c 7aee 70be 0ea7 7bbe 10d9 eebd
00000110: 0e65 7bbe 55b2 12be c040 32be 63f2 d8bc
00000120: e52e 46be 65ac 2cbc 0ff8 00be cd99 b7bc
00000130: be6e 7abd dc1b 6abe 2ca0 2ebd f4c6 14be
00000140: 2ff0 eb3c 14e9 69be f096 de3b 5483 c9bd
00000150: 0434 14be 4915 31be 2f71 7cbe d651 5ebe
00000160: 9399 2fbe 620e 78be 6706 a5bd 0ea7 65be
00000170: ff20 b63c 7f40 d3bd 7d25 74bd 11d2 ddbd
00000180: 1a07 213e df4d 813d 9d92 2fba 1343 d93d
00000190: 2af3 2a3e bc58 b03d e85c 0d3e 36e5 2f3d
000001a0: 9500 143e d311 51bd f62f 073e b0e0 983d
000001b0: dfb9 8d3b 432f 7c3d ebc8 ef3d f56e db3d
000001c0: 2227 83bd 5a59 d7bd 376f b7bd 0a18 a6bd
000001d0: 2c47 87be 678e b2bc e1d3 5dbe 6462 4fbe
000001e0: 41d6 9ebc 1b98 2bbd 4992 e0bd adc0 d9bd
000001f0: eaa9 80be e9b0 d3bd 6b79 d2bc af41 a7bd
00000200: 34e9 90bd 4e13 a4b7 cc72 6bbe c042 eebd
00000210: e894 edbd e6e3 2cbe c6aa 35be 6063 65be
00000220: 2a5a 47bd 9ed2 d4bd 85aa ffbd 57a7 3bbd
00000230: df6a 94bd 0fc1 3ebe 4df8 8d3c 3872 5dbe
00000240: 6c58 f53d fab9 2ebc 76c2 053e b418 0e3e
00000250: 711f 3d3d 6356 a53d e957 473d eed3 3c3d
00000260: 6fc6 a93d 2935 a8bd e77e ae3d 2b43 173e
00000270: 140c 203e b226 2c3d fd59 f33d ea10 d63d
00000280: 0868 60be da58 e4bd ea59 063c e300 b13c
00000290: 1a69 cbbc afe1 dcbd 7d55 c2bd 9c4b 32be
000002a0: 8459 53be f423 85be 2c5b 91bd 903e 12be
000002b0: 18eb 7abe 7138 32be 2211 4abe 0c64 44be
000002c0: 2f94 13be 735d 60be ec92 62bd 2252 cbbc
000002d0: 2663 e1bd bdc0 18bd 2ec4 f2bd 734d 9dbd
000002e0: 1c9b 19be da62 d6bd 6b13 cabc 4206 21be
000002f0: 5d5c 7ebe 2bb8 6abe f05e 25be 2d58 0ebe
00000300: 4965 40bd ad64 053e f6f1 e53c 87f5 553e
00000310: 3719 33bd 61fb 323e 0de4 913d 097c 1abc
00000320: 6939 603e 81d1 063e acee 75bd 8f99 a53d
00000330: 93d7 7f3d ca02 1f3e 329e d53d f51c d93c
00000340: c726 fcbd 204e f5bd 5b6a 13be fe10 77be
00000350: 18fd e5bd 4633 b9bb d76e 14be fcf8 2dbe
00000360: 57a1 64be 5679 1abe c189 5bbe 77a6 52be
00000370: fe26 74be 0322 69bd fb60 09be 607a 9bbd
00000380: 258a 89bd 9932 21be fd70 52be cab4 08bd
00000390: 33ff 17be 065c cbbd fb1d bbbb 05f7 c6bd
000003a0: 1d04 73bc 042e 2abe ae02 f1bd 10e9 5bbd
000003b0: c744 0cbe e818 8fbd 87fb 6f3c ae15 2dbe
000003c0: 023d 7a3d 0daf 1e3e 0c10 db3c c992 013e
000003d0: b33a c83c a440 d0bb bf1d 363e 5dc2 103e
000003e0: ca2a 3c3d 585a d83d 1635 f83d 1594 173e
000003f0: 4da2 5a3e c084 e0bc ecf2 d53d b232 6b3d
0.05307513 0.0013242072 -0.0063815117 -0.009615902 0.05773336 0.0047572465 0.22269021 0.13590899
0.17988457 0.19903548 0.2080781 0.16090575 0.048548236 0.09927925 0.12819664 0.21778889
-0.21256399 -0.033801116 -0.028567767 -0.089625105 0.027261565 -0.21808448 -0.1024078 -0.16692127
-0.10450606 -0.13982657 -0.21788438 -0.06687861 -0.028395059 -0.18739273 -0.20836957 -0.229544
-0.008954244 -0.026467843 -0.05287094 -0.003971654 0.021220414 -0.22080685 -0.13054673 -0.057606425
-0.21173865 -0.26361457 -0.22933857 0.0011439405 -0.12174923 -0.14361553 -0.23853213 -0.18738455
0.062986284 0.013472281 0.06585564 -0.02497694 -0.059418242 0.07578554 0.17248364 0.041803196
0.14215876 0.057817914 0.15416622 0.087099254 -0.043234736 0.15199555 -0.074641585 0.06581009
0.010765429 -0.23528472 -0.24575445 -0.11662495 -0.24550268 -0.14325841 -0.17407513 -0.026482766
-0.19353826 -0.010539149 -0.12594627 -0.022412205 -0.06114077 -0.2286219 -0.04263322 -0.1452902
0.028801052 -0.22842818 0.0067928955 -0.09839502 -0.14472967 -0.17293276 -0.24652551 -0.21710905
-0.17148428 -0.24224237 -0.08057862 -0.22427008 0.02223253 -0.10315036 -0.059606064 -0.108310826
0.15725365 0.06313681 -0.00066975673 0.106084965 0.16694322 0.08610675 0.13804972 0.042943202
0.14453347 -0.05104239 0.1320189 0.07464731 0.004325136 0.06156851 0.11708244 0.10714523
-0.06403948 -0.10515089 -0.089567594 -0.08110054 -0.26421487 -0.021796418 -0.21662857 -0.20252377
-0.019389274 -0.041893106 -0.10965402 -0.10632453 -0.25129634 -0.10336477 -0.025692662 -0.08166825
-0.0707573 -1.9559313e-05 -0.2299301 -0.11633825 -0.11600667 -0.16883811 -0.17740926 -0.2240119
-0.04866997 -0.103917345 -0.12483696 -0.045813885 -0.072469465 -0.18628334 0.017330313 -0.21625602
0.11979756 -0.010664457 0.13062462 0.13876611 0.046172563 0.080731176 0.048667822 0.04610055
0.08289801 -0.082132645 0.085202985 0.14771716 0.15629607 0.04202909 0.11882398 0.10452445
-0.21914685 -0.111497596 0.008200148 0.021606868 -0.02483039 -0.10785233 -0.09488962 -0.17411655
-0.20639616 -0.26003993 -0.07097468 -0.14281678 -0.24503744 -0.17404343 -0.19733098 -0.1917879
-0.14411996 -0.21910648 -0.055315897 -0.024819437 -0.11005239 -0.037293185 -0.118538246 -0.07680788
-0.15000576 -0.10468073 -0.024667462 -0.15725043 -0.24839921 -0.22921817 -0.16149497 -0.13900824
-0.046971593 0.13026686 0.028069478 0.20894442 -0.04372522 0.17478706 0.07123575 -0.009428986
0.218969 0.13165857 -0.06004207 0.080859296 0.062461447 0.15528408 0.10430564 0.026503066
-0.12312084 -0.11977792 -0.1439604 -0.24127576 -0.112299144 -0.005651864 -0.14495407 -0.16989511
-0.22327171 -0.15085348 -0.21439268 -0.20571314 -0.23843 -0.0569172 -0.13415901 -0.075917006
-0.06715802 -0.15741958 -0.20550914 -0.03337554 -0.14843445 -0.099296615 -0.005710361 -0.09715084
-0.014832524 -0.16619116 -0.11768089 -0.053689063 -0.13698111 -0.06987172 0.014647371 -0.16902801
0.061093338 0.15496464 0.02674105 0.1265365 0.024442052 -0.006355362 0.17784785 0.14136644
0.045939244 0.10564107 0.121195 0.14802583 0.21350975 -0.02740705 0.10446724 0.057421394

deconv4.0.bias f4 [3]
00000000: 63e7 91bd c465 21bd 7214 6cbe
-0.07124212 -0.039403692 -0.23054674
