Pix2Pix/checkpoints/pix2pix_model_epoch_190.pth (torch, 99191 bytes, 32 tensors)

conv1.0.weight f4 [8, 3, 4, 4]
000000 53 ff f9 3d 5e 28 e4 3d b7 67 b0 bd 8e 26 18 3e
       0.12206902 0.11140512 -0.08613532 0.14858457
000010 a9 95 8c 3d 02 09 75 3b 01 98 8d bd 7e ec e7 3d
       0.06864483 0.0037389402 -0.06913758 0.11324404
000020 40 28 d4 bd c3 48 0c bd 93 b6 23 b9 bf b6 ca bc
       -0.103592396 -0.03424908 -0.00015612906 -0.024745343
000030 7d da f0 3d f2 7b b8 3d ef f0 09 be 54 b1 0c be
       0.11760423 0.09008016 -0.13470815 -0.1373952
000040 68 4e 44 bd ab 75 b4 3d 1b 5e 78 3c fa c3 2c 3e
       -0.047926337 0.08811506 0.015159155 0.16871634
000050 ef 08 56 bd 49 23 37 bd a1 cc 3e 3e 6b 2b 88 bd
       -0.052254613 -0.044711385 0.18632747 -0.06648906
000060 4d e8 11 be 58 a7 00 be 33 2d bc bd 11 17 fc bd
       -0.14248772 -0.12563837 -0.091883086 -0.12309087
000070 cd c7 b5 bd 8e b8 14 3c cb 18 f9 3d 0d c2 a0 bd
       -0.088759996 0.009077204 0.12162932 -0.07849512
000080 48 16 96 3d 4f d6 f8 3d 03 65 8b bd 40 2b d4 bd
       0.073284686 0.12150251 -0.06806376 -0.10359812
000090 a1 8f 77 bd ba 40 6a bb e9 78 08 3e f6 0a 85 bc
       -0.06043971 -0.0035744146 0.13327374 -0.016240578
0000a0 23 5a 8f bd 43 ef db bd b8 e3 0e be ee e2 bd 3c
       -0.06999614 -0.10738995 -0.13954055 0.023179498
0000b0 78 65 f3 3d 1b b2 a8 bd 1f 23 23 3e 45 c4 92 3c
       0.11884588 -0.08237096 0.15931366 0.017915854
0000c0 eb 61 1d 3c 4e 8e 95 3c 32 3a 86 bd ef 63 0b 3e
       0.009605865 0.018256333 -0.065540686 0.1361234
0000d0 d8 75 02 3e 57 67 9a 3d 0c 34 e0 3d e4 d7 61 3c
       0.12740266 0.07539242 0.10947427 0.0137843825
0000e0 ce e0 2e 3c 45 71 91 bd 5c fa b9 bd e2 76 d3 3d
       0.010673715 -0.071016826 -0.090809554 0.103254095
0000f0 a9 15 6e bd df 42 4c 3d e4 8f 74 bd 17 f2 16 3e
       -0.058126125 0.04986846 -0.059707537 0.14740787
000100 74 75 ad bc f9 98 6e bd d2 8a 04 3e fd 38 fc bd
       -0.02117417 -0.058251355 0.12943581 -0.12315557
000110 5a 21 49 bd b4 e6 e2 bd 31 3d 5f 3d aa e1 20 bd
       -0.049104072 -0.110791594 0.054501716 -0.03927771
000120 69 76 a8 ba 3f 7c 5b 3d 04 b3 61 3d f2 36 e5 3d
       -0.0012852672 0.053585287 0.055102363 0.111921206
000130 7e 71 6d 3d 22 1e fd bd da 07 de bd 92 7a 48 3d
       0.057969563 -0.12359263 -0.10841341 0.048945017
000140 f1 2e 21 3d bc c6 a2 3d 7a 83 01 be c6 f1 0f be
       0.039351407 0.07948062 -0.1264781 -0.14057073
000150 28 cf ce 3d 42 bf 9b bd d4 3d bd bc 8f 3c 97 bd
       0.10098106 -0.07604839 -0.023100771 -0.073845975
000160 d9 d0 42 bd e8 e8 d3 bd eb 79 00 be e0 91 41 3d
       -0.047562454 -0.10347158 -0.12546508 0.047258258
000170 00 07 51 bd f4 d1 37 bd 93 98 fb bd 37 24 14 3d
       -0.051032066 -0.04487796 -0.122849606 0.03616735
000180 0d a8 a7 3d 88 22 b5 bd 6b c8 ad 3c ab 63 1f 3e
       0.0818635 -0.08844477 0.02121373 0.15565364
000190 70 9f 07 be 14 52 c2 bd 3f 54 9d bd bc 99 5e 3d
       -0.13244414 -0.094883114 -0.07682084 0.05434583
0001a0 55 94 07 be 7e 92 c8 bd 0c e0 eb 3b b6 dc 98 bc
       -0.13240178 -0.09793566 0.0071983393 -0.01865993
0001b0 14 b5 e0 3d fc 60 cd bd d8 83 68 3d f7 3d fe 3d
       0.10972038 -0.10028264 0.05676636 0.124141626
0001c0 af 24 db 3d dc b1 11 be d7 93 7c 3d 1d 5c d2 bd
       0.10700356 -0.14228004 0.06166443 -0.102714755
0001d0 9d c4 e4 3d a9 5b 9d bd 6b b2 96 3b 92 de 13 3e
       0.111703135 -0.076834984 0.004598906 0.14440373
0001e0 a4 10 e1 bd d6 24 60 bb 32 95 bc 3c e1 90 11 3e
       -0.10989502 -0.0034201643 0.02302036 0.14215423
0001f0 c0 c1 cd 3d 0c 3d e7 bc e6 05 ca bc a7 e2 cf 3d
       0.100467205 -0.028227352 -0.024661016 0.101506524
000200 e1 e0 dd 3b 6e ee 00 3d 24 84 17 be 2e 70 20 3d
       0.0067711924 0.031477384 -0.14796501 0.039169483
000210 71 4c 88 3d 68 4c e0 bd 32 5e 05 3e 63 77 14 bd
       0.06655205 -0.10952073 0.13024214 -0.03624667
000220 2b 82 da 3d 8a bf d8 bc 32 de 84 3d 21 78 b1 3d
       0.10669359 -0.02645852 0.06487693 0.08665491
000230 e1 70 d8 bd 76 51 dc bd 51 bd 0c be be 30 4e bd
       -0.10568405 -0.10757725 -0.13744093 -0.050339453
000240 67 e8 16 bd df 60 a7 3c 5b 80 8f bc 3f 01 75 bd
       -0.03684273 0.020431934 -0.01751726 -0.05981564
000250 d4 27 f9 bd 4a f2 00 be b9 0c 85 3d 20 1e 00 3e
       -0.121658 -0.12592426 0.06496567 0.12511492
000260 e6 82 a9 3d 10 6d 48 3d 06 73 27 3c 0c 91 ed 3d
       0.0827692 0.048932135 0.010220295 0.11599931
000270 31 d4 9c 3d 8e ff c4 bd a5 84 bb 3d 0f d4 9b bd
       0.0765766 -0.09619056 0.09156159 -0.07608806
000280 5e 21 a3 bc a4 bf b5 3d f4 b0 17 be a4 2c 93 bd
       -0.019913372 0.08874443 -0.14813596 -0.07186249
000290 b5 50 9a bd 8d d8 f6 3c 7d ff 14 be d5 56 aa bd
       -0.07534925 0.030132556 -0.14550586 -0.08317343
0002a0 4a 7d 22 3c 92 3b 9b 39 74 2a 78 bc 58 ca 7c bd
       0.009917567 0.00029608287 -0.01514684 -0.061716408
0002b0 fa 49 53 3d 0e fd 36 3e ce c1 b6 3d d4 ec e3 3c
       0.05158422 0.1786997 0.08923684 0.02782289
0002c0 40 a0 0c be 14 50 8d 3d 78 84 1d 3c c5 cc 42 3d
       -0.13733006 0.06900039 0.009614103 0.047558565
0002d0 a0 ee bb bc 22 0b b7 3d 72 4f 7b 3c c4 c2 e9 3d
       -0.022940934 0.0893767 0.015338765 0.11414102
0002e0 05 e5 14 3e 9c ec 65 3d 11 d7 aa 3c 65 0d 7f 3d
       0.14540489 0.05613385 0.020854505 0.062268633
0002f0 d9 5c 15 3e 15 ff 64 bd c7 fb ab 3d d5 53 d6 3d
       0.145862 -0.055907328 0.08397632 0.104652084
000300 9e 6a 55 3e c7 0c 48 3e af 29 3a 3e 47 78 87 bc
       0.20841452 0.19536124 0.18179964 -0.016536845
000310 78 5f 64 3d be 6d 95 3d 82 31 ea bd 9d 79 75 3d
       0.05575511 0.07296322 -0.11435224 0.059930433
000320 68 fd cc 3d 50 da 93 bd a9 c9 a7 bc 64 6f 32 bc
       0.10009271 -0.07219374 -0.020481901 -0.010890815
000330 b3 62 88 3d 9d 62 03 be 99 c3 29 3d 8a 11 cd bb
       0.066594504 -0.12830587 0.041446302 -0.0062581943
000340 10 17 7a 3d e5 eb 9e bc 91 ea 01 3e 0f d3 ef bd
       0.06105715 -0.019399593 0.12687136 -0.11710178
000350 e8 ed d7 bd 32 af 3b bd b8 b5 89 3c 18 5e 92 3d
       -0.10543424 -0.045821376 0.016810283 0.07146853
000360 77 28 17 3e 5f 61 9b bd bf 32 cd bd 2e f3 e6 bd
       0.1476153 -0.075869314 -0.10019445 -0.112768516
000370 9f d6 cf bd 17 10 f8 3d 6b f8 43 3d 15 a4 86 3d
       -0.101483576 0.12112444 0.04784433 0.06574265
000380 f2 01 0d 3e f3 8b 74 3d df 53 c4 bd 0d 7f 41 3d
       0.13770273 0.05970378 -0.0958631 0.047240306
000390 0a 7f df bd 83 4d 91 3a bc d3 a7 3d a9 d8 fa 3c
       -0.10912903 0.0011085722 0.08194682 0.03062089
0003a0 84 ce b0 bc 76 9a d6 3b 64 ef 4d 3d ae 1a e5 3d
       -0.02158285 0.006549175 0.05027713 0.11186729
0003b0 9f ec 03 be df cf c1 3a a1 af 8d 3d 01 10 e2 bc
       -0.12883233 0.0014786682 0.06918264 -0.027595522
0003c0 cd 47 04 3e 06 ad 43 bb 6a fc fe 3a 42 d0 21 3d
       0.12918015 -0.0029857769 0.0019453887 0.03950525
0003d0 11 38 69 bc 94 e7 12 3e 9a 43 26 3d f4 31 0e 3d
       -0.014234559 0.14346153 0.040591814 0.034715608
0003e0 3e 03 57 bd 26 69 f8 bc 8f 4c d8 bd 61 43 0c bd
       -0.052493326 -0.030323576 -0.105614774 -0.034243945
0003f0 81 93 ac 3d 0e f1 8c bd 76 d5 8e 3d e2 6d fb bd
       0.08426572 -0.06881915 0.06974308 -0.12276818

conv1.0.bias f4 [8]
000000 91 1d 7e bd 48 1c eb bd 22 12 d5 3d d3 bb a4 bd
       -0.062039915 -0.114800036 0.10403849 -0.08043637
000010 eb ae 0c 3e ee a1 c6 bd 30 c8 df 3d 14 72 3e 3d
       0.13738601 -0.096988544 0.109268546 0.046495512

conv1.1.weight f4 [8]
000000 02 24 7f 3f 2e bf 7c 3f a4 b5 80 3f fa fb 82 3f
       0.9966432 0.9872922 1.0055432 1.0233147
000010 6e f2 80 3f 42 4d 82 3f 5b 61 81 3f 5f df 7a 3f
       1.0073984 1.0179827 1.0107836 0.9799709

conv1.1.bias f4 [8]
000000 07 d1 67 bc f3 0a 49 bc 53 83 b4 bd 0a f7 a8 3d
       -0.014148957 -0.012270677 -0.088141106 0.08250244
000010 35 0d 19 bd a2 78 23 3d b7 70 06 3d a9 f2 3b 3c
       -0.03736611 0.039909966 0.032822337 0.011471429

conv1.1.running_mean f4 [8]
000000 22 39 83 bd 1c 50 1a be d1 fe d9 3d b5 f1 ee bd
       -0.064073816 -0.15069622 0.106443055 -0.11667196
000010 13 42 fd 3c 29 51 e4 bd f0 fd 4b 3e ee 15 40 3d
       0.030915296 -0.111482926 0.19921088 0.046895914

conv1.1.running_var f4 [8]
000000 8c ce d9 3c 4c 45 1b 3d ee 2a 8d 3c 79 79 f6 3d
       0.026587747 0.037907884 0.017232385 0.12034888
000010 02 a7 06 3e 1f b6 ef 3c ab d0 e2 3d 8f fd 3a 3c
       0.13149646 0.029261647 0.110749565 0.011412992

conv2.0.weight f4 [16, 8, 4, 4]
000000 f2 48 5a 3d 30 70 c3 3c 8a b1 b1 bd 2f 94 80 bd
       0.053292222 0.023857206 -0.08676441 -0.06278264
000010 57 b3 26 3d 52 73 3a 3d 87 b2 05 bd e1 57 1d 3d
       0.040698376 0.045520134 -0.03264096 0.038413886
000020 00 73 4e bc 00 26 d8 bc f4 07 8e 3d bb 4a 8f 3d
       -0.01260066 -0.026385307 0.06935111 0.069966756
000030 87 15 37 bd 85 93 3e 3d f7 53 eb 3c 62 3a ac 3d
       -0.044698264 0.046527404 0.028726561 0.08409573
000040 23 fc 36 3d c9 2e a1 3c b5 79 dd 3d 8b 39 ad 3d
       0.04467405 0.01967563 0.108142294 0.08458241
000050 c4 9a 0e bd 74 1a c7 3c 97 71 05 bd 4f 14 43 3d
       -0.034815565 0.024304606 -0.03257903 0.04762679
000060 f9 32 9e 3d 4e 27 b1 bc f7 74 ba bc 2d ca 40 3b
       0.07724566 -0.021625187 -0.022760851 0.002941738
000070 e2 c4 d4 bc d3 64 5d 3d 5d 94 15 3e d1 7d 08 3e
       -0.025972787 0.05405123 0.14607377 0.13329245
000080 c6 3a 11 bd 7e a8 24 bd 23 ea a5 bc 45 64 5e bc
       -0.03545644 -0.04019975 -0.020253247 -0.013573711
000090 c7 cf 79 3d 82 be ea 3c 4a 36 58 3a a9 97 a7 3d
       0.060989168 0.028655294 0.0008247836 0.08183224
0000a0 cd 1b 9c b9 66 45 24 3d 6c 58 c2 3d e3 5b 15 bd
       -0.00029775352 0.040105246 0.094895214 -0.036464583
0000b0 62 7c a8 3c 49 6d 9c 3c 9a f5 2e bd 10 33 e7 bc
       0.020567123 0.01909508 -0.042714693 -0.02822259
0000c0 bc 61 1b bd cc a7 38 bd 29 84 c1 3c 78 06 53 bc
       -0.037935004 -0.0450819 0.02362259 -0.01287996
0000d0 31 54 2f bd 2f 14 8c bd 3d 0a aa 3d fd 98 cf 3b
       -0.0428049 -0.06839787 0.08302734 0.0063353763
0000e0 14 24 47 3d 41 ef d4 3c 53 68 1e 3d 7e 1c 14 3c
       0.04861839 0.025992991 0.03867371 0.009039996
0000f0 49 36 74 bd 85 5c a0 3d 3e b8 63 bd 67 a2 6d 3b
       -0.059622083 0.07830147 -0.05559563 0.003626013
000100 3d dd 46 3b 62 00 87 3d 4a aa e4 bc 1c b4 90 3d
       0.003034427 0.0659187 -0.027913231 0.07065603
000110 2c 9d 2e bd 4e 6e 70 bc 8c d7 bd 3c 9b fc b7 3d
       -0.04263036 -0.014674736 0.02317407 0.089837275
000120 15 a0 79 3d e2 40 a1 3d cb 4e 7c bc 13 48 ef 3d
       0.06094368 0.078737035 -0.015399645 0.11683669
000130 b8 f3 9b 3d 48 66 cf 3d 9c 4e b1 3d 51 2e a7 3c
       0.07614845 0.101269305 0.08657572 0.020407828
000140 51 f3 7c bc b7 3c 9a bc 53 77 74 3d ea f7 3a 3d
       -0.0154388705 -0.01882778 0.05968411 0.045646586
000150 52 7e 17 3d e2 20 a9 bc b0 4d 85 3c cd 3e f6 3a
       0.036985703 -0.020645563 0.016272396 0.0018787027
000160 f3 9a 32 3d a7 1a 80 bd 72 82 43 bd 49 4a fe 3c
       0.043604802 -0.062550835 -0.047731824 0.031041281
000170 50 26 1d 3d a8 f1 0a 3c 49 56 35 bd bd 14 0d bd
       0.038366616 0.008480467 -0.04427174 -0.034443606
000180 a2 2d 82 bd f9 20 4a 3d 38 c6 0b 3d aa ee fe 3c
       -0.0635636 0.04934785 0.034124583 0.031119663
000190 cc f9 87 3d a3 cc e9 bc 65 c9 b5 3b c0 9d 15 bd
       0.06639442 -0.028539961 0.0055476897 -0.036527395
0001a0 14 bb 24 3d 74 73 19 bd 99 38 c6 3d 66 e6 99 bb
       0.040217474 -0.03746362 0.09678764 -0.004696655
0001b0 b5 da 1a 3d 44 e7 84 3d 2c 71 9d bc 4d 46 c8 3c
       0.03780623 0.06489423 -0.019219004 0.024447585
0001c0 45 cb f4 bc f9 d5 0d 3d d7 29 76 bd 21 dd 82 3d
       -0.029882083 0.03462789 -0.060098495 0.06389833
0001d0 75 53 99 bd e3 92 06 3d 27 a1 b6 3c 2d 0c 9d 3a
       -0.07486621 0.032854926 0.02229364 0.0011981778
0001e0 f8 e6 ac bc 7d 1e b7 3d 3e a2 e9 bc a4 1c f7 bc
       -0.021106228 0.08941362 -0.028519746 -0.030165024
0001f0 59 58 b0 bb 9a bb 4e 3d c1 94 c9 bc 65 b2 6e 3d
       -0.0053816256 0.05047188 -0.024607064 0.0582756
000200 5d 4a 05 bd dd 1d d1 bc 7f b7 4c 3d aa bd 6a 3d
       -0.03254162 -0.025526935 0.049979683 0.057309784
000210 0f b8 76 bd 97 cd f3 3c 7d a5 f9 bc 54 8f bb bd
       -0.060234126 0.029761119 -0.030474419 -0.09158197
000220 2e 90 75 3d 70 80 61 3c af f5 6a 3d 3a 01 a7 bc
       0.059951954 0.013763532 0.05736321 -0.020386327
000230 a7 35 b5 bd 25 bb 25 3d 09 ad e5 bc 8e d9 98 bc
       -0.08848124 0.040461678 -0.028036611 -0.018658426
000240 6c 18 9a ba af 0e 97 3d d1 fa fd bc 0a c0 fb 3c
       -0.0011756546 0.073758475 -0.031003388 0.03073122
000250 39 71 cf 3c f8 ce 84 3c 50 5d 2e bd 0a 3e a6 3c
       0.025322543 0.016211972 -0.04256946 0.020293254
000260 a9 93 63 3d c0 0a 5c 3d ed 91 4e 3d b5 16 97 3c
       0.05556074 0.05372119 0.050432134 0.018443445
000270 c5 14 45 bd d8 d0 ab bc 1b 89 8f 3c 62 9d f4 3c
       -0.04811551 -0.020973608 0.017521432 0.029860202
000280 a5 02 a0 3d 71 c3 85 3d e3 5b 9c bb 9d 3f a5 3c
       0.078130044 0.06531418 -0.004771696 0.020171935
000290 ae 0f 5e bd 36 85 c1 bd 55 40 d3 bd 23 45 91 bd
       -0.054214172 -0.09449236 -0.10315005 -0.07093265
0002a0 ea 99 06 be b0 cb 2e bc 06 51 c2 bb 51 bb d5 bd
       -0.13144651 -0.01066868 -0.005930069 -0.104361184
0002b0 e5 76 c2 3c dd 6b 8d 3b fa 89 85 bc 67 1d 44 3c
       0.023738334 0.004315837 -0.016301144 0.011969901
0002c0 b1 3f c5 3d dd da ee 3b 2b cd ae 3d 23 ec 6e bc
       0.09631289 0.007289274 0.085352264 -0.014582667
0002d0 7b e2 b1 bc 37 f6 48 bd b5 b0 aa bc 16 6d 63 3d
       -0.02171444 -0.049062934 -0.020836214 0.055523954
0002e0 2a ef 4b bd 72 c7 ac bd e5 8f 84 3c 0e c9 e7 3c
       -0.04978863 -0.08436479 0.016181896 0.028294113
0002f0 4a 63 9d 3d 3e 22 0d bd 34 a3 58 3d ad dd 18 3c
       0.076849535 -0.034456484 0.052890018 0.009330195
000300 52 33 84 3c eb c2 31 bb 58 ca c7 3b 29 63 83 3c
       0.016137753 -0.0027124237 0.0060971193 0.016038494
000310 53 92 2e 3d ab 8a 87 3c 23 85 2d bd 18 55 1d 3d
       0.042620014 0.016545614 -0.042363297 0.03841123
000320 93 71 60 3d 5a 16 84 3d 3c 63 f8 bc 87 52 8d bd
       0.054795813 0.06449576 -0.030320756 -0.069005065
000330 89 e4 85 bd 3c 91 b1 3c 93 b6 95 bd 5a c6 b1 3c
       -0.0653773 0.021675698 -0.07310214 0.021701027
000340 f2 17 f7 bb d3 01 d7 3d 31 a6 78 3d 17 6f 74 3d
       -0.0075406963 0.10498395 0.060705367 0.059676256
000350 7f 3a 65 bd 96 09 b6 3d 61 33 c0 3d 5f 26 c2 3d
       -0.05596399 0.08888547 0.093848 0.09479975
000360 37 b6 c9 3c d8 c4 54 bd de 1e 3f bd 65 43 69 3d
       0.02462302 -0.051945537 -0.046660297 0.056949038
000370 99 58 c1 bd 3a 62 e8 bd 79 40 f8 bd 3a e3 eb bc
       -0.09440727 -0.1134686 -0.12121672 -0.028794874
000380 8e 2b 90 3d ec c2 c8 3c 11 c3 85 bd f9 19 fb 3c
       0.070395574 0.024507008 -0.065313466 0.030652033
000390 3d 09 11 bd 12 e6 e8 bb aa 2b 22 3d 7e 30 9d bc
       -0.0354092 -0.0071075046 0.039592423 -0.019188162
0003a0 65 d1 3a bc 59 87 ad ba 97 00 72 bd 99 4d 81 3d
       -0.011402463 -0.0013239189 -0.059082594 0.06313629
0003b0 54 a2 a9 3d f9 de 23 3d ce 45 b5 bc 7c 8f 86 3c
       0.08282915 0.040007565 -0.022128012 0.01642584
0003c0 3f 6a 04 3d 51 83 6d 3d 17 aa c1 3d 94 6b 1b 3a
       0.032327887 0.05798656 0.0945627 0.0005928811
0003d0 36 91 32 3d b0 e2 34 bc 6e db b2 3d fa 37 46 3d
       0.043595515 -0.011040375 0.08733259 0.048393227
0003e0 ea 2a dd 3c 55 4e 96 39 92 6b 7f bd 68 92 de bc
       0.026998002 0.0002866859 -0.062358446 -0.027169421
0003f0 80 bb d3 bd b4 c1 7f bd f4 10 35 bd ad 58 87 bd
       -0.10338497 -0.06244059 -0.04420562 -0.066087104

conv2.0.bias f4 [16]
000000 a0 69 3c 3d 84 bd 43 3d ce 43 92 bd 07 21 47 3d
       0.04599917 0.047788158 -0.07141839 0.04861548
000010 47 88 68 3d ac db 91 bd 74 d8 6b 3d 06 cc e7 bc
       0.05677059 -0.07121977 0.057579473 -0.028295528
000020 5c 19 11 3d f2 a0 d2 3b b5 59 d2 3c db aa 1c 3d
       0.035424575 0.0064278776 0.025677541 0.038248878
000030 71 27 8f bd e8 2a a2 3d e3 fb 40 bd bb f6 60 3d
       -0.06989945 0.0791834 -0.047115218 0.0549228

conv2.1.weight f4 [16]
000000 3a 6a 80 3f 99 b6 7d 3f 0a 60 89 3f 95 cd 7e 3f
       1.0032418 0.99106747 1.0732434 0.99532443
000010 75 bd 86 3f f6 6d 7c 3f 10 f6 86 3f 7d 3c 7c 3f
       1.0526568 0.9860529 1.0543842 0.985298
000020 0e e2 79 3f 72 42 7e 3f fd 90 7f 3f b6 8e 7c 3f
       0.9761056 0.9932014 0.9983061 0.9865526
000030 a6 69 84 3f 9c f6 7d 3f 7e 01 80 3f bd 75 7b 3f
       1.0344741 0.9920442 1.0000455 0.9822653

conv2.1.bias f4 [16]
000000 88 b3 db bd 22 e5 00 bc 2a 38 bd bb 66 76 f6 3c
       -0.10727602 -0.0078671295 -0.0057745175 0.030085754
000010 e3 78 83 3d 58 69 87 bc 93 18 09 3d cb f6 ac 3c
       0.06419542 -0.016529724 0.0334707 0.021113774
000020 26 6d 2e 3c e0 2e 39 3d 06 1b 08 bd 58 e1 27 bc
       0.01064614 0.04521072 -0.033228897 -0.010246597
000030 64 1e 35 3d 77 6d b2 3c 0d ba e5 3c 08 51 8e bc
       0.044218436 0.021780713 0.028042817 -0.017372623

conv2.1.running_mean f4 [16]
000000 f5 e0 44 3f de f5 48 3e bb 2d 08 bf 31 e9 0e bf
       0.7690576 0.19625041 -0.5319478 -0.5582457
000010 c9 11 85 be d1 af 3d bd 0b 6f fb be ad 07 81 bd
       -0.25990131 -0.04631025 -0.49108157 -0.06300292
000020 67 6a 46 3e 13 20 0c 3d bc 33 86 3e a1 5c 76 3e
       0.19376527 0.034210276 0.26211345 0.24058773
000030 72 b3 a6 bc 66 98 7e 3e da c7 0a bf 3c a8 b0 3e
       -0.020349238 0.24862823 -0.542112 0.34503353

conv2.1.running_var f4 [16]
000000 e1 5f 59 3e 57 ae a7 3e 18 19 86 3e b5 38 5c 3e
       0.21227981 0.32750198 0.2619102 0.21506007
000010 c0 93 ec 3d ea 76 2a 3e 5d 6b 9c 3e b3 b2 20 3e
       0.115516186 0.16646925 0.30550662 0.15693168
000020 22 34 49 3e 49 f1 32 3e 62 aa 82 3e d2 ee ea 3e
       0.19648793 0.17474855 0.25520617 0.4588533
000030 e1 58 ec 3d 4e b6 c6 3d 75 6a 47 3f da ef 3f 3e
       0.1154039 0.097027406 0.77896816 0.1874384

conv3.0.weight f4 [32, 16, 4, 4]
000000 8a 7c 75 3d 3e f1 9d 3d f9 ad ee 3c d9 8d 97 3d
       0.059933223 0.07712029 0.029135691 0.07400102
000010 36 be 1b 3d b9 0c 39 3d a5 44 d2 3c 0c 81 43 3d
       0.038023196 0.04517815 0.025667498 0.04773049
000020 68 b9 72 3d d5 fd dc 3d 0e 81 ca 3d 49 8c cd 3d
       0.05925885 0.10790602 0.098878965 0.10036523
000030 ec 15 07 3d cf a6 d4 3d dd eb a3 3d f1 87 00 3e
       0.03297989 0.10383379 0.08003972 0.12551858
000040 d7 92 2c bd 98 35 2b 3d 30 99 c0 3c e1 33 cb bb
       -0.042132225 0.041799158 0.023510545 -0.006201253
000050 2b e1 24 3d fc 52 86 3d 96 f1 0b 3d a8 5f 09 bd
       0.0402538 0.06558797 0.03416594 -0.03353849
000060 6e bf 18 3d dd b4 e4 bc 04 ef 07 bc a7 b7 dc bc
       0.037291937 -0.027918274 -0.008296732 -0.026943041
000070 24 36 69 3c a8 03 28 bd 4a 43 0a 3d 5e 0e 48 bb
       0.0142341 -0.041019112 0.033755578 -0.0030526142
000080 d1 ae 91 3c 40 aa 96 bb 61 20 6e 3d ea 38 17 3c
       0.017783554 -0.004597932 0.058136348 0.009229878
000090 c3 0a 0a 3d 0b 10 15 3d 91 e0 9d 3c de 5f 08 bd
       0.03370167 0.036392253 0.01927212 -0.03329455
0000a0 d1 1e 3b 3d 5c 89 35 3c 29 ff 16 3d 14 db ec bb
       0.045683686 0.011080112 0.036864433 -0.0072282646
0000b0 0a 6b 6a bd 60 29 0d bd b2 dc 33 3c 70 0b cb 3c
       -0.057230987 -0.034463286 0.010977911 0.024785727
0000c0 41 f6 fe bc bb 62 22 3d 7f 7d bd 3b e0 fd 50 bb
       -0.031123282 0.039644938 0.0057827826 -0.0031889603
0000d0 f0 32 41 3d 0e 44 13 3d 83 79 90 3d 38 5d 16 3d
       0.04716772 0.035953574 0.070544265 0.036709994
0000e0 09 a9 e9 3c 77 7e 76 3d ef d1 4b 3d c9 72 b0 bc
       0.028522985 0.0601792 0.049760755 -0.021539109
0000f0 86 6c 37 bd b1 08 04 bd 3e af a0 3c 21 a5 ba 3c
       -0.04478123 -0.03223485 0.019614812 0.022783818
000100 a1 e7 13 bd e8 b7 80 bd a8 2e e5 bc 42 a7 b8 bc
       -0.03610957 -0.06285077 -0.027976349 -0.022540692
000110 74 31 6e bd 33 7d c0 3c 69 94 6d 3d 09 e4 45 3d
       -0.05815263 0.0234972 0.058002863 0.048313174
000120 e8 f6 9a bb c9 70 0f 3b 28 9d ad 3c 8c 76 ca 3c
       -0.0047291405 0.0021887294 0.021193102 0.02471473
000130 21 75 85 bd b4 8c 0b 3c b2 be 12 bc d3 3a 22 bc
       -0.06516481 0.008517433 -0.008956598 -0.00990172
000140 c3 64 21 3d 1a 0c b2 3c b9 b6 b8 3d 38 46 b5 3d
       0.039402734 0.021734286 0.090192266 0.08851284
000150 77 85 3f 3d 34 e3 c9 3a c5 32 74 3c 78 f6 17 3d
       0.04675814 0.0015402795 0.0149046825 0.037100285
000160 28 61 a0 bc b1 69 58 3d 2f 09 f3 3c db d0 35 3c
       -0.019577578 0.05283517 0.029667465 0.011097158
000170 e8 cb 6e 3c 0f 3c 35 bd c0 41 94 3d 78 d5 16 3d
       0.014574982 -0.04424673 0.07239103 0.036824673
000180 e4 4a 40 bd 38 2f 1c bd 21 a9 43 bd 58 49 68 bd
       -0.04694642 -0.03813097 -0.047768716 -0.05671057
000190 7f 03 8a 3d 08 6c 3d 3d 3a 94 d7 3d b9 43 8f 3d
       0.06738948 0.046245605 0.10526319 0.06995339
0001a0 a7 14 b9 bc 16 1c 25 3d c7 3d 88 3c 94 37 c0 bc
       -0.022592856 0.040309988 0.01663102 -0.023464002
0001b0 6d af 65 bd 99 73 2b 3d f9 f6 30 3d 87 cd 88 3b
       -0.056075502 0.04185829 0.04320428 0.0041748914
0001c0 5a 70 f0 bc c0 c0 08 3d 63 a9 c3 3c e3 54 ac bb
       -0.029350448 0.033386946 0.02388448 -0.0052591427
0001d0 82 ba 09 3c de 58 97 3c 48 23 7a bc 7e 10 4d bd
       0.008406283 0.018474992 -0.015267201 -0.050064556
0001e0 ea 92 8b 3a 55 c5 52 3d ed 2c 78 3d f6 ea c7 bc
       0.0010648642 0.05145772 0.06058972 -0.02440403
0001f0 2d 22 d2 bc ee 92 d7 bc 15 50 b6 3b 02 7f 08 3d
       -0.025651062 -0.026315179 0.0055637457 0.03332425
000200 ce 6f 0a bb 26 29 5e 3c f9 5f 51 3c f8 9c 09 3d
       -0.002112377 0.013559615 0.012779229 0.033596963
000210 64 77 93 bd dc 57 01 3d b5 67 a8 3c 37 d2 1f 3d
       -0.07200506 0.03157793 0.020557264 0.039018836
000220 0e fb c5 ba 2b f7 4b bd b2 a4 06 3d 02 c8 68 3d
       -0.0015104727 -0.049796265 0.03287191 0.056831367
000230 c0 57 a9 3c bd 06 15 bc 5c 92 45 3c 58 59 af 3c
       0.020671725 -0.009095845 0.012058821 0.021404907
000240 94 f1 35 bd 1b c4 41 bd c2 a1 55 bd 86 42 cf bc
       -0.04441984 -0.04730616 -0.052156217 -0.025300276
000250 f3 49 b0 ba aa e8 84 bd 4a d2 91 bc d8 41 aa bc
       -0.0013449773 -0.0648969 -0.017800469 -0.02078335
000260 cc 8a 5c bc f8 aa 00 3d 2e 32 0c bd 51 12 27 bc
       -0.013460826 0.03141305 -0.034227543 -0.010197238
000270 6e d3 4a bc 64 43 5a bd 35 ed 5c bd bd 08 a7 bc
       -0.01237951 -0.053286925 -0.053937156 -0.020389909
000280 d8 7e 9f 3c 40 13 bf 3c 38 9d a1 3d 19 76 93 bc
       0.019469664 0.023324609 0.07891315 -0.01800065
000290 b6 22 80 3d 00 7a 85 3d a4 71 44 3d 19 01 d3 3c
       0.062566206 0.0651741 0.04795994 0.02575736
0002a0 6c ee 0e 3d a8 9a 84 3d 33 49 80 3b 54 b1 f3 3c
       0.034895346 0.06474811 0.003914976 0.029747643
0002b0 51 8e 66 3d 13 39 c2 3c 18 7b 2b bb fa a8 59 bc
       0.056288067 0.023708856 -0.00261659 -0.013284916
0002c0 3a d5 8c 3c 8a a7 86 bd 74 f6 30 bd 3a 77 b7 bc
       0.017191518 -0.06574924 -0.043203786 -0.022395719
0002d0 20 a9 2d 3c 40 ee 53 bd b4 8d 31 3d c6 a7 84 bb
       0.010599405 -0.051740885 0.04334803 -0.0040483205
0002e0 fc b3 d0 3b c0 b5 fa 3c 45 64 c3 bc 37 76 cc bc
       0.006369112 0.030604243 -0.023851523 -0.024958713
0002f0 5c b4 2f 3d 28 6c 1d 3d db d1 07 bd 73 2d b7 3c
       0.042896613 0.038433224 -0.03315912 0.022360539
000300 c6 0b aa bd c8 4f 23 bd 3f 2e 95 bd 45 01 b8 bc
       -0.08303027 -0.039871007 -0.07284211 -0.022461543
000310 f4 93 59 bc 8e 8e a8 3c f9 a4 81 bd 8c 22 fd bc
       -0.013279904 0.020575788 -0.06330294 -0.030900262
000320 7f 93 e5 3b 8e 31 9d 39 d9 81 08 3a 68 32 80 bc
       0.0070061083 0.00029982295 0.0005207337 -0.015649036
000330 db 24 be bc de 94 3e 3d 5d c6 51 bc f5 72 9d 3c
       -0.023210933 0.04652869 -0.012803641 0.019219855
000340 2c b2 3e bd ea 02 bd 3c 12 64 01 3d 30 ad e2 3c
       -0.046556637 0.023072679 0.031589575 0.027670473
000350 ba b3 b0 bc 40 9c 10 3d 13 d6 e9 3c c8 52 fe 3c
       -0.021570075 0.03530526 0.028544461 0.031045333
000360 48 f3 03 bd 77 d9 a0 3c d6 f3 de 3c c9 4e 00 3d
       -0.032214433 0.019634945 0.02721588 0.031325135
000370 c4 f0 67 ba 4f d3 9d bc ad 26 38 3d b8 52 b5 bc
       -0.00088478276 -0.019265799 0.04495876 -0.02213417
000380 6a 21 f3 bc 0b b1 0c bd d2 47 93 bd 6f c5 77 bc
       -0.029679019 -0.03434853 -0.07191433 -0.015122755
000390 67 ee f3 3b 88 e4 24 3b 2e 44 4b bd 18 ca 47 bd
       0.0074441913 0.002516063 -0.049625568 -0.048776716
0003a0 7f f1 17 3c 86 7d 07 3d d9 9b 0b bd c3 3d b4 3c
       0.009273886 0.033078693 -0.034084175 0.022002107
0003b0 76 5d 95 bb 9c fe 65 3d 5c 1e 24 3d 84 d0 b4 3c
       -0.0045582606 0.056151018 0.040068015 0.022072084
0003c0 40 98 94 bc 5a 6a 8a bc 05 2b 36 bc 4f 4b 00 bd
       -0.018139005 -0.016896416 -0.011118655 -0.03132182
0003d0 cc 55 7f 3d c9 2b 7f 3c 5a ec de bc 69 4d 47 3c
       0.06233768 0.015574404 -0.02721231 0.012164452
0003e0 78 b6 db bc a5 2b 80 bc 95 e9 3d bd 2c 2a de 3c
       -0.026820406 -0.015645811 -0.04636534 0.027119718
0003f0 0a 01 b3 bb b0 5f 0a 3c 69 be d6 3c 1c 20 1b bc
       -0.0054627704 0.008445665 0.026213842 -0.009468105

conv3.0.bias f4 [32]
000000 9b b9 de 3c 20 23 f1 3c 39 3d 34 3c 60 b6 b7 bb
       0.027188113 0.029435694 0.011000925 -0.0056064576
000010 51 f3 6e bc 83 ca 99 3c 1a 74 7e bd a8 56 0a 3c
       -0.014584378 0.018773323 -0.06212244 0.008443512
000020 ae 30 23 bd d2 31 29 3d 48 16 d1 3b b0 1c 94 3c
       -0.039841346 0.041307278 0.00638083 0.018080086
000030 bd 07 79 3a 33 d1 55 3d 80 7b 33 bd 3b 79 4e bd
       0.0009499749 0.05220146 -0.04381895 -0.050408583
000040 68 4c 5e bd 31 d9 ed 3c ed 71 ae bc 96 11 65 3d
       -0.054272085 0.029034229 -0.021294558 0.055924974
000050 ab b4 7e bd be 50 08 bd 22 6b 2d 3d fb 8d 9a 3c
       -0.062184017 -0.033280127 0.042338498 0.01886653
000060 10 4b a8 bc f2 07 59 3d 74 18 34 3c c8 a4 73 3c
       -0.020543605 0.052986093 0.010992158 0.01487083
000070 8f a5 71 3d b1 de 3e bd 9b 53 05 bc bc 01 5b 3c
       0.05899578 -0.046599094 -0.008137609 0.013367113

conv3.1.weight f4 [32]
000000 14 14 89 3f d2 6d 7f 3f 18 d2 81 3f 99 af 79 3f
       1.0709252 0.9977695 1.014224 0.97533566
000010 ad 3d 7f 3f d0 e0 81 3f b2 6b 7b 3f b4 ff 7c 3f
       0.99703485 1.0146732 0.98211205 0.9882767
000020 89 9e 84 3f cc 65 81 3f 48 82 80 3f 78 31 7f 3f
       1.0360881 1.0109191 1.0039759 0.9968486
000030 3c d0 77 3f 17 3b 88 3f c9 8d 85 3f 3c 36 7d 3f
       0.96802115 1.0643033 1.0433894 0.9891088
000040 e9 cf 81 3f 37 de 7f 3f ff 87 7a 3f 1e 7b 80 3f
       1.0141574 0.9994845 0.97863764 1.0037572
000050 35 b9 84 3f 28 1d 82 3f c7 4a 79 3f 9d b9 7f 3f
       1.0369021 1.0165148 0.97379726 0.998926
000060 3d 53 78 3f 27 30 80 3f 67 37 7b 3f f9 b0 83 3f
       0.9700201 1.0014695 0.9813141 1.0288383
000070 a2 14 7e 3f 14 bb 7c 3f 4f 5c 7f 3f 8e c5 7e 3f
       0.99250233 0.9872296 0.99750227 0.99520195

conv3.1.bias f4 [32]
000000 0a ef d1 bd 78 08 2b bc e6 5d 9a bd da 74 f2 bc
       -0.10250671 -0.010439031 -0.07537441 -0.029596735
000010 62 ea b8 bb 4b 3a ad bc 29 21 2d bd ee 87 61 bb
       -0.005643175 -0.02114596 -0.042267952 -0.0034413296
000020 0f 47 d7 3c bd 8e 0f bb 15 63 98 bc c7 b3 ef bc
       0.026279 -0.0021905147 -0.018601933 -0.02926053
000030 84 56 50 bb 75 ca 3d bd 39 20 d6 3d 97 dc d8 bb
       -0.0031789849 -0.046335656 0.10455365 -0.0066180932
000040 bc 2a b7 3c a1 78 6a bc 70 25 0c bd 47 5f df bd
       0.022359245 -0.014310987 -0.03421539 -0.109068446
000050 a7 9e 5f bd 5c fa 36 bd 7c 7b ec bb 77 48 15 3d
       -0.054594662 -0.044672355 -0.007216869 0.03644606
000060 71 1a 6e bb 99 a5 a9 bc 05 60 97 3b 09 09 fd 3c
       -0.0036331678 -0.020708846 0.0046196007 0.030888097
000070 58 77 ab bc dc a9 55 bc a2 32 19 bd ab bc 36 3c
       -0.020930931 -0.013040986 -0.037401803 0.01115338

conv3.1.running_mean f4 [32]
000000 9e f6 49 3f 7c a6 b8 3c 0d c6 d0 3e c5 fd 76 3d
       0.7889193 0.022540323 0.407761 0.060300607
000010 b1 b7 f8 3a 63 ae 89 bf d4 0b 15 bf f5 af fe bd
       0.0018975643 -1.0756344 -0.58221173 -0.12435905
000020 79 37 8c 3d f2 e5 0d 3f 66 09 a1 3e 88 8d 9c bd
       0.06846518 0.55428994 0.31452483 -0.076441824
000030 f1 79 c1 be 60 f5 e5 3e 6d 99 8a bf 1c 69 f4 be
       -0.37788346 0.4491377 -1.0828072 -0.47736442
000040 7b 6c 3d bf 73 5e 23 3e dd 3b fd 3d e3 fe 6a bf
       -0.73993653 0.15953998 0.12364934 -0.91795176
000050 18 40 dc bd 1c 38 c0 3e f7 c9 8a 3e 57 e8 d1 be
       -0.107544124 0.37542808 0.27107212 -0.40997574
000060 02 9e 16 bf 24 f4 aa be aa f2 d2 3d ab b0 34 bf
       -0.5883485 -0.3338939 0.10300191 -0.70582074
000070 89 3b a0 3e bb 8c a6 be c1 0f cd be 20 b4 d6 3e
       0.31295422 -0.32529244 -0.40051082 0.419343

conv3.1.running_var f4 [32]
000000 3c fd 3d 3f 2e 02 83 3e c3 a6 b2 3e 48 7a d6 3e
       0.7421453 0.255876 0.34892854 0.41890168
000010 3d 9a f8 3e 9c ae 68 3e f3 24 3e 3e 06 62 71 3e
       0.48555174 0.22722858 0.18568783 0.23572549
000020 a1 00 45 3e 1f 40 21 3e 4a 0c ae 3e 57 d4 03 3e
       0.19238521 0.15747117 0.3399375 0.1287397
000030 bb cb 51 3e 51 8a e8 3e 76 d5 1b 3f 32 8c 5d 3e
       0.20487873 0.45418027 0.6087259 0.21635512
000040 eb bc 5c 3e 3d ee b7 3e 3c d3 91 3e bd 62 7d 3e
       0.21556441 0.3592395 0.28481472 0.24744697
000050 92 26 37 3e 41 9a a1 3e 71 df 54 3e 75 1e 99 3e
       0.17885807 0.31563 0.20788361 0.2990605
000060 2e b4 40 3e 84 7d c3 3e 76 7d 99 3e 50 83 f0 3e
       0.18818733 0.38181698 0.29978532 0.46975183
000070 41 9b 0b 3e f2 c3 1c 3e c7 93 1c 3e 32 04 f0 3e
       0.13633443 0.15309122 0.15290748 0.468782

deconv2.0.weight f4 [32, 16, 4, 4]
000000 57 ff 54 bd cb 56 32 bd 3d 3e 0b 3d 33 e6 19 bd
       -0.052001324 -0.043539803 0.033994902 -0.03757305
000010 9c c4 b7 3c 55 6d 75 bd 68 e0 87 bd 37 a9 29 bd
       0.022432618 -0.05991872 -0.06634599 -0.04142114
000020 6b 7f e1 bc b4 e7 31 3c 25 bc de bb ce 99 cc 3b
       -0.027526578 0.010858465 -0.006797331 0.006243921
000030 3c d6 f7 bc 6b 97 7a bd 1b bd 4c 3d 3e 3f 22 3b
       -0.030253522 -0.06117956 0.049985033 0.0024756934
000040 aa e8 1f bc fd 70 80 bd b2 4e ab bc 16 c4 25 3d
       -0.009760061 -0.06271551 -0.020911548 0.040470205
000050 f8 80 4a 3d eb 0f 57 3d fd 1d 86 3d 82 83 40 3d
       0.0494394 0.052505415 0.065486886 0.047000416
000060 81 46 1f bd 0a 8f 11 3d 54 55 df 38 8c 27 a6 bc
       -0.038885597 0.035536803 0.00010649362 -0.02028253
000070 c5 5e 10 3d 4a 94 87 3c 3a db 3c bd df fd b0 3c
       0.03524663 0.016550202 -0.04610751 0.02160543
000080 5e 5d 25 3d dd c1 75 bd 56 34 be 3c cb 09 55 3d
       0.040372245 -0.059999336 0.023218315 0.052011292
000090 70 a0 cd 3c 30 66 08 3d 55 30 29 bd 42 e5 4a bd
       0.025100917 0.03330058 -0.04130586 -0.049535044
0000a0 dd ae 45 bb c9 66 85 bc 68 1b 88 3d 42 ab 0f 3d
       -0.003016404 -0.016284363 0.06645852 0.035075434
0000b0 ec fe 8d 3c 08 13 8e 3c 1a 24 c8 bc 5e c4 96 bd
       0.01733347 0.01734306 -0.024431277 -0.07361673
0000c0 0f 4c 27 bd 49 43 76 3b bf 2b b1 3c 6f c3 2c bd
       -0.04084402 0.0037576726 0.021627305 -0.042178567
0000d0 ab f3 3d 3b 7b 2d 01 bd ad 38 ee 3b 67 e4 ca bc
       0.0028984349 -0.031537514 0.00726994 -0.024767114
0000e0 8b fd 82 3d 05 a3 b9 3d 9b 36 69 bd f2 94 bf bc
       0.06396016 0.09064297 -0.05693684 -0.023386452
0000f0 86 94 d6 3c cc 8f 5d bd 60 c5 af bc 07 87 bd bd
       0.026193868 -0.054092214 -0.02145642 -0.0925427
000100 e3 cf a1 3b 2b 3b 7e bd f9 c9 ea bb 0d 7d ec 3b
       0.004938112 -0.062068146 -0.0071651903 0.0072170557
000110 c2 b5 43 bd c3 50 b8 3c bb 63 1c bd 1e 10 87 bd
       -0.04778076 0.022499448 -0.038181048 -0.06594871
000120 15 89 48 bd e0 6e 3e bd fd e5 e6 3c 47 72 e0 3a
       -0.048958857 -0.046492457 0.028185839 0.0017123901
000130 8c 36 99 bd 45 8f ae bc 9a 95 10 3d 52 cb 63 3d
       -0.07481107 -0.02130855 0.03529892 0.055613823
000140 5a 2e 15 bd e3 08 2d bd f0 47 b6 bd 76 91 73 bd
       -0.036421157 -0.042244803 -0.0890044 -0.059464894
000150 1e 59 50 3c d5 9c 13 bc df ef dd bc 87 06 d1 bb
       0.01271656 -0.00900956 -0.027091919 -0.006378952
000160 cb c2 84 bd 41 27 8c bd 60 b7 9e bd 3b ee 51 bc
       -0.06482466 -0.068434246 -0.0774982 -0.012813146
000170 77 55 cc bc b6 0d f5 3c 20 0d b2 bc ff 2e 1f bc
       -0.024943097 0.029913764 -0.021734774 -0.009715795
000180 ae 6e 93 bc 19 1e f7 bd b0 ed 59 bd 15 26 78 bd
       -0.017997112 -0.120662875 -0.053205192 -0.060583193
000190 60 a2 0e 3d 26 45 c2 3c 10 ae d4 bc 91 97 8b bc
       0.03482282 0.023714613 -0.025961906 -0.017040046
0001a0 5e b8 2a bd 99 81 16 be af 47 d4 bd 7e c6 30 be
       -0.041679733 -0.14697875 -0.10365235 -0.17263219
0001b0 18 6c f0 3c 2d a3 9d bd 2d bc 26 3d f6 13 c5 3c
       0.029348418 -0.07697139 0.040706802 0.02405737
0001c0 c9 fd b2 bc 8c e7 7f bd fb 64 e7 bd 31 b3 a2 bd
       -0.02184953 -0.06247668 -0.11298557 -0.07944334
0001d0 8b 4e 93 bc 9d dd 83 bd c5 97 e6 bb 56 85 19 be
       -0.017981788 -0.06438754 -0.0070371353 -0.1499227
0001e0 1c 53 02 3d da b6 29 bd c4 99 13 3a eb b5 49 3c
       0.03181754 -0.041434146 0.0005630518 0.012311439
0001f0 28 41 18 3d c3 c9 a3 bd f1 07 a0 3c 7b 10 06 be
       0.037171513 -0.07997467 0.019535037 -0.13092224
000200 f2 38 8d bd 03 25 64 39 ad b8 83 3c 89 d6 3f 3d
       -0.06895627 0.00021757562 0.016079271 0.046835456
000210 13 c2 8e 3d d6 aa 29 3d d4 b4 92 3c 4d bf 37 3d
       0.069706105 0.041422687 0.017908491 0.044860173
000220 0e 85 c6 bd e2 1d c0 bc db 88 1b bd 8b 47 04 bb
       -0.09693347 -0.02345175 -0.037972312 -0.0020184244
000230 c0 58 1b bd a7 9a 16 bd ce 55 70 bc 27 d4 43 3d
       -0.037926435 -0.03676858 -0.014668895 0.047809746
000240 77 79 b4 bd 8c 1d b7 bb ed 9c bb bc dc f3 97 bb
       -0.0881223 -0.005588239 -0.022901976 -0.0046372246
000250 e6 20 2c bd d1 de a0 bd 8d 6e 46 3c 22 42 c8 3c
       -0.042023562 -0.07854999 0.012111318 0.024445597
000260 7f e1 a7 bd 3d 42 21 bd 3c 07 18 be aa e5 1f 3d
       -0.08197307 -0.03936981 -0.1484651 0.039037384
000270 5f b1 1f 3d a1 57 40 bd 49 29 ff 3a 01 4a b6 bd
       0.038987514 -0.04695857 0.001946726 -0.08900834
000280 65 31 6d 3c 14 5f f3 3c be f8 57 3d 62 4b 45 bd
       0.014477109 0.029708423 0.052727453 -0.048167594
000290 03 34 17 3d 09 20 2a bd 3a f6 3c bd 4d 9c d5 bd
       0.036914837 -0.041534457 -0.046133257 -0.10430203
0002a0 e5 12 8b 3d fa a1 61 3d 47 81 19 bd 37 b3 57 bc
       0.06790713 0.055086114 -0.037476804 -0.013165287
0002b0 b7 4f 77 3c 93 de 07 bd ba a5 8a 3b f9 e9 f9 3b
       0.015094689 -0.033171248 0.004231182 0.0076267687
0002c0 c0 01 24 bd 03 d5 b6 bc 84 4d 53 bd 0e 20 47 3c
       -0.04004073 -0.022318369 -0.051587597 0.0121536385
0002d0 6d 2e 1c 3c 49 31 2e bd 14 6f 8f bd 66 7f b8 3a
       0.009532553 -0.04252747 -0.07003608 0.0014076054
0002e0 96 92 fe bc 81 7f 28 3c 77 8b 54 3c 53 38 8d bd
       -0.031075757 0.010284306 0.012972704 -0.068955086
0002f0 3c dc b6 3c a1 c4 54 bd 61 33 d8 3c c4 e2 1f 3b
       0.022321813 -0.051945332 0.026391687 0.0024396637
000300 1b 52 62 3c 10 25 47 3c 6a 14 3c bd ad 9e fb 3c
       0.013813521 0.0121548325 -0.045917906 0.030715311
000310 ee 56 da bc dd f3 81 bd e4 31 8b bc 04 6c 48 bd
       -0.02665278 -0.06345341 -0.016991563 -0.048931137
000320 51 b0 a3 bd 3e b4 15 bd 52 7c a9 bd 4d 73 a4 bb
       -0.07992614 -0.036548845 -0.08275665 -0.0050186277
000330 2c bf c4 bc 38 22 95 bb 16 d6 c9 3c 51 95 3a bd
       -0.02401694 -0.0045511983 0.024638217 -0.045552555
000340 fc 77 4d 3b 64 2d 57 bd 9a b5 91 3c 80 06 75 bd
       0.0031352034 -0.052533522 0.01778679 -0.059820652
000350 b2 77 75 bd 7d d1 cb 3c 5b 8d 8b bd 1f b7 d1 3c
       -0.059928603 0.024880165 -0.06814071 0.025600014
000360 cd a3 df 3c aa 65 fd 3c 0d 32 0d bd 84 32 92 bd
       0.027299786 0.030932266 -0.03447156 -0.07138541
000370 18 22 33 bd c5 38 62 bd ad 9b 73 bd 8a f4 35 3d
       -0.043733686 -0.05522992 -0.059474636 0.044422664
000380 fb 3a 49 3d ef 3f 01 3d 5c 58 58 3d 94 7e 4b bd
       0.049128514 0.031555112 0.05281864 -0.04968126
000390 90 db e0 bb 67 22 47 bd 69 6f 07 3d 34 84 2a 3c
       -0.0068621114 -0.048616793 0.033065233 0.010407496
0003a0 78 f3 61 bc 29 5e 52 bd ea d3 37 bd 99 84 17 bd
       -0.013790958 -0.05135933 -0.04487983 -0.03699169
0003b0 48 9c 23 3d eb a9 ac bd ff 22 23 bd 1d db 1f bd
       0.039943963 -0.08430847 -0.039828297 -0.039027322
0003c0 53 fb 99 bc 0c fe b5 bd 7c 96 07 bc 66 3e c2 3b
       -0.018796599 -0.08886346 -0.008275624 0.0059278486
0003d0 b1 3c c2 bc 12 d6 5f bc 65 b1 b2 bd 66 0a c5 bc
       -0.02371058 -0.013661878 -0.087252416 -0.02405281
0003e0 c6 fc c5 bc 51 a7 44 bc 02 71 ab bc 6b 02 f1 3c
       -0.024168383 -0.012002782 -0.02092791 0.029420098
0003f0 80 0d 37 bd bc 36 b9 bc a9 aa f5 bc 3a 6e 9f 3c
       -0.04469061 -0.022609107 -0.029988604 0.01946174

deconv2.0.bias f4 [16]
000000 3a b6 af bc 41 61 7d bd ea f6 6d bb 01 f1 3f 3d
       -0.021449197 -0.061860327 -0.0036310502 0.0468607
000010 c4 64 fb 3b c7 cb 50 bd 5e d4 4c 3c 44 55 0f 3d
       0.0076719243 -0.050975587 0.012501804 0.034993425
000020 e4 7c 22 bd 2e e0 28 3d 0e 79 4e bd 4f 71 44 bd
       -0.039669886 0.04122942 -0.050408415 -0.047959622
000030 0f 9b 2f 3c 0c 89 b2 bc 88 3e 4e 3d 2e 9a 8c bb
       0.010718121 -0.021793865 0.050352603 -0.0042908406

deconv2.1.weight f4 [16]
000000 91 09 6d 3f ce 99 76 3f 29 41 7b 3f b2 41 7f 3f
       0.9259272 0.9632844 0.981463 0.9970962
000010 9f 17 78 3f 8e ee 87 3f 3d 9c 86 3f 77 ed 84 3f
       0.9691104 1.0619676 1.051643 1.0384969
000020 da 78 76 3f 91 b1 7b 3f f3 9d 7d 3f a7 5d 7f 3f
       0.96278155 0.9831782 0.99069136 0.9975228
000030 db ef 7e 3f df cf 7f 3f a4 f7 81 3f 64 31 8c 3f
       0.9958474 0.9992656 1.0153699 1.0952573

deconv2.1.bias f4 [16]
000000 28 d9 b9 bc e9 73 c1 3c 94 e0 71 3c c2 e4 3a 3d
       -0.022686556 0.02361484 0.014763016 0.045628317
000010 44 8f 0d 3d a5 a5 c3 bc 3c 13 b3 3d 86 70 6b bb
       0.034560457 -0.023882696 0.08743903 -0.0035925223
000020 0c 78 14 3d 3d 70 44 bd 5e 68 81 3d 08 f5 0b 3d
       0.036247298 -0.0479586 0.063187346 0.034169227
000030 7d bb c0 3c 49 1b 4e 3d 8e 26 e7 3c 52 57 9c bd
       0.023526901 0.05031899 0.028216626 -0.076338425

deconv2.1.running_mean f4 [16]
000000 f8 11 cf be 99 78 0d bf f3 9f 12 bf 6f 1e 0c bf
       -0.40443397 -0.5526214 -0.57275313 -0.5473394
000010 e3 28 2b bf 50 32 24 bf 85 05 04 bf f1 f6 d8 be
       -0.66859263 -0.6413927 -0.5157092 -0.423759
000020 10 16 28 bf 3b 61 a3 be 20 25 51 bf 91 78 42 bf
       -0.65658665 -0.31910118 -0.81697273 -0.7596522
000030 e4 ae 22 bf 9f e6 7f bf 35 c0 02 bf 27 c2 f9 be
       -0.6354811 -0.99961275 -0.51074535 -0.4878094

deconv2.1.running_var f4 [16]
000000 7e fd 1b 3f 4c 8b 1f 3f a6 6c 2b 3f 90 26 5b 3f
       0.60933673 0.62321925 0.6696266 0.85605717
000010 72 e5 e8 3e 4e e0 10 3e 76 c6 3a 3f b4 7c be 3e
       0.45487553 0.14148065 0.7295908 0.37204516
000020 6a 95 1c 3f 2d df 92 3e 12 de c6 3f 4e 42 25 3f
       0.6116549 0.28685895 1.553652 0.645543
000030 a1 21 8e 3f 73 51 a8 3f 3f b8 80 3e 51 7d 09 3e
       1.1104013 1.3149856 0.2514057 0.1342671

deconv3.0.weight f4 [16, 8, 4, 4]
000000 c5 c1 52 3c 2d 4a 90 3c 12 e7 f1 3c aa ce d6 3d
       0.012863581 0.017613495 0.029529128 0.10488637
000010 8f 13 02 3c 52 8a f3 bc 05 e5 64 3d 51 48 45 3d
       0.007939233 -0.029729042 0.055882473 0.04816467
000020 a3 48 47 bc 0c 81 22 3d 03 30 80 3d ce e4 80 3c
       -0.012163314 0.03967385 0.062591575 0.015734103
000030 f5 df 04 bd ea 18 42 3d e6 6c 41 3d 16 ce 52 bd
       -0.032440145 0.04738704 0.047222994 -0.05146607
000040 84 29 6c bd 59 d0 6d 3d 30 76 0e bd fe 0e 77 bc
       -0.05765678 0.058060024 -0.03478068 -0.015079258
000050 39 fc 69 bd 14 97 f9 3b 5f 42 d7 bc 52 2a b0 bc
       -0.057125304 0.007616887 -0.026276765 -0.021504555
000060 95 59 be 3c 32 59 8e bd 1b 2c f0 3c e3 ae 3e bd
       0.023236075 -0.069506064 0.029317906 -0.046553504
000070 bf 06 e6 3c dd a6 b3 3c de 77 af bb 15 1d 86 bb
       0.028079389 0.021930153 -0.0053548655 -0.0040928223
000080 ca 03 0f bc 1e ca 83 3d 06 36 6a 3c 6c e6 91 3c
       -0.008728931 0.06435035 0.014295107 0.017810069
000090 e5 4c 0a bc 4e 2d 22 bd 7c 74 38 bd 92 36 4d bd
       -0.008441185 -0.039593987 -0.045032963 -0.05010087
0000a0 c1 99 8c 3c 68 59 6f 3c 4f 6b 6d bc 72 b1 b3 3b
       0.01716316 0.014608718 -0.014490916 0.0054837996
0000b0 f6 f5 20 3d 5b 9b 06 3d 43 24 3c 3d f5 aa 81 3d
       0.039297067 0.032863002 0.04593302 0.063314356
0000c0 35 96 1a 3e 76 99 4b bd 75 d9 8f bc 2a e4 0a 3d
       0.15096362 -0.0497069 -0.017559746 0.033909
0000d0 b6 56 28 3d 06 09 a9 3d 80 e7 de 3a a4 dc d7 3c
       0.04109832 0.08253674 0.0017006248 0.026350327
0000e0 fd 67 7d 3c f7 50 f8 bc 5a 78 e3 3b 46 51 d5 bc
       0.015466687 -0.030312045 0.0069418373 -0.02603973
0000f0 e9 7e 7d 3c c5 0b 3b 3d 22 3e cb 3c bb e4 a8 bc
       0.015472152 0.04566552 0.0248099 -0.02061688
000100 52 5f 76 3d 3c a0 2b bd a7 0c 89 3d f2 f7 59 3d
       0.0601495 -0.04190086 0.06691866 0.053214975
000110 66 0a 32 bc 28 d8 9e bc 81 2e fd bc bf b6 29 bc
       -0.010866737 -0.01939018 -0.030905964 -0.0103585115
000120 43 eb 43 3d 73 a0 4a 3d 6f 12 89 3d 9a ab 0b 3c
       0.047831785 0.049469423 0.06692969 0.0085248
000130 72 4f ee 3b b5 7f 14 bd 32 18 ac 3c 44 b9 f1 bc
       0.007272654 -0.036254603 0.021007631 -0.029507287
000140 d7 3f 48 3a 2e 7f 1c 3d 9d 69 17 bd 1c 4f 3a 3d
       0.00076389074 0.038207226 -0.036965955 0.0454856
000150 e5 40 3e bd 64 91 e4 3c 18 6b 73 bd 9e e1 ad 3d
       -0.046448607 0.027901359 -0.059428304 0.08490299
000160 4c ef ab bc cf 8b 54 bd 84 2d a2 bc 42 6b af 3d
       -0.02098813 -0.051891144 -0.019797094 0.0856538
000170 d7 ed 6f 3d 74 73 13 3d fc 7c 13 3d 2f bd 56 bd
       0.05857643 0.035998777 0.036007866 -0.052426513
000180 a2 2c 0b bd f8 53 d8 3b 38 ab 51 3c bb 84 53 bc
       -0.033978112 0.0066018067 0.012797169 -0.012910063
000190 63 33 86 3d 16 8a 68 3c 0f 6f 2e 3d 07 e4 2a bd
       0.0655277 0.0141930785 0.042586382 -0.04172137
0001a0 02 92 3f bc a5 a2 ca 3d 3b 62 45 3c 49 b0 cd bb
       -0.011692526 0.09894303 0.012047346 -0.0062771183
0001b0 8b 1e e0 bb 57 6a f5 bc 24 b4 98 bd a8 14 46 3c
       -0.0068395785 -0.029957933 -0.07456234 0.012089886
0001c0 91 7b 22 bc 22 1f 7b 3d 5f b1 73 bc b8 2b e8 3c
       -0.009917156 0.061308987 -0.0148738315 0.02834116
0001d0 26 f6 27 bd 72 b7 1e b9 ae f4 74 3c 6e 6a 57 bd
       -0.04100623 -0.00015136393 0.014950914 -0.052591734
0001e0 5d 8c 86 bc 84 14 65 3c 82 14 07 bd 9c ce 83 3d
       -0.016424352 0.013981942 -0.032978542 0.06435892
0001f0 03 f7 86 3c 12 dc b2 bc 10 45 8f 3d 0e f4 25 3d
       0.016475206 -0.021833453 0.069955945 0.04051595
000200 4e 3e de 3c 2c 32 43 3d e4 f8 05 bd 01 44 5e bd
       0.027129319 0.04765527 -0.032708064 -0.054264072
000210 64 17 52 3d 45 a9 50 3c 41 a6 db bc 33 2d 00 bd
       0.05129184 0.0127356695 -0.026812674 -0.031293105
000220 f6 4b 62 bd 80 0c 84 3d 23 34 1e 3d 6d b5 a5 b9
       -0.055248223 0.06447697 0.03862394 -0.00031606425
000230 19 9e 76 3c 3d f4 90 bc 32 4d 26 3d 31 95 0d bd
       0.015052342 -0.017694587 0.040600963 -0.03456611
000240 07 c9 9f bd e7 ca 59 bd dc 1d 45 3c dd 60 d4 3c
       -0.07802015 -0.05317202 0.012031045 0.025925094
000250 22 3f d6 3b cc 00 af bc 2b e8 72 bc 35 a6 30 bd
       0.0065382877 -0.021362685 -0.014825861 -0.043127257
000260 4e ef 62 3d 12 d4 95 bd b6 d0 f1 3c 38 cd 03 bd
       0.055404 -0.0731584 0.029518466 -0.032178134
000270 ad 17 29 bd d1 8f 26 bd 61 d1 65 bc 74 b4 cc 3b
       -0.041282345 -0.040664498 -0.014026971 0.0062470976
000280 3e db d1 3c 67 aa 91 bb 95 0c 9f bd 18 99 f4 bc
       0.025617238 -0.0044453624 -0.07766072 -0.029858157
000290 12 56 b9 3c 96 ab c3 3d 58 83 30 3d 93 3b bd 3d
       0.02262405 0.09554212 0.04309401 0.092398785
0002a0 ad 24 44 3b 65 aa 14 bc fe 5d a2 bd b1 17 b0 3d
       0.0029929087 -0.009073828 -0.07928084 0.08598269
0002b0 1e 2b 55 bc d1 aa 91 bd ff 69 a8 3c 15 79 86 bd
       -0.013010768 -0.07112659 0.020558355 -0.06566063
0002c0 5c 4a d7 bc 43 60 54 3d fd 81 c2 bc 9f fe 1a 3c
       -0.026280575 0.051849615 -0.023743624 0.00946012
0002d0 8e 49 98 3d de 2a 45 3b 63 81 07 bd 53 f1 86 3c
       0.074359044 0.0030085365 -0.033082377 0.016472494
0002e0 95 e9 86 bd 49 1f 59 3c e8 48 5b 3d 16 03 0c bd
       -0.06587521 0.013252088 0.053536326 -0.03418263
0002f0 1c 66 9c bd 9b cf c7 3c 02 dd 14 bd 7c 35 ad 3c
       -0.07636663 0.024390986 -0.036343582 0.021143667
000300 ef bb 59 bd 91 47 57 3d 1d 60 8d 3c 23 9a e8 bc
       -0.053157743 0.052558485 0.017257744 -0.02839381
000310 42 7f d1 bc 7c 9a 2e bd 3c 11 34 3b 7f 60 8f bd
       -0.025573377 -0.042627797 0.0027476093 -0.07000827
000320 17 09 1d bd 3b 75 0a 3d 5f 97 62 3d ec 86 c5 3d
       -0.038338747 0.033803206 0.05532014 0.09644875
000330 b2 f6 46 3d a1 c4 81 bc 8b 67 22 3d ef b5 ca bb
       0.04857511 -0.01584083 0.039649528 -0.006186239
000340 52 d2 b6 3c eb 9a 2b 3c 66 79 63 3c 35 0f b8 3c
       0.022317085 0.010473947 0.013883924 0.022468189
000350 5d ad 00 bd c6 75 aa 3c 50 1d 2c 3d 73 8a 0c 3d
       -0.031415332 0.020808112 0.042020142 0.034311723
000360 1e 20 02 3d 4e 2c a0 3b ef be 34 bc a0 84 da 3c
       0.03176891 0.004888094 -0.01103185 0.026674569
000370 c0 00 fa 3c 7d c9 61 3d 8b db 58 3b 3f c6 9e 3d
       0.030517936 0.055123795 0.0033089842 0.07752656
000380 26 1e b4 bb b4 c6 b1 bd 0c 68 01 3d 90 49 8f 3d
       -0.005496758 -0.08680478 0.031593367 0.06996453
000390 48 b8 4d bb 0e ac 18 bd ed d4 83 bd 69 c0 ac bc
       -0.0031390358 -0.03727346 -0.06437097 -0.021087842
0003a0 24 80 c8 39 31 3d 9f 3d 0c 9c 98 3b 30 f5 9a bb
       0.00038242445 0.07775343 0.004657274 -0.0047289357
0003b0 5c f5 7a 3c c0 50 73 3d ef 4b af bc 31 2f 9b 3d
       0.015317287 0.05940318 -0.021398513 0.075773604
0003c0 d2 77 13 3c f3 1e b5 3c 3a 85 7c bd 88 73 bb bc
       0.009000735 0.022109484 -0.061650492 -0.022882238
0003d0 c9 63 69 3c fd 2d 43 bd eb 11 b8 bc 4a 71 01 3d
       0.014244982 -0.04765128 -0.022469481 0.03160218
0003e0 5f bb 0d bd 12 83 70 3d 8e 1d 95 bd 40 5e c5 bc
       -0.03460252 0.05871875 -0.07281028 -0.024092793
0003f0 df eb cf 3b ee e1 37 bc cc ed a3 3c c8 f2 87 3d
       0.0063452567 -0.011223299 0.020010851 0.06638104

deconv3.0.bias f4 [8]
000000 e8 a6 b7 3b 8c e2 8b 3d e3 f0 9d 3d 4c b6 99 bc
       0.0056046136 0.0683032 0.07711961 -0.018763684
000010 1c 23 73 3d 43 b9 f6 3b 3a 61 5d 3d 4f dd f9 bc
       0.059359655 0.007529409 0.0540478 -0.030501036

deconv3.1.weight f4 [8]
000000 5c d1 96 3f 19 44 98 3f 5d 8f 99 3f fe cd 95 3f
       1.1782641 1.1895782 1.1996876 1.1703489
000010 98 ca 99 3f ab b9 95 3f 54 81 99 3f 89 6b 9a 3f
       1.2014952 1.1697286 1.1992593 1.2064067

deconv3.1.bias f4 [8]
000000 0c f1 35 3e a6 3e 40 3e 58 dd 4d 3e 9e 52 2c 3e
       0.17767733 0.18773898 0.20103967 0.16828391
000010 49 61 4e 3e 1d af 2b 3e 71 85 4e 3e 24 0a 53 3e
       0.20154299 0.16766019 0.20168091 0.20609337

deconv3.1.running_mean f4 [8]
000000 5a 2d 6f 3c 59 2a 82 be d1 28 1b 3c 65 0c 49 be
       0.014598215 -0.25422934 0.009470181 -0.19633634
000010 0e 24 9e 3d 90 c3 71 bb eb 60 ac bd 54 76 53 be
       0.07721721 -0.0036890246 -0.08416923 -0.20650607

deconv3.1.running_var f4 [8]
000000 8c be bf 3d 31 21 0a 3e 56 7b f4 3d 7c 54 ff 3d
       0.09362516 0.13489224 0.11937587 0.12467286
000010 44 41 3d 3e d0 e3 27 3e 02 c3 0f 3e 10 f2 3b 3e
       0.18481928 0.16395497 0.14039233 0.18354058
