Pix2Pix/checkpoints/pix2pix_model_epoch_180.pth (torch, 99191 bytes, 32 tensors)

conv1.0.weight f4 [8, 3, 4, 4]
00000000: 0968 f93d fd64 e43d e756 b0bd a8cf 173e
00000010: ca78 8b3d 659d 613b b7aa 8ebd 1b2a e63d
00000020: b5e4 d3bd 70d7 09bd ab94 0137 ad3d cdbc
00000030: c1be ef3d ede2 b73d 6f27 0abe b5a0 0dbe
00000040: 4ed4 47bd 168f b33d 26bb 703c 5807 2c3e
00000050: 781f 5abd 1f1b 3abd dae3 3d3e 9f72 8abd
00000060: 214c 12be cf9e 00be dbba bcbd 346e fdbd
00000070: 4868 b7bd 71bb 0a3c 5316 f83d 8e01 a3bd
00000080: 8057 933d 77f9 f63d 0d4f 8dbd 767d d6bd
00000090: 4479 7cbd 3a9b 93bb d662 073e b60b 8fbc
000000a0: 8c46 90bd c6fc dbbd a536 0fbe e505 b93c
000000b0: 4db8 f13d 54ed a9bd 74a1 223e 17aa 8a3c
000000c0: 94ae 283c e29c 983c 6ca1 85bd a717 0c3e
000000d0: 8b93 023e 240f 9a3d cafc df3d 3af0 643c
000000e0: 8dd6 3c3c cb32 90bd 4a75 b9bd f2c4 d43d
000000f0: c067 6cbd fb11 4c3d d6ed 75bd f352 173e
00000100: 37ec afbc 2003 71bd a1de 033e 4f84 fcbd
00000110: f863 4bbd ec7e e4bd c8b2 5c3d c2f7 21bd
00000120: 8e4e 76ba 4d47 5c3d 3a4e 613d 87f1 e53d
00000130: c20a 6d3d 7906 febd a07d dfbd 6f2d 493d
00000140: 993b 233d e856 a33d 141d 01be f9f8 0ebe
00000150: 0ce1 cf3d 10de 9abd 436b b7bc 681e 95bd
00000160: bc66 3abd 6955 cfbd 8cfc fcbd 6e19 4a3d
00000170: c2f4 4abd 6337 32bd 3131 f9bd 13ae 1b3d
00000180: 9ec1 a83d 829b b4bd 7dde ad3c bcf2 1e3e
00000190: d68a 07be 3f84 c1bd 2174 9dbd 3b37 5e3d
000001a0: 6c97 07be 4ca4 c7bd 829c f03b 8f1b 9bbc
000001b0: fa0d e03d da8d ccbd beaa 663d b92d fd3d
000001c0: 8ade dc3d dcf6 10be 50a3 7e3d 10bc d1bd
000001d0: cf30 e63d 1b20 9bbd 19a5 ab3b 5db8 143e
000001e0: f2a6 dfbd 5097 11bb faa5 c33c b245 123e
000001f0: 787b ce3d 996b debc 581d c8bc b8a0 d03d
00000200: 4368 d93b 6529 003d 61cd 17be 96c5 1e3d
00000210: 7c38 883d 358b dfbd c56e 053e 1d74 13bd
00000220: 28ce da3d a6ab d3bc c7a2 853d dcf9 b13d
00000230: d2a7 d8bd 0c2f dbbd bce5 0cbe 0f60 4ebd
00000240: 9acd 1bbd ca9f 9a3c 227a 9fbc 08e6 7ebd
00000250: e9a5 fabd 7ca8 01be ec08 843d 828d fe3d
00000260: c19b a83d 31cf 443d 1167 173c c2b8 ec3d
00000270: 4107 9f3d 603c c4bd 79c4 bc3d 6f62 9bbd
00000280: a676 9ebc d783 b63d 8cca 17be 99f4 93bd
00000290: c20a 99bd 81e9 ff3c 038c 13be 0be0 a7bd
000002a0: af4c 303c 4c57 573a d267 6bbc 941c 75bd
000002b0: fcf4 593d 0574 383e 4d5a bb3d 42d4 f23c
000002c0: 7e6a 0cbe 7439 8c3d bf8f 0d3c cb00 3e3d
000002d0: 984b bfbc bb1d b63d 4d28 7d3c 1f24 ea3d
000002e0: f185 133e fea8 5b3d 6a13 9a3c e32d 803d
000002f0: 3893 143e 95ff 71bd 0f18 a93d ef98 d53d
00000300: a1d9 533e bac9 463e 3003 393e 990c 94bc
00000310: 5b7a 5d3d 2601 963d 91ee e9bd 7d82 733d
00000320: 2c2f cb3d 5792 94bd 6150 adbc 01f7 33bc
00000330: cc39 883d 7db7 02be 4ba3 2e3d 373d acbb
00000340: e1b7 7a3d 54a7 9fbc 5f20 023e df6d f2bd
00000350: 454b d9bd 06df 38bd 6ae1 8e3c 5056 913d
00000360: 4efd 163e b242 9bbd 9ab2 cdbd c114 e7bd
00000370: 25fc cebd 46ca f93d 4c83 493d a884 883d
00000380: 95e9 0d3e 2b96 743d 82dc c3bd 8bba 3f3d
00000390: 784b dfbd c589 c23a df60 a83d 4d87 f73c
000003a0: 854b afbc 034c d63b 0690 4c3d 4fd9 e43d
000003b0: 8d76 03be 85e1 f53a 832d 8f3d 806f debc
000003c0: 2753 043e 0b2e 45bb fef3 0f3b 9ad4 213d
000003d0: 26e9 6cbc d4bb 123e 8250 263d b19e 0d3d
000003e0: 8a22 57bd ca39 f8bc 2fc4 d7bd ea48 0cbd
000003f0: a5e9 ac3d 378c 8cbd 7eb7 8f3d 6739 fbbd
0.12178046 0.111520745 -0.08610325 0.14825308 0.06810148 0.003442609 -0.06966155 0.112385
-0.10346357 -0.033652723 7.723614e-06 -0.025053823 0.11706305 0.089788295 -0.13491605 -0.13830836
-0.048786454 0.08767526 0.014693057 0.16799676 -0.053252667 -0.04543602 0.1854395 -0.067601435
-0.14286853 -0.1256058 -0.09215327 -0.12374535 -0.08955437 0.008467541 0.12113633 -0.07959281
0.07194424 0.120593004 -0.06899843 -0.104731485 -0.061639085 -0.0045045884 0.13221297 -0.017461639
-0.07044706 -0.10741572 -0.13985689 0.022585819 0.11802731 -0.0829722 0.15881902 0.016926808
0.010295529 0.018629495 -0.065249294 0.13680898 0.12751596 0.07522419 0.109368876 0.01397329
0.011525762 -0.07040938 -0.09055574 0.10389127 -0.05771613 0.049821835 -0.06004127 0.14777736
-0.02147494 -0.05884087 0.12877895 -0.12329923 -0.049655885 -0.11157021 0.053881437 -0.03954292
-0.0009395861 0.053778935 0.055006243 0.11227708 0.057871588 -0.12403578 -0.10912633 0.049115594
0.03985176 0.079755604 -0.12608749 -0.13962163 0.10150346 -0.07561886 -0.022390014 -0.0728119
-0.04550813 -0.101237126 -0.12352857 0.049340658 -0.049549825 -0.043509852 -0.12167586 0.038007807
0.082400545 -0.08818723 0.021224255 0.15522283 -0.13236555 -0.09449052 -0.076881655 0.05425189
-0.13241357 -0.09748134 0.007342876 -0.01893404 0.10940166 -0.099879935 0.056315176 0.123622365
0.107846335 -0.1415667 0.062167466 -0.10240948 0.11239778 -0.07574483 0.005238187 0.14523454
-0.10920514 -0.0022215433 0.023882855 0.14284399 0.100821435 -0.027150916 -0.024428055 0.10186905
0.0066347434 0.031289477 -0.1482444 0.03876265 0.066513985 -0.109152235 0.13030536 -0.035999406
0.106838524 -0.025838684 0.06525188 0.08690235 -0.10578884 -0.10702333 -0.13759512 -0.050384577
-0.038037874 0.018875021 -0.019467417 -0.062231094 -0.12238676 -0.12661928 0.06447014 0.12429334
0.08232833 0.048049156 0.009240882 0.11558677 0.077650554 -0.09581828 0.09217162 -0.07587134
-0.019343685 0.08911865 -0.14823359 -0.07224388 -0.07472755 0.031239273 -0.14408879 -0.0819703
0.01076047 0.00082146074 -0.014368014 -0.059841707 0.05321215 0.18013008 0.09148083 0.029642228
-0.13712499 0.06846896 0.008640229 0.046387475 -0.023351476 0.088923894 0.015451503 0.11432671
0.14406563 0.05362796 0.018808085 0.06258752 0.14509284 -0.059081633 0.08256542 0.104295604
0.20688488 0.1941289 0.18067622 -0.018072413 0.054071765 0.07324438 -0.11422456 0.059450615
0.09921107 -0.072544746 -0.021156492 -0.010984183 0.06651649 -0.12765308 0.042636197 -0.005256321
0.061210517 -0.019488968 0.12707661 -0.118373625 -0.1061006 -0.045134567 0.01744147 0.07096541
0.14745066 -0.075810805 -0.10043831 -0.11283255 -0.101066865 0.12196784 0.04919748 0.06665927
0.13858636 0.059713524 -0.09563543 0.04680876 -0.109030664 0.0014842084 0.08221602 0.030215884
-0.021398315 0.006539823 0.04994204 0.11174261 -0.12838192 0.0018759227 0.069911025 -0.027152777
0.12922345 -0.0030087258 0.00219655 0.039509393 -0.014459884 0.14329463 0.040604122 0.034575168
-0.052523173 -0.030300993 -0.10535466 -0.034249224 0.08443002 -0.06862681 0.0701742 -0.12266808

conv1.0.bias f4 [8]
00000000: f340 80bd 4141 eabd 4013 d73d 18e9 a4bd
00000010: 74af 0c3e cf3d c6bd 7ff6 de3d 3a7c 373d
-0.06262388 -0.114382274 0.105017185 -0.080522716 0.13738805 -0.09679758 0.10886859 0.044796206

conv1.1.weight f4 [8]
00000000: de3f 7f3f 3de3 7c3f cd7f 803f 38aa 823f
00000010: 74f0 803f aa4c 823f d37d 813f 4ab8 7a3f
0.9970683 0.9878424 1.0039002 1.0208197 1.007338 1.0179646 1.0116524 0.9793745

conv1.1.bias f4 [8]
00000000: 10b1 75bc 4581 34bc 9d63 aebd 922d a23d
00000010: e3e4 17bd 9f26 1e3d b6ad 0c3d e2c1 063c
-0.014995828 -0.011017148 -0.085150935 0.07918848 -0.037083518 0.03861105 0.03434535 0.008224936

conv1.1.running_mean f4 [8]
00000000: 419c 82bd 3ece 18be 3fb5 db3d 0a18 eebd
00000010: da43 073d 9009 e4bd 381a 4b3e b11b 3f3d
-0.06377459 -0.14922425 0.10727929 -0.11625679 0.033023693 -0.111346364 0.1983422 0.046657268

conv1.1.running_var f4 [8]
00000000: 7966 dc3c cd19 1c3d 97eb 8b3c dcd6 f13d
00000010: 8b24 023e d2d5 ee3c 701d dd3d 4fba 393c
0.026904332 0.038110543 0.017080111 0.11808559 0.12709253 0.029154692 0.107966304 0.011335923

conv2.0.weight f4 [16, 8, 4, 4]
00000000: 59c1 553d bd9e bd3c 05f8 b1bd 5807 81bd
00000010: 6e0f 283d 1379 3f3d 1046 04bd 3d83 1d3d
00000020: 45d2 5ebc 3113 dfbc 8481 8c3d d3ce 8e3d
00000030: b7df 3bbd baa7 393d 5465 ee3c 7f0c ab3d
00000040: ae3a 3a3d 60b7 983c 84b0 dc3d 29e3 ab3d
00000050: 03b2 0fbd 54b7 ba3c 8a09 09bd d766 3d3d
00000060: 3b85 9f3d ab81 bdbc 2739 bcbc e797 f33a
00000070: 6b19 cebc 44ea 5e3d 3bc2 143e c595 073e
00000080: 8755 14bd 237b 29bd 6945 c6bc c993 71bc
00000090: 86cd 793d 530a f53c 3dc9 d439 bd48 a53d
000000a0: 8209 4539 1a8c 273d b341 c03d 799d 14bd
000000b0: ab84 b73c e299 aa3c 8f7f 2cbd 11cf e2bc
000000c0: 24d2 1abd 4437 37bd b330 c93c b205 4ebc
000000d0: 3c4a 2cbd 0a0b 8bbd 04d5 ab3d 5b15 e13b
000000e0: 0801 463d d6cd d03c 9c4a 1d3d 531f 173c
000000f0: b0c5 77bd d313 9e3d c81b 67bd c293 473b
00000100: f206 4b3b c835 883d b450 debc 030a 923d
00000110: 9c65 2ebd 259f 6fbc 64a3 be3c 3bb7 b73d
00000120: aa8e 7c3d 4623 a23d 0aca 74bc 056f f03d
00000130: d4ca 9b3d 8e56 cf3d 05e4 b13d e9bc a73c
00000140: 87d5 6bbc 9fdb 92bc 9c5a 793d b970 403d
00000150: d2f5 1e3d ed7d 9abc 8904 833c e67e 143b
00000160: c27e 333d 5cb4 7cbd ca07 40bd 07aa 013d
00000170: 4734 243d f70a 303c 38c8 30bd 8fde 0bbd
00000180: c8e0 85bd fa5c 423d 2a9f 033d de04 f13c
00000190: 0438 843d b769 f5bc fd90 723b b4f9 1bbd
000001a0: 89f5 223d c27f 1bbd e8a5 c43d b854 bfbb
000001b0: 557f 1b3d ae53 853d 4b30 9dbc 2eeb c33c
000001c0: 9d1b e2bc 5896 103d 12a0 78bd 911e 833d
000001d0: 0872 98bd 1d4c 0b3d d6ad a73c 24f4 cb3a
000001e0: c961 b4bc 262e b13d ae87 f6bc c9c7 07bd
000001f0: 2c93 dfbb 1ec8 473d 9971 ccbc b93a 653d
00000200: 70f8 08bd 47dc cfbc bbe3 4e3d 73f4 6a3d
00000210: b512 77bd ad42 eb3c dee9 ffbc 22c7 babd
00000220: 6a6f 773d e352 693c 0cd7 633d 7dbb a9bc
00000230: 29f9 b2bd b432 293d 4660 e4bc 0520 94bc
00000240: f62d 47ba 5d72 963d d964 fcbc 4ce1 fe3c
00000250: 90fc d23c d68c 863c 66e3 2ebd 9cf2 a93c
00000260: caac 653d 599d 5b3d 4b9b 503d f54f 9c3c
00000270: 4085 40bd bbb4 a3bc 7ca6 973c 0396 003d
00000280: 8527 a33d 6f4a 883d 93b0 3fbb a9ff a93c
00000290: 42f1 58bd 83de babd 3f01 d4bd 61af 92bd
000002a0: ee11 07be 1372 15bc bc6f e4bb 5822 d4bd
000002b0: b0f3 b53c ebcc 9d3b 7d7d 8abc 5119 123c
000002c0: 6b11 c43d 9113 db3b a407 ae3d 8510 75bc
000002d0: 3ef1 b0bc d076 47bd 10ba a7bc 9470 643d
000002e0: f88c 4dbd ecbb adbd 2466 833c 05f0 e43c
000002f0: 06e8 9b3d d7c6 0fbd 27b7 563d 984c 0e3c
00000300: 122c 743c 6ca4 6ebb 129e c23b bbb1 7f3c
00000310: eda2 293d 3e51 7f3c 243e 30bd d2a2 1b3d
00000320: bfd0 613d c359 843d c708 f5bc c0b0 8bbd
00000330: 4de7 86bd 9a01 a93c feab 96bd b058 ae3c
00000340: 3937 0dbc 5224 d63d 7aa7 763d 9e02 743d
00000350: 4f78 65bd 9a9f b63d 2805 c03d 0db9 c23d
00000360: 7c20 c23c 9a88 56bd 32ac 3abd 510e 6b3d
00000370: 3c95 c0bd f6f8 e7bd 89b4 f8bd 7090 eabc
00000380: 0b3d 913d 1915 cc3c bb3a 85bd cc0a ff3c
00000390: 4d69 0ebd ffcf d2bb b8f9 233d 3d66 96bc
000003a0: 18a3 35bc cc4e 9fba c51f 70bd 13af 823d
000003b0: 2704 ab3d 843f 263d fac1 b1bc 926c 8f3c
000003c0: 41ad 053d 1837 6c3d ece7 c03d bad4 d4b9
000003d0: bc75 343d 2396 35bc 0cfe b23d 1254 453d
000003e0: 377a d93c da54 d937 1e4b 70bd 4b6f c6bc
000003f0: c5ff cdbd e920 79bd ac1d 35bd e378 83bd
0.052186344 0.023146981 -0.08689884 -0.06300229 0.04103034 0.046746325 -0.03229338 0.038455237
-0.013599937 -0.02723083 0.06860641 0.06973042 -0.045867648 0.045325972 0.029101051 0.08351993
0.045466118 0.018642128 0.10775855 0.08392937 -0.035081875 0.022792496 -0.033456363 0.046240654
0.077890836 -0.02313312 -0.022976471 0.0018584699 -0.025158605 0.05442263 0.14527218 0.13240726
-0.036214378 -0.041377198 -0.02420302 -0.014744707 0.060987018 0.02991215 0.00040585725 0.08070514
0.00018790926 0.040905096 0.09387531 -0.03628299 0.022402128 0.02082533 -0.042113837 -0.027686628
-0.037798062 -0.04473044 0.024559354 -0.0125746 -0.042062983 -0.06789215 0.08390239 0.006869001
0.048340827 0.025488775 0.03840123 0.009223777 -0.060491264 0.07718625 -0.05642298 0.003045306
0.0030979482 0.06650883 -0.027138092 0.07130816 -0.04257737 -0.014625345 0.02327127 0.08970495
0.061659493 0.07916884 -0.014940748 0.11739925 0.07607046 0.10123931 0.086860694 0.020475822
-0.014394171 -0.01792699 0.060877427 0.0469825 0.03880865 -0.018858874 0.015993373 0.0022658645
0.043822058 -0.06169544 -0.04688243 0.03165629 0.040088918 0.010744802 -0.043159693 -0.034147795
-0.06537014 0.04745195 0.032134213 0.029421266 0.06455997 -0.029957635 0.003701269 -0.038079932
0.03978494 -0.037963636 0.096019566 -0.0058389567 0.03796323 0.06510101 -0.019188067 0.023915853
-0.027601058 0.03529963 -0.06069953 0.064023145 -0.07443625 0.034008134 0.020468634 0.001556043
-0.022019284 0.0865138 -0.030093994 -0.033149514 -0.006822964 0.04877483 -0.024956511 0.055964205
-0.033440053 -0.025373591 0.05051015 0.05736203 -0.060320575 0.028718317 -0.031239446 -0.09120013
0.060408987 0.014240953 0.055625007 -0.020719284 -0.0873893 0.04130812 -0.027877938 -0.018081674
-0.0007598096 0.07346032 -0.030809807 0.03111329 0.025755197 0.016424578 -0.042697333 0.020745568
0.056072988 0.053616855 0.05092935 0.019081095 -0.047002077 -0.01998364 0.018512003 0.031393062
0.07966522 0.06654822 -0.0029249534 0.020751791 -0.052964456 -0.09124472 -0.103518 -0.07162357
-0.13190433 -0.009121436 -0.0069713276 -0.10358113 0.022210926 0.004815688 -0.01690554 0.008917169
0.09573635 0.006685682 0.08497551 -0.014957552 -0.021599408 -0.048697293 -0.020474464 0.055771425
-0.050183266 -0.08483109 0.016039915 0.027946481 0.07612614 -0.035101738 0.05242076 0.008685254
0.014903085 -0.003641392 0.0059392536 0.015606339 0.041415144 0.0155833345 -0.043028012 0.037997074
0.055130716 0.06462433 -0.029911412 -0.06820822 -0.06587086 0.020630646 -0.07357024 0.021282524
-0.008619123 0.10456146 0.06021831 0.05957281 -0.05602294 0.0891716 0.093759835 0.09507952
0.02369713 -0.052376367 -0.045574374 0.0573867 -0.09403464 -0.113267824 -0.12143809 -0.028633326
0.07091721 0.024912404 -0.065053426 0.031133078 -0.03476839 -0.0064334865 0.040033072 -0.018359298
-0.011086248 -0.0012154221 -0.058624048 0.06381049 0.08350401 0.040587917 -0.02169894 0.017507825
0.03263593 0.05766973 0.094192356 -0.00040594285 0.044057593 -0.011083159 0.08739862 0.04817588
0.026547534 2.5907928e-05 -0.058665387 -0.02422299 -0.1005855 -0.0608224 -0.04421775 -0.06419542

conv2.0.bias f4 [16]
00000000: 2a98 3c3d a72f 443d 660c 92bd 6e48 463d
00000010: d548 683d 06cd 91bd 31b2 6b3d d6a1 e6bc
00000020: 5ad2 103d c23d d53b 42d0 d23c 8a12 1d3d
00000030: 535d 8fbd 0f58 a23d 870c 41bd 4d3c 613d
0.046043552 0.047897007 -0.07131271 0.048408918 0.056710083 -0.07119183 0.057542983 -0.028153341
0.035356857 0.0065076062 0.02573407 0.03834776 -0.07000222 0.07926952 -0.047131088 0.054989148

conv2.1.weight f4 [16]
00000000: e355 803f 45c9 7d3f 0408 893f 4dbd 7e3f
00000010: 5d7b 863f cf9a 7c3f 9bc2 863f 8a2f 7c3f
00000020: 4d5a 7a3f 81ae 7e3f 957d 7f3f eecb 7c3f
00000030: 7c82 843f 2c11 7d3f 750d 803f c3b1 7b3f
1.002621 0.9913524 1.0705571 0.995076 1.0506397 0.9867372 1.0528139 0.9851004
0.9779404 0.9948502 0.99801 0.9874867 1.0352321 0.9885433 1.0004107 0.9831812

conv2.1.bias f4 [16]
00000000: 1b05 d3bd 5d94 ddbb a454 88bb a7e3 023d
00000010: 961e 853d 9841 7dbc d8e6 083d 0a3d ab3c
00000020: 537a 3c3c 070a 363d 98c6 03bd 5af7 fabb
00000030: 50cd 303d 5cdc 9e3c aab6 e43c 4d44 83bc
-0.10303708 -0.006762071 -0.0041604806 0.031955387 0.064999744 -0.015457533 0.033423275 0.02090313
0.011503774 0.044443157 -0.032171816 -0.007658881 0.04316455 0.019392185 0.027919132 -0.01602378

conv2.1.running_mean f4 [16]
00000000: 7fe1 413f 765d 4c3e 41bb 07bf dbfe 0cbf
00000010: 05d3 85be 7fb6 fdbc 4d28 00bf 2822 6abd
00000020: 2a9a 463e 366f 0c3d 011d 893e 758e 733e
00000030: bbec 95bc 5b55 7e3e 1465 0cbf dafe b03e
0.75734705 0.19957528 -0.530201 -0.5507638 -0.26137558 -0.03097081 -0.50061494 -0.05716148
0.19394746 0.034285747 0.2677994 0.23784812 -0.018301358 0.24837248 -0.5484173 0.34569436

conv2.1.running_var f4 [16]
00000000: 4f49 563e b310 a53e bcba 833e 6bae 563e
00000010: 6177 eb3d 8b23 2a3e cbcb 9d3e 6844 203e
00000020: 84e4 453e f2eb 333e 8c80 813e c7fd e93e
00000030: e91c eb3d 0a73 c43d e099 4a3f 5de9 3d3e
0.20926403 0.32239303 0.25728405 0.20964973 0.11497379 0.16615121 0.30819544 0.15651095
0.19325453 0.17570475 0.25293386 0.4570143 0.114801235 0.095922545 0.79141045 0.18546052

conv3.0.weight f4 [32, 16, 4, 4]
00000000: f309 7c3d 49ed 9e3d 0da9 fc3c ed70 9e3d
00000010: 131c 253d 3ecf 343d 9584 d73c a9e0 533d
00000020: 7bad 663d c14f d23d 9edf c03d 1c2c c73d
00000030: 50d8 173d f68f d63d 8ad3 a83d c5cd 013e
00000040: e5f9 23bd 3d7a 323d 7dcb c73c 17f2 d2bb
00000050: fd16 223d 17ff 863d 05fb 0d3d e7d5 07bd
00000060: 4130 233d 6c80 d7bc 9ec2 b6bb 7d75 d6bc
00000070: 100b 753c 2a3d 1fbd 3814 153d d40d e1ba
00000080: 6e8e 913c 18d7 b4bb 6c6f 673d 6839 283c
00000090: 9059 0c3d ce90 193d b010 933c 0d82 06bd
000000a0: b98f 423d 3e7e 4c3c 9e32 1a3d 760a adbb
000000b0: b0d4 66bd 53c1 0ebd 75fc 1c3c 1d6b c93c
000000c0: bbb8 05bd e9d0 1e3d 47ad 923b 2097 81bb
000000d0: 016f 423d baa2 113d 751c 913d 9e5e 193d
000000e0: 5425 f93c f556 7b3d 2a89 573d 7902 aabc
000000f0: 0bdc 27bd 7725 05bd 1ce3 a53c 0a2d bf3c
00000100: 483d 13bd 9752 84bd 3a52 e9bc 5c07 b8bc
00000110: a541 63bd cd4e c03c 5390 793d 5f51 493d
00000120: b8c5 5eba 3040 813b fa9d ae3c 857b e63c
00000130: ca90 73bd 76ce 013c 896c 08bc 94cc 02bc
00000140: d0f0 1e3d d916 ab3c ccfd b63d 8a14 b43d
00000150: e802 393d 0a89 44b9 92e4 413c 85bd 0a3d
00000160: c9f2 a5bc d587 543d ec54 df3c 6ba7 123c
00000170: d0bb 3f3c 4407 3dbd fe33 8d3d 63db 0c3d
00000180: e7ef 32bd d9c2 18bd 8d97 36bd 62d0 5dbd
00000190: 7662 8b3d afa1 343d bdf9 d53d 37b9 8c3d
000001a0: 2339 aabc ae39 1e3d 7de0 7e3c a4c8 cfbc
000001b0: ac40 55bd f254 1f3d aa70 2b3d 04a9 4a3b
000001c0: b6ba 00bd 9249 053d d7e7 b33c 8bdd afbb
000001d0: 800e 373c 3791 a73c 7fde 85bc 3ad7 4ebd
000001e0: fe5b 74b9 16db 4f3d 4857 743d 3687 d2bc
000001f0: aaa4 b7bc 4798 d1bc 8368 d33b 9668 133d
00000200: b57f 99ba 1acb 5b3c 9bc5 453c ad85 073d
00000210: 38a2 91bd 3e51 013d bb49 af3c 9dd8 223d
00000220: 9ac3 69bb 4107 52bd 8427 043d b011 633d
00000230: 86f6 9e3c 605f 17bc 23c9 453c 3387 a63c
00000240: b277 3fbd 76b2 51bd 1594 61bd 1ecc e5bc
00000250: 8c41 10bb 8d25 85bd a43d 97bc 6e9a a9bc
00000260: 14d4 41bc 8368 013d 8f87 05bd 7dc2 25bc
00000270: 89df 4dbc 1eb1 51bd 5211 5abd 8819 a4bc
00000280: 4f4c bc3c 666f d23c 5f65 a73d d46b 6dbc
00000290: 9c6e 823d 0471 883d 01ca 4b3d 5865 e63c
000002a0: 993c 143d ac10 853d 3f8b af3b e794 fb3c
000002b0: 5f25 693d 15f2 cd3c 6527 10bb 341f 45bc
000002c0: ea0f 8f3c 168e 86bd 8baf 34bd a49d aabc
000002d0: 2146 3e3c eb7a 4fbd 52c7 2e3d 27d5 2fbb
000002e0: 9b46 bf3b e633 f73c d44a d0bc cf47 cdbc
000002f0: 346e 2b3d 7c4c 1d3d 2d8f 10bd 137c b23c
00000300: e74f a4bd 6b60 2dbd 0c95 8fbd d6e3 b8bc
00000310: f73c 70bc 722a 9c3c c6f3 80bd 7c41 e5bc
00000320: 3f67 443c fa4e df3a 98c1 c33b f2ab 26bc
00000330: 38af d3bc 99ff 2c3d ca6d 55bc d595 9f3c
00000340: f82a 3abd 0453 c43c 7725 013d f926 e53c
00000350: cf7d c8bc 5605 fa3c 6255 c23c c422 d53c
00000360: cfb6 04bd 0a3d a53c ce90 c33c f21b ec3c
00000370: 6ffc a8ba 9942 a2bc e098 2d3d 5e6e cfbc
00000380: bdbc e7bc 7617 0bbd 51ad 91bd d12e 50bc
00000390: 913a 1a3c 8067 683b 73f9 44bd 8c4c 3dbd
000003a0: 5c97 2b3c f0e4 073d 15f5 0abd b749 ba3c
000003b0: 710e 78bb a2c4 653d 51c2 223d ddf1 ba3c
000003c0: 600d 98bc 08c3 87bc 7f67 3bbc ee6d ffbc
000003d0: f411 7c3d 8dfd 6f3c 40ad e9bc 8612 363c
000003e0: e182 e8bc 7072 87bc 32fa 43bd 9b6d d83c
000003f0: 3f3f e0bb 3b16 053c 8ad2 d03c 5fd8 25bc
0.061532926 0.07760102 0.030842328 0.07736383 0.040309977 0.044142954 0.026308337 0.051727924
0.056317788 0.10269118 0.094176516 0.0972521 0.037071526 0.10476677 0.08243473 0.12676151
-0.04003324 0.043573607 0.024389023 -0.0064375508 0.039572705 0.06591623 0.03466322 -0.033162978
0.03984094 -0.026306354 -0.0055773994 -0.02617907 0.014956251 -0.03887669 0.036396235 -0.0017170259
0.017768111 -0.0055188052 0.056502745 0.010267593 0.0342651 0.037491612 0.017952293 -0.03283887
0.047500346 0.01248127 0.03764593 -0.005280788 -0.05635518 -0.034852337 0.009581675 0.024587208
-0.032646876 0.03877345 0.0044762227 -0.003954783 0.047469143 0.03555558 0.07085506 0.03744375
0.030413307 0.061362226 0.052621044 -0.020753132 -0.040981334 -0.032506432 0.020249896 0.023336906
-0.035947114 -0.06461065 -0.028481591 -0.022464447 -0.055482525 0.023475075 0.060928654 0.049149867
-0.00084980903 0.0039444193 0.021315563 0.02813507 -0.059464253 0.007922759 -0.008326658 -0.007983346
0.038803875 0.020884918 0.08935127 0.0879298 0.045168787 -0.00018743068 0.011834281 0.033872146
-0.02025737 0.051887352 0.027262174 0.008951048 0.011702493 -0.046149507 0.06894682 0.03438891
-0.04368582 -0.037295196 -0.044578124 -0.054153807 0.06805889 0.044099506 0.104480244 0.068712644
-0.020779198 0.038629226 0.015556452 -0.025364228 -0.05206363 0.03889937 0.04185549 0.0030923495
-0.03142806 0.032540865 0.021961136 -0.005366986 0.011172891 0.020454986 -0.016341446 -0.050498225
-0.00023303923 0.050746046 0.05965355 -0.02569924 -0.022417385 -0.025585307 0.0064516678 0.035988413
-0.0011711033 0.013415122 0.012071039 0.033086468 -0.07111019 0.03157162 0.021397462 0.03975736
-0.0035669566 -0.05127645 0.032264248 0.05543679 0.01940466 -0.009239048 0.0120718805 0.02032814
-0.04674501 -0.051195584 -0.055072863 -0.028051432 -0.0022011725 -0.06501303 -0.01846201 -0.02070352
-0.0118303485 0.03159381 -0.032599982 -0.01011717 -0.012565502 -0.051194303 -0.053239174 -0.020031705
0.022985606 0.025687885 0.08173632 -0.01449104 0.06368753 0.06662181 0.049753193 0.028124496
0.036190603 0.064973205 0.0053571756 0.03071065 0.056920405 0.025139848 -0.0021996137 -0.012031365
0.017463643 -0.065700695 -0.044112723 -0.020827122 0.0116134 -0.050654333 0.042670555 -0.002682993
0.0058372742 0.030176114 -0.025426306 -0.025058655 0.041853145 0.03840302 -0.035292793 0.021787679
-0.08023053 -0.04232828 -0.0701085 -0.022569578 -0.014662973 0.019063208 -0.06296496 -0.027985327
0.011987506 0.0017037087 0.005974006 -0.010172831 -0.025840387 0.042235944 -0.013026664 0.019480625
-0.045451134 0.023965366 0.03152987 0.027972685 -0.024474053 0.030520122 0.023722354 0.026017554
-0.032400902 0.020170707 0.02387276 0.02882192 -0.0012892614 -0.019807147 0.04238212 -0.025321182
-0.02828824 -0.03395792 -0.071131356 -0.012706474 0.009413377 0.0035462081 -0.048089456 -0.04621558
0.010473099 0.033177316 -0.033925135 0.022740228 -0.0037850405 0.056095727 0.039736096 0.022820408
-0.018561065 -0.01657249 -0.01143825 -0.031180348 0.06154056 0.014647854 -0.028524995 0.011112815
-0.02838272 -0.01653406 -0.047846027 0.026419451 -0.006843477 0.008122976 0.025491018 -0.010122388

conv3.0.bias f4 [32]
00000000: 52c1 de3c 6a89 f03c 0e68 343c 4e0e b9bb
00000010: 9825 6fbc 9d99 9a3c d390 7ebd d144 0a3c
00000020: 1675 23bd 770b 293d b225 d33b a460 933c
00000030: 1560 6f3a f4cf 553d 3365 33bd 0e54 4ebd
00000040: 944b 5ebd 93d4 ed3c 1a43 aebc dbc9 643d
00000050: 868f 7ebd ea4b 08bd eb7a 2d3d ef91 9a3c
00000060: ba2a a8bc 9bde 583d 41b8 333c 016c 743c
00000070: 4c77 713d 600a 3fbd a322 05bc 3a63 5b3c
0.027191792 0.0293624 0.011011137 -0.005647457 -0.014596365 0.018872077 -0.062149834 0.008439259
-0.039906584 0.0412707 0.0064437026 0.017990418 0.0009131444 0.052200273 -0.043797683 -0.05037313
-0.054271296 0.029032027 -0.02127223 0.055856567 -0.062148593 -0.033275522 0.04235355 0.018868415
-0.020528186 0.052946668 0.0109692225 0.014918328 0.05895166 -0.046640754 -0.008125934 0.013390357

conv3.1.weight f4 [32]
00000000: e67e 883f f052 7f3f 27c1 813f 2b7b 793f
00000010: bbf4 7e3f f8db 813f 527a 7b3f b92a 7d3f
00000020: eaa5 843f 9b62 813f af9a 803f f14e 7f3f
00000030: 04f1 773f e600 883f 8473 853f 6b69 7d3f
00000040: 0dbb 813f 6ebe 7f3f 507f 7a3f 1ca1 803f
00000050: 86ba 843f 840e 823f 4293 793f 9cac 7f3f
00000060: a218 783f e83b 803f 1227 7b3f 66af 833f
00000070: 8001 7e3f d4e8 7c3f 377e 7f3f efd8 7e3f
1.0663726 0.9973593 1.013707 0.97453564 0.9959218 1.0145254 0.9823352 0.98893315
1.0363133 1.0108217 1.0047206 0.9972983 0.96852136 1.0625274 1.0425878 0.9898898
1.0135208 0.9989995 0.97850513 1.0049167 1.0369422 1.016068 0.9749032 0.99872756
0.96912587 1.0018282 0.9810649 1.0287902 0.9922104 0.9879277 0.99801964 0.99549764

conv3.1.bias f4 [32]
00000000: 3d9d cdbd 8357 20bc 4a5c 97bd 260e f0bc
00000010: de27 adbb 107c a2bc e40b 21bd ae42 0dbb
00000020: cde8 e03c 9fed 6839 e88c 91bc 460c e7bc
00000030: 9307 45ba 5132 33bd a91e d33d 3867 99bb
00000040: 9c0f c23c f7fd 7abc 016f 04bd ab23 d8bd
00000050: dc5a 46bd cae3 30bd edba e9bb 02f7 123d
00000060: 4984 b7ba 246b 9dbc 5b98 943b 2dfc 0a3d
00000070: 84de 95bc 8a28 42bc 0129 09bd 0657 4f3c
-0.100397564 -0.009786489 -0.073906496 -0.029303622 -0.0052842936 -0.019834548 -0.03931798 -0.0021554637
0.027454758 0.00022213765 -0.017767385 -0.028204095 -0.0007516082 -0.043749157 0.10308582 -0.004681494
0.023689084 -0.015319339 -0.032332424 -0.10553678 -0.048426494 -0.043185987 -0.007132879 0.035880096
-0.0014001216 -0.019216128 0.0045347637 0.0339319 -0.01829458 -0.011850486 -0.03348637 0.012655025

conv3.1.running_mean f4 [32]
00000000: a442 493f c35f 943c efc6 c73e fa81 b23d
00000010: 9475 fd3c de42 89bf db2e 0ebf 555d e1bd
00000020: 7d8e 423d 4ae1 0b3f 70e7 993e 1a25 9abd
00000030: 6779 bfbe 4a13 e53e 6ece 89bf f181 00bf
00000040: 62a8 40bf 4a36 2a3e f832 e53d e936 68bf
00000050: 6d52 0bbe 73c4 cc3e aba3 8b3e 9f8d cbbe
00000060: a047 17bf cb15 a5be 42c7 bf3d 4c2d 32bf
00000070: c851 a03e 24de aabe 7710 d2be e56e c93e
0.7861731 0.018112069 0.39018962 0.08716197 0.030939855 -1.0723531 -0.55540246 -0.1100413
0.04749917 0.5464064 0.30059385 -0.07526608 -0.3739731 0.4474128 -1.0766122 -0.50198275
-0.7525693 0.16622272 0.11191362 -0.90708786 -0.13605662 0.3999363 0.27273306 -0.39756486
-0.59093666 -0.3224319 0.09364177 -0.6960037 0.31312394 -0.33372605 -0.41028187 0.39342418

conv3.1.running_var f4 [32]
00000000: b84e 433f 92e3 823e 5583 bb3e 6c0d d53e
00000010: 0b02 fd3e 8b8d 653e ca50 433e 4938 743e
00000020: 4bbc 453e 5a3e 213e f05c ad3e a981 023e
00000030: 047a 533e aa4f f03e 19df 1a3f d375 673e
00000040: 5b82 5c3e f01a bd3e b7ae 923e 25bd 7e3e
00000050: 06f5 333e e462 a23e 6556 563e 5935 a63e
00000060: b062 3d3e a999 c03e bca1 9b3e ad74 ee3e
00000070: eeef 0b3e d453 1e3e fe1a 1c3e 6c45 ef3e
0.7629199 0.25564247 0.36623636 0.41611803 0.4941562 0.22417276 0.19073787 0.23849596
0.1931011 0.15746441 0.33859968 0.12744774 0.20652014 0.4693578 0.6049667 0.2260354
0.21534102 0.36934614 0.28648922 0.2487684 0.17573938 0.31716073 0.20931394 0.32462576
0.18494678 0.37617233 0.3039683 0.46573392 0.13665745 0.15461665 0.15244672 0.46732652

deconv2.0.weight f4 [32, 16, 4, 4]
00000000: 2f3f 52bd c7d5 31bd 4400 0f3d c07c 17bd
00000010: 0eec b83c 5bb6 73bd 324b 87bd f893 26bd
00000020: 5d9f ddbc e3a9 2d3c 9285 c3bb 1670 cf3b
00000030: ed77 f7bc 4c23 7bbd b97f 4d3d 3227 2f3b
00000040: c334 2ebc aabc 81bd 535e acbc c308 243d
00000050: a80d 463d ee3e 553d 8ff9 833d 8edf 403d
00000060: 0a29 20bd 89dd 103d f841 303a 5828 a6bc
00000070: 4692 0b3d a6b2 833c 4d55 42bd b8cd ae3c
00000080: c8f4 223d cf5f 74bd a32d be3c 8e45 553d
00000090: b9d9 d23c 06cc 0b3d 57a9 25bd 8239 47bd
000000a0: bc56 77bb 745f 82bc 4cf7 873d 67cf 0f3d
000000b0: 035b 8c3c 916e 953c 7208 c8bc 27cc 94bd
000000c0: 8bb3 27bd 10e1 ee3a cd0a af3c a9ba 32bd
000000d0: 1756 483b cb45 00bd f0cc f43b 9f0f c9bc
000000e0: a3eb 813d fc68 b63d a79c 6cbd bc08 cbbc
000000f0: eb0c d63c 1e78 5cbd a1f5 afbc a50a bdbd
00000100: 6c51 813b 4b9e 7ebd ccf5 f3bb cab6 ec3b
00000110: 87b3 42bd 2126 c63c 4f55 18bd 3f38 85bd
00000120: c819 4cbd 664c 3dbd 507f e63c 96b9 e83a
00000130: 96b5 98bd c7d4 bdbc 5cfb 0f3d 47fc 5a3d
00000140: 81a3 0dbd 4830 27bd 9137 b4bd 7b3e 6abd
00000150: e7ea 773c 3e5d 0abc 8a82 d2bc 2fc7 b0bb
00000160: 8fb7 7ebd cc0d 8bbd f751 9abd f495 31bc
00000170: b495 ccbc 0699 ef3c 166d b9bc e660 1bbc
00000180: 8dab a7bc 8a4a f4bd dd0c 5cbd 6f6b 7abd
00000190: 5e49 133d 3464 bc3c f68a d3bc 1df8 8ebc
000001a0: 667e 32bd b968 14be 45a7 d0bd 275c 2fbe
000001b0: ae8b f33c 0871 9dbd df2a 243d b294 c53c
000001c0: 5192 9cbc 9867 79bd 5f0f e4bd 91dd a0bd
000001d0: 1173 81bc f555 7abd 3ec9 b2bb 6bdb 16be
000001e0: 27e9 073d 8d08 27bd ebe7 5d3a 0190 5c3c
000001f0: a9da 1a3d e337 9cbd 22df 9f3c 862d 03be
00000200: 0bdd 8bbd 54cb f339 c359 863c b1fb 423d
00000210: f322 8d3d a472 293d 67ea 8b3c 62c7 383d
00000220: 0b2a c5bd 13d1 c5bc 0ea8 1abd d0c8 22bb
00000230: 2504 19bd 8111 17bd 5d80 6abc c576 453d
00000240: 3900 b4bd 50cd a7bb a25f b2bc 5076 82bb
00000250: 719d 2dbd c977 9abd 9b12 3f3c d3b3 ef3c
00000260: cdb1 a5bd a4f4 20bd 993b 16be bff3 213d
00000270: 998f 1f3d 45ff 41bd 7411 ea3a 7b68 b4bd
00000280: 49fa 6f3c 218b fc3c c4d1 583d e66b 42bd
00000290: 2fa8 163d 9cc9 23bd f634 3fbd 618a d2bd
000002a0: f92d 8b3d 216b 663d 5799 18bd 0d2b 4bbc
000002b0: f512 7b3c 4eee 00bd d412 7d3b 93cc 173c
000002c0: e842 26bd a805 b2bc 335b 53bd 33d4 4c3c
000002d0: 3bc3 193c 35b5 2dbd cccb 8ebd eee1 c63a
000002e0: b94c fbbc ced7 323c 9925 683c 7a87 8cbd
000002f0: bdca bb3c 3d55 54bd 392c e03c 2c89 253b
00000300: f31d 6e3c 0a58 483c ddf3 39bd 07ba fc3c
00000310: de5d d2bc c8ee 7fbd 44f3 82bc 6767 44bd
00000320: 8341 a3bd 6426 16bd 810d a9bd a984 acbb
00000330: f428 c1bc 57f3 63bb 53a4 cd3c 1324 36bd
00000340: d4ef 843b 2433 58bd e6a2 993c fab6 73bd
00000350: 245b 71bd 963c c03c fd08 8abd b5bf c93c
00000360: 2d79 e73c 8169 fb3c b423 09bd d4f4 91bd
00000370: 944f 2ebd ac45 66bd ca42 6ebd fb82 333d
00000380: dc46 4b3d dd95 013d e280 5a3d 3d42 4ebd
00000390: 78e5 f7bb f43d 4abd bdea 053d 5b6f 243c
000003a0: d1d8 5cbc 0f5d 4dbd 2e31 35bd 15ab 16bd
000003b0: 8c59 273d 6b32 abbd 916e 1ebd 950d 1cbd
000003c0: 2503 7abc 6e6e b2bd 9f8b a5bb 2466 133c
000003d0: f452 b5bc e5bd 50bc f73d aebd 5e07 c1bc
000003e0: 8654 c0bc 6692 49bc 4dd8 a0bc 1693 f73c
000003f0: 09a2 38bd 9d65 b8bc 5d10 f2bc cffe 9f3c
-0.051329788 -0.043416765 0.034912363 -0.036984205 0.022573497 -0.05950008 -0.06606139 -0.040668458
-0.02705353 0.010599586 -0.0059668506 0.0063305004 -0.030208552 -0.06131296 0.050170634 0.0026726243
-0.010632697 -0.06334813 -0.021041071 0.04004742 0.048352867 0.052061968 0.06444084 0.0470882
-0.039101638 0.035367522 0.00067236973 -0.02028291 0.034075044 0.016076397 -0.04744463 0.021338329
0.039784223 -0.059661683 0.02321512 0.052068286 0.025738584 0.03413012 -0.0404447 -0.048638828
-0.0037740907 -0.015914656 0.06638965 0.035109904 0.017133242 0.018241199 -0.02441809 -0.072655015
-0.04094271 0.0018225033 0.021367455 -0.043635044 0.0030568892 -0.03131656 0.0074707195 -0.024543582
0.06343772 0.08906743 -0.057766583 -0.024784438 0.026129207 -0.05382549 -0.02147943 -0.09230546
0.003946474 -0.06216268 -0.0074450728 0.0072239386 -0.047534492 0.024188103 -0.03719073 -0.06504869
-0.049829274 -0.046215437 0.02813688 0.0017755504 -0.0745651 -0.02317275 0.035151824 0.053463247
-0.034579758 -0.04081753 -0.08799661 -0.057188492 0.015131689 -0.008445082 -0.025697012 -0.0053948383
-0.062186774 -0.06789741 -0.07535165 -0.010838974 -0.024973728 0.029247772 -0.022635024 -0.009483552
-0.020467544 -0.1192828 -0.053723205 -0.061137613 0.03595864 0.022997 -0.025823098 -0.017452294
-0.043577574 -0.14493074 -0.10188154 -0.17124997 0.02972969 -0.076875746 0.040079948 0.024118755
-0.019112738 -0.06088981 -0.11135744 -0.078547604 -0.015801938 -0.06111713 -0.005456119 -0.14732139
0.033181336 -0.04077964 0.00084650394 0.013462068 0.037806187 -0.07627847 0.019515578 -0.12810335
-0.0682927 0.00046500063 0.016400224 0.047603313 0.06891432 0.041369095 0.017079545 0.04511202
-0.0962716 -0.024147546 -0.037757926 -0.0024838932 -0.03735747 -0.036881927 -0.014312831 0.04820897
-0.08789105 -0.0051209107 -0.021774117 -0.003981389 -0.042386476 -0.075423785 0.011662151 0.029260552
-0.080905534 -0.039295807 -0.14671172 0.039539095 0.038955305 -0.047362585 0.0017857985 -0.088089906
0.014647075 0.03082806 0.052934423 -0.04746618 0.036781486 -0.03998719 -0.046681367 -0.102803
0.06795878 0.05625451 -0.03725561 -0.012400401 0.015324344 -0.031477265 0.0038615959 0.009265083
-0.04059115 -0.021731213 -0.051600646 0.012501764 0.0093849255 -0.04240914 -0.06972465 0.0015173533
-0.030676233 0.01091571 0.01416912 -0.068617776 0.022923822 -0.051839102 0.027364837 0.0025258763
0.014533508 0.012228021 -0.04539858 0.030850423 -0.025679525 -0.06248358 -0.015985139 -0.047950175
-0.0797148 -0.036657706 -0.08254529 -0.0052648378 -0.023579098 -0.0034782493 0.02510277 -0.044467997
0.00405691 -0.052783147 0.018754434 -0.059500672 -0.05892481 0.02346639 -0.06739996 0.024627546
0.028256023 0.030689957 -0.033481315 -0.071267754 -0.04255636 -0.056218788 -0.058169164 0.043826085
0.049628124 0.03163706 0.05334557 -0.05035614 -0.0075651966 -0.04937549 0.032694567 0.010036315
-0.013479427 -0.050137576 -0.044236355 -0.03678425 0.040856883 -0.08359226 -0.038679663 -0.03809889
-0.015259539 -0.08712469 -0.0050520445 0.00899652 -0.022134282 -0.012740587 -0.085079126 -0.023563083
-0.023477804 -0.0123029705 -0.01963439 0.030221503 -0.045076404 -0.02250939 -0.029548818 0.019530682

deconv2.0.bias f4 [16]
00000000: d09e afbc e245 7dbd 801d 6dbb 1500 403d
00000010: dc38 fc3b f383 50bd 66b2 4c3c 1e32 0f3d
00000020: 6488 22bd 00d6 283d 8587 4ebd 6162 44bd
00000030: 16bc 2f3c 4b85 b2bc 2861 4e3d 1ec9 82bb
-0.021438032 -0.061834224 -0.0036180913 0.04687508 0.007697208 -0.050907087 0.012493705 0.034959905
-0.039680853 0.04121971 -0.05042221 -0.047945384 0.0107259955 -0.021792075 0.050385624 -0.00399126

deconv2.1.weight f4 [16]
00000000: d044 6d3f f6d1 763f a18e 7b3f 622e 7f3f
00000010: cd3e 783f b5e2 873f b491 863f bc84 843f
00000020: b1b5 763f bec9 7b3f ab24 7e3f d270 7f3f
00000030: 433e 7f3f c4d7 7f3f a316 823f 24cb 8b3f
0.92683125 0.96414125 0.9826451 0.9968015 0.96970826 1.061606 1.0513215 1.0353007
0.9637099 0.9835471 0.992747 0.99781525 0.9970438 0.9993861 1.0163158 1.0921369

deconv2.1.bias f4 [16]
00000000: ac30 b4bc b161 c33c 71ce 853c 5067 353d
00000010: 0bbc 113d de9d a3bc d9d0 b13d f41e 193b
00000020: 9fad 1d3d 4366 3ebd c3b9 813d 9d04 0e3d
00000030: 4dfe c43c 2296 4a3d fe73 ec3c f7d6 8ebd
-0.021995865 0.023850294 0.01633379 0.04428798 0.035579722 -0.019972738 0.08682413 0.0023364397
0.038495656 -0.046484243 0.06334259 0.03467237 0.024047041 0.049459584 0.028863903 -0.06974595

deconv2.1.running_mean f4 [16]
00000000: 43c9 cdbe 5dd6 0dbf a600 10bf ff27 0bbf
00000010: 1dac 29bf 38e9 22bf d469 06bf d141 d9be
00000020: 4a44 26bf 1848 a5be 0940 4ebf 0041 43bf
00000030: 3aa4 20bf 39cb 7abf 4c1c 02bf 709a f6be
-0.40192613 -0.5540522 -0.5625099 -0.54357904 -0.6627825 -0.63637114 -0.5250523 -0.42433026
-0.6494795 -0.32281566 -0.8056646 -0.7627106 -0.6275059 -0.97966343 -0.5082443 -0.481647

deconv2.1.running_var f4 [16]
00000000: f2f2 193f c216 1e3f 0864 263f dbea 593f
00000010: b040 e63e 2dac 103e fa14 383f b052 bc3e
00000020: bae0 1a3f a652 913e c4af be3f 9d03 263f
00000030: 7907 8a3f 4371 a33f 50ec 7d3e 70ee 093e
0.6013633 0.61753476 0.64996386 0.85123986 0.44971228 0.1412818 0.7190701 0.36781836
0.60499156 0.28383368 1.489739 0.64849263 1.078353 1.276894 0.24797177 0.13469863

deconv3.0.weight f4 [16, 8, 4, 4]
00000000: 79f8 323c f079 7f3c 06da da3c 38ed d53d
00000010: be96 cc3b a933 febc f9dd 623d 7ad1 443d
00000020: c399 87bc 8566 183d 8d79 753d 473f 2b3c
00000030: 0ded 15bd 0a29 463d f6fb 3d3d 182e 58bd
00000040: b518 66bd 84e1 6b3d ab45 11bd 684b 81bc
00000050: 4d35 62bd 282a 0a3c b473 cfbc 8ed2 91bc
00000060: fd17 c23c 573d 8ebd 251e 003d cf85 3ebd
00000070: 6803 ff3c 5fe9 b43c bcc1 9ebb acad e4ba
00000080: 35b1 21bc 763c 853d bd8c 543c 1b93 843c
00000090: 7e62 46bc 0428 25bd d327 41bd 49cd 4fbd
000000a0: d064 7b3c 5788 513c 6f25 6fbc b76b 903b
000000b0: df90 183d dc6b 043d fb40 363d 8d56 843d
000000c0: 3243 193e 8ac2 49bd 2c97 8bbc d672 0c3d
000000d0: 590d 343d 8485 ab3d bb22 2b39 b76c f53c
000000e0: 7210 843c 70f9 fcbc 5cfe eb3b cf6d d4bc
000000f0: 0d37 793c ee17 403d 7b5b c43c e280 a3bc
00000100: 86d1 763d 8c1f 21bd 790e 893d 973f 5e3d
00000110: 92a7 4bbc 2dcd 93bc b570 00bd d40b 2bbc
00000120: 5ef9 463d dfd7 553d 8155 893d 2872 b33b
00000130: 1425 c73b 0e01 0fbd 37f7 af3c ce62 f6bc
00000140: ba19 84b9 66b7 1c3d d956 1ebd 288b 343d
00000150: 7778 3dbd 1a23 e73c 8070 76bd 645a ac3d
00000160: 495c b4bc 334f 5dbd cb5c acbc 25d9 ae3d
00000170: 4797 6d3d df98 193d b265 0f3d c0de 56bd
00000180: 741d 04bd 708f dd3b b12a 633c 3685 22bc
00000190: 749a 873d c612 6a3c d8ca 413d 049b 27bd
000001a0: 440d 3dbc b0e4 ce3d eeb5 703c 0216 d9bb
000001b0: 4bef a8bb cd77 e6bc f15b 94bd 89b8 633c
000001c0: c909 32bc 54b6 803d 07fc 69bc 87e4 f23c
000001d0: 6277 31bd 8e0d 0a3a a885 7d3c 17de 5cbd
000001e0: ef0e 8cbc a192 513c 6a93 02bd 2d96 8a3d
000001f0: 3982 9c3c 93b4 b2bc e4ef 933d 3ded 2a3d
00000200: ad43 f13c 9bd7 4f3d b7d4 01bd a7d1 62bd
00000210: f7e8 503d 867a 3c3c 2504 dabc ac83 03bd
00000220: be7f 5ebd cdfc 833d 4ca5 173d 1d5f 6e3a
00000230: dc32 653c f781 9ebc 365c 2b3d 4421 12bd
00000240: d2ba 9ebd b893 4dbd 32a7 603c d3b3 db3c
00000250: a21a e73b 5f29 b0bc cd27 81bc 2081 28bd
00000260: c860 643d 5f5e 93bd 7037 f73c 0482 fbbc
00000270: 2f64 27bd 3153 30bd ab30 6dbc d0bb 093c
00000280: 5394 d23c af3a 7ebb 92c1 9ebd 2d8e f7bc
00000290: 1fbe c63c 0139 c53d 7bf4 2f3d 87ba bb3d
000002a0: cf5a c23a a620 11bc ff9e a0bd 64df ae3d
000002b0: 9a92 54bc 1a4d 92bd 8c29 993c 31e4 89bd
000002c0: 40f5 cebc 4800 563d 4599 bfbc 9826 243c
000002d0: 401e 9b3d cedc 573b 171d 08bd 6f0e a03c
000002e0: fa3a 89bd 1cc5 783c dc2f 613d 7e41 15bd
000002f0: 52a7 9bbd 4165 bd3c eb56 16bd 1c35 af3c
00000300: d72e 54bd 9bc2 5a3d 8274 923c 614c f2bc
00000310: 5ba2 dbbc 7146 34bd bf2a 773b a41c 92bd
00000320: 686f 1dbd 9916 113d eca0 693d f873 bd3d
00000330: 44d0 453d 338a 81bc 57a5 1f3d 961f 00bc
00000340: ab3c bf3c 1eeb 363c 1d33 743c 702e b63c
00000350: 56dc 01bd 4eb5 a33c 542f 293d b33a 0b3d
00000360: 3471 023d 3398 ae3b 6727 28bc 52f8 d53c
00000370: 666b ef3c 84ea 613d 069c 783a 8ca8 9e3d
00000380: 4e8d 34bb a93f b0bd e851 0a3d 1670 923d
00000390: 7b65 5bbb 1991 15bd 7863 84bd 36f7 9cbc
000003a0: 479d 433a 8d8d 9e3d 70f1 313b 2630 70bb
000003b0: 8ab7 733c 1710 753d 216c a1bc 9617 9f3d
000003c0: e847 143c df15 ac3c dea4 7bbd 98c8 b3bc
000003d0: ff84 8a3c b37a 42bd f524 c5bc e42d ff3c
000003e0: 364c 13bd 3f70 723d a25c 96bd c30b bebc
000003f0: 5826 e73b 7e53 39bc 44ee 9f3c 257e 873d
0.010923498 0.015593037 0.02671529 0.104456365 0.006243556 -0.031030493 0.05538747 0.048051335
-0.016552811 0.037207145 0.059930373 0.010452098 -0.036603022 0.04837898 0.046382867 -0.052778333
-0.056175906 0.057588115 -0.03546683 -0.015783027 -0.055226613 0.008432902 -0.025323726 -0.017800596
0.02369308 -0.069452934 0.031278748 -0.04651433 0.031129554 0.022083936 -0.0048448723 -0.0017446778
-0.00986891 0.06505673 0.012973008 0.016183427 -0.012108443 -0.040321365 -0.04715712 -0.050732885
0.01534386 0.012788854 -0.014596327 0.004407372 0.037247535 0.032329425 0.044495564 0.06461821
0.14967039 -0.049257793 -0.017039858 0.034289204 0.04395804 0.083750755 0.00016320769 0.029959066
0.016121123 -0.03088066 0.007201953 -0.025931267 0.015210879 0.04689782 0.023969403 -0.019958917
0.06025841 -0.039336726 0.066922136 0.054259863 -0.012430089 -0.018042171 -0.031357486 -0.010439832
0.04857766 0.052207824 0.06705762 0.005476255 0.006077418 -0.034913115 0.021480186 -0.03007641
-0.0002519617 0.03826084 -0.038657043 0.044078022 -0.046257462 0.02821498 -0.060165882 0.08415678
-0.022016661 -0.05403061 -0.02104034 0.08537511 0.058005597 0.037499305 0.035009094 -0.052458525
-0.03225465 0.006761484 0.013865159 -0.009919455 0.066212565 0.0142867025 0.047312587 -0.04091932
-0.011538807 0.101022124 0.014691813 -0.006624938 -0.005155479 -0.028133297 -0.07244099 0.013898977
-0.010866591 0.06284776 -0.014281279 0.029649986 -0.043326743 0.0005266302 0.015473761 -0.05392274
-0.017096965 0.012791307 -0.031878866 0.06766925 0.019105064 -0.02181462 0.0722349 0.041730154
0.029451216 0.050742727 -0.031697 -0.05537572 0.051003423 0.011503821 -0.026613304 -0.032107994
-0.054321043 0.06444702 0.037022874 0.00090931525 0.013989177 -0.019349081 0.041835986 -0.035676256
-0.07750477 -0.050189704 0.0137117375 0.026819145 0.0070527354 -0.021504102 -0.015766049 -0.04113877
0.05575636 -0.07195734 0.030177802 -0.030701645 -0.040867027 -0.043048088 -0.014476935 0.008406594
0.025705492 -0.0038792302 -0.07751764 -0.030219162 0.024260579 0.09630013 0.042957764 0.09166437
0.0014828088 -0.008857882 -0.07842826 0.08538702 -0.012974406 -0.07143612 0.018696569 -0.06732977
-0.025263429 0.052246362 -0.023388514 0.010018967 0.07574129 0.0032938006 -0.033230867 0.019538132
-0.06700702 0.015183713 0.054977283 -0.03643941 -0.07600273 0.02311957 -0.036703985 0.02138763
-0.051802482 0.053408246 0.01787782 -0.029577436 -0.026810816 -0.04401249 0.0037714688 -0.07134369
-0.038436323 0.03542194 0.057038233 0.09250635 0.04829432 -0.015812969 0.03897604 -0.007820031
0.023344358 0.011164455 0.0149047645 0.02223894 -0.03170427 0.019983914 0.0413049 0.033991527
0.03184624 0.005328202 -0.0102633005 0.026119385 0.029226016 0.055155292 0.00094836985 0.077469915
-0.0027550044 -0.08605892 0.033769518 0.07150285 -0.0033477235 -0.03651533 -0.06464285 -0.019160848
0.0007462096 0.077418424 0.0027151965 -0.0036649792 0.014875302 0.059829798 -0.01970488 0.077681705
0.009050347 0.021006523 -0.061436526 -0.021946236 0.01690912 -0.047480296 -0.024065474 0.031149812
-0.035961352 0.059189077 -0.07341887 -0.023198968 0.0070541315 -0.01131141 0.019522794 0.06615857

deconv3.0.bias f4 [8]
00000000: ba30 bb3b c380 8a3d f725 a03d 5fdf 99bc
00000010: 74d3 723d b7f9 f73b 48a2 593d 0014 03bd
0.005712596 0.067628406 0.07819741 -0.01878327 0.05928369 0.00756761 0.05313328 -0.032001495

deconv3.1.weight f4 [8]
00000000: 6c1c 963f 7486 973f 47c3 983f bc24 953f
00000010: 9104 993f d510 953f f3b6 983f cda1 993f
1.1727424 1.1837907 1.1934594 1.1651835 1.1954519 1.1645762 1.1930832 1.2002503

deconv3.1.bias f4 [8]
00000000: 6798 303e e624 3a3e 227e 473e 05de 263e
00000010: 931a 483e 2670 263e acf2 473e 39a8 4c3e
0.17245637 0.18178138 0.1948171 0.16295631 0.19541387 0.16253719 0.19526166 0.19986047

deconv3.1.running_mean f4 [8]
00000000: 61d2 b43b fc5b 7abe 296a c33b 6452 3fbe
00000010: 0635 a03d e0dd 92bb 464b 8ebd b933 4fbe
0.005518243 -0.24449152 0.005963583 -0.18683773 0.078226134 -0.004482016 -0.06947951 -0.20234574

deconv3.1.running_var f4 [8]
00000000: d515 cb3d 4acf 0d3e 0b4e ff3d 4a2d 043e
00000010: 3efe 463e 178a 2d3e fd15 153e 52f2 423e
0.099162735 0.13848606 0.124660574 0.12907901 0.19432923 0.16947208 0.14559169 0.1903775

deconv4.0.weight f4 [8, 3, 4, 4]
00000000: c59e 6d3d f534 a13b 7acd d6ba 9eee 69bb
00000010: b562 7f3d 1962 153c 85d7 673e 23c7 0f3e
00000020: 6d09 3c3e fefb 4e3e 7d25 593e 0d42 2a3e
00000030: 4584 583d 8826 d13d 106d 073e d12f 633e
00000040: 8381 60be 5d7d 28bd 6994 11bd 8822 c6bd
00000050: c006 a83c 8122 66be c83f e0bd c9ac 31be
00000060: 5d4b e3bd 5f3b 16be b729 66be 61d6 96bd
00000070: f13d 0ebd c401 47be 090b 5cbe cdf7 71be
00000080: 0da6 79bc 221c 0bbd dd07 74bd 363e 3cbc
00000090: eaa8 6a3c 50de 68be 12f6 0cbe a8e3 82bd
000000a0: 5866 5fbe f8bb 8abe 96fa 71be d4f0 cfbb
000000b0: 9bd8 02be 9bea 19be d7c8 7abe ac79 46be
000000c0: 9e0d 703d 1498 8a3b 34ed 7b3d 6bb6 04bd
000000d0: 6a50 79bd cb87 9a3d e4ef 2c3e 4a8b 2e3d
000000e0: 20c3 0e3e 2237 503d 3fbf 193e 2d74 a33d
000000f0: 2098 3dbd 71b9 183e e6f1 9ebd b94a 833d
00000100: ea97 4a3b d0b2 78be 29e3 81be 03f6 fdbd
00000110: 94b6 81be dd71 1bbe 6ee2 3abe ea1f 0ebd
00000120: 3f17 4ebe 9540 98bc 078b 09be 2103 fabc
00000130: 4571 8dbd 8900 72be 332e 50bd fc75 1cbe
00000140: 3518 b33c 8d2c 71be 3276 17ba 4879 d8bd
00000150: 8684 1bbe 7ed6 38be 79d0 81be ea9f 65be
00000160: baca 36be 0fb8 7fbe 6da0 b4bd f173 6dbe
00000170: fa52 763c 45ca e1bd b1e1 88bd 0916 ecbd
00000180: 172a 243e 5ed1 873d f2e3 1e3b b57e dc3d
00000190: caa5 2d3e 4b49 b63d 6b05 103e 8dd9 403d
000001a0: 8f54 163e 3d11 4abd cd20 093e 65ad 9e3d
000001b0: b345 f83b c23d 843d 3348 f53d e7fc e13d
000001c0: f987 91bd 233c e6bd 1378 c6bd 7666 b5bd
000001d0: 2f1e 8bbe a4b6 f1bc de63 65be 2008 57be
000001e0: 106b ddbc c39d 4bbd 89f9 efbd d4f6 e8bd
000001f0: c23c 84be 5ca3 e2bd a223 08bd a92c b6bd
00000200: 108a 9ebd 948d f8bb 2379 72be a599 fdbd
00000210: 64c4 fcbd baa7 34be 5839 3dbe 67c9 6cbe
00000220: af6d 65bd 1e3f e5bd dd6c 07be 1089 5bbd
00000230: 9d40 a3bd 1dad 45be 00ef 253c 8b5c 64be
00000240: a0f2 ec3d b035 91bc 0d85 023e 68a6 093e
00000250: d8ec 393d e844 a53d 8d35 3f3d 7a0e 413d
00000260: 5121 a53d 35fa b0bd ea3f a63d 0df1 0e3e
00000270: e490 1d3e 9fa0 1f3d 74c8 ee3d 5fe7 d13d
00000280: 642c 68be 6b2a f4bd ea7f 023a aeba 683c
00000290: d5bc 04bd 7277 edbd 9786 d2bd b860 3abe
000002a0: 7af3 5abe 2a24 89be 6545 a1bd 823c 1abe
000002b0: 815e 81be 843f 3abe 86d8 51be 8ffe 4bbe
000002c0: b1c0 1abe 1ebe 67be bfa9 7fbd e885 03bd
000002d0: 1da9 efbd b377 36bd 47a5 00be a5b3 abbd
000002e0: d4c7 20be 71ac e5bd 1a41 02bd 4260 28be
000002f0: 40ca 82be 1329 72be 657b 2cbe 2a6d 15be
00000300: ef80 38bd 13ec 053e ae82 fa3c f5d3 573e
00000310: cde8 2abd 701b 343e 01d7 963d 46d7 d9bb
00000320: 195e 613e 3fec 053e 0887 6dbd da11 ac3d
00000330: a632 843d f440 213e 18ea d93d 0fa1 ee3c
00000340: d7c0 05be e3b5 02be b03b 1bbe 25e4 7ebe
00000350: 289e f5bd 115c 5cbc dc33 1cbe 11ad 35be
00000360: 219b 6cbe 1784 22be d470 63be 8d33 5abe
00000370: 5999 7bbe c55c 84bd 31fd 10be d9e6 aabd
00000380: 34e5 97bd 5f3c 29be 9f9a 59be a1e0 27bd
00000390: 989f 1fbe 95fd d9bd b726 5bbc 185c d5bd
000003a0: f16b b7bc 278a 32be 3c28 00be 901c 7cbd
000003b0: f657 13be 4623 9dbd 1bd3 ef3b 6e02 34be
000003c0: c326 733d 38c0 1b3e 7e42 da3c 0206 ff3d
000003d0: c110 cf3c 6b9e 8fbb 0a1e 353e aa77 103e
000003e0: 4433 3c3d a8bf d23d 54f2 f83d 1e3e 153e
000003f0: b8f2 5a3e f30a d7bc 76ae d53d fbd3 733d
0.058012743 0.004919643 -0.0016388141 -0.0035695205 0.062349994 0.009117627 0.22640808 0.14040808
0.1836297 0.20213315 0.21205707 0.16626759 0.052860517 0.102124274 0.13225198 0.2218621
-0.21924405 -0.04113518 -0.035541926 -0.09674555 0.020511031 -0.224741 -0.10949665 -0.17351069
-0.11098359 -0.14671086 -0.2247685 -0.07365108 -0.03472704 -0.19434267 -0.21488585 -0.23629685
-0.0152373435 -0.033962376 -0.05957781 -0.011489442 0.014322499 -0.22741055 -0.13765743 -0.06391078
-0.21816385 -0.27096534 -0.23630747 -0.0063458476 -0.12777941 -0.15030901 -0.24490677 -0.19382352
0.058606736 0.004229555 0.06150551 -0.03240053 -0.060867704 0.07545432 0.16888386 0.042613305
0.13941622 0.05083383 0.15014361 0.07981143 -0.046287656 0.1491449 -0.07760982 0.064107366
0.0030913302 -0.24286962 -0.25368622 -0.12400439 -0.2533461 -0.15180154 -0.18250439 -0.034698404
-0.20126055 -0.018585483 -0.13431941 -0.03051907 -0.0690637 -0.23633017 -0.05082531 -0.15279382
0.021862129 -0.23552151 -0.00057778053 -0.105700076 -0.15187272 -0.18050572 -0.25354365 -0.22424284
-0.17850772 -0.24972557 -0.08819661 -0.2318876 0.015034432 -0.11024908 -0.06683672 -0.1152764
0.16031681 0.066317305 0.0024244753 0.10766355 0.16957775 0.08900698 0.14064567 0.047082473
0.14680694 -0.049332846 0.13391419 0.07747916 0.007576668 0.06457092 0.119766615 0.110345654
-0.07106013 -0.11241939 -0.09690871 -0.088574335 -0.27171466 -0.029506035 -0.22401378 -0.20999193
-0.02702859 -0.049711 -0.11717517 -0.11375204 -0.25827605 -0.110663146 -0.033237107 -0.08895237
-0.07741177 -0.007585237 -0.23679022 -0.12382821 -0.12342146 -0.17642108 -0.18478906 -0.23123704
-0.056012806 -0.11193679 -0.13225122 -0.05359751 -0.079713084 -0.19304319 0.010127783 -0.22300927
0.115697145 -0.017725796 0.12746067 0.13442385 0.045391887 0.080697834 0.04668193 0.047132947
0.08062995 -0.08641473 0.081176594 0.13959141 0.15387303 0.03897154 0.11659327 0.10249209
-0.22673184 -0.11922153 0.0004978167 0.014204664 -0.032406647 -0.11595048 -0.10279577 -0.18200958
-0.21381941 -0.26785403 -0.07874564 -0.15062144 -0.25267413 -0.18188292 -0.20492753 -0.19921325
-0.15112568 -0.22631118 -0.062417742 -0.032110125 -0.11702178 -0.044547748 -0.12563048 -0.08383874
-0.15701228 -0.11214531 -0.031800367 -0.1644297 -0.2554493 -0.23648481 -0.16843946 -0.14592424
-0.045044836 0.13078336 0.030579891 0.21076949 -0.041725922 0.17588592 0.073652275 -0.006647977
0.22008552 0.13078402 -0.057990104 0.084018424 0.06454973 0.15747434 0.10640353 0.029129533
-0.13061844 -0.12764697 -0.15159488 -0.24891718 -0.119930565 -0.013449685 -0.15254158 -0.17741801
-0.23106052 -0.15870701 -0.2221101 -0.21308728 -0.24570216 -0.06463007 -0.14159085 -0.08344812
-0.07416764 -0.16526936 -0.2125039 -0.040985707 -0.15588224 -0.1064407 -0.01337593 -0.10417956
-0.022390338 -0.17435513 -0.12515348 -0.061550677 -0.14389023 -0.076727435 0.007318867 -0.17579052
0.059363138 0.15210044 0.026643034 0.12452318 0.025276544 -0.0043828986 0.1768724 0.14108148
0.04594733 0.10290462 0.121555954 0.14574477 0.21381652 -0.026250338 0.104336664 0.059528332

deconv4.0.bias f4 [3]
00000000: d6cf a3bd b9e0 3fbd 3ada 70be
-0.07998626 -0.04684517 -0.23520747
