Pix2Pix/checkpoints/pix2pix_model_epoch_210.pth (torch, 99191 bytes, 32 tensors)

conv1.0.weight f4 [8, 3, 4, 4]
0	0x3df8bc36	0.121452734
1	0x3de20241	0.11035586
2	0xbdb2730e	-0.08713351
3	0x3e17917b	0.1480159
4	0x3d8bda26	0.06828718
5	0x3b4ea310	0.0031530298
6	0xbd8e2ec7	-0.06942516
7	0x3de83882	0.11338903
8	0xbdd605d5	-0.10450331
9	0xbd12161d	-0.03566562
10	0xba8f1e0b	-0.0010918988
11	0xbccd78ae	-0.025081959
12	0x3df0cf30	0.11758268
13	0x3db7b8b2	0.08970775
14	0xbe0a8926	-0.1352888
15	0xbe0c65f5	-0.13710769
16	0xbd4374ff	-0.047718998
17	0x3db3e8ac	0.08784613
18	0x3c73c65d	0.014878836
19	0x3e2cc692	0.16872624
20	0xbd54abd9	-0.0519217
21	0xbd36f4f8	-0.044667214
22	0x3e3f11eb	0.18659179
23	0xbd870b86	-0.06593995
24	0xbe1215ec	-0.14266175
25	0xbe014e3b	-0.12627499
26	0xbdbcd520	-0.09220338
27	0xbdfbc11e	-0.122926936
28	0xbdb4fb66	-0.08837013
29	0x3c165875	0.009176363
30	0x3df8cfaa	0.12148984
31	0xbd9f8816	-0.07789628
32	0x3d978f8d	0.07400427
33	0x3df95017	0.12173479
34	0xbd8af4a6	-0.06784944
35	0xbdd34357	-0.103155784
36	0xbd757b7e	-0.059932224
37	0xbb5baf5c	-0.003352127
38	0x3e08e066	0.13366851
39	0xbc801e38	-0.01563941
40	0xbd8fabf1	-0.07015217
41	0xbddd3c65	-0.10802535
42	0xbe0f3c3b	-0.1398782
43	0x3cbdf45a	0.023187805
44	0x3df423cb	0.119208895
45	0xbda89f34	-0.082334906
46	0x3e22f0e8	0.15912211
47	0x3c961058	0.01831834
48	0x3c11f435	0.008908321
49	0x3c938fef	0.018012969
50	0xbd866327	-0.065618806
51	0x3e0af49e	0.13569877
52	0x3e02bfcd	0.12768479
53	0x3d9bbdd9	0.0760457
54	0x3de17b71	0.11009873
55	0x3c692c72	0.014231788
56	0x3c28b858	0.010297857
57	0xbd91a2f7	-0.07111161
58	0xbdb8fa0f	-0.0903207
59	0x3dd3ed11	0.10347951
60	0xbd6cb550	-0.0577901
61	0x3d4f2579	0.050572846
62	0xbd6fc0ce	-0.058533482
63	0x3e178008	0.14794934
64	0xbcab1e01	-0.02088833
65	0xbd6bd5e7	-0.05757704
66	0x3e056f80	0.13030815
67	0xbdfb638a	-0.12274845
68	0xbd451d85	-0.048123855
69	0xbde051ff	-0.109531395
70	0x3d640d42	0.055676706
71	0xbd1d104c	-0.03834562
72	0xba903885	-0.0011003172
73	0x3d5ce17c	0.053925976
74	0x3d658e37	0.05604383
75	0x3de66500	0.11249733
76	0x3d717eb4	0.058958724
77	0xbdfaafd4	-0.12240568
78	0xbdda7aa9	-0.10667927
79	0x3d4bf3d2	0.049793072
80	0x3d203a8b	0.03911833
81	0x3da307fe	0.07960509
82	0xbe016e00	-0.12639618
83	0xbe10707c	-0.1410541
84	0x3dcf15bc	0.101115674
85	0xbd9b20a9	-0.07574589
86	0xbcbd0540	-0.023073792
87	0xbd97b95a	-0.074084
88	0xbd47f8e3	-0.04882134
89	0xbdd6c912	-0.1048757
90	0xbe0159ef	-0.12631963
91	0x3d3d5f05	0.046233196
92	0xbd51f30b	-0.051257174
93	0xbd3892e8	-0.045061976
94	0xbdfb2b3b	-0.12264105
95	0x3d118226	0.03552451
96	0x3da7ed17	0.08199518
97	0xbdb4a069	-0.08819658
98	0x3cb3ad98	0.021933362
99	0x3e20bd8a	0.15697303
100	0xbe06fc2b	-0.13182132
101	0xbdc23a02	-0.0948372
102	0xbd9bbc85	-0.076043166
103	0x3d622200	0.055208206
104	0xbe06db84	-0.13169676
105	0xbdc88b72	-0.09792222
106	0x3bfcb29c	0.0077117216
107	0xbc90a5fd	-0.017657274
108	0x3de2c461	0.110726126
109	0xbdcd62f9	-0.10028643
110	0x3d6cd1e4	0.057817355
111	0x3e00605e	0.12536761
112	0x3dda60d6	0.10663001
113	0xbe121e97	-0.14269482
114	0x3d7c781a	0.061637975
115	0xbdd1b1f7	-0.10239022
116	0x3de450eb	0.111482464
117	0xbd9f2aa5	-0.07771806
118	0x3b905e43	0.004405768
119	0x3e1387ea	0.14407316
120	0xbde1857c	-0.11011788
121	0xbb8f8094	-0.0043793414
122	0x3cb8c611	0.022555383
123	0x3e11575b	0.1419348
124	0x3dce0a5e	0.10060571
125	0xbcee5f14	-0.029098071
126	0xbcc8babd	-0.024503106
127	0x3dd0298e	0.10164176
128	0x3bf7ea2e	0.007565758
129	0x3d03a740	0.032141924
130	0xbe169820	-0.14706469
131	0x3d25306d	0.040329386
132	0x3d89a953	0.06721749
133	0xbde051d4	-0.109531075
134	0x3e05e078	0.1307391
135	0xbd12fe61	-0.035887126
136	0x3ddb77d7	0.10716217
137	0xbcdab1ea	-0.026696164
138	0x3d8526df	0.06501555
139	0x3db228af	0.08699166
140	0xbdd6e414	-0.10492721
141	0xbddcb3d7	-0.10776489
142	0xbe0c0a98	-0.13675916
143	0xbd4b639d	-0.049655546
144	0xbd139eea	-0.036040224
145	0x3cafeb1a	0.02147441
146	0xbc82f7c1	-0.015987279
147	0xbd6c8f08	-0.057753593
148	0xbdf8504d	-0.12124691
149	0xbe00b64e	-0.12569544
150	0x3d849af2	0.06474866
151	0x3e0078a2	0.12546018
152	0x3da857f8	0.08219904
153	0x3d47da49	0.048792157
154	0x3c26ae21	0.0101733515
155	0x3ded1356	0.11575954
156	0x3d980819	0.074234195
157	0xbdc84dd4	-0.097804695
158	0x3db833c6	0.0899425
159	0xbd9d2935	-0.07673875
160	0xbca2e96c	-0.019886695
161	0x3db59a2d	0.08867297
162	0xbe172cea	-0.14763227
163	0xbd91a97f	-0.07112407
164	0xbd99ee3c	-0.07516143
165	0x3cf150c0	0.02945745
166	0xbe165d2c	-0.1468398
167	0xbdac48bc	-0.084123105
168	0x3c186d3d	0.009303388
169	0xb93e6c4f	-0.0001816016
170	0xbc82fc40	-0.015989423
171	0xbd81dab7	-0.06340545
172	0x3d4c98f9	0.049950574
173	0x3e356048	0.1771251
174	0x3db23241	0.087009914
175	0x3cd9acea	0.02657171
176	0xbe0c0b1a	-0.1367611
177	0x3d8f97c4	0.07011369
178	0x3c38e720	0.011285573
179	0x3d4a1f81	0.04934645
180	0xbcaea111	-0.021317037
181	0x3db9ef26	0.09078817
182	0x3c8109c3	0.015751725
183	0x3deacb86	0.114646
184	0x3e1718b9	0.14755525
185	0x3d737151	0.05943424
186	0x3cc12688	0.023577943
187	0x3d80c1b0	0.06286943
188	0x3e16b10f	0.1471598
189	0xbd545c12	-0.051845618
190	0x3db16822	0.0866244
191	0x3ddaa100	0.106752396
192	0x3e5764de	0.21034572
193	0x3e4a1444	0.19734293
194	0x3e3c13c2	0.18366912
195	0xbc58438b	-0.013199697
196	0x3d6f55f3	0.058431577
197	0x3d974201	0.07385636
198	0xbde7c754	-0.11317316
199	0x3d804a68	0.06264192
200	0x3dd0dada	0.101979926
201	0xbd90e0fd	-0.07074163
202	0xbc9903f4	-0.018678643
203	0xbc19bda9	-0.009383597
204	0x3d89f6e2	0.06736542
205	0xbe031879	-0.12802304
206	0x3d27edde	0.040998332
207	0xbbcc4e48	-0.006234918
208	0x3d770a66	0.06031265
209	0xbca1b7fc	-0.01974105
210	0x3e00fbee	0.12596104
211	0xbdec6482	-0.11542608
212	0xbdd5ff1f	-0.10449051
213	0xbd3d9889	-0.046288047
214	0x3c85862a	0.016299326
215	0x3d950a6e	0.0727738
216	0x3e17def3	0.14831142
217	0xbd9a5392	-0.07535471
218	0xbdcb9b29	-0.09941704
219	0xbde55f6c	-0.11199841
220	0xbdd03876	-0.10167019
221	0x3df73a05	0.12071613
222	0x3d3f3331	0.04667968
223	0x3d859c66	0.06523971
224	0x3e0a656a	0.13515249
225	0x3d6f07c5	0.05835702
226	0xbdc7fc9f	-0.097649805
227	0x3d3e8c97	0.046520796
228	0xbde19c54	-0.11016145
229	0xb6c5a7cc	-5.8905916e-06
230	0x3da5856d	0.080820896
231	0x3cf99826	0.030468058
232	0xbcb467eb	-0.022022208
233	0x3bd42e9c	0.006475283
234	0x3d4ec11f	0.050477143
235	0x3de52db1	0.111903556
236	0xbe04db59	-0.129743
237	0x3a76e9ee	0.00094190135
238	0x3d8b7a7e	0.06810473
239	0xbce78b16	-0.028264564
240	0x3e03d744	0.12875086
241	0xbb5ad721	-0.0033392387
242	0x3a9ce22f	0.0011969263
243	0x3d1ffbfd	0.039058674
244	0xbc68c0e1	-0.014206142
245	0x3e12d136	0.1433762
246	0x3d24da43	0.040247213
247	0x3d0d6f16	0.034529768
248	0xbd5755c4	-0.052572027
249	0xbcfa0590	-0.03052023
250	0xbdd96636	-0.10615198
251	0xbd0d1ed0	-0.034453213
252	0x3dabf72e	0.08396755
253	0xbd8db32f	-0.06918942
254	0x3d8d69f1	0.06904972
255	0xbdfc0fdd	-0.12307713

conv1.0.bias f4 [8]
0	0xbd7cb70c	-0.061698005
1	0xbdebb338	-0.11508793
2	0x3dd376f6	0.103254244
3	0xbda47bfd	-0.080314614
4	0x3e0c1748	0.13680756
5	0xbdc80ca8	-0.09768039
6	0x3de085fc	0.109630555
7	0x3d389421	0.04506314

conv1.1.weight f4 [8]
0	0x3f7ef004	0.99584985
1	0x3f7c686c	0.98596835
2	0x3f80d5b0	1.0065212
3	0x3f83cd15	1.0296961
4	0x3f8115ed	1.0084816
5	0x3f822bac	1.0169578
6	0x3f817a62	1.0115473
7	0x3f7ad971	0.9798804

conv1.1.bias f4 [8]
0	0xbc53125e	-0.012882797
1	0xbc540c7f	-0.012942432
2	0xbdbfde07	-0.0936852
3	0x3db767c7	0.08955341
4	0xbd15a545	-0.036534566
5	0x3d2a7d6f	0.04162353
6	0x3d0b1cc7	0.03396299
7	0x3c3bb592	0.011456864

conv1.1.running_mean f4 [8]
0	0xbd823d22	-0.063593164
1	0xbe1c04ee	-0.15236256
2	0x3dd67a21	0.10472513
3	0xbdef7517	-0.11692255
4	0x3cdeb9d6	0.027188223
5	0xbde46587	-0.11152177
6	0x3e4dea71	0.20108964
7	0x3d3cbdc8	0.046079427

conv1.1.running_var f4 [8]
0	0x3cd57b00	0.026059628
1	0x3d1be11d	0.03805648
2	0x3c8f3925	0.017483303
3	0x3e001368	0.12507403
4	0x3e0aa307	0.13538752
5	0x3ceff657	0.029292269
6	0x3dec566b	0.115399204
7	0x3c3e2d43	0.011607471

conv2.0.weight f4 [16, 8, 4, 4]
0	0x3d5ded2a	0.054181255
1	0x3cc36a76	0.023854475
2	0xbdb3335b	-0.0875003
3	0xbd81e0dc	-0.06341717
4	0x3d240148	0.040040284
5	0x3d33a6a5	0.043860096
6	0xbd0a2444	-0.03372599
7	0x3d1996af	0.03749722
8	0xbc3fb14b	-0.011699985
9	0xbcd4a2be	-0.025956508
10	0x3d8ef232	0.06979789
11	0x3d8e320f	0.06943142
12	0xbd331e2b	-0.043729942
13	0x3d412800	0.047157288
14	0x3cde38b5	0.02712665
15	0x3dab6f8c	0.08370885
16	0x3d34fa6d	0.044184137
17	0x3ca9b0b4	0.020714141
18	0x3ddf5c7c	0.10906312
19	0x3dadde5c	0.08489677
20	0xbd0d8d1e	-0.034558408
21	0x3cd3e788	0.025867239
22	0xbd00c70a	-0.03143982
23	0x3d47258e	0.0486198
24	0x3d9c24c4	0.076242
25	0xbca4327e	-0.020043608
26	0xbcbad91b	-0.022808602
27	0x3b6e8554	0.0036395388
28	0xbce0204a	-0.027359147
29	0x3d5a77b5	0.053336818
30	0x3e15f285	0.14643295
31	0x3e084e11	0.1331103
32	0xbd0cf558	-0.034413666
33	0xbd1f7450	-0.038929284
34	0xbc72d91b	-0.01482227
35	0xbc49cda0	-0.012317091
36	0x3d78bd32	0.060727306
37	0x3cdfe827	0.027332379
38	0x3b26b8f8	0.002543984
39	0x3daa870a	0.08326538
40	0xba5e2506	-0.0008474145
41	0x3d2324cf	0.039830025
42	0x3dc7b569	0.09751398
43	0xbd139e26	-0.036039494
44	0x3c93e6e7	0.018054439
45	0x3c922bb0	0.017843097
46	0xbd2ef2cf	-0.04271203
47	0xbce84a5f	-0.028355775
48	0xbd1986e1	-0.037482146
49	0xbd37d9e8	-0.044885546
50	0x3cbd675e	0.023120578
51	0xbc505efc	-0.012717959
52	0xbd30bb6a	-0.043147482
53	0xbd8c8b7e	-0.068625435
54	0x3da86746	0.08222823
55	0x3bc62c8d	0.0060477913
56	0x3d48ab27	0.04899135
57	0x3cda4de4	0.02664847
58	0x3d204cdd	0.039135803
59	0x3c15bce8	0.009139277
60	0xbd6d8bd8	-0.057994694
61	0x3da440d2	0.08020176
62	0xbd5d760f	-0.054067668
63	0x3b9e1ab1	0.004824959
64	0x3b949b57	0.0045351195
65	0x3d88d2e7	0.066808514
66	0xbcdfa1a7	-0.027298762
67	0x3d923976	0.07139866
68	0xbd29a4d1	-0.041416947
69	0xbc5c86a8	-0.013459839
70	0x3cc7ca09	0.02438833
71	0x3dbabfc2	0.09118606
72	0x3d7b8527	0.06140628
73	0x3da2b785	0.0794516
74	0xbc71f91f	-0.014768868
75	0x3df08751	0.117445596
76	0x3d9dbb6f	0.07701766
77	0x3dd14095	0.10217396
78	0x3db2748e	0.08713637
79	0x3caea31f	0.021318017
80	0xbc8596ed	-0.016307319
81	0xbc992d47	-0.018698348
82	0x3d6f5841	0.058433775
83	0x3d359693	0.044333052
84	0x3d1160f3	0.03549285
85	0xbcb0508e	-0.021522786
86	0x3c8c8dbd	0.01715743
87	0x3acce242	0.0015631395
88	0x3d311b51	0.04323894
89	0xbd81fe1a	-0.06347294
90	0xbd482225	-0.048860688
91	0x3cf8f04e	0.030388024
92	0x3d1228e4	0.035683528
93	0x3bb3e85b	0.0054903454
94	0xbd3c0b59	-0.04590926
95	0xbd0ea041	-0.0348208
96	0xbd802a79	-0.06258101
97	0x3d4ed3b4	0.050494865
98	0x3d0fc032	0.0350954
99	0x3d017750	0.031607926
100	0x3d896778	0.06709188
101	0xbce83019	-0.028343247
102	0x3bbeab81	0.0058187847
103	0xbd166004	-0.03671266
104	0x3d20fa5e	0.03930127
105	0xbd1cee94	-0.038313463
106	0x3dc4e266	0.096134946
107	0xbba8d57e	-0.0051524034
108	0x3d140cf1	0.036145154
109	0x3d817677	0.063214235
110	0xbcabde69	-0.020980077
111	0x3cbc4684	0.022982843
112	0xbd0107a4	-0.031501427
113	0x3d0f000d	0.034912158
114	0xbd70ff27	-0.058837082
115	0x3d8411ff	0.06448745
116	0xbd98affc	-0.07455441
117	0x3d034e63	0.032057177
118	0x3cc93986	0.024563562
119	0x39de748a	0.00042429968
120	0xbca80ad5	-0.020512978
121	0x3dbd0255	0.092289604
122	0xbcd88070	-0.026428431
123	0xbce175b1	-0.02752194
124	0xbba9293f	-0.0051623876
125	0x3d543b72	0.051814504
126	0xbcc78dc6	-0.024359595
127	0x3d7915a9	0.060811672
128	0xbd013a76	-0.031549893
129	0xbcd5c6c7	-0.026095761
130	0x3d491ab4	0.04909773
131	0x3d6a385a	0.057182647
132	0xbd772a2c	-0.060342953
133	0x3cfa7c79	0.030576931
134	0xbcf48ec3	-0.02985323
135	0xbdbc6358	-0.09198636
136	0x3d748ddf	0.05970561
137	0x3c61b348	0.013775654
138	0x3d75d244	0.060014978
139	0xbca1e02c	-0.019760214
140	0xbdb6db95	-0.08928601
141	0x3d236c4e	0.03989821
142	0xbce1720e	-0.027520206
143	0xbc9867cd	-0.018604184
144	0xba86af9c	-0.0010275724
145	0x3d98f643	0.07468846
146	0xbcfa1d88	-0.03053166
147	0x3cfd5d41	0.030928256
148	0x3ccfad09	0.025351064
149	0x3c87a6d1	0.016559036
150	0xbd2b9398	-0.041888803
151	0x3ca657a3	0.02030546
152	0x3d62ad2b	0.055340927
153	0x3d5e661c	0.054296598
154	0x3d4e464d	0.050360013
155	0x3c93da50	0.018048435
156	0xbd486818	-0.048927397
157	0xbcb12cf2	-0.021627877
158	0x3c8aa609	0.016924875
159	0x3cea7680	0.028620958
160	0x3d9d205b	0.07672187
161	0x3d824ebd	0.063626744
162	0xbbdcccfb	-0.0067383028
163	0x3c9f24a7	0.019426657
164	0xbd611ce1	-0.05495918
165	0xbdc986d3	-0.09840169
166	0xbdd1f748	-0.10252243
167	0xbd8f13cb	-0.06986197
168	0xbe05c3e4	-0.13063008
169	0xbc4eb963	-0.012617442
170	0xbb9b0687	-0.0047310027
171	0xbdd9fb05	-0.10643581
172	0x3ccf7c4a	0.02532782
173	0x3b697eb8	0.0035628509
174	0xbc77d827	-0.015127218
175	0x3c7e7869	0.015531638
176	0x3dc60b2a	0.09670098
177	0x3bfad986	0.0076553253
178	0x3daed8f6	0.08537476
179	0xbc6fd3d3	-0.014637905
180	0xbcb55e94	-0.022139825
181	0xbd4bf607	-0.049795177
182	0xbcb0fdeb	-0.021605453
183	0x3d607571	0.0547995
184	0xbd4a4133	-0.049378585
185	0xbdabff58	-0.08398312
186	0x3c8370bd	0.016044969
187	0x3ce7f538	0.028315172
188	0x3d9df49f	0.077126734
189	0xbd0c907c	-0.03431748
190	0x3d581b1c	0.05276023
191	0x3c18b1fa	0.009319777
192	0x3c8f5f59	0.01750152
193	0xbae58f11	-0.0017513951
194	0x3bc7299c	0.0060779583
195	0x3c862033	0.016372776
196	0x3d342833	0.04398365
197	0x3c909ef7	0.017653925
198	0xbd2aa5a8	-0.04166189
199	0x3d1ea40a	0.03873066
200	0x3d5eac50	0.05436355
201	0x3d83b3e2	0.06430794
202	0xbcfce4b9	-0.030870782
203	0xbd8f98ef	-0.07011592
204	0xbd84b4b4	-0.06479779
205	0x3cbc6444	0.02299703
206	0xbd94a7d1	-0.07258571
207	0x3cb3f4b4	0.02196727
208	0xbbef9d39	-0.0073124436
209	0x3dd62e9b	0.10458108
210	0x3d762c89	0.060101066
211	0x3d713f07	0.058898
212	0xbd6788fc	-0.056527123
213	0x3db3f834	0.08787575
214	0x3dbeec87	0.09322458
215	0x3dc0bcd3	0.09411015
216	0x3cce0c20	0.025152266
217	0xbd54152c	-0.051778004
218	0xbd472ce8	-0.04862681
219	0x3d651416	0.05592736
220	0xbdc29c46	-0.09502463
221	0xbde8c3f9	-0.11365504
222	0xbdf77a2b	-0.120838486
223	0xbce8e0a0	-0.028427422
224	0x3d902fb8	0.07040352
225	0x3cc9cf1a	0.024634887
226	0xbd852f84	-0.065032035
227	0x3cfc036b	0.030763349
228	0xbd11f9d2	-0.035638638
229	0xbbf3653a	-0.0074278386
230	0x3d220672	0.039556928
231	0xbca04040	-0.019561887
232	0xbc3b2cb8	-0.011424236
233	0xba8fadb9	-0.0010961808
234	0xbd72d018	-0.059280485
235	0x3d8094aa	0.062783554
236	0x3da907d1	0.08253444
237	0x3d234677	0.039862122
238	0xbcb4f7c6	-0.022090804
239	0x3c810027	0.015747143
240	0x3cf8a485	0.030351887
241	0x3d6ac09f	0.057312604
242	0x3dc024ba	0.09382005
243	0x3a33935e	0.00068502675
244	0x3d2efb02	0.04271985
245	0xbc3da229	-0.0115743065
246	0x3db16cc5	0.08663324
247	0x3d46c21e	0.04852497
248	0x3cde274d	0.02711835
249	0x3a06fe4c	0.00051495875
250	0xbd89a224	-0.06720379
251	0xbcfa74ca	-0.030573267
252	0xbdd8d7e7	-0.10588055
253	0xbd832e48	-0.06405312
254	0xbd336113	-0.04379375
255	0xbd8a12f7	-0.067418985

conv2.0.bias f4 [16]
0	0x3d3c9449	0.046039853
1	0x3d43d9d5	0.047815163
2	0xbd923b83	-0.07140257
3	0x3d46f513	0.048573565
4	0x3d6869cd	0.056741524
5	0xbd91e53e	-0.071238026
6	0x3d6c4d4f	0.057690915
7	0xbce759a6	-0.02824099
8	0x3d118e3e	0.035536043
9	0x3bd8f828	0.0066213794
10	0x3cd38fb2	0.025825355
11	0x3d1cf279	0.038317177
12	0xbd8f11c4	-0.069858104
13	0x3da23c2c	0.07921633
14	0xbd41227c	-0.047152027
15	0x3d60edd7	0.05491432

conv2.1.weight f4 [16]
0	0x3f8021d5	1.0010325
1	0x3f7da366	0.9907745
2	0x3f89a366	1.075299
3	0x3f7f260e	0.9966744
4	0x3f870efc	1.0551448
5	0x3f7c3eee	0.98533523
6	0x3f87222b	1.0557302
7	0x3f7c376c	0.9852207
8	0x3f793f0a	0.97361815
9	0x3f7d4e44	0.9894755
10	0x3f7f8933	0.99818724
11	0x3f7c879c	0.98644423
12	0x3f845214	1.0337548
13	0x3f7e97e1	0.994505
14	0x3f7ffd64	0.9999602
15	0x3f7b69b0	0.9820814

conv2.1.bias f4 [16]
0	0xbde930be	-0.1138625
1	0xbc085339	-0.008320623
2	0xbc12bfa5	-0.008956824
3	0x3ced7eec	0.028991185
4	0x3d80d75a	0.06291075
5	0xbc8cf6a4	-0.017207451
6	0x3d08b9dc	0.033380374
7	0x3caea07b	0.021316757
8	0x3c27fdc5	0.010253374
9	0x3d3b0bfd	0.04566573
10	0xbd0cc89d	-0.034371007
11	0xbc497556	-0.0122960415
12	0x3d3fd2d9	0.04683194
13	0x3cd6921c	0.026192717
14	0x3ce772d0	0.028252989
15	0xbc8f2798	-0.017474934

conv2.1.running_mean f4 [16]
0	0x3f4976a8	0.7869668
1	0x3e3eee66	0.1864563
2	0xbf0ae789	-0.54259545
3	0xbf0e4e8f	-0.5558862
4	0xbe826082	-0.25464255
5	0xbd7b2673	-0.061315965
6	0xbef3de8a	-0.4763072
7	0xbd9a2b3c	-0.075277776
8	0x3e42a0ba	0.19006625
9	0x3d141e0e	0.036161475
10	0x3e7d30c4	0.24725634
11	0x3e71ccb2	0.23613241
12	0xbcff0d53	-0.031134283
13	0x3e793d5c	0.24339813
14	0xbf0831a5	-0.5320075
15	0x3eaf81f3	0.3427883

conv2.1.running_var f4 [16]
0	0x3e5f812e	0.21826622
1	0x3eabcf7c	0.33556736
2	0x3e882077	0.2658727
3	0x3e5edf4b	0.21764867
4	0x3dea3347	0.114355616
5	0x3e2fd3d2	0.17170647
6	0x3e98e1cd	0.29859772
7	0x3e1fd590	0.15608811
8	0x3e4d7a50	0.2006619
9	0x3e30821d	0.17237134
10	0x3e818c7d	0.25302497
11	0x3eebe8f6	0.46076173
12	0x3dedf576	0.116190836
13	0x3dca77af	0.09886109
14	0x3f43ecd5	0.7653325
15	0x3e455486	0.19270524

conv3.0.weight f4 [32, 16, 4, 4]
0	0x3d6a5c0a	0.05721668
1	0x3d9acc06	0.07558446
2	0x3ccffb03	0.025388246
3	0x3d88e5e5	0.06684474
4	0x3d0882ea	0.033327974
5	0x3d39fff0	0.045410097
6	0x3cc30c76	0.023809653
7	0x3d285377	0.041095223
8	0x3d7865a0	0.060643792
9	0x3de5016a	0.1118191
10	0x3dd052b2	0.10172023
11	0x3dcbe259	0.09955282
12	0x3cb6ef2f	0.022330849
13	0x3dc5931e	0.09647201
14	0x3d90fa34	0.070789725
15	0x3deb7f41	0.11498881
16	0xbd38ff0e	-0.045165114
17	0x3d1f76d5	0.038931686
18	0x3cb23866	0.021755408
19	0xbbe615d4	-0.007021645
20	0x3d245505	0.040120143
21	0x3d82e36a	0.06391032
22	0x3d0309c4	0.031991735
23	0xbd11a15f	-0.035554286
24	0x3d0cc261	0.03436506
25	0xbcf50b26	-0.029912543
26	0xbc425f8b	-0.0118635995
27	0xbce593b6	-0.028024536
28	0x3c526703	0.012841943
29	0xbd344fe5	-0.044021506
30	0x3cf6a420	0.030107558
31	0xbbaa73b0	-0.0052017793
32	0x3ca10141	0.019653918
33	0xba803e6b	-0.0009784227
34	0x3d81e393	0.063422345
35	0x3c3ecd93	0.011645692
36	0x3d0f0dfc	0.034925446
37	0x3d18184e	0.037132554
38	0x3cbd94c6	0.02314223
39	0xbcfe8b5a	-0.031072307
40	0x3d3701db	0.044679504
41	0x3c327f7e	0.010894654
42	0x3d1b2ab5	0.037882525
43	0xbbf09432	-0.007341885
44	0xbd68d61c	-0.056844816
45	0xbd03163b	-0.032003623
46	0x3c731a6b	0.0148378415
47	0x3cdf4707	0.027255548
48	0xbcdf0c15	-0.02722744
49	0x3d2e0c67	0.042492297
50	0x3c16e569	0.009209969
51	0xba4d4f93	-0.0007831987
52	0x3d4e4727	0.050360825
53	0x3d1fc855	0.03900941
54	0x3d958a72	0.07301797
55	0x3d1d93d3	0.038471054
56	0x3d020247	0.031740453
57	0x3d7fb568	0.06242886
58	0x3d4baea5	0.0497271
59	0xbca133cb	-0.019678017
60	0xbd2d165a	-0.042257644
61	0xbcd794f8	-0.026316151
62	0x3cc5e759	0.024158167
63	0x3cdbbded	0.026823962
64	0xbcfcf28e	-0.030877378
65	0xbd65d1f8	-0.056108445
66	0xbcc113e2	-0.023569051
67	0xbc9b1602	-0.018931393
68	0xbd60dd18	-0.05489835
69	0x3ced048b	0.02893283
70	0x3d70a0f5	0.05874725
71	0x3d535be7	0.051601317
72	0xbad73234	-0.001641816
73	0x3bb7529d	0.005594565
74	0x3cccf723	0.025020188
75	0x3cc99e83	0.024611717
76	0xbd7b623f	-0.06137299
77	0x3c8a2627	0.016863896
78	0xbb73f0b4	-0.0037222328
79	0xbbc84444	-0.0061116535
80	0x3d1d25ec	0.038366243
81	0x3ca98dea	0.020697553
82	0x3db68593	0.08912196
83	0x3db0d594	0.08634487
84	0x3d3ec4b1	0.0465743
85	0x3a99fcb2	0.0011748283
86	0x3c8527fa	0.016254414
87	0x3d1d0bc7	0.03834131
88	0xbcae45e5	-0.021273563
89	0x3d5258b8	0.05135414
90	0x3cf416df	0.029796062
91	0x3c281de4	0.010261033
92	0x3c7d6135	0.0154650705
93	0xbd356bcb	-0.044292253
94	0x3d97a327	0.07404166
95	0x3d169eb7	0.036772456
96	0xbd4bf4f1	-0.04979414
97	0xbd19877d	-0.037482727
98	0xbd4dae77	-0.05021521
99	0xbd6f3efc	-0.058409676
100	0x3d8c2e81	0.068448074
101	0x3d4d7d98	0.050168604
102	0x3ddc264b	0.10749491
103	0x3d93e14a	0.07220705
104	0xbcb945ef	-0.022616355
105	0x3d34e0f8	0.04415986
106	0x3c9d60f2	0.019211266
107	0xbc9bf97c	-0.019039862
108	0xbd6b0590	-0.05737835
109	0x3d474cb7	0.048657145
110	0x3d457f47	0.048217084
111	0x3c091a47	0.008368081
112	0xbcce7286	-0.025201093
113	0x3d124de5	0.035718817
114	0x3ce34d01	0.02774668
115	0xbba10934	-0.004914427
116	0x3b9b8895	0.0047465065
117	0x3c779cb8	0.015113048
118	0xbc62c9c0	-0.013842046
119	0xbd4d2d08	-0.050091773
120	0x3b53fdf0	0.0032347403
121	0x3d5a92b6	0.05336257
122	0x3d817b54	0.06322351
123	0xbcb503b3	-0.02209649
124	0xbcf91d91	-0.030409606
125	0xbce04b65	-0.0273797
126	0x3ba5d8fd	0.0050612674
127	0x3cf7e135	0.030258754
128	0xbb82fe7b	-0.0039976216
129	0x3c52164a	0.012822697
130	0x3c44f7bc	0.012021955
131	0x3d04935a	0.032367088
132	0xbd95b169	-0.07309229
133	0x3d012e9f	0.031538602
134	0x3c9c8a84	0.019109018
135	0x3d1a3959	0.037652347
136	0x39ed7d02	0.000452973
137	0xbd4586ba	-0.04822419
138	0x3d08179e	0.033225648
139	0x3d6ddfa5	0.058074612
140	0x3cb6e3d6	0.022325438
141	0xbc07412d	-0.008255285
142	0x3c4da1e1	0.012550802
143	0x3cb763dd	0.022386486
144	0xbd2b27c9	-0.04178599
145	0xbd3200db	-0.043457847
146	0xbd5011d4	-0.050798252
147	0xbcc92555	-0.024553934
148	0xba82cd08	-0.0009979317
149	0xbd85a59d	-0.06525729
150	0xbc8f709a	-0.017509747
151	0xbcaedaa9	-0.0213445
152	0xbc6c4f88	-0.014423259
153	0x3d035170	0.032060087
154	0xbd0f90dc	-0.035050258
155	0xbc1703ff	-0.009217261
156	0xbc30a743	-0.010782066
157	0xbd61139e	-0.05495035
158	0xbd5ae3c6	-0.053439878
159	0xbca39ad1	-0.019971283
160	0x3c8dbc95	0.017301837
161	0x3cc02527	0.023455216
162	0x3d9fe78c	0.07807836
163	0xbca18626	-0.019717287
164	0x3d827205	0.06369404
165	0x3d873f9b	0.06603929
166	0x3d470762	0.048591025
167	0x3cd0aaa9	0.025472002
168	0x3d0f9f56	0.035064064
169	0x3d88f736	0.06687777
170	0x3b917605	0.004439118
171	0x3cfe78cb	0.031063458
172	0x3d698e39	0.0570204
173	0x3cc1a9f5	0.023640612
174	0xba997c6d	-0.0011710055
175	0xbc574584	-0.013139132
176	0x3c6c9d94	0.014441866
177	0xbd8c386b	-0.068466984
178	0xbd35295b	-0.044228893
179	0xbcde5873	-0.027141785
180	0x3bf6e6cb	0.007534837
181	0xbd61ba5d	-0.05510937
182	0x3d2ed85e	0.042686813
183	0xbbff243e	-0.007786303
184	0x3bb56dc0	0.005536765
185	0x3cf1b205	0.029503832
186	0xbcbe149e	-0.02320319
187	0xbcdb9494	-0.026804246
188	0x3d2d6b10	0.04233843
189	0x3d15af2b	0.036544006
190	0xbd03f130	-0.032212436
191	0x3caa9344	0.020822175
192	0xbdaf2d56	-0.08553569
193	0xbd0b47a8	-0.034003884
194	0xbd98d066	-0.07461624
195	0xbca154d9	-0.019693779
196	0xbc46b954	-0.012129147
197	0x3cbda638	0.023150548
198	0xbd82f713	-0.06394782
199	0xbd0c084a	-0.034187593
200	0x3b0ee7cc	0.0021805642
201	0x3aa4fd12	0.0012587628
202	0xbb9d1baf	-0.00479456
203	0xbca48eab	-0.02008756
204	0xbc946fad	-0.018119657
205	0x3d5ff7c4	0.054679647
206	0xbc21dc60	-0.009879202
207	0x3cb4d056	0.022071999
208	0xbd4f55fa	-0.050619103
209	0x3ca9d204	0.020730026
210	0x3ce9b5ad	0.028529013
211	0x3cc72e33	0.024314022
212	0xbca2a87a	-0.019855727
213	0x3d1fa527	0.03897586
214	0x3d02501a	0.031814672
215	0x3d0caa05	0.03434183
216	0xbd028d38	-0.031872958
217	0x3c972364	0.018449493
218	0x3cfca824	0.030841894
219	0x3d0aa1d7	0.03384575
220	0xb9cc6715	-0.00038986714
221	0xbc9a1f28	-0.018813685
222	0x3d46c595	0.048528273
223	0xbc9881d6	-0.018616598
224	0xbcf067a0	-0.029346287
225	0xbd05c41b	-0.032657724
226	0xbd909022	-0.07058741
227	0xbc80d824	-0.015728064
228	0x3bda6f19	0.006666076
229	0x3b4aeeb2	0.0030965027
230	0xbd4ae417	-0.04953393
231	0xbd4c4341	-0.049868826
232	0x3c126910	0.008936182
233	0x3d0b5304	0.034014717
234	0xbd07549d	-0.033039678
235	0x3cb790a2	0.022407833
236	0xbb97e05b	-0.0046348996
237	0x3d699ac7	0.057032373
238	0x3d2a2226	0.041536473
239	0x3cb695d8	0.022288248
240	0xbca32a15	-0.019917527
241	0xbca26fb7	-0.01982866
242	0xbc5f5a28	-0.013632335
243	0xbd0f8236	-0.03503629
244	0x3d7b252f	0.061314758
245	0x3c6d931e	0.0145004075
246	0xbce3ffbb	-0.027831903
247	0x3c317104	0.010830168
248	0xbcdf002b	-0.02722176
249	0xbc8a16ba	-0.01685654
250	0xbd4092db	-0.047015052
251	0x3ccd9b1b	0.025098374
252	0xbbc2e94b	-0.005948221
253	0x3bdac2b1	0.006676041
254	0x3cca83ac	0.02472099
255	0xbc3eaa3c	-0.011637267

conv3.0.bias f4 [32]
0	0x3cdeb7c8	0.027187243
1	0x3cf179c1	0.029477002
2	0x3c3462b4	0.011009861
3	0xbbb79523	-0.0056024953
4	0xbc6f4216	-0.014603158
5	0x3c99c5be	0.018771049
6	0xbd7e4391	-0.062076155
7	0x3c09e355	0.008416017
8	0xbd2356fd	-0.03987788
9	0x3d292e5c	0.041303977
10	0x3bd1a5fd	0.006397961
11	0x3c94d8b9	0.018169748
12	0x3a6a1715	0.0008929831
13	0x3d55e270	0.0522179
14	0xbd337092	-0.043808527
15	0xbd4e7242	-0.050401933
16	0xbd5e39ec	-0.054254457
17	0x3cedd928	0.029034212
18	0xbcaeac1f	-0.021322308
19	0x3d650d3f	0.055920836
20	0xbd7e7f22	-0.062132962
21	0xbd0861be	-0.03329634
22	0x3d2d68ae	0.04233616
23	0x3c9ac962	0.018894855
24	0xbca873cf	-0.020563034
25	0x3d591b4e	0.053004555
26	0x3c33867c	0.010957357
27	0x3c738fb7	0.014865807
28	0x3d718605	0.0589657
29	0xbd3ec6f6	-0.046576463
30	0xbc04f064	-0.008113954
31	0x3c5b4e1f	0.013385325

conv3.1.weight f4 [32]
0	0x3f898039	1.0742255
1	0x3f7f4c3a	0.9972569
2	0x3f81ac41	1.0130693
3	0x3f79a475	0.97516567
4	0x3f7fc473	0.9990913
5	0x3f81d03b	1.0141672
6	0x3f7b8864	0.9825499
7	0x3f7ce42d	0.9878567
8	0x3f84a798	1.0363646
9	0x3f816d8e	1.0111558
10	0x3f80873e	1.0041273
11	0x3f7f26f3	0.99668807
12	0x3f77f7af	0.9686231
13	0x3f88a7dc	1.0676227
14	0x3f85959b	1.0436281
15	0x3f7d24ed	0.9888447
16	0x3f8205d1	1.0158025
17	0x3f7fecfd	0.9997099
18	0x3f7a66c5	0.97813064
19	0x3f806ba0	1.0032845
20	0x3f84d229	1.0376636
21	0x3f820bd1	1.0159856
22	0x3f792a73	0.973304
23	0x3f7fdf15	0.9994977
24	0x3f7872ae	0.9704999
25	0x3f801406	1.0006111
26	0x3f7b1fb7	0.9809527
27	0x3f83c8f6	1.0295703
28	0x3f7e34e6	0.99299467
29	0x3f7c596b	0.9857394
30	0x3f7f4763	0.997183
31	0x3f7ed7e1	0.99548155

conv3.1.bias f4 [32]
0	0xbddc9b2b	-0.107717834
1	0xbc43a093	-0.011940139
2	0xbda37638	-0.07981533
3	0xbcfc5f9a	-0.030807305
4	0xbbade740	-0.005307108
5	0xbcbc8977	-0.023014767
6	0xbd37816d	-0.044801164
7	0xbb9a6ac4	-0.0047124345
8	0x3ccd4208	0.0250559
9	0xbb92c991	-0.004479595
10	0xbc97581b	-0.01847463
11	0xbcf1d549	-0.029520648
12	0xbba03198	-0.0048887245
13	0xbd421de6	-0.047391795
14	0x3dd84294	0.10559574
15	0xbbfdb9d9	-0.007743102
16	0x3cae6c7e	0.021291967
17	0xbc4b26aa	-0.012399355
18	0xbd15a109	-0.03653053
19	0xbde3e61b	-0.111278735
20	0xbd706a2a	-0.058694996
21	0xbd4678f3	-0.04845519
22	0xbbd07e70	-0.006362729
23	0x3d18215f	0.0371412
24	0xbbf713f9	-0.0075402227
25	0xbcb42bc5	-0.021993527
26	0x3b816e1f	0.003949895
27	0x3cda9923	0.02668435
28	0xbcc222d1	-0.023698242
29	0xbc7655cf	-0.015035107
30	0xbd2be8cf	-0.04197007
31	0x3c25ef3c	0.010127839

conv3.1.running_mean f4 [32]
0	0x3f528c0e	0.82244956
1	0x3d80e9ed	0.06294618
2	0x3ee28c0f	0.4424748
3	0x3d2f3be2	0.042781718
4	0xbd6d8cde	-0.05799567
5	0xbf87b4b6	-1.0602024
6	0xbf1f9b57	-0.62346405
7	0xbe1d117e	-0.15338704
8	0x3dcdc388	0.1004706
9	0x3f0d3a0d	0.55166703
10	0x3ea7b448	0.3275473
11	0xbdb8c302	-0.0902157
12	0xbec9a308	-0.39382195
13	0x3ed28080	0.41113663
14	0xbf8bed8a	-1.0931866
15	0xbee3b10c	-0.44471014
16	0xbf30c32d	-0.69047815
17	0x3df82dd1	0.12118114
18	0x3e299349	0.16560091
19	0xbf738181	-0.9511948
20	0xbda0e5ad	-0.07856307
21	0x3ebe6fbf	0.3719463
22	0x3e83d07e	0.25745004
23	0xbed37799	-0.41302183
24	0xbf15c458	-0.5850272
25	0xbeb4cbd0	-0.35311747
26	0x3dfd6c84	0.12374213
27	0xbf30f8a7	-0.69129413
28	0x3e9ca48b	0.30594286
29	0xbe984a24	-0.29744065
30	0xbeb7e7be	-0.35918993
31	0x3edde098	0.43335414

conv3.1.running_var f4 [32]
0	0x3f288698	0.65830374
1	0x3e840aee	0.2578959
2	0x3e97671a	0.29570848
3	0x3edba9c3	0.42902955
4	0x3eeebeef	0.46630046
5	0x3e679217	0.22614323
6	0x3e37ccbc	0.17949194
7	0x3e6f0276	0.23340783
8	0x3e4151bb	0.18878834
9	0x3e17bd88	0.14818394
10	0x3ea8f822	0.3300181
11	0x3e0590ed	0.13043566
12	0x3e41a9c6	0.1891242
13	0x3eda03d4	0.42581046
14	0x3f206df0	0.6266775
15	0x3e51e7a7	0.20498525
16	0x3e54a308	0.20765316
17	0x3eabd914	0.33564055
18	0x3e8e36f8	0.27776313
19	0x3e73a98c	0.23795146
20	0x3e3bcb68	0.18339312
21	0x3e96488f	0.29352233
22	0x3e531525	0.20613535
23	0x3e7f12fa	0.24909583
24	0x3e44e787	0.19228946
25	0x3ebfcdd7	0.3746173
26	0x3e96bf64	0.29442894
27	0x3eeaa503	0.4582902
28	0x3e036ee6	0.12835273
29	0x3e197870	0.1498735
30	0x3e17cc55	0.1482404
31	0x3eefa480	0.4680519

deconv2.0.weight f4 [32, 16, 4, 4]
0	0xbd5af122	-0.05345262
1	0xbd34252b	-0.04398076
2	0x3d046d16	0.032330595
3	0xbd1dee19	-0.038557146
4	0x3cb6684a	0.022266526
5	0xbd780ebe	-0.060560934
6	0xbd888acc	-0.066670984
7	0xbd2e1416	-0.042499624
8	0xbceb0875	-0.028690556
9	0x3c329881	0.010900618
10	0xbc08f2dc	-0.008358683
11	0x3bc044f4	0.005867595
12	0xbcf845df	-0.030306755
13	0xbd7bcd41	-0.061475042
14	0x3d4bd88a	0.049767055
15	0x3ae69e4b	0.0017594782
16	0xbc107c83	-0.008818748
17	0xbd7cae96	-0.061689936
18	0xbcaa7646	-0.02080835
19	0x3d288d7c	0.041150555
20	0x3d4f5f9b	0.050628286
21	0x3d5a30bf	0.053269144
22	0x3d886d4a	0.0666147
23	0x3d407ad5	0.04699214
24	0xbd1e9a59	-0.038721416
25	0x3d12cbf3	0.035839032
26	0xba258a90	-0.0006314898
27	0xbca647d5	-0.020297924
28	0x3d158de0	0.036512256
29	0x3c8da31e	0.017289694
30	0xbd36b9b8	-0.04461071
31	0x3cb453b2	0.022012565
32	0x3d24b261	0.040209178
33	0xbd756111	-0.059907023
34	0x3cb8b393	0.022546565
35	0x3d56b06d	0.052414346
36	0x3cc91670	0.024546832
37	0x3d030280	0.031984806
38	0xbd2c5cc1	-0.042080645
39	0xbd50d7d2	-0.050987072
40	0xbb392463	-0.0028250448
41	0xbc8548e7	-0.016270114
42	0x3d8727ea	0.0659941
43	0x3d1152f8	0.035479516
44	0x3c903b87	0.01760651
45	0x3c824977	0.015904171
46	0xbcc7a958	-0.024372742
47	0xbd99eb64	-0.075156
48	0xbd295029	-0.041336212
49	0x3bc023ad	0.005863628
50	0x3caf88bb	0.021427503
51	0xbd25cb57	-0.040477123
52	0x3b43330f	0.0029785072
53	0xbd031427	-0.03200164
54	0x3bf08e47	0.0073411795
55	0xbccf173c	-0.025279634
56	0x3d82df3f	0.06390237
57	0x3dbcd564	0.092203885
58	0xbd67909b	-0.05653439
59	0xbcb2c5f0	-0.0218229
60	0x3cd8489e	0.026401814
61	0xbd604aaf	-0.054758724
62	0xbcae4177	-0.02127145
63	0xbdbed931	-0.0931877
64	0x3bc1c437	0.005913283
65	0xbd7bccc6	-0.061474584
66	0xbbe0eaff	-0.006863951
67	0x3bfb8e24	0.0076768566
68	0xbd42d6a5	-0.047567982
69	0x3cb111e6	0.02161498
70	0xbd1fa00f	-0.038971003
71	0xbd87a575	-0.06623355
72	0xbd4526aa	-0.048132576
73	0xbd3ee765	-0.046607394
74	0x3ce6b15e	0.028160747
75	0x3ae8da29	0.0017765212
76	0xbd992063	-0.074768804
77	0xbc97938e	-0.018502977
78	0x3d133a6b	0.035944384
79	0x3d6fe1ec	0.058565065
80	0xbd19650d	-0.037449885
81	0xbd2c9b17	-0.042140093
82	0xbdb7d6bd	-0.08976505
83	0xbd780c33	-0.06055851
84	0x3c2eb3ff	0.010663032
85	0xbc0cecc9	-0.008601376
86	0xbce48d3f	-0.027899383
87	0xbbcf0d55	-0.006318728
88	0xbd8a83ac	-0.06763396
89	0xbd8c5da9	-0.06853802
90	0xbda42b48	-0.08016068
91	0xbc7023e6	-0.014656996
92	0xbccd7c0b	-0.025083562
93	0x3d010500	0.03149891
94	0xbca9fa81	-0.020749332
95	0xbc1746f0	-0.009233221
96	0xbc811752	-0.01575819
97	0xbdf860f7	-0.121278696
98	0xbd537f36	-0.05163499
99	0xbd700c10	-0.058605254
100	0x3d07d6d0	0.033163846
101	0x3ccb24a7	0.02479775
102	0xbcda3a27	-0.026639057
103	0xbc861350	-0.01636663
104	0xbd236795	-0.039893705
105	0xbe17dd5b	-0.14830534
106	0xbdd70ea9	-0.10500843
107	0xbe315232	-0.17316511
108	0x3ce9a34b	0.028520247
109	0xbd9d03b0	-0.07666719
110	0x3d270833	0.040779304
111	0x3cc7b46f	0.02437803
112	0xbcbb6c71	-0.022878857
113	0xbd840aad	-0.06447349
114	0xbde791d3	-0.11307111
115	0xbda39b08	-0.07988554
116	0xbca4aa2c	-0.020100676
117	0xbd8c13bb	-0.06839701
118	0xbc0af8dc	-0.008482184
119	0xbe1cb9ca	-0.15305248
120	0x3d00ef29	0.03147808
121	0xbd3136fd	-0.04326533
122	0x3a9ae4f8	0.0011817506
123	0x3c2ee080	0.010673642
124	0x3d1706e6	0.036871813
125	0xbdad4dbf	-0.084620945
126	0x3ca5eb53	0.020253813
127	0xbe09f1f5	-0.13471206
128	0xbd8fa95f	-0.07014727
129	0xba092b3d	-0.0005232578
130	0x3c7d03a5	0.015442763
131	0x3d3a0cce	0.045422368
132	0x3d906d73	0.07052126
133	0x3d2d2ca6	0.04227891
134	0x3c9ad4a5	0.018900225
135	0x3d39f23d	0.045397032
136	0xbdc908a2	-0.098161
137	0xbcbb421d	-0.022858674
138	0xbd1d9401	-0.038471226
139	0xbae62904	-0.0017559831
140	0xbd1efc8e	-0.038815074
141	0xbd12938c	-0.035785243
142	0xbc77f76e	-0.015134675
143	0x3d455d97	0.048184957
144	0xbdb49e3f	-0.088192455
145	0xbbd6ee70	-0.0065591857
146	0xbcc0f617	-0.023554845
147	0xbbb775a2	-0.0055987397
148	0xbd28d1a9	-0.041215573
149	0xbda36c4c	-0.0797964
150	0x3c563763	0.013074729
151	0x3caf2e7b	0.021384468
152	0xbda8bc29	-0.08239014
153	0xbd23cdf3	-0.03999133
154	0xbe1922b6	-0.14954647
155	0x3d1b756a	0.03795377
156	0x3d20d34a	0.039264
157	0xbd3b8ef7	-0.04579064
158	0x3b1e99cf	0.0024200564
159	0xbdb75619	-0.08951969
160	0x3c67a6c1	0.014138878
161	0x3ce6a373	0.02815411
162	0x3d56bccf	0.052426156
163	0xbd496749	-0.049170766
164	0x3d17a48d	0.037022162
165	0xbd32e72f	-0.043677505
166	0xbd3a86d9	-0.045538757
167	0xbdd9e0f0	-0.106386065
168	0x3d8ab477	0.06772702
169	0x3d5acc0c	0.05341725
170	0xbd1abe07	-0.03777888
171	0xbc6a4034	-0.014297534
172	0x3c720eea	0.014774064
173	0xbd118c1f	-0.03553402
174	0x3b978932	0.0046245093
175	0x3baec274	0.005333239
176	0xbd212cfb	-0.039349537
177	0xbcbc7446	-0.023004662
178	0xbd52a797	-0.051429357
179	0x3c410a7c	0.011782285
180	0x3c1a852f	0.0094311675
181	0xbd2c7d2b	-0.042111557
182	0xbd90d413	-0.070717
183	0x3af26a75	0.0018494861
184	0xbd013800	-0.031547546
185	0x3c1c5e81	0.009544016
186	0x3c3dcb38	0.011584096
187	0xbd8e1556	-0.06937663
188	0x3cade451	0.021227034
189	0xbd531dc2	-0.05154205
190	0x3ccb7a13	0.024838483
191	0x3b3c7352	0.002875526
192	0x3c55987e	0.013036845
193	0x3c4044f8	0.011735193
194	0xbd3dfce3	-0.04638375
195	0x3cf7beed	0.030242408
196	0xbce68b43	-0.028142577
197	0xbd839325	-0.0642455
198	0xbc971d63	-0.01844663
199	0xbd4bbb08	-0.049738914
200	0xbda3f3ca	-0.080054834
201	0xbd15e834	-0.0365984
202	0xbda9c3e1	-0.08289314
203	0xbb9ed560	-0.0048472136
204	0xbccc713a	-0.024956334
205	0xbbb28aba	-0.0054486664
206	0x3cc25cf2	0.02372596
207	0xbd3e539d	-0.04646646
208	0x3aa122be	0.0012293679
209	0xbd57a7e5	-0.05265035
210	0x3c822928	0.015888765
211	0xbd783759	-0.06059966
212	0xbd7c084e	-0.061531357
213	0x3cdbf1fe	0.02684879
214	0xbd8df158	-0.06930798
215	0x3cdd0d0c	0.02698376
216	0x3ccf5e39	0.025313484
217	0x3cfcc6aa	0.03085645
218	0xbd153b38	-0.03643343
219	0xbd933b40	-0.071890354
220	0xbd39c344	-0.045352235
221	0xbd5d759f	-0.05406725
222	0xbd7a9fa7	-0.061187413
223	0x3d38734f	0.04503184
224	0x3d4ab75e	0.04949128
225	0x3cfb6f63	0.030692762
226	0x3d5a34d7	0.05327305
227	0xbd4bec6e	-0.049786024
228	0xbbcfdd4d	-0.00634352
229	0xbd4491be	-0.047990553
230	0x3d088375	0.033328492
231	0x3c2c4f07	0.010516888
232	0xbc58d600	-0.013234615
233	0xbd5a0b2c	-0.05323331
234	0xbd369d08	-0.04458335
235	0xbd1aa6c4	-0.037756696
236	0x3d1ecc48	0.038769037
237	0xbdaeed7b	-0.085413896
238	0xbd27d730	-0.040976703
239	0xbd254a73	-0.040354203
240	0xbcab12c6	-0.020882975
241	0xbdb72e7c	-0.08944413
242	0xbc28031f	-0.01025465
243	0x3b800a83	0.003907503
244	0xbcc93214	-0.024560012
245	0xbc697282	-0.014248492
246	0xbdb61683	-0.088910125
247	0xbcc5f493	-0.024164474
248	0xbcc45d86	-0.023970377
249	0xbc4489c0	-0.011995733
250	0xbcb17681	-0.021662952
251	0x3ce7cc47	0.02829565
252	0xbd32e5a2	-0.043676026
253	0xbcb51f2e	-0.022109594
254	0xbcf70f6e	-0.030158725
255	0x3ca36dee	0.01994988

deconv2.0.bias f4 [16]
0	0xbcaffcb3	-0.021482801
1	0xbd7d58ba	-0.061852194
2	0xbb6e8970	-0.0036397837
3	0x3d3ffe63	0.04687346
4	0x3bf8f098	0.0075970404
5	0xbd517010	-0.05113226
6	0x3c4d18b5	0.012518098
7	0x3d0f5b7d	0.03499936
8	0xbd227a80	-0.039667606
9	0x3d28ff6a	0.041259207
10	0xbd4e7342	-0.050402887
11	0xbd449092	-0.047989435
12	0x3c2fe552	0.010735827
13	0xbcb289b2	-0.021794174
14	0x3d4de088	0.050262958
15	0xbb91ce1b	-0.0044496185

deconv2.1.weight f4 [16]
0	0x3f6cb383	0.92461413
1	0x3f7655e6	0.9622482
2	0x3f7acb19	0.9796615
3	0x3f7f2df6	0.99679506
4	0x3f77ffdb	0.9687478
5	0x3f880825	1.0627486
6	0x3f86aee7	1.0522126
7	0x3f852efc	1.0404963
8	0x3f7611c7	0.96120876
9	0x3f7b9855	0.98279315
10	0x3f7cd16f	0.9875707
11	0x3f7f5e16	0.9975294
12	0x3f7e9882	0.9945146
13	0x3f7f93c7	0.99834865
14	0x3f81e729	1.014867
15	0x3f8cb528	1.0992785

deconv2.1.bias f4 [16]
0	0xbcc509c1	-0.024052503
1	0x3cbda3ff	0.023149488
2	0x3c4a0309	0.012329825
3	0x3d3b7d3a	0.045773722
4	0x3d0b7354	0.034045532
5	0xbce422fb	-0.027848711
6	0x3db49e58	0.08819264
7	0xbc30f7c8	-0.010801263
8	0x3d06e15c	0.032929763
9	0xbd49c9c7	-0.049264695
10	0x3d7f975d	0.06240021
11	0x3d09028f	0.033449706
12	0x3cb91887	0.022594703
13	0x3d4e9c0b	0.050441783
14	0x3ce1a8ab	0.027546247
15	0xbdab126a	-0.083531216

deconv2.1.running_mean f4 [16]
0	0xbecfab49	-0.40560368
1	0xbf0c1ac7	-0.5472836
2	0xbf174430	-0.5908842
3	0xbf0ef1e5	-0.5583785
4	0xbf2dffb0	-0.67968273
5	0xbf257605	-0.6463321
6	0xbefc5c7f	-0.4928932
7	0xbed4444d	-0.4145836
8	0xbf2b513f	-0.66920847
9	0xbe9e7622	-0.30949503
10	0xbf55fa39	-0.83584934
11	0xbf3f2274	-0.74661946
12	0xbf259200	-0.64675903
13	0xbf8453c8	-1.0338068
14	0xbf037038	-0.5134311
15	0xbefb4123	-0.49073133

deconv2.1.running_var f4 [16]
0	0x3f1d2f20	0.6140003
1	0x3f2188e0	0.6309948
2	0x3f342473	0.7036812
3	0x3f5d3361	0.86406523
4	0x3eedffb4	0.46484149
5	0x3e0ca89a	0.13736191
6	0x3f3c8b5b	0.7365014
7	0x3ebce68a	0.36894637
8	0x3f1f2f1f	0.62181276
9	0x3e911f91	0.28344396
10	0x3fd57a69	1.6677982
11	0x3f207dff	0.62692255
12	0x3f94505f	1.1587027
13	0x3fb22b4c	1.3919463
14	0x3e821c9c	0.25412452
15	0x3e029d45	0.12755306

deconv3.0.weight f4 [16, 8, 4, 4]
0	0x3c73e2bd	0.014885602
1	0x3caef11e	0.021355208
2	0x3d0522f2	0.03250403
3	0x3dd83576	0.10557072
4	0x3c2c476c	0.010515075
5	0xbce69ceb	-0.028150996
6	0x3d6478b3	0.05577917
7	0x3d47b101	0.04875279
8	0xbbbbb948	-0.0057288744
9	0x3d30799a	0.04308472
10	0x3d8668e3	0.06562974
11	0x3cb7be62	0.022429649
12	0xbce21f48	-0.027602807
13	0x3d3cd4ae	0.046101265
14	0x3d4472bb	0.047960978
15	0xbd4abc6f	-0.04949611
16	0xbd72f9df	-0.059320327
17	0x3d71a3a6	0.058993958
18	0xbd0c5cba	-0.03426812
19	0xbc65cc6f	-0.014025792
20	0xbd7161ab	-0.058931034
21	0x3bc645aa	0.006050785
22	0xbce045b2	-0.027376983
23	0xbcd0c52b	-0.025484642
24	0x3cb9db9b	0.022687724
25	0xbd8d1533	-0.06888809
26	0x3cdb502a	0.026771624
27	0xbd3b4742	-0.045722254
28	0x3cce4beb	0.025182685
29	0x3cb56a45	0.0221454
30	0xbbc96963	-0.0061465963
31	0xbbe0092b	-0.0068370304
32	0xbbe5ba00	-0.0070106983
33	0x3d8061a2	0.06268622
34	0x3c84355f	0.01613873
35	0x3c9dbe50	0.019255787
36	0xbb0a8b9c	-0.0021140343
37	0xbd1acf8b	-0.037795585
38	0xbd2bcd94	-0.0419441
39	0xbd4598c3	-0.048241388
40	0x3c9dff29	0.019286709
41	0x3c885ac5	0.016644845
42	0xbc687ff1	-0.01419066
43	0x3bd0953c	0.0063654464
44	0x3d2ac0b0	0.041687667
45	0x3d0c51ef	0.034257825
46	0x3d43fddf	0.047849532
47	0x3d7fb970	0.062432706
48	0x3e1c1e36	0.152459
49	0xbd4f30f3	-0.05058379
50	0xbc91b9c5	-0.017788777
51	0x3d0a1574	0.033711866
52	0x3d18dadc	0.037318096
53	0x3da49bf6	0.0803756
54	0x3b4bdfd3	0.0031108751
55	0x3cb43d28	0.022001818
56	0x3c760d22	0.01501778
57	0xbcf01c7f	-0.029310463
58	0x3beab452	0.007162609
59	0xbcd772b5	-0.026299814
60	0x3c7eead6	0.015558919
61	0x3d35a497	0.04434642
62	0x3cd223c1	0.025651814
63	0xbcae9f54	-0.021316208
64	0x3d745a03	0.059656154
65	0xbd352fd1	-0.044235054
66	0x3d879249	0.066196986
67	0x3d57c8a4	0.05268158
68	0xbc0b749c	-0.008511689
69	0xbca89ab8	-0.020581588
70	0xbcfa5662	-0.030558769
71	0xbc203b7a	-0.009779805
72	0x3d3f3aaf	0.046686824
73	0x3d3cb38b	0.046069663
74	0x3d880a0c	0.06642541
75	0x3c347c86	0.011016017
76	0x3c0cf092	0.008602278
77	0xbd191826	-0.037376545
78	0x3ca0c22f	0.019623844
79	0xbce57c3d	-0.028013343
80	0x3aed5699	0.0018107473
81	0x3d1930d1	0.03740007
82	0xbd0ecd13	-0.034863543
83	0x3d3f7d04	0.046750084
84	0xbd425db5	-0.047452647
85	0x3cdbf405	0.026849756
86	0xbd6fe936	-0.058572017
87	0x3dad9938	0.0847649
88	0xbca2ebc6	-0.019887816
89	0xbd4927e6	-0.049110316
90	0xbc933a0b	-0.017972013
91	0x3dae0561	0.0849712
92	0x3d713252	0.05888588
93	0x3d0954cd	0.033528138
94	0x3d160785	0.036628265
95	0xbd5624ea	-0.052281298
96	0xbd14e2f9	-0.03634927
97	0x3bb924f1	0.0056501557
98	0x3c280bbc	0.010256704
99	0xbc80f995	-0.01574401
100	0x3d82fc4c	0.06395778
101	0x3c655a7a	0.013998622
102	0x3d1b660e	0.037939124
103	0xbd2d697e	-0.042336933
104	0xbc4c44cf	-0.012467577
105	0x3dc651b7	0.096835546
106	0x3c0c3440	0.008557379
107	0xbbd9709b	-0.006635738
108	0xbc059192	-0.008152382
109	0xbd01c8ca	-0.031685628
110	0xbd9ee3f4	-0.07758322
111	0x3c26cd54	0.01018079
112	0xbc0b8b83	-0.008517149
113	0x3d6e98a1	0.058251027
114	0xbc7608cc	-0.015016746
115	0x3cd93e30	0.026518911
116	0xbd231376	-0.03981348
117	0xb9c4c121	-0.00037527925
118	0x3c728167	0.01480136
119	0xbd4a77e3	-0.04943074
120	0xbc725ab8	-0.014792137
121	0x3c6d8da1	0.014499099
122	0xbd0a79f3	-0.033807706
123	0x3d73ed88	0.0595527
124	0x3c661291	0.0140425125
125	0xbcad7dad	-0.021178091
126	0x3d89a519	0.06720943
127	0x3d217cf7	0.039425816
128	0x3cc12259	0.023575949
129	0x3d2f7586	0.04283669
130	0xbd0adc39	-0.033901427
131	0xbd5972f6	-0.05308815
132	0x3d5522b5	0.052035052
133	0x3c719e48	0.01474721
134	0xbcd7dbb1	-0.026349874
135	0xbcf61c3c	-0.03004276
136	0xbd69b23e	-0.05705475
137	0x3d823b87	0.0635901
138	0x3d27aa05	0.040933628
139	0xbb3212ed	-0.0027171925
140	0x3c8ddf5a	0.017318416
141	0xbc7d5674	-0.015462507
142	0x3d237b26	0.039912365
143	0xbd059151	-0.032609288
144	0xbda14517	-0.07874506
145	0xbd640128	-0.055665165
146	0x3c24d8ba	0.010061437
147	0x3cd13983	0.025540119
148	0x3bace68b	0.0052765063
149	0xbcad2309	-0.02113487
150	0xbc6e62f8	-0.014549963
151	0xbd3a8543	-0.045537245
152	0x3d5fb66c	0.05461733
153	0xbd9687b9	-0.07350106
154	0x3ce68ee3	0.028144306
155	0xbd07568b	-0.03304152
156	0xbd2c3e51	-0.042051617
157	0xbd1b4c4a	-0.03791455
158	0xbc619810	-0.013769165
159	0x3b63c9b2	0.003475767
160	0x3cd832f6	0.026391488
161	0xbbaabf72	-0.0052108103
162	0xbd9c2fa8	-0.07626277
163	0xbcf06235	-0.029343704
164	0x3ca68024	0.020324774
165	0x3dc2cd45	0.09511808
166	0x3d33a10f	0.04385477
167	0x3dbfd94e	0.093676195
168	0x3babb8a1	0.0052405153
169	0xbc115b97	-0.008871934
170	0xbda4521c	-0.080234736
171	0x3db14974	0.08656588
172	0xbc591861	-0.013250441
173	0xbd918309	-0.07105071
174	0x3cc09b1e	0.023511466
175	0xbd81a0f0	-0.063295245
176	0xbcdf3bb0	-0.02725014
177	0x3d52acf9	0.05143449
178	0xbcc1663b	-0.023608318
179	0x3c0fc09f	0.008773952
180	0x3d943fbe	0.0723872
181	0x3b444bf7	0.0029952505
182	0xbd0724d3	-0.032994103
183	0x3c569e3d	0.01309925
184	0xbd83ec3b	-0.06441542
185	0x3c31f4af	0.01086156
186	0x3d551883	0.05202533
187	0xbd01f270	-0.031725347
188	0xbd9c3d44	-0.07628873
189	0x3cd86b85	0.026418457
190	0xbd1012f4	-0.035174325
191	0x3cad64b0	0.021166176
192	0xbd618b17	-0.055064287
193	0x3d516360	0.051120162
194	0x3c8070ae	0.01567873
195	0xbcdff7de	-0.027339872
196	0xbcc82246	-0.024430405
197	0xbd249c21	-0.04018796
198	0x3b0869a9	0.0020814931
199	0xbd8a7d0e	-0.067621335
200	0xbd1b2299	-0.03787479
201	0x3d017b6d	0.03161185
202	0x3d5b2fdb	0.053512435
203	0x3dcd45af	0.10023057
204	0x3d478110	0.048707068
205	0xbc7af7e1	-0.015317888
206	0x3d293099	0.041306112
207	0xbb6f3474	-0.003649977
208	0x3caf7644	0.021418698
209	0x3c21487d	0.009843943
210	0x3c4c86c4	0.0124833025
211	0x3cbf7345	0.023370394
212	0xbcfbccee	-0.030737367
213	0x3cb35a71	0.021893712
214	0x3d2e2122	0.042512067
215	0x3d0d1dcd	0.03445225
216	0x3d04b4c0	0.03239894
217	0x3b9727fa	0.00461292
218	0xbc3cb3c9	-0.0115174735
219	0x3ce37fb2	0.02777085
220	0x3d0712a8	0.032976776
221	0x3d6413c3	0.05568291
222	0x3bdcc947	0.0067378613
223	0x3d9f758a	0.07786091
224	0xbc0be9fc	-0.008539673
225	0xbdb31416	-0.087440655
226	0x3cf0a168	0.02937384
227	0x3d8a454e	0.067515
228	0xbb4863a8	-0.0030576978
229	0xbd1c08c9	-0.038094316
230	0xbd8467b3	-0.064650916
231	0xbcbe6a80	-0.023244143
232	0x39f1b01d	0.00046098317
233	0x3d9e17d9	0.07719392
234	0x3bda4cde	0.0066619953
235	0xbbcbbe10	-0.0062177256
236	0x3c873e2d	0.01650914
237	0x3d71bd57	0.05901846
238	0xbcbb4e89	-0.022864597
239	0x3d970f4f	0.07375967
240	0x3c240c9f	0.010012775
241	0x3cbf3b6b	0.023343762
242	0xbd79412b	-0.060853165
243	0xbcc2e6d9	-0.023791717
244	0x3c399634	0.011327315
245	0xbd43eb68	-0.047831923
246	0xbcaa9367	-0.02082224
247	0x3d04f85e	0.032463424
248	0xbd04a2ba	-0.03238175
249	0x3d6f2681	0.05838633
250	0xbd91a4fb	-0.07111546
251	0xbccc62bc	-0.024949424
252	0x3bb73b7f	0.0055918093
253	0xbc2b03f0	-0.0104379505
254	0x3cab2110	0.020889789
255	0x3d8a4f46	0.067534015

deconv3.0.bias f4 [8]
0	0x3bcc43c2	0.0062336633
1	0x3d8de795	0.069289364
2	0x3d9e1404	0.077186614
3	0xbc91f34d	-0.01781621
4	0x3d7378be	0.05944132
5	0x3bf5ca18	0.007500898
6	0x3d5d1b81	0.053981308
7	0xbcfb547e	-0.030679937

deconv3.1.weight f4 [8]
0	0x3f97a243	1.1846393
1	0x3f991cb7	1.1961888
2	0x3f9a792c	1.2068229
3	0x3f968f06	1.1762397
4	0x3f9aaced	1.2084023
5	0x3f967a49	1.1756068
6	0x3f9a686c	1.2063117
7	0x3f9b51e6	1.2134368

deconv3.1.bias f4 [8]
0	0x3e3bfc6c	0.1835801
1	0x3e473548	0.19453919
2	0x3e551813	0.20809965
3	0x3e328af6	0.17435822
4	0x3e558438	0.20851219
5	0x3e31a5b0	0.17348361
6	0x3e56087f	0.20901679
7	0x3e5a4bf9	0.21318044

deconv3.1.running_mean f4 [8]
0	0x3d042a34	0.03226681
1	0xbe8a6e27	-0.27037165
2	0x3c9720d6	0.018448275
3	0xbe58f4ff	-0.21187209
4	0x3da28527	0.07935553
5	0xbacc0263	-0.0015564676
6	0xbddd869c	-0.1081669
7	0xbe566ce2	-0.20939973

deconv3.1.running_var f4 [8]
0	0x3daa49a0	0.08314824
1	0x3e02e018	0.12780797
2	0x3ddf2ca1	0.10897184
3	0x3def9b95	0.11699597
4	0x3e28b32b	0.16474597
5	0x3e1b78d7	0.15182815
6	0x3e074567	0.13210069
7	0x3e2b6b17	0.1674007
