Pix2Pix/checkpoints/pix2pix_model_epoch_120.pth (torch, 99191 bytes, 32 tensors)

conv1.0.weight f4 [8, 3, 4, 4]
0	0x3dfd8a73	0.12379923
1	0x3dedbdb5	0.11608449
2	0xbdaa6274	-0.0831956
3	0x3e17e9d3	0.1483529
4	0x3d8bd0e9	0.06826956
5	0x3bc2d26b	0.005945494
6	0xbd8f73e0	-0.07004523
7	0x3de0618c	0.109561056
8	0xbdc64779	-0.09681601
9	0xbcc0c19d	-0.023529822
10	0x3bd53b9d	0.0065073506
11	0xbcbb73d3	-0.022882378
12	0x3df036a3	0.11729171
13	0x3dbbd67b	0.09171768
14	0xbe087939	-0.13327493
15	0xbe114a2e	-0.14188454
16	0xbd574689	-0.052557502
17	0x3db13587	0.08652788
18	0x3c47ebeb	0.012202243
19	0x3e2750bf	0.16339396
20	0xbd6f9d95	-0.05849989
21	0xbd461a1d	-0.048364747
22	0x3e386573	0.1800745
23	0xbd99055c	-0.07471725
24	0xbe121972	-0.14267519
25	0xbdfa93ab	-0.12235197
26	0xbdbc34ef	-0.09189784
27	0xbe0232d7	-0.12714706
28	0xbdbf58a3	-0.09343078
29	0x3bbdb94a	0.0057899104
30	0x3df237d2	0.11827053
31	0xbdb26984	-0.08711532
32	0x3d86d8dd	0.06584332
33	0x3defc1e0	0.117069006
34	0xbd977e22	-0.07397105
35	0xbde49407	-0.111610465
36	0xbd898395	-0.067145504
37	0xbc007c11	-0.00784208
38	0x3e01868e	0.12648985
39	0xbcca1fc8	-0.024673358
40	0xbd8d0922	-0.068865076
41	0xbdd29c89	-0.10283763
42	0xbe0db973	-0.13840275
43	0x3caaec70	0.020864695
44	0x3decaab6	0.11555998
45	0xbdac67d5	-0.08418242
46	0x3e210371	0.15723969
47	0x3c380411	0.011231438
48	0x3c3ab7f0	0.011396393
49	0x3c947f32	0.018127058
50	0xbd896512	-0.06708731
51	0x3e0d1881	0.13778879
52	0x3e002e16	0.1251758
53	0x3d9315e2	0.07181908
54	0x3dd8fb57	0.10594814
55	0x3c4d5e8a	0.012534747
56	0x3c4fcf42	0.012683691
57	0xbd92d527	-0.07169562
58	0xbdc1d60d	-0.09464655
59	0x3dd48626	0.10377149
60	0xbd7c8e60	-0.061659217
61	0x3d23e666	0.040014647
62	0xbd941c15	-0.07231919
63	0x3e118cdd	0.14213891
64	0xbcdf222b	-0.027237972
65	0xbd870781	-0.06593228
66	0x3df80229	0.12109787
67	0xbe02fabc	-0.1279096
68	0xbd65b58a	-0.056081332
69	0xbdf29821	-0.118454225
70	0x3d44e762	0.048072226
71	0xbd32c51c	-0.04364501
72	0xbb2ed6f9	-0.0026678427
73	0x3d4e7080	0.050400257
74	0x3d4bb484	0.0497327
75	0x3de31f0d	0.11089907
76	0x3d535178	0.051591367
77	0xbe0afd81	-0.13573267
78	0xbdfb8132	-0.122805014
79	0x3d306a40	0.043070078
80	0x3d2692d4	0.04066737
81	0x3da44d3d	0.080225445
82	0xbe0038c3	-0.12521653
83	0xbe0b2db5	-0.13591655
84	0x3dd47db0	0.103755355
85	0xbd94161e	-0.07230781
86	0xbc8f12af	-0.017464964
87	0xbd89732e	-0.06711422
88	0xbd0a2505	-0.03372671
89	0xbdb4103a	-0.087921575
90	0xbde6f6f0	-0.11277568
91	0x3d786dba	0.06065152
92	0xbd2c13bf	-0.04201102
93	0xbd1e2290	-0.03860718
94	0xbdf42729	-0.11921532
95	0x3d371af7	0.04470345
96	0x3db0644e	0.086128816
97	0xbdb2c7e7	-0.087295346
98	0x3c9faa89	0.019490497
99	0x3e191ff3	0.14953594
100	0xbe070731	-0.13186337
101	0xbdc0567e	-0.09391497
102	0xbda27cb7	-0.07933944
103	0x3d4e20cc	0.050324246
104	0xbe0818c9	-0.13290705
105	0xbdc339e9	-0.0953253
106	0x3be5a45c	0.0070081186
107	0xbcbce431	-0.023058029
108	0x3ddaa6d7	0.106763534
109	0xbdcacac7	-0.09901958
110	0x3d517762	0.051139243
111	0x3deef96f	0.116686694
112	0x3de7e413	0.113227986
113	0xbe0d55cc	-0.1380226
114	0x3d81d7b4	0.0633997
115	0xbdd3ed1d	-0.1034796
116	0x3deea05a	0.116516784
117	0xbd914e4d	-0.07095013
118	0x3be91e3b	0.0071141995
119	0x3e1691db	0.14704077
120	0xbdd75e4d	-0.10516033
121	0x3b9903eb	0.0046696565
122	0x3ce700b1	0.028198572
123	0x3e14440e	0.14479086
124	0x3dd36b59	0.10323209
125	0xbcaea96d	-0.021321023
126	0xbcc881d1	-0.024475964
127	0x3dcf3235	0.10116998
128	0x3ba7e50f	0.0051237415
129	0x3ce9430d	0.028474355
130	0xbe1c32ea	-0.15253797
131	0x3d054f51	0.032546345
132	0x3d85648f	0.06513321
133	0xbde09966	-0.109667584
134	0x3e02dff2	0.12780741
135	0xbd1e2a3a	-0.03861449
136	0x3ddab64c	0.106793016
137	0xbcbe98ac	-0.023266159
138	0x3d86f890	0.06590378
139	0x3daf35d7	0.08555191
140	0xbdda3871	-0.106552966
141	0xbdd69c02	-0.10478975
142	0xbe0fa574	-0.14027959
143	0xbd5c4dcb	-0.053785127
144	0xbd29f793	-0.04149587
145	0x3c8048d7	0.015659733
146	0xbcdfaec8	-0.027305022
147	0xbd96a03d	-0.07354782
148	0xbdfef6c9	-0.12449414
149	0xbe009a02	-0.1255875
150	0x3d83c09c	0.06433222
151	0x3dfb4627	0.1226924
152	0x3da82c1d	0.08211539
153	0x3d4946db	0.04913984
154	0x3bd176ff	0.0063923593
155	0x3dea5975	0.11442844
156	0x3db111e9	0.08645994
157	0xbdb4cfa5	-0.088286676
158	0x3dce8008	0.10083014
159	0xbd8f0a10	-0.06984341
160	0xbc9ea419	-0.019365357
161	0x3dbbc942	0.09169246
162	0xbe1a2258	-0.15052164
163	0xbd9c6da0	-0.07638097
164	0xbd9da093	-0.07696643
165	0x3d150c0f	0.036388453
166	0xbe0e97d3	-0.13925104
167	0xbd9d6d88	-0.07686907
168	0x3bf8c6c4	0.007592054
169	0x3aa5b193	0.0012641422
170	0xbc7ca6fe	-0.015420673
171	0xbd63719d	-0.055528272
172	0x3d61a814	0.055091932
173	0x3e3c13a6	0.1836687
174	0x3dcf1cdf	0.101129286
175	0x3d1d08f0	0.0383386
176	0xbe1035e6	-0.1408306
177	0x3d84e1df	0.06488394
178	0x3a25d37b	0.00063257635
179	0x3d1924e6	0.037388705
180	0xbd08d717	-0.03340825
181	0x3dabbc13	0.08385482
182	0x3c3d7044	0.011562411
183	0x3de717d5	0.112838425
184	0x3e01bb59	0.12669124
185	0x3d11314f	0.035447415
186	0xba4e728c	-0.0007875345
187	0x3d620381	0.055179123
188	0x3e07f175	0.13275702
189	0xbdaa6ef5	-0.083219446
190	0x3d8fde7b	0.07024857
191	0x3dcdce75	0.10049144
192	0x3e491ca8	0.19639838
193	0x3e3d4dc4	0.18486696
194	0x3e37043f	0.17872714
195	0xbc8a3a5d	-0.016873533
196	0x3d20df2a	0.039275326
197	0x3d8c2e02	0.06844713
198	0xbdebdb45	-0.11516432
199	0x3d5c7b60	0.053828597
200	0x3dbc55b4	0.09196034
201	0xbd9b7842	-0.07591297
202	0xbcd52727	-0.026019646
203	0xbc67ea5f	-0.0141549995
204	0x3d899503	0.06717875
205	0xbdf5e4cf	-0.120065324
206	0x3d5c1d6a	0.05373899
207	0x3b533b0f	0.0032231247
208	0x3d5bb20e	0.053636603
209	0xbce4d4aa	-0.027933437
210	0x3dfe16c8	0.12406689
211	0xbdfc2f60	-0.123137236
212	0xbdf5f6e6	-0.12009983
213	0xbd52f82e	-0.051506214
214	0x3c5934f6	0.013257256
215	0x3d717eec	0.058958933
216	0x3e10c20d	0.14136524
217	0xbda3517d	-0.07974527
218	0xbdd968b5	-0.106156744
219	0xbdf43d4e	-0.119257554
220	0xbdd0a24c	-0.10187206
221	0x3e00ae1c	0.12566417
222	0x3d61fd2c	0.055173084
223	0x3d8cc6cd	0.06873856
224	0x3e136097	0.14392315
225	0x3d75f107	0.060044315
226	0xbdbd5270	-0.09244239
227	0x3d4a4cfa	0.049389817
228	0xbde3c7b4	-0.11122075
229	0x3984cfa5	0.0002533171
230	0x3da789e3	0.08180597
231	0x3cd10f95	0.025520125
232	0xbcb3a400	-0.021928787
233	0x3ba3d5c3	0.0049998476
234	0x3d3e7c93	0.046505522
235	0x3ddd68bd	0.10810993
236	0xbe01f6c5	-0.12691791
237	0x3b8b3320	0.004248038
238	0x3d9667a6	0.07343988
239	0xbcd73492	-0.026270185
240	0x3e02cb16	0.12772784
241	0xbb94b6bd	-0.0045383857
242	0x3b25b46a	0.0025284537
243	0x3d1d731e	0.038439862
244	0xbc8612f3	-0.016366458
245	0x3e11977f	0.14217947
246	0x3d25f803	0.040519726
247	0x3d0ab066	0.033859633
248	0xbd579f9f	-0.05264246
249	0xbcf4a3c2	-0.029863242
250	0xbdd3cd1d	-0.10341857
251	0xbd09fc1c	-0.033687696
252	0x3dadc8d9	0.08485574
253	0xbd8aeaef	-0.06783091
254	0x3d94521e	0.07242225
255	0xbdfa4fd5	-0.12222258

conv1.0.bias f4 [8]
0	0xbd8221fe	-0.0635414
1	0xbde76d33	-0.11300125
2	0x3ddf29cd	0.10896645
3	0xbda4ea6f	-0.08052527
4	0x3e0d0d76	0.13774666
5	0xbdc331ee	-0.09531008
6	0x3ddd4cec	0.10805687
7	0x3d37af26	0.04484477

conv1.1.weight f4 [8]
0	0x3f800761	1.0002252
1	0x3f7e2b21	0.9928456
2	0x3f7f04ff	0.99617
3	0x3f80606f	1.0029429
4	0x3f80c08e	1.0058763
5	0x3f829cca	1.0204098
6	0x3f816574	1.0109086
7	0x3f7a3ab6	0.97745836

conv1.1.bias f4 [8]
0	0xbc8fcfec	-0.0175552
1	0xbbebd1b0	-0.0071966276
2	0xbd590cbb	-0.052990656
3	0x3d381530	0.04494208
4	0xbd174a65	-0.036936183
5	0x3d003f8a	0.031310596
6	0x3d0ef429	0.034900818
7	0xbc0e1130	-0.00867109

conv1.1.running_mean f4 [8]
0	0xbd7d8dda	-0.06190286
1	0xbe09d3a0	-0.13459635
2	0x3de4ca15	0.111713566
3	0xbdea6697	-0.11445349
4	0x3d3682e0	0.044558406
5	0xbde4e4dd	-0.11176465
6	0x3e4b9b22	0.19883397
7	0x3d41af21	0.047286157

conv1.1.running_var f4 [8]
0	0x3d05fe97	0.0327135
1	0x3d271025	0.04078688
2	0x3c7ebaae	0.015547438
3	0x3db8712a	0.09005959
4	0x3dcd69e4	0.10029963
5	0x3ce89b62	0.028394405
6	0x3dc2f9e4	0.09520319
7	0x3c2a393f	0.010389625

conv2.0.weight f4 [16, 8, 4, 4]
0	0x3d3c71b3	0.04600687
1	0x3cb3089c	0.021854691
2	0xbdae858a	-0.08521564
3	0xbd7e8468	-0.06213799
4	0x3d5690a9	0.052384052
5	0x3d7bda3d	0.061487425
6	0xbcd0cc64	-0.025488086
7	0x3d3d70d7	0.04625019
8	0xbcc0857a	-0.023501147
9	0xbd139039	-0.036026213
10	0x3d85d894	0.065354496
11	0x3d8ece55	0.069729485
12	0xbd3072f8	-0.043078393
13	0x3d3c6fa9	0.046004925
14	0x3d0c09dc	0.03418909
15	0x3dad4918	0.08461207
16	0x3d3ed399	0.046588514
17	0x3be7cdae	0.0070740795
18	0x3dd73c79	0.10509581
19	0x3da4ec25	0.080528535
20	0xbd260189	-0.040528808
21	0x3c412ac6	0.011789983
22	0xbd2a64af	-0.041599926
23	0x3d0db763	0.03459872
24	0x3d9d2ce8	0.07674581
25	0xbd162039	-0.036651824
26	0xbcfb250b	-0.030657312
27	0xbbbd4a55	-0.0057766833
28	0xbcd77f65	-0.026305864
29	0x3d59f4b3	0.05321188
30	0x3e07f12f	0.13275598
31	0x3dfa11ea	0.12210448
32	0xbd0d5a33	-0.03450985
33	0xbd5a1bac	-0.053249046
34	0xbd2f41bd	-0.042787302
35	0xbc96df80	-0.01841712
36	0x3d8391f2	0.06424321
37	0x3d0f0953	0.034921
38	0xbb0617e0	-0.0020461008
39	0x3d962a0e	0.0733224
40	0x3ba5d82b	0.0050611696
41	0x3d32fc7f	0.04369783
42	0x3db38011	0.08764661
43	0xbd1f39e2	-0.03887356
44	0x3d0a235f	0.03372514
45	0x3cfd64a0	0.03093177
46	0xbd40abef	-0.04703897
47	0xbd07a275	-0.033113915
48	0xbd0f7d53	-0.035031628
49	0xbd2ae2c2	-0.04172016
50	0x3cee6960	0.029102981
51	0xbc4b5b5e	-0.01241192
52	0xbd28842a	-0.041141666
53	0xbd8bdfc6	-0.06829791
54	0x3dabb237	0.08383601
55	0x3bdbac8b	0.0067039183
56	0x3d3eec4a	0.04661206
57	0x3cc48cd6	0.023992937
58	0x3d16c3cb	0.036807816
59	0x3c1e296c	0.00965343
60	0xbd87b062	-0.06625439
61	0x3d92ab83	0.071616195
62	0xbd7c0786	-0.061530612
63	0xba97b4c0	-0.0011574253
64	0xbb4d4d63	-0.0031326644
65	0x3d8233c4	0.0635753
66	0xbcfa149f	-0.030527411
67	0x3d896485	0.06708626
68	0xbd3900bd	-0.04516672
69	0xbc9238f4	-0.017849423
70	0x3ca0f476	0.019647818
71	0x3dab8a09	0.083759375
72	0x3d7f4d41	0.062329534
73	0x3d9fb3d1	0.07797969
74	0xbc8a451e	-0.01687866
75	0x3dec5da2	0.115412965
76	0x3d934bbc	0.071921796
77	0x3dcad3d2	0.09903683
78	0x3dae8776	0.08521931
79	0x3c8d4d37	0.017248733
80	0xbc977c2a	-0.018491823
81	0xbc914d49	-0.017737048
82	0x3d7a9c81	0.06118441
83	0x3d4e2e80	0.050337315
84	0x3d5892b0	0.052874267
85	0xbb096a59	-0.002096793
86	0x3c81ea5f	0.015858827
87	0x3b17693f	0.0023103503
88	0x3d24a2db	0.040194374
89	0xbd75d8f0	-0.06002134
90	0xbd30fce1	-0.043209914
91	0x3d1768ae	0.036965065
92	0x3d668aa1	0.05628455
93	0x3cd0a59b	0.025469592
94	0xbd15c029	-0.03656021
95	0xbd095da2	-0.03353656
96	0xbd97c92b	-0.074114166
97	0x3d1d6297	0.0384241
98	0x3cc6bf70	0.024261206
99	0x3cc75030	0.024330229
100	0x3d6e32dc	0.058153972
101	0xbd090f66	-0.03346195
102	0xbb8106b4	-0.0039375667
103	0xbd355ad9	-0.044276092
104	0x3d246b28	0.040141255
105	0xbd1a6543	-0.037694227
106	0x3dc4b51e	0.09604858
107	0xbba6ffc4	-0.0050964076
108	0x3d328e42	0.0435927
109	0x3d91b65c	0.071148604
110	0xbc60e112	-0.013725536
111	0x3cd7a5e7	0.026324226
112	0xbca8d63e	-0.020609971
113	0x3cdbb8ca	0.026821513
114	0xbd8e9bc2	-0.06963302
115	0x3d7a6f1d	0.061141122
116	0xbd9c855a	-0.07642622
117	0x3d11bfe2	0.035583384
118	0x3be612a7	0.0070212665
119	0xbc1858f5	-0.009298553
120	0xbd19697c	-0.037454113
121	0x3d62b8ff	0.055352207
122	0xbd3dce72	-0.04633946
123	0xbd49b7e2	-0.04924763
124	0xbcc6da98	-0.024274155
125	0x3cee7c96	0.029112142
126	0xbd24b074	-0.04020734
127	0x3ceadc22	0.02866942
128	0xbd233378	-0.039844006
129	0xbcc8f0fe	-0.024528977
130	0x3d5ac176	0.053407155
131	0x3d6fa363	0.058505427
132	0xbd881ba5	-0.06645898
133	0x3c84afd0	0.016197115
134	0xbd2613a8	-0.04054609
135	0xbdbe71fa	-0.09299083
136	0x3d96a6be	0.07356022
137	0x3ce15f92	0.027511392
138	0x3d5e3fef	0.05426019
139	0xbc80cf84	-0.015723951
140	0xbda73bed	-0.08165727
141	0x3d3cf84b	0.046135228
142	0xbcd1bb3a	-0.025601972
143	0xbc4d79ad	-0.012541217
144	0x3a9e56f5	0.0012080359
145	0x3d8fd264	0.07022551
146	0xbcef6408	-0.029222503
147	0x3d0c7f24	0.03430094
148	0x3ce288ee	0.027653184
149	0x3c7c3885	0.015394335
150	0xbd35496e	-0.04425948
151	0x3cbb3ca3	0.022856062
152	0x3d6a2f4d	0.057174016
153	0x3d544029	0.051819
154	0x3d573fd5	0.05255111
155	0x3ca8b351	0.020593317
156	0xbd25113a	-0.04029963
157	0xbc7771b9	-0.015102797
158	0x3cbef024	0.023307867
159	0x3d22902e	0.03968828
160	0x3db65871	0.089035876
161	0x3d92c661	0.07166744
162	0x3c1f9690	0.009740487
163	0x3cd0c581	0.025484802
164	0xbd37f833	-0.044914436
165	0xbd9b7634	-0.07590905
166	0xbdce39c8	-0.10069615
167	0xbd92333d	-0.07138679
168	0xbe0a95f1	-0.1353376
169	0x3aa339a0	0.0012453087
170	0xbbd22659	-0.006413263
171	0xbdc686c8	-0.09693676
172	0x3bf8c735	0.0075921067
173	0x3c5d50af	0.013508006
174	0xbc8810a2	-0.016609494
175	0xbc16d694	-0.009206433
176	0x3dbf3166	0.09335594
177	0x3b904183	0.004402341
178	0x3da9da21	0.08293558
179	0xbc8bb7ba	-0.017055381
180	0xbc7db5f7	-0.015485278
181	0xbd284d52	-0.041089363
182	0xbc5578f2	-0.013029324
183	0x3d81ea37	0.06343501
184	0xbd46eba1	-0.048564557
185	0xbdab19f9	-0.08354563
186	0x3c9c0d3e	0.019049283
187	0x3cf71c44	0.030164845
188	0x3d9b758d	0.075907804
189	0xbd120aa4	-0.03565468
190	0x3d58fd47	0.05297592
191	0x3c0bcb99	0.008532428
192	0x3c03223f	0.00800377
193	0xbc13fa75	-0.009031882
194	0x3ba3a516	0.004994045
195	0x3c6cf8a9	0.014463582
196	0x3d031d85	0.032010574
197	0x3bfdf9d1	0.0077507277
198	0xbd49277f	-0.049109932
199	0x3d0d7828	0.034538418
200	0x3d6b1c41	0.057399992
201	0x3d86c323	0.06580188
202	0xbcdd463f	-0.027011035
203	0xbd8095a4	-0.06278542
204	0xbd8e174a	-0.06938036
205	0x3c601be0	0.013678521
206	0xbd9fde5d	-0.07806084
207	0x3c944215	0.018097917
208	0xbc73e68b	-0.014886509
209	0x3dd09ae8	0.10185796
210	0x3d6f1e77	0.058378663
211	0x3d76a3a5	0.060214657
212	0xbd692538	-0.05692026
213	0x3db6d999	0.08928222
214	0x3dba441d	0.09095023
215	0x3dc21c9d	0.09478114
216	0x3cd49469	0.025949674
217	0xbd48f926	-0.04906573
218	0xbd1d1767	-0.038352396
219	0x3d7dd6db	0.06197248
220	0xbdb449bb	-0.088031255
221	0xbde66ef1	-0.11251629
222	0xbdfc5d32	-0.12322463
223	0xbcca081c	-0.02466207
224	0x3d967331	0.0734619
225	0x3cdc24b7	0.026872976
226	0xbd824c1c	-0.06362173
227	0x3d0d11e7	0.0344409
228	0xbd06f5c7	-0.032949235
229	0xbb98366f	-0.004645161
230	0x3d2499ef	0.040185865
231	0xbc7ceca6	-0.015437281
232	0xbc36c6fc	-0.01115584
233	0xbb47d453	-0.0030491545
234	0xbd712c88	-0.05888036
235	0x3d84e2b8	0.06488556
236	0x3daf9a0d	0.08574305
237	0x3d2bbc46	0.0419276
238	0xbcb1ff3f	-0.021728156
239	0x3cb3308e	0.021873739
240	0x3d06c613	0.032903742
241	0x3d5ca52e	0.053868465
242	0x3dbabbe6	0.0911787
243	0xbbbc1283	-0.0057395115
244	0x3d478738	0.04871294
245	0xbc104bde	-0.008807151
246	0x3db1dd9c	0.08684847
247	0x3d3e8669	0.046514902
248	0x3d00b43c	0.031421885
249	0xbb26d083	-0.0025453873
250	0xbd1330b8	-0.035935134
251	0xbbee9323	-0.0072807237
252	0xbd979b53	-0.074026726
253	0xbd27c74a	-0.04096154
254	0xbd1cfa2d	-0.038324524
255	0xbd48db4d	-0.049037267

conv2.0.bias f4 [16]
0	0x3d3ccbe2	0.046092875
1	0x3d42e8df	0.047585364
2	0xbd91b5be	-0.07114743
3	0x3d45b5ce	0.048269086
4	0x3d66a736	0.05631181
5	0xbd921208	-0.071323454
6	0x3d6a72fb	0.05723856
7	0xbce7a38f	-0.028276233
8	0x3d10b7ba	0.035331465
9	0x3bd551b3	0.0065099834
10	0x3cd21d45	0.025648722
11	0x3d1c4783	0.038154136
12	0xbd8fda47	-0.07024055
13	0x3da2247d	0.07917116
14	0xbd40f621	-0.047109727
15	0x3d610b8c	0.054942653

conv2.1.weight f4 [16]
0	0x3f7f5444	0.99737954
1	0x3f7de739	0.9918094
2	0x3f86a5de	1.0519369
3	0x3f7dd9e8	0.99160624
4	0x3f84e885	1.0383459
5	0x3f7e3032	0.9929229
6	0x3f85a12f	1.0439814
7	0x3f7c3a62	0.98526585
8	0x3f7dfb60	0.9921169
9	0x3f80de42	1.0067828
10	0x3f7fa040	0.998539
11	0x3f7d17c2	0.98864377
12	0x3f84b20d	1.0366837
13	0x3f767ed0	0.9628725
14	0x3f805fc9	1.0029231
15	0x3f7cd4b4	0.9876206

conv2.1.bias f4 [16]
0	0xbd9893f4	-0.07450095
1	0xbb974863	-0.0046167835
2	0x3c10eba3	0.008845243
3	0x3d1634b0	0.03667134
4	0x3d8a8b16	0.0676481
5	0xbc273518	-0.01020553
6	0x3d14b372	0.036303945
7	0x3ca9638f	0.020677356
8	0x3c791a9f	0.015204101
9	0x3cf36024	0.02970893
10	0xbcc224b2	-0.023699138
11	0x38f85508	0.000118414
12	0x3d00da5f	0.031458255
13	0xbc4b3353	-0.012402373
14	0x3ce8b49f	0.02840644
15	0xbc3078de	-0.0107710045

conv2.1.running_mean f4 [16]
0	0x3f2b3ca5	0.6688941
1	0x3e83d5c5	0.2574903
2	0xbf0290c2	-0.5100213
3	0xbf0c28dd	-0.5474985
4	0xbe92a221	-0.2863932
5	0x3dce79bb	0.10081812
6	0xbf0c85e3	-0.54891795
7	0x3ca1050b	0.019655725
8	0x3e3b8170	0.18311095
9	0x3cb4799f	0.02203065
10	0x3ea483f3	0.3213192
11	0x3e8f2509	0.27957943
12	0xbc24cfb6	-0.010059288
13	0x3eb96f16	0.36217564
14	0xbf0b5088	-0.54419756
15	0x3eb1f86c	0.34759843

conv2.1.running_var f4 [16]
0	0x3e3a4b8b	0.1819288
1	0x3e8e20d2	0.27759415
2	0x3e543ef6	0.20727143
3	0x3e3ec545	0.1862994
4	0x3deb95ab	0.11503156
5	0x3e2cd218	0.1687702
6	0x3e98e3ee	0.29861397
7	0x3e15690d	0.14590855
8	0x3e255301	0.16144945
9	0x3e2d08f4	0.16897947
10	0x3e80c6a8	0.25151563
11	0x3ee63ae8	0.44966817
12	0x3dd9e6ee	0.106397495
13	0x3dcd4858	0.10023564
14	0x3f445415	0.766908
15	0x3e31b32b	0.17353503

conv3.0.weight f4 [32, 16, 4, 4]
0	0x3d9151fa	0.07095714
1	0x3d95d00a	0.07315071
2	0x3d172938	0.036904544
3	0x3dab6567	0.0836895
4	0x3d65c687	0.056097534
5	0x3d26ee51	0.04075462
6	0x3cfd7a1d	0.030942017
7	0x3d859459	0.06522436
8	0x3d2e222b	0.042513054
9	0x3d90a9f6	0.070636675
10	0x3d92c8a7	0.07167178
11	0x3d9935c5	0.07480959
12	0x3d34b6d5	0.044119675
13	0x3dbd07d4	0.09230009
14	0x3d9ec2b2	0.07751979
15	0x3de7b29e	0.113133654
16	0xbcfc587d	-0.030803913
17	0x3d50bb00	0.050959587
18	0x3ce71cf3	0.028212046
19	0xbc2932d1	-0.010327057
20	0x3d048317	0.03235158
21	0x3d82be50	0.063839555
22	0x3d0ffbae	0.03515213
23	0xbd0d025b	-0.034426074
24	0x3d4f26ac	0.05057399
25	0xbcc52d04	-0.024069317
26	0x3b918b5c	0.0044416618
27	0xbcdad9af	-0.026715128
28	0x3c8492b2	0.016183231
29	0xbcf83855	-0.030300299
30	0x3d4948c4	0.04914166
31	0x3b9434a3	0.0045228763
32	0x3ca75947	0.020428313
33	0xbbf4f7ec	-0.0074758437
34	0x3d3cd9ba	0.046106078
35	0x3c883e06	0.016631138
36	0x3d288312	0.041140623
37	0x3d3d7d0d	0.046261836
38	0x3c139c43	0.009009424
39	0xbcf500de	-0.02990764
40	0x3d6acfcc	0.057327077
41	0x3cb33b4e	0.021878865
42	0x3d1aa1b0	0.037751853
43	0x3a3b9ea5	0.0007157124
44	0xbd47e0c4	-0.048798338
45	0xbd002252	-0.03128273
46	0x38b37295	8.556728e-05
47	0x3cbb81fd	0.022889132
48	0xbd3fb0c3	-0.046799432
49	0x3cd0c6f0	0.025485486
50	0xbc7c037e	-0.015381692
51	0xbca03618	-0.019557044
52	0x3cf28d97	0.02960853
53	0x3c439ce7	0.011939264
54	0x3d44ca31	0.048044387
55	0x3c9577df	0.018245636
56	0x3d2533b6	0.04033252
57	0x3d6f256a	0.05838529
58	0x3d806b7f	0.06270503
59	0xbd0082cc	-0.031374738
60	0xbc4eee69	-0.012630084
61	0xbd175056	-0.03694185
62	0x3c75751b	0.014981533
63	0x3c7af49f	0.015317111
64	0xbd1579bf	-0.03649306
65	0xbd92ca94	-0.07167545
66	0xbd27dc02	-0.0409813
67	0xbce5f3da	-0.028070379
68	0xbd504ce0	-0.050854564
69	0x3c91f5e1	0.01781744
70	0x3d80385f	0.06260752
71	0x3d1cf817	0.038322534
72	0x3c36f922	0.011167796
73	0x3bc6c2c2	0.0060656974
74	0x3c122718	0.0089204535
75	0x3cd12584	0.025530584
76	0xbd05adbc	-0.03263639
77	0x3a0d1f61	0.0005383399
78	0xbcc4aef7	-0.024009211
79	0xbcccf380	-0.025018454
80	0x3d0d576c	0.0345072
81	0x3c6fa1f4	0.014626015
82	0x3db3c591	0.08777917
83	0x3db10db2	0.0864519
84	0x3d32446e	0.04352229
85	0xbb5932a4	-0.0033141756
86	0x3afaf4e3	0.0019146468
87	0x3cb70942	0.022343282
88	0xbcd543b3	-0.026033258
89	0x3d354e31	0.044264022
90	0x3c88e4a8	0.016710594
91	0xb9e2ff09	-0.00043296095
92	0x3b130622	0.0022434075
93	0xbd4ab277	-0.049486604
94	0x3d72f1ac	0.059312508
95	0x3cff3fcd	0.031158352
96	0xbcaa3131	-0.02077541
97	0xbd056bc2	-0.03257347
98	0xbce450cb	-0.027870556
99	0xbd310c0a	-0.043224372
100	0x3d8a687a	0.067582086
101	0x3cc1c3e3	0.023652976
102	0x3dc91330	0.09818113
103	0x3d40cb08	0.047068626
104	0xbc40dca8	-0.011771359
105	0x3c9eb472	0.019373152
106	0xbb0104b1	-0.0019686634
107	0xbd5b13cc	-0.053485677
108	0xbcfa7b0c	-0.030576251
109	0x3c8edea4	0.017440148
110	0x3cd6b04b	0.02620711
111	0xbca889a6	-0.020573448
112	0xbd33af51	-0.043868367
113	0x3ca3549f	0.019937811
114	0x3bc394ce	0.0059686666
115	0xbc7182d1	-0.014740662
116	0x3cf739f9	0.03017901
117	0x3cf5a593	0.029986179
118	0xbccf7e70	-0.025328845
119	0xbd6a0b42	-0.057139643
120	0xbc10fe50	-0.008849695
121	0x3d33c69e	0.043890588
122	0x3d496f2d	0.04917829
123	0xbd11ac0d	-0.03556447
124	0xbbb19403	-0.0054192557
125	0xbca2009a	-0.019775677
126	0x3c0ad4d5	0.008473595
127	0x3d450ec7	0.048109796
128	0x3b1db341	0.0024063142
129	0x3c74b284	0.01493514
130	0x3c03a749	0.008035489
131	0x3d021507	0.031758334
132	0xbd86d7b0	-0.06584108
133	0x3d0b2c43	0.03397776
134	0x3cfc986e	0.030834403
135	0x3d430533	0.04761238
136	0xbc43530a	-0.0119216535
137	0xbd5b5bdd	-0.053554405
138	0x3cfaa0b6	0.030594211
139	0x3d56d385	0.052447814
140	0x3c6142ba	0.013748819
141	0xbb39f644	-0.0028375546
142	0x3ca91c03	0.02064324
143	0x3ca58ac8	0.020207778
144	0xbd657575	-0.05602022
145	0xbd7513ab	-0.05983321
146	0xbd66646f	-0.056248125
147	0xbd120525	-0.035649437
148	0xbbf73351	-0.007543959
149	0xbd8f6d20	-0.07003236
150	0xbcdb9d74	-0.026808478
151	0xbc99b6bc	-0.018763892
152	0xbc6db40b	-0.014508258
153	0x3cb8cc56	0.022558372
154	0xbcff9330	-0.031198114
155	0xbc927277	-0.017876847
156	0xbc8d8946	-0.017277371
157	0xbd1bcfd3	-0.038039993
158	0xbd4650c4	-0.048416868
159	0xbc9bbc9b	-0.019010833
160	0x3d0d2b24	0.03446497
161	0x3d066d0c	0.03281884
162	0x3db5ec0a	0.088829115
163	0xbba6f2ff	-0.0050948854
164	0x3d89ee58	0.067349136
165	0x3d92425e	0.07141565
166	0x3d545ae8	0.051844507
167	0x3d0a4006	0.033752464
168	0x3d0c1a47	0.034204748
169	0x3d70d377	0.05879542
170	0x3b5dec5e	0.003386281
171	0x3ccc78f5	0.02496002
172	0x3d6295b0	0.055318534
173	0x3ccefa7d	0.025265926
174	0xbc0ac3ad	-0.008469504
175	0xbc911646	-0.017710816
176	0x3cd37165	0.025810907
177	0xbd78badf	-0.06072509
178	0xbd2bbb64	-0.041926757
179	0xbab5f86a	-0.0013883237
180	0x3cbc1a24	0.022961684
181	0xbd2acdb8	-0.041700095
182	0x3d343435	0.0439951
183	0x3c4adb00	0.012381315
184	0x3bcecde9	0.0063111675
185	0x3cffe263	0.03123588
186	0xbce05c2d	-0.027387703
187	0xbc878741	-0.016543986
188	0x3d1e0e16	0.038587652
189	0x3d1ef102	0.03880406
190	0xbd329bb6	-0.04360553
191	0x3cbeda33	0.023297405
192	0xbd786c9a	-0.060650446
193	0xbd627a45	-0.055292387
194	0xbd3aadb9	-0.04557583
195	0xbd319368	-0.04335347
196	0xbcaaf37d	-0.020868057
197	0x3c8bec78	0.01708053
198	0xbd6c617c	-0.057710156
199	0xbcb3a899	-0.02193098
200	0x3cd76017	0.026290936
201	0xba00cdfd	-0.0004913507
202	0x3ca14a65	0.019688794
203	0xbb71e386	-0.0036909296
204	0xbd370b91	-0.044688765
205	0x3c2b533d	0.010456857
206	0xbc7b8222	-0.01535085
207	0x3b98ed01	0.004666925
208	0xbd4182b7	-0.0472438
209	0x3d0966e5	0.033545393
210	0x3d1e9113	0.038712572
211	0x3ccf7a94	0.025327004
212	0xbd180b4b	-0.037120145
213	0x3b7909f6	0.0038000322
214	0xbbb71fb9	-0.0055884984
215	0xbc05464f	-0.008134439
216	0xbcca265d	-0.024676496
217	0x3d04c7a4	0.032416955
218	0x3ca4a897	0.020099921
219	0x3cb68239	0.022278892
220	0x3aa2fac6	0.0012434355
221	0xbcb21ffc	-0.021743767
222	0x3d05a164	0.032624617
223	0xbd32b05f	-0.04362523
224	0xbca5cacf	-0.020238308
225	0xbd06ea31	-0.032938186
226	0xbd8d0dfd	-0.06887434
227	0xbaa896ee	-0.0012862363
228	0x3cb074a7	0.02154
229	0x3c0bf39a	0.008541966
230	0xbd23a2ab	-0.039950054
231	0xbd0b4f66	-0.034011267
232	0x3c9022ce	0.017594721
233	0x3d01509a	0.03157101
234	0xbd125528	-0.035725743
235	0x3cbcdbdf	0.023054061
236	0x3b445811	0.0029959718
237	0x3d5fe68c	0.054663226
238	0x3d1b3c45	0.037899274
239	0x3cc2c65c	0.023776226
240	0xbcaeb5ed	-0.021326983
241	0xbc644d7b	-0.013934488
242	0xbc332ded	-0.0109362425
243	0xbce25315	-0.027627507
244	0x3d790f30	0.0608055
245	0x3c540e99	0.0129429335
246	0xbd07630c	-0.033053443
247	0x3c29e135	0.010368635
248	0xbd13ebf7	-0.036113705
249	0xbc8bb0ce	-0.01705208
250	0xbd4f76d2	-0.050650425
251	0x3cf2eb58	0.029653236
252	0xbc48420d	-0.012222779
253	0x3c30aa9f	0.010782867
254	0x3ce66fb0	0.028129429
255	0xbbc8c166	-0.0061265705

conv3.0.bias f4 [32]
0	0x3cdeca6b	0.02719613
1	0x3cf049d7	0.029332085
2	0x3c34c267	0.011032677
3	0xbbb89996	-0.0056335432
4	0xbc6e8961	-0.014559121
5	0x3c9a0e76	0.018805724
6	0xbd7e2447	-0.062046316
7	0x3c0820e3	0.008308622
8	0xbd235277	-0.039873566
9	0x3d28f6dd	0.041251052
10	0x3bd85c14	0.0066027734
11	0x3c95aa4c	0.01826968
12	0x3a55db40	0.0008157976
13	0x3d55b376	0.0521731
14	0xbd333c37	-0.043758597
15	0xbd4e5d64	-0.050382033
16	0xbd5de9a7	-0.054177906
17	0x3cedd0e0	0.029030263
18	0xbcada00c	-0.02119448
19	0x3d64fe6c	0.055906698
20	0xbd7eb73a	-0.062186457
21	0xbd083ecb	-0.03326301
22	0x3d2cadea	0.042158045
23	0x3c9a82ce	0.0188612
24	0xbca6bf36	-0.020354848
25	0x3d58bbea	0.052913584
26	0x3c336885	0.010950212
27	0x3c754993	0.014971155
28	0x3d7137c2	0.058891065
29	0xbd3f130a	-0.046649016
30	0xbc096c9f	-0.008387714
31	0x3c5ca5e5	0.013467287

conv3.1.weight f4 [32]
0	0x3f84f35e	1.038677
1	0x3f7f52a4	0.99735475
2	0x3f818d9c	1.0121341
3	0x3f79534f	0.97392744
4	0x3f7d983c	0.99060416
5	0x3f82190f	1.0163897
6	0x3f7b8187	0.9824452
7	0x3f7e5411	0.99347025
8	0x3f849b0e	1.0359819
9	0x3f810ef4	1.0082688
10	0x3f80b2e2	1.0054591
11	0x3f7ff64a	0.9998518
12	0x3f77d230	0.96805096
13	0x3f84f347	1.0386742
14	0x3f849a5a	1.0359604
15	0x3f7d9be0	0.9906597
16	0x3f810ad3	1.0081428
17	0x3f7f3afa	0.99699366
18	0x3f7b2f26	0.9811882
19	0x3f815dd1	1.0106755
20	0x3f845626	1.033879
21	0x3f81e720	1.0148659
22	0x3f7af791	0.98034006
23	0x3f7f0a63	0.99625224
24	0x3f783ea1	0.96970564
25	0x3f805665	1.0026366
26	0x3f7b7590	0.9822626
27	0x3f83b681	1.0290071
28	0x3f7ce493	0.98786277
29	0x3f7e43d7	0.99322265
30	0x3f801e4b	1.0009245
31	0x3f7f1439	0.9964023

conv3.1.bias f4 [32]
0	0xbdaf6b37	-0.085653715
1	0xbb82accd	-0.0039878846
2	0xbd7689aa	-0.06018988
3	0xbcbac7f0	-0.022800416
4	0xbb657c2d	-0.0035016641
5	0xbc00640b	-0.007836352
6	0xbcaf824c	-0.021424435
7	0x3ba2586f	0.0049543898
8	0x3d117a45	0.035516996
9	0x3c5bb3a1	0.013409526
10	0xbc776d56	-0.015101751
11	0xbcc8bb24	-0.024503298
12	0x3c4613b7	0.012089661
13	0xbd19eb8b	-0.037578147
14	0x3db771e8	0.08957273
15	0x3af24ca7	0.0018485979
16	0x3ce276a1	0.027644457
17	0xbc9fea2b	-0.01952084
18	0xbc83d487	-0.016092552
19	0xbda47f92	-0.080321446
20	0xbc0592fa	-0.008152718
21	0xbcf65e5c	-0.03007429
22	0xbc060738	-0.008180432
23	0x3cf1c03e	0.029510614
24	0x3c4e4c25	0.012591396
25	0xbc01b935	-0.007917692
26	0x3ba563ae	0.005047283
27	0x3d4172d3	0.047228646
28	0xbb7a50ce	-0.0038195136
29	0xbb4c9691	-0.0031217674
30	0xbc1346ef	-0.00898908
31	0x3ca57d76	0.020201426

conv3.1.running_mean f4 [32]
0	0x3f320af3	0.6954796
1	0x3cbe0646	0.02319635
2	0x3e3c2a5e	0.18375537
3	0x3de1a71b	0.11018201
4	0x3dfa6ed7	0.12228172
5	0xbf7f653c	-0.99763846
6	0xbe9a491c	-0.30133903
7	0xbcafc4ea	-0.0214562
8	0xbe0d8b03	-0.1382256
9	0x3f039d2f	0.5141172
10	0x3e28fa72	0.16501787
11	0xbd666daa	-0.056256928
12	0xbe8a7b37	-0.2704713
13	0x3ee09ae3	0.4386817
14	0xbf77a4d6	-0.96735895
15	0xbf28cd77	-0.65938514
16	0xbf58c9e7	-0.8468308
17	0x3e67ff9e	0.22656104
18	0x3ca82893	0.02052716
19	0xbf493832	-0.7860137
20	0xbeb178a9	-0.3466237
21	0x3eb0b5d4	0.34513724
22	0x3eabc8f5	0.33551756
23	0xbea6d6f5	-0.32585874
24	0xbf23996d	-0.63905984
25	0xbe6a221a	-0.22864571
26	0x3d647bde	0.05578219
27	0xbf1e0e33	-0.61740416
28	0x3e6de9f9	0.23233785
29	0xbec3c29a	-0.38234407
30	0xbefe30a7	-0.49646494
31	0x3e556eac	0.20842999

conv3.1.running_var f4 [32]
0	0x3f464e10	0.77462864
1	0x3e791825	0.24325617
2	0x3ed38303	0.41310892
3	0x3ed6a970	0.41926146
4	0x3f00a0ae	0.5024518
5	0x3e4a33b0	0.1974628
6	0x3e78c9ca	0.24295726
7	0x3e7aa4a5	0.2447687
8	0x3e4a7207	0.1977006
9	0x3e407bd4	0.18797237
10	0x3ea88c60	0.32919598
11	0x3dfa4a7a	0.122212365
12	0x3e7c2301	0.24622728
13	0x3f03a1ff	0.5141906
14	0x3f05e8d8	0.52308416
15	0x3ecf932d	0.40541974
16	0x3e78a90c	0.24283236
17	0x3ee107fa	0.43951398
18	0x3e92d969	0.28681496
19	0x3e73dd71	0.23814942
20	0x3e1e2b94	0.15446311
21	0x3ea25e0b	0.31712374
22	0x3e5da4f3	0.21644954
23	0x3f00ac97	0.5026335
24	0x3e319850	0.17343259
25	0x3eaad3cc	0.33364713
26	0x3ea22f34	0.31676638
27	0x3ed7f3ad	0.42178097
28	0x3e15e8a7	0.14639531
29	0x3e21eab7	0.15812193
30	0x3e3651fb	0.1780471
31	0x3ef3b001	0.47595218

deconv2.0.weight f4 [32, 16, 4, 4]
0	0xbd4d855f	-0.05017602
1	0xbd28bf8e	-0.041198306
2	0x3d1ec924	0.03876604
3	0xbd049cdf	-0.032376166
4	0x3cc0f485	0.023554096
5	0xbd6bc602	-0.05756188
6	0xbd828844	-0.06373647
7	0xbd15fd10	-0.036618292
8	0xbce23880	-0.027614832
9	0x3c3f3b5b	0.011671866
10	0xbb4df4b9	-0.0031426384
11	0x3c146e0f	0.009059443
12	0xbcf2462b	-0.029574474
13	0xbd841260	-0.06448817
14	0x3d551774	0.05202432
15	0x3b03d5f0	0.002011653
16	0xbc4c66df	-0.012475698
17	0xbd856b3c	-0.06514594
18	0xbc8f6e49	-0.017508643
19	0x3d2278f5	0.039666135
20	0x3d3684e7	0.04456034
21	0x3d518b0b	0.051157992
22	0x3d77d145	0.06050231
23	0x3d47aed5	0.048750717
24	0xbd18592e	-0.037194423
25	0x3d1357fe	0.035972588
26	0x3c05f881	0.008176924
27	0xbc9932e0	-0.018701017
28	0x3cea49a0	0.02859956
29	0x3c430803	0.011903766
30	0xbd5d276b	-0.05399267
31	0x3c95cab5	0.018285135
32	0x3d24b334	0.040209964
33	0xbd7d2ff1	-0.0618133
34	0x3ce683cf	0.028139023
35	0x3d47cbc8	0.048778325
36	0x3d00b018	0.031417936
37	0x3d25a5ad	0.040441204
38	0xbd0890ef	-0.033341344
39	0xbd2aa62b	-0.041662376
40	0xbbab9f89	-0.005237524
41	0xbc8cac2d	-0.017171944
42	0x3d900dbd	0.0703387
43	0x3d045d0e	0.032315306
44	0x3c94d527	0.018168045
45	0x3cca9bf6	0.024732571
46	0xbcb352e1	-0.021890106
47	0xbd85d29a	-0.0653431
48	0xbd1b17b9	-0.03786442
49	0xbbf7eacc	-0.0075658318
50	0x3cbc6ae7	0.023000194
51	0xbd439c75	-0.04775663
52	0x3ba39329	0.004991908
53	0xbce7ff80	-0.028320074
54	0x3c1f8839	0.009737068
55	0xbcb1609b	-0.02165251
56	0x3d84a51a	0.06476803
57	0x3d9dc9c2	0.07704498
58	0xbd72ba70	-0.059259832
59	0xbd0ada5a	-0.033899643
60	0x3ccafabf	0.024777768
61	0xbd514d7f	-0.051099297
62	0xbcbbdc80	-0.022932291
63	0xbdb7a9a7	-0.089679055
64	0x3952ba06	0.0002009646
65	0xbd6d2676	-0.057898007
66	0xbbca4e14	-0.0061738584
67	0x3c60cde6	0.013720965
68	0xbd34120f	-0.043962535
69	0x3d0c4ac2	0.034250982
70	0xbcc259f9	-0.023724543
71	0xbd6b59db	-0.05745874
72	0xbd5b96d3	-0.053610634
73	0xbd2c4ff0	-0.04206842
74	0x3cf58987	0.029972805
75	0x3bd0a370	0.0063671395
76	0xbd9ee1d3	-0.07757916
77	0xbd135795	-0.035972197
78	0x3d18d356	0.03731092
79	0x3d26dac8	0.04073599
80	0xbcbbc5c6	-0.022921454
81	0xbd092245	-0.033479948
82	0xbda5ed51	-0.08101905
83	0xbd3a2aaf	-0.045450862
84	0x3cd4a22b	0.025956234
85	0xbc262202	-0.010139944
86	0xbcb1697c	-0.021656744
87	0xbb4dea72	-0.0031420258
88	0xbd4941b5	-0.04913493
89	0xbd8b76cc	-0.06809768
90	0xbd8792b4	-0.06619778
91	0xbb227204	-0.0024787197
92	0xbced165c	-0.028941326
93	0x3cafbd75	0.021452645
94	0xbd07939d	-0.03309976
95	0xbc36b2c6	-0.011151021
96	0xbd054ef4	-0.032546
97	0xbdc612f9	-0.096715875
98	0xbd343a06	-0.044000648
99	0xbd50fca3	-0.051022183
100	0x3d29feea	0.04150287
101	0x3c71ff4d	0.014770341
102	0xbcdc45a0	-0.026888669
103	0xbcd32d53	-0.025778448
104	0xbd482ad3	-0.048868965
105	0xbdf777f0	-0.12083423
106	0xbd9e8e60	-0.077419996
107	0xbe1b1e3c	-0.15148252
108	0x3d085b03	0.03328992
109	0xbd9e525e	-0.07730554
110	0x3d1a419b	0.037660223
111	0x3cbb3954	0.022854485
112	0xbbd01ee1	-0.0063513373
113	0xbd81b334	-0.063330084
114	0xbdcff690	-0.1015445
115	0xbd95d1df	-0.0731542
116	0xbba2af7e	-0.004964768
117	0xbd0fcadb	-0.035105567
118	0x3b339dc5	0.002740727
119	0xbdf9eb53	-0.12203088
120	0x3cfc8d85	0.0308292
121	0xbd35e323	-0.044406068
122	0xba022abd	-0.0004965475
123	0x3cb6be1a	0.022307444
124	0x3d29e878	0.041481465
125	0xbd55c6e6	-0.052191637
126	0x3cb487ed	0.02203747
127	0xbdde03f7	-0.108406
128	0xbd820ea2	-0.06350447
129	0x3b06addc	0.0020550406
130	0x3caff681	0.021479847
131	0x3d54ba78	0.051935643
132	0x3d87e63c	0.066357106
133	0x3d16cbea	0.03681556
134	0x3c77e07b	0.015129204
135	0x3d304c2d	0.043041397
136	0xbdbb4f21	-0.09145952
137	0xbce2593f	-0.027630446
138	0xbd05d597	-0.0326744
139	0xbbab4c82	-0.0052276263
140	0xbd0940a4	-0.03350891
141	0xbd30b31b	-0.04313956
142	0xbc2aa5ff	-0.010415553
143	0x3d389752	0.045066185
144	0xbda9fb59	-0.08299894
145	0xbb21a5d8	-0.00246655
146	0xbc1cbd90	-0.00956668
147	0xba123fad	-0.00055789464
148	0xbd4164a0	-0.047215104
149	0xbd907c34	-0.0705494
150	0x3be08bfe	0.006852626
151	0x3d1b404a	0.037903108
152	0xbd88223a	-0.06647153
153	0xbd2789e0	-0.040902972
154	0xbe01589e	-0.12631461
155	0x3d229898	0.039696306
156	0x3d0f00c6	0.034912847
157	0xbd444380	-0.047915936
158	0xbb3354fc	-0.0027363887
159	0xbdaf014b	-0.085451685
160	0x3c6a360f	0.014295115
161	0x3d0c54bd	0.0342605
162	0x3d5b8757	0.053595867
163	0xbd38cf74	-0.045119718
164	0x3d2117fb	0.03932951
165	0xbcf4c1a0	-0.029877484
166	0xbd40f0c0	-0.047104597
167	0xbdbea157	-0.09308117
168	0x3d8aaed6	0.067716286
169	0x3d73f4db	0.059559684
170	0xbd11a5c2	-0.03555847
171	0xbc246346	-0.010033434
172	0x3c8fc6e7	0.017550899
173	0xbca963e5	-0.020677516
174	0x3b2e7d57	0.0026625001
175	0x3ca11cd6	0.01966707
176	0xbd218494	-0.039433077
177	0xbc939d6f	-0.018019406
178	0xbd3fa1b8	-0.046785086
179	0x3c6f0a2b	0.014589827
180	0x3c40896b	0.011751513
181	0xbd29151e	-0.041279905
182	0xbd866145	-0.065615214
183	0x3b27b700	0.0025591254
184	0xbcd297ab	-0.025707087
185	0x3c76ebf4	0.015070904
186	0x3cc9e3c3	0.024644738
187	0xbd87e4b8	-0.066354215
188	0x3ce40e17	0.02783875
189	0xbd500ec6	-0.05079534
190	0x3d0c093b	0.03418849
191	0x3b5f9c50	0.003412027
192	0x3ca43f95	0.02004985
193	0x3c42092d	0.011843008
194	0xbd295d23	-0.041348588
195	0x3cf61316	0.030038398
196	0xbca42fd8	-0.020042345
197	0xbd65f8f5	-0.056145627
198	0xbc1ec59e	-0.00969067
199	0xbd2a02c8	-0.04150656
200	0xbd9ac69d	-0.07557414
201	0xbd16b444	-0.03679301
202	0xbd9f8ff2	-0.07791127
203	0xbbdb260b	-0.0066878847
204	0xbca40e54	-0.020026363
205	0x3b640707	0.0034794228
206	0x3cf05486	0.029337179
207	0xbd192d45	-0.037396688
208	0x3c26cc42	0.010180535
209	0xbd45bc88	-0.0482755
210	0x3cd9c689	0.026583927
211	0xbd527c7b	-0.051388245
212	0xbd5d570f	-0.054038104
213	0x3cad3842	0.02114499
214	0xbd80f575	-0.06296817
215	0x3ccfa566	0.025347423
216	0x3d0d7f4a	0.03454522
217	0x3d084700	0.033270836
218	0xbcd2e264	-0.025742717
219	0xbd8804c4	-0.06641534
220	0xbd12c37b	-0.035830956
221	0xbd78285c	-0.060585365
222	0xbd4b9605	-0.049703617
223	0x3d2cfe2a	0.042234577
224	0x3d4dd614	0.05025299
225	0x3d12af81	0.035811905
226	0x3d60f949	0.054925237
227	0xbd52ce4f	-0.051466282
228	0xbc049b3a	-0.0080936495
229	0xbd463ab3	-0.048395824
230	0x3d0af2e1	0.033923034
231	0x3c30cf65	0.010791634
232	0xbc7653f0	-0.015034661
233	0xbd28dc22	-0.04122556
234	0xbd2db881	-0.042412285
235	0xbd086082	-0.033295162
236	0x3d443478	0.0479016
237	0xbd9f2d1d	-0.077722766
238	0xbcf08c7e	-0.029363867
239	0xbd012a8f	-0.031534728
240	0x3bf00c15	0.007325659
241	0xbd9d6594	-0.0768539
242	0x3c3bdb4c	0.011465859
243	0x3cbc6f8f	0.023002414
244	0xbc756d59	-0.014979684
245	0xbc565b2f	-0.013083263
246	0xbd9e6304	-0.077337295
247	0xbcdd3195	-0.027001182
248	0xbcb24570	-0.021761626
249	0xbc85b269	-0.016320424
250	0xbc856047	-0.01628126
251	0x3d010cdf	0.031506415
252	0xbd4adfd3	-0.04952986
253	0xbcc8f94e	-0.02453294
254	0xbcfff0b0	-0.031242698
255	0x3c89a516	0.016802352

deconv2.0.bias f4 [16]
0	0xbcaef00c	-0.021354698
1	0xbd7d6a41	-0.06186891
2	0xbb6f026a	-0.0036469945
3	0x3d401bbb	0.046901446
4	0x3bfef1f1	0.0077803065
5	0xbd4dd775	-0.050254304
6	0x3c4ee16e	0.012626989
7	0x3d0f82c8	0.035036832
8	0xbd226e93	-0.039656233
9	0x3d28c162	0.04120005
10	0xbd4e51e6	-0.050371073
11	0xbd444c99	-0.04792461
12	0x3c2eeb0b	0.010676156
13	0xbcb23945	-0.021755824
14	0x3d4e6f23	0.050398957
15	0xbb73439d	-0.0037119158

deconv2.1.weight f4 [16]
0	0x3f702d79	0.93819386
1	0x3f786339	0.970264
2	0x3f7daf2d	0.9909542
3	0x3f7f2ffc	0.99682593
4	0x3f79e580	0.97615814
5	0x3f8688f1	1.0510541
6	0x3f85f258	1.0464582
7	0x3f821827	1.0163621
8	0x3f77efd8	0.9685035
9	0x3f7b351b	0.9812791
10	0x3f807bab	1.003774
11	0x3f7fdcc7	0.99946254
12	0x3f80c481	1.0059968
13	0x3f803024	1.0014691
14	0x3f82b0f1	1.0210248
15	0x3f88d828	1.0690966

deconv2.1.bias f4 [16]
0	0xbc6532ef	-0.013989194
1	0x3cc128f8	0.023579106
2	0x3cd453e7	0.025918914
3	0x3d21279e	0.039344423
4	0x3d29f815	0.041496355
5	0x3bafe02d	0.0053673
6	0x3da5a966	0.08088951
7	0x3cec539c	0.028848462
8	0x3d2a8630	0.041631877
9	0xbd21ee5d	-0.03953396
10	0x3d789b2f	0.06069487
11	0x3d123e59	0.03570399
12	0x3cf7b902	0.030239586
13	0x3d3fbed4	0.046812847
14	0x3d1f9de2	0.03896893
15	0xbca54bbf	-0.02017772

deconv2.1.running_mean f4 [16]
0	0xbeb46dbe	-0.35239977
1	0xbf041bff	-0.5160522
2	0xbef1c495	-0.47220293
3	0xbef74eea	-0.48302394
4	0xbf17f4d8	-0.59357977
5	0xbf181c54	-0.59418225
6	0xbf0c6588	-0.54842424
7	0xbed09670	-0.40739775
8	0xbf156199	-0.5835205
9	0xbea056fc	-0.31316364
10	0xbf35a248	-0.70950747
11	0xbf39e430	-0.7261381
12	0xbf0d973a	-0.5530888
13	0xbf51c9e0	-0.8194866
14	0xbef2ec35	-0.47445837
15	0xbee4841b	-0.44632038

deconv2.1.running_var f4 [16]
0	0x3f02dc58	0.5111747
1	0x3f0ba72f	0.54551977
2	0x3f004f8b	0.5012137
3	0x3f3c1705	0.73472625
4	0x3ebf0d4c	0.37314832
5	0x3e0cfa2e	0.13767311
6	0x3f1f00dc	0.62110686
7	0x3ea83c65	0.32858577
8	0x3f0729b4	0.5279801
9	0x3e8a85c1	0.2705517
10	0x3f8a45fd	1.0802609
11	0x3f18b8a5	0.59656745
12	0x3f532825	0.8248313
13	0x3f8238ba	1.0173562
14	0x3e6a0217	0.2285236
15	0x3e0e7c88	0.13914692

deconv3.0.weight f4 [16, 8, 4, 4]
0	0xba79ffa0	-0.0009536687
1	0x3bf64ce1	0.007516489
2	0x3c3c7646	0.011502808
3	0x3dcea6e4	0.100904256
4	0x3c303d8b	0.0107568605
5	0xbd22226e	-0.039583616
6	0x3d3cb451	0.0460704
7	0x3d2c2f6a	0.042037405
8	0xbcda264f	-0.026629595
9	0x3cd779ad	0.026303137
10	0x3d66fdbc	0.056394324
11	0xbb4df670	-0.0031427406
12	0xbd629ee5	-0.055327315
13	0x3d54dd4a	0.05196885
14	0x3d1d26a1	0.038366918
15	0xbd750215	-0.05981644
16	0xbd423e34	-0.047422603
17	0x3d763d2b	0.060116928
18	0xbd249657	-0.040182438
19	0xbcd253ae	-0.025674667
20	0xbd49c079	-0.04925582
21	0x3bc63a7a	0.0060494514
22	0xbccf939e	-0.025338944
23	0x3b64b0bc	0.003489538
24	0x3cdddd3a	0.027083028
25	0xbd8e9c6e	-0.0696343
26	0x3d357a14	0.044305876
27	0xbd4aedec	-0.049543306
28	0x3d4e5e1f	0.05038273
29	0x3ca3ea18	0.020009086
30	0xbaea4d4a	-0.0017875817
31	0x3ca88aed	0.020574057
32	0xbc8b875b	-0.017032316
33	0x3d9120a5	0.070863046
34	0x3b3c54ee	0.0028737145
35	0x3bf1dc63	0.0073810085
36	0xbce74bb7	-0.028234346
37	0xbd4399f6	-0.04775425
38	0xbd4f7766	-0.050650977
39	0xbd7288cf	-0.059212502
40	0x3b4663f2	0.0030271974
41	0x3c31c31d	0.010849741
42	0xbc852400	-0.016252518
43	0x3a61f62f	0.0008619753
44	0x3ca656b2	0.020305011
45	0x3d00859b	0.031377416
46	0x3d3fa7f7	0.046791043
47	0x3d935fde	0.071960196
48	0x3e0c49db	0.13700049
49	0xbd4bc59f	-0.049749013
50	0xbc417b87	-0.011809236
51	0x3d078331	0.0330841
52	0x3d765aa5	0.06014504
53	0x3dab78e3	0.08372667
54	0xbbe926d2	-0.0071152234
55	0x3d385212	0.045000143
56	0x3c8d01ab	0.01721271
57	0xbd092383	-0.033481132
58	0x3c8d3dc4	0.017241366
59	0xbcdc67df	-0.026904998
60	0x3c993423	0.018701619
61	0x3d5b3652	0.0535186
62	0x3ca67bbe	0.020322677
63	0xbc74d9b8	-0.014944486
64	0x3d81ee8a	0.06344326
65	0xbcd1d954	-0.025616325
66	0x3d8ed22a	0.06973679
67	0x3d828e18	0.063747585
68	0xbc9be469	-0.019029813
69	0xbc67b018	-0.014141105
70	0xbcef29ef	-0.0291948
71	0xbc5d4188	-0.013504393
72	0x3d59fa03	0.053216945
73	0x3d7124e3	0.05887307
74	0x3d986e82	0.07442953
75	0x3bb8cf72	0.005639964
76	0xbbb4534a	-0.005503093
77	0xbcc5870a	-0.024112243
78	0x3ca9f54f	0.020746855
79	0xbd062048	-0.03274563
80	0xbbbcfc5d	-0.0057673887
81	0x3d1e1586	0.038594745
82	0xbd53b3ed	-0.051685262
83	0x3d19d550	0.037556946
84	0xbd4e7dd5	-0.05041297
85	0x3ccc6779	0.024951683
86	0xbd8251f7	-0.0636329
87	0x3d97ed76	0.07418339
88	0xbcf474a4	-0.029840775
89	0xbd7ffac5	-0.06249501
90	0xbcf1e8fe	-0.029530045
91	0x3da75173	0.08169832
92	0x3d5bfef0	0.053709924
93	0x3d4cbc23	0.04998411
94	0x3d036379	0.032077286
95	0xbd52bd62	-0.05145014
96	0xbce15062	-0.02750415
97	0x3b9b19cf	0.0047333012
98	0x3c82cd64	0.015967079
99	0x3c1bff8c	0.009521376
100	0x3d81fedc	0.06347439
101	0x3c28e18f	0.010307684
102	0x3d8eb242	0.06967594
103	0xbd1a72c8	-0.03770712
104	0xbc97347d	-0.018457646
105	0x3ddd8928	0.10817176
106	0x3cd06bad	0.025441969
107	0xbc0767bc	-0.008264478
108	0x3be51453	0.006990948
109	0xbca828fd	-0.020527357
110	0xbd89808f	-0.06713974
111	0x3c984560	0.018587768
112	0xbc9136a1	-0.017726244
113	0x3d880344	0.06641248
114	0xbc10f829	-0.0088482285
115	0x3d306785	0.043067474
116	0xbd8d698b	-0.06904896
117	0x3c0dcfd0	0.008655503
118	0x3cb68e84	0.022284754
119	0xbd73c377	-0.05951258
120	0xbcaa8dff	-0.020819662
121	0x3b860e8d	0.00409109
122	0xbcc504e5	-0.024050185
123	0x3db707a4	0.08937004
124	0x3d46cfd1	0.048538033
125	0xbc99d67d	-0.018779034
126	0x3dba7536	0.091043875
127	0x3d49d4dc	0.049275264
128	0x3d260d24	0.040539876
129	0x3d80462a	0.06263383
130	0xbceaf988	-0.028683439
131	0xbd795eff	-0.06088161
132	0x3d427129	0.0474712
133	0x3c0502ac	0.008118313
134	0xbc84068f	-0.016116409
135	0xbd1a095a	-0.037606575
136	0xbd4f32e4	-0.050585642
137	0x3d814ec8	0.063138545
138	0x3cd7a577	0.026324017
139	0x3ad3700b	0.0016131414
140	0x3bdb1bf6	0.006686683
141	0xbcf778f1	-0.030209037
142	0x3d3d8f72	0.04627938
143	0xbd2aa716	-0.04166325
144	0xbd930d89	-0.07180316
145	0xbcec5bcc	-0.028852366
146	0x3cbd4859	0.023105787
147	0x3d0aa7fa	0.0338516
148	0x3c30e822	0.010797532
149	0xbce05230	-0.02738294
150	0xbc99b95f	-0.01876515
151	0xbd026420	-0.031833768
152	0x3d72b5ed	0.05925553
153	0xbd844a3c	-0.064594716
154	0x3cf801e9	0.030274348
155	0xbcb4ba6b	-0.022061547
156	0xbd364c07	-0.0445061
157	0xbd6a6c93	-0.05723245
158	0xbcacde8b	-0.02110221
159	0x3cc24fa9	0.023719626
160	0x3ce73f55	0.028228441
161	0x3ad9f327	0.0016628251
162	0xbd9914b9	-0.07474656
163	0xbd0b48f6	-0.034005128
164	0x3d02726b	0.0318474
165	0x3dcbf530	0.09958875
166	0x3d1f0bca	0.038829602
167	0x3dae5e2d	0.08514056
168	0xbb083a5e	-0.0020786743
169	0xbb929aea	-0.0044740336
170	0xbd929cb0	-0.07158792
171	0x3da9265b	0.08259269
172	0xbc803536	-0.015650373
173	0xbd91418f	-0.070925824
174	0x3c3c6d81	0.011500717
175	0xbd97f458	-0.07419652
176	0xbc902b8f	-0.017598895
177	0x3d61329f	0.054979917
178	0xbcb2096f	-0.021733014
179	0x3c85b6e7	0.016322566
180	0x3db0f520	0.08640504
181	0x3b47bdc9	0.003047811
182	0xbd05156e	-0.03249114
183	0x3d13ce85	0.036085624
184	0xbd976904	-0.07393077
185	0x3ce652b8	0.028115615
186	0x3d7480ff	0.059693333
187	0xbd49c112	-0.04925639
188	0xbd9113bf	-0.070838444
189	0x3c78f3e5	0.015194868
190	0xbd0dda6f	-0.034632143
191	0x3cbdad4b	0.023153922
192	0xbd2cf467	-0.042225268
193	0x3d67193f	0.05642056
194	0x3ca16214	0.019700088
195	0xbce7cbe3	-0.028295463
196	0xbd06db55	-0.032924015
197	0xbd57d1dc	-0.052690372
198	0x3c64dcf5	0.013968696
199	0xbda20380	-0.07910824
200	0xbd2563df	-0.040378448
201	0x3d1df19b	0.03856049
202	0x3d7b0306	0.06128218
203	0x3d9c4937	0.07631152
204	0x3d372ef9	0.04472253
205	0xbc78b7df	-0.015180557
206	0x3d26e9c4	0.04075028
207	0xbcac1e5c	-0.02101057
208	0x3d02a4a8	0.03189531
209	0x3c64beae	0.013961477
210	0x3cb3d849	0.021953719
211	0x3cbe57b5	0.023235181
212	0xbcfab8b2	-0.030605648
213	0x3c8ebe4c	0.017424725
214	0x3d190d84	0.037366405
215	0x3d0342f5	0.032046277
216	0x3d0ce030	0.03439349
217	0x3c0d6346	0.008629626
218	0xbb8d9764	-0.0043210257
219	0x3cc4416e	0.02395698
220	0x3cc2f714	0.023799457
221	0x3d673df2	0.05645556
222	0xbc46f1e7	-0.012142635
223	0x3d9fd727	0.07804709
224	0x3c98394c	0.018582009
225	0xbda452b2	-0.080235854
226	0x3d51463f	0.051092383
227	0x3da5d57d	0.0809736
228	0x3a28cbc7	0.00064390566
229	0xbce5db90	-0.028058797
230	0xbd8c36a7	-0.068463616
231	0xbc3ba91f	-0.011453896
232	0x3bfca2cc	0.0077098366
233	0x3d91bde5	0.07116298
234	0xbb98355b	-0.0046450323
235	0xba613082	-0.0008590297
236	0x3c1b4efa	0.009479279
237	0x3d664342	0.056216486
238	0xbc516250	-0.012779787
239	0x3daafdbd	0.08349178
240	0x3c386910	0.011255518
241	0x3c8c85bc	0.017153613
242	0xbd6c6272	-0.057711072
243	0xbc2814ba	-0.010258848
244	0x3d1f9cc3	0.03896786
245	0xbd405bbe	-0.046962492
246	0xbd16737a	-0.03673122
247	0x3cd5606e	0.026046958
248	0xbd3887e0	-0.045051455
249	0x3d75e969	0.06003705
250	0xbd9ad431	-0.075600035
251	0xbc66ad4d	-0.014079404
252	0x3c2cd63d	0.010549125
253	0xbc5df031	-0.013546036
254	0x3c8f9da1	0.017531218
255	0x3d87c13c	0.066286534

deconv3.0.bias f4 [8]
0	0x3b724a9a	0.0036970736
1	0x3d7c5280	0.061602116
2	0x3d9a46ae	0.07533012
3	0xbcb27d0d	-0.021788144
4	0x3d66b616	0.056325994
5	0x3bc9d773	0.0061597168
6	0x3d4e5679	0.050375436
7	0xbd081c3a	-0.033230044

deconv3.1.weight f4 [8]
0	0x3f910be8	1.1331758
1	0x3f922c5d	1.1419789
2	0x3f92f933	1.14823
3	0x3f905667	1.1276368
4	0x3f936255	1.1514384
5	0x3f903f0e	1.1269243
6	0x3f92feef	1.148405
7	0x3f93ded4	1.1552377

deconv3.1.bias f4 [8]
0	0x3e087bd6	0.1332849
1	0x3e0e6584	0.13905913
2	0x3e18ae1a	0.14910164
3	0x3dff6046	0.124695346
4	0x3e1a2536	0.15053257
5	0x3dffd112	0.12491049
6	0x3e18d4eb	0.14924972
7	0x3e1e157a	0.1543788

deconv3.1.running_mean f4 [8]
0	0xbcda47db	-0.026645591
1	0xbe1c5d4b	-0.15269963
2	0x3b9f05a1	0.004852966
3	0xbde663cb	-0.11249503
4	0x3dfba396	0.12287061
5	0x3c1ddba2	0.009634884
6	0x3cc5b550	0.024134308
7	0xbe07e7d0	-0.13272023

deconv3.1.running_var f4 [8]
0	0x3e05e70f	0.13076423
1	0x3e26fad4	0.16306621
2	0x3e2092a2	0.15680936
3	0x3e1eebda	0.15519658
4	0x3e6d8fa3	0.23199324
5	0x3e4b42d8	0.19849718
6	0x3e3640ac	0.17798108
7	0x3e61dbb6	0.2205647
