Pix2Pix/checkpoints/pix2pix_model_epoch_10.pth (torch, 99150 bytes, 32 tensors)

conv1.0.weight f4 [8, 3, 4, 4]
000000 7a e3 e5 3d 43 2f ec 3d 60 16 ac bd 88 88 10 3e
       0.11225028 0.11532452 -0.08402705 0.14114583
000010 c8 cc 86 3d 63 87 92 3c 6a 11 66 bd 01 da ed 3d
       0.06582028 0.017886823 -0.05616895 0.116138466
000020 b6 e5 21 bd c8 e4 2f 3d f6 80 8a 3d 24 b8 ec 3c
       -0.03952571 0.042942792 0.067628786 0.028896399
000030 96 45 07 3e 94 53 e8 3d 33 f1 eb bd 88 7f 0b be
       0.13210139 0.11344066 -0.115206145 -0.13622868
000040 db 3a ca bd ee 12 48 3d 71 17 da bc ea 70 f6 3d
       -0.09874507 0.048846178 -0.026622506 0.120332554
000050 bb d7 e7 bd 74 b9 bf bd 8c 09 0b 3e d2 b4 fc bd
       -0.11320444 -0.09361544 0.1357786 -0.12339176
000060 1a 12 0b be 54 44 c8 bd 25 28 8b bd cc d8 e8 bd
       -0.13581124 -0.097786576 -0.06794766 -0.11369476
000070 01 b1 0f be da 03 15 bd ff 1b 94 3d fa 01 13 be
       -0.14032365 -0.036380626 0.07231902 -0.14356223
000080 ab a8 c6 3c 4a c1 ac 3d ca 24 dc bd a6 52 18 be
       0.024250349 0.084353045 -0.107492045 -0.14875278
000090 a4 42 df bd 4a f4 1c bd f7 28 c9 3d 6c 60 68 bd
       -0.109013826 -0.03831891 0.098222665 -0.05673258
0000a0 96 c5 f8 bc 40 62 3f bd 14 c1 af bd 6b 7e 80 3d
       -0.030367654 -0.046724558 -0.085817486 0.06274112
0000b0 61 d4 b3 3d 9d 43 da bd 97 b5 06 3e 3b e2 c5 bc
       0.087807424 -0.106574275 0.13155209 -0.024155727
0000c0 f2 32 b3 bb f4 6c 05 3c 5e 58 a1 bd b2 96 fa 3d
       -0.0054687196 0.008143652 -0.07878183 0.12235774
0000d0 75 8a ea 3d 99 81 82 3d 75 c0 cf 3d b3 90 ec 3b
       0.1145219 0.06372375 0.1014413 0.007219398
0000e0 a7 c0 2f bc 1a 10 cc bd df 56 fa bd 3b e5 b9 3d
       -0.010727084 -0.09964009 -0.122236006 0.09076925
0000f0 9a 1b 9f bd 5e 2c 8a 3c f9 1c cf bd 71 56 05 3e
       -0.077689365 0.016866859 -0.10112948 0.13021256
000100 ed f1 0d bd 68 81 7e bd b2 bb 01 3e 62 42 08 be
       -0.034654547 -0.06213513 0.12669256 -0.13306573
000110 c4 86 58 bd b1 e5 dd bd f7 3d 85 3d a7 30 0b bd
       -0.052862898 -0.10834826 0.065059595 -0.033981945
000120 b8 cb 19 bc 0d e2 33 3d b5 1f 40 3d 66 24 ed 3d
       -0.009386949 0.04391675 0.04690524 0.11579208
000130 3d 8d 78 3d db bd 00 be c5 d6 ee bd a8 f3 60 3d
       0.06068157 -0.12572424 -0.11662058 0.05491987
000140 8e 7f 01 3d 06 bd ad 3d 18 78 f3 bd 36 48 12 be
       0.031615786 0.08483319 -0.118881404 -0.14285359
000150 ca 88 df 3d 90 d3 6a bd 46 40 ac 3b 37 4b 5e bd
       0.10914762 -0.057330668 0.0052566854 -0.05427095
000160 e2 76 13 bd de ad b1 bd 89 e8 dc bd d2 67 93 3d
       -0.036002047 -0.08675741 -0.1078654 0.071975365
000170 7d fb be bc 66 97 3d bc ed 37 c9 bd 8c 1b 89 3d
       -0.023313278 -0.011571741 -0.0982512 0.06694707
000180 b7 65 e3 3d 95 19 92 bd 05 a2 f6 3c b0 c5 12 3e
       0.11103385 -0.07133786 0.030106554 0.14333224
000190 c4 8c ee bd 6b 0b b8 bd 89 83 a5 bd 20 5f f5 3c
       -0.11647943 -0.08986553 -0.08081729 0.029952586
0001a0 f7 9e ff bd ec e0 b2 bd 1e 94 f6 3b 03 7c 45 bd
       -0.12481492 -0.08734307 0.007524981 -0.04821397
0001b0 ab a1 01 3e 0a 8b 9d bd 0a 8a 80 3d e1 61 ec 3d
       0.12659328 -0.07692535 0.06276329 0.115421064
0001c0 0d d3 11 3e 47 f8 ec bd 7b e7 aa 3d 83 e8 c7 bd
       0.14240666 -0.11570793 0.08344933 -0.09761145
0001d0 26 25 10 3e 91 c8 66 bd a0 f9 a7 3c a6 1c 13 3e
       0.14076671 -0.05634362 0.020504773 0.14366397
0001e0 19 2d aa bd 01 47 db 3c 0c f0 44 3d 57 f6 10 3e
       -0.08309383 0.026767256 0.04808049 0.14156471
0001f0 a6 f4 0f 3e 53 e4 8e 3c cb ee 29 3c 2c c0 06 3e
       0.1405817 0.017442858 0.010371874 0.13159245
000200 7f 3a da 3c 9a e2 3a 3d 7b 2a 0c be 56 d5 0e 3d
       0.026639221 0.04562626 -0.1368808 0.03487142
000210 78 1a b0 3d 2a 3d c5 bd e5 ef 11 3e ef 18 1f bd
       0.085987985 -0.09630807 0.14251669 -0.038842138
000220 7f e2 03 3e 80 6b 0b ba 57 c4 b3 3d 89 c6 b5 3d
       0.1287937 -0.0005318448 0.08777683 0.08875758
000230 bb be 9a bd df a9 90 bd e6 63 e1 bd 1e f5 fd bc
       -0.0755591 -0.0706365 -0.11005382 -0.03100067
000240 91 f8 35 bd 32 76 24 3d a2 af 3b bc e4 3a 91 bd
       -0.044426505 0.040151782 -0.011455448 -0.070913106
000250 c6 ee 0c be 36 7f d9 bd e4 2c a2 3d 84 7d ff 3d
       -0.1376296 -0.10619967 0.079187185 0.12475112
000260 71 93 83 3d 2b de 84 3d 3d 17 c0 3b ad 6a d5 3d
       0.064246066 0.06487688 0.005862145 0.104207374
000270 fd 4a 55 3d fd 5f ce bd 3e c4 a3 3d a8 11 cf bd
       0.052073468 -0.10076902 0.079964146 -0.101107895
000280 b8 6c 13 bd c0 8a df 3d ab be 0e be db 8d 9e bd
       -0.035992354 0.10915136 -0.13939922 -0.077419005
000290 0b 60 db bd dd cd 3b 3d d0 2a 06 be 85 ff a3 bd
       -0.10711678 0.045850623 -0.13102269 -0.08007721
0002a0 6d f0 f5 bc ed d0 96 3a b6 22 f5 bc 29 4e 9c bd
       -0.03002187 0.0011506357 -0.029923778 -0.07632095
0002b0 40 e6 85 3a a5 05 18 3e f3 c0 7e 3d 4d 96 bb bb
       0.0010215715 0.14845903 0.06219573 -0.0057247044
0002c0 a9 5b 10 be 44 c0 d2 3d c2 61 11 3d 8c 7d 88 3d
       -0.14097466 0.10290578 0.03549362 0.06664571
0002d0 02 94 47 bd 7a b9 ef 3d d7 d6 43 3d ed e5 14 3e
       -0.048725136 0.11705299 0.04781231 0.14540835
0002e0 09 a6 c9 3d d1 0f 76 3d 2d dc 69 3c b5 c1 92 3d
       0.09846122 0.060073677 0.014273685 0.07165853
0002f0 4f b7 a4 3d 84 9e e1 bd 58 91 28 3d b3 03 91 3d
       0.08042776 -0.110165626 0.041154236 0.07080784
000300 8b 98 10 3e d3 f5 03 3e d3 d0 15 3e f2 e3 3e bd
       0.1412069 0.12886743 0.14630441 -0.046604104
000310 2f d9 d5 3b 20 f8 46 3d 84 9f f3 bd 04 85 39 3d
       0.0065261344 0.048576474 -0.118956596 0.04529287
000320 da 15 53 3d c1 c2 e1 bd 4c 52 79 bd ad ab 48 bd
       0.05153451 -0.110234745 -0.0608695 -0.048991848
000330 b7 7b 91 3d ce e4 d4 bd 84 bf b7 3d 5a f8 ea 3c
       0.07103675 -0.103952035 0.089720756 0.028682876
000340 67 99 f9 3b 18 a1 89 bd f0 d0 f9 3d 7f fc 08 be
       0.007617164 -0.06720179 0.12198055 -0.1337757
000350 e1 87 0b be 37 37 4f bd 48 e7 1d 3d c9 86 95 3d
       -0.13626052 -0.050589766 0.038550645 0.07301099
000360 e5 0c e4 3d 4f 4a cf bd dc 8f f5 bd 85 97 0b be
       0.11135272 -0.10121595 -0.119903296 -0.13632019
000370 fe c0 bf bd c3 70 11 3e 9c e6 bd 3d dc 43 c2 3d
       -0.09362982 0.14203171 0.09272501 0.094855994
000380 7d 69 15 3e 3d f7 8b 3d 7d b2 6e bd 2c 9b a5 3d
       0.14591022 0.06834266 -0.05827569 0.08086237
000390 51 fd ba bd e7 71 ea 3c 9e 2a fd 3d c2 77 7d 3d
       -0.091303475 0.028618766 0.12361644 0.061881788
0003a0 2e 72 ee bc 9a 61 3e 3b 1c 26 57 3d e6 e2 ea 3d
       -0.02910718 0.0029049874 0.05252658 0.11469059
0003b0 77 92 df bd 2c 96 d6 3c 06 ef e0 3d 09 cb 6c 3b
       -0.10916608 0.026194654 0.1098309 0.003613176
0003c0 f3 f2 e8 3d d8 36 a6 bc 65 d7 0c bc a3 6d a5 3c
       0.11374464 -0.020289823 -0.008596276 0.02019388
0003d0 fe ed 8d bc 0f 5d 14 3e c4 93 41 3d ad 43 12 3d
       -0.017325398 0.14488624 0.04726006 0.035709072
0003e0 c6 d2 1f bd 53 83 90 bc ff 4d a9 bd 86 b3 5a bc
       -0.03901937 -0.017640745 -0.0826683 -0.013348466
0003f0 26 0e c8 3d 0f 4b 6e bd e6 e7 b4 3d 87 1f da bd
       0.097683236 -0.05817705 0.088332936 -0.106505446

conv1.0.bias f4 [8]
000000 d4 68 80 bd d1 01 e7 bd 1c 60 df 3d 01 fd a4 bd
       -0.062699944 -0.11279643 0.10907003 -0.08056069
000010 58 09 0e 3e 5f ac bb bd 08 57 de 3d c1 44 27 3d
       0.13870752 -0.091637366 0.10856444 0.040837053

conv1.1.weight f4 [8]
000000 87 89 80 3f d1 34 7f 3f 43 cc 7f 3f 13 de 7e 3f
       1.004197 0.99689966 0.99921054 0.9955761
000010 16 53 80 3f b7 fc 7f 3f 4f b9 80 3f a4 1e 7e 3f
       1.0025356 0.9999499 1.0056552 0.99265504

conv1.1.bias f4 [8]
000000 52 a9 bc bb 73 60 07 bc 67 d5 10 bb 76 54 b6 b9
       -0.0057574892 -0.008262741 -0.0022099854 -0.00034776673
000010 22 35 82 bb 70 3d 19 3a a3 f0 22 bb f6 f4 3d bb
       -0.003973619 0.0005845642 -0.002486267 -0.002898512

conv1.1.running_mean f4 [8]
000000 6a 66 2c bd b3 75 a0 bd f7 c1 1b 3d bd d1 52 bd
       -0.042089857 -0.07834949 0.038026776 -0.051469553
000010 40 b6 87 3d d8 e4 cc bd cc 19 e1 3d 84 bd 3c 3d
       0.06626558 -0.10004586 0.109912485 0.046079174

conv1.1.running_var f4 [8]
000000 eb 7b c9 3e 09 93 ba 3e c4 7f d0 3e 05 04 bd 3e
       0.39352354 0.36440304 0.40722477 0.3691713
000010 d5 bd c6 3e 57 3f d9 3e ab 8f c4 3e 5b 00 b5 3e
       0.38816705 0.42431137 0.3839086 0.35351834

conv2.0.weight f4 [16, 8, 4, 4]
000000 44 69 98 3d a5 2c 45 3d 1f b9 77 bd 8e 21 5a bd
       0.07441953 0.04813828 -0.06047928 -0.053254656
000010 25 24 89 3d 85 52 91 3d 79 cd 09 bd 56 de 2a 3d
       0.06696347 0.070958175 -0.03364322 0.041715942
000020 07 f9 1c bd 0d 64 51 bd 51 0d 5b 3d ad 6d 66 3d
       -0.03832343 -0.051120806 0.053479496 0.05625694
000030 73 b6 01 bd c8 04 49 3d da 63 ee 3c 33 60 9f 3d
       -0.031668138 0.049076825 0.029100347 0.077820204
000040 98 dc 2e 3d a3 8f 01 bd 8c a4 b1 3d 2f e6 3d 3d
       0.042690843 -0.031631123 0.08673963 0.0463621
000050 aa 2f 58 bd 56 5d b2 bc 64 87 9a bd 0c f2 3c bc
       -0.05277983 -0.021773022 -0.07545355 -0.011532318
000060 ff 89 7f 3d 17 d9 a6 bd d7 32 90 bd 66 34 48 bd
       0.062387463 -0.08146875 -0.07040947 -0.048878096
000070 b8 e8 4a bd be a3 6c 3c 21 49 b5 3d af 0d 9a 3d
       -0.049538344 0.014443336 0.08851839 0.07522141
000080 1e 8a b5 bc e5 e6 a2 bd 50 7e 83 bd fe a6 f2 bc
       -0.022160586 -0.07954196 -0.064205766 -0.029620644
000090 9b 26 aa 3d 5c 69 df 3c b0 93 50 bb 88 bf 60 3d
       0.08308145 0.027271919 -0.003182631 0.05487016
0000a0 e8 50 9f 3c 2f b7 0d 3d 82 2f a0 3d ec 6e 5e bd
       0.019447759 0.034598526 0.078215614 -0.054305002
0000b0 94 95 52 3d 72 32 f3 3c 38 5a 83 bd e4 68 62 bd
       0.05141218 0.02968714 -0.06413692 -0.055275813
0000c0 c5 2b 21 bd a7 e7 36 bd 5b ad f2 3c 6c 57 ea bb
       -0.039348383 -0.044654515 0.029623678 -0.007151535
0000d0 6a f3 54 bd 1a eb 9f bd f7 89 9b 3d f4 53 31 3c
       -0.05198995 -0.07808514 0.07594674 0.010823239
0000e0 fd 6b 40 3d 8c d1 ce 3c d5 4c 0c 3d 7a b9 80 3c
       0.046977986 0.025246404 0.03425296 0.015713442
0000f0 d0 c4 9e bd b4 84 80 3d f2 3f 8d bd aa fb a8 3a
       -0.07752383 0.06275311 -0.06896962 0.0012892385
000100 c7 76 08 bd d3 15 12 3d 07 22 73 bd fc e8 30 3d
       -0.0333164 0.035665344 -0.059358623 0.04319094
000110 c3 0f 9f bd b6 6e 4c bd 76 ba 7c bc d2 03 61 3d
       -0.07766678 -0.04991027 -0.015425315 0.054935284
000120 11 f1 e9 3c 78 81 3e 3d 07 4c 4e bd c9 e7 b6 3d
       0.028557332 0.04651019 -0.050365474 0.08930928
000130 12 06 28 3d ac 0d 94 3d f1 45 6d 3d c0 2a a7 bb
       0.041021414 0.0722917 0.05792803 -0.0051015317
000140 da 7d fe bb 8c 3c 44 bc 86 f5 8f 3d 08 54 aa 3d
       -0.0077664675 -0.011977326 0.07029252 0.08316809
000150 ae 11 9a 3d a2 be 43 3c c4 b7 06 3c d2 55 6b 3c
       0.075229034 0.011947306 0.008222524 0.014363723
000160 51 d1 8b 3c 44 30 9b bd cd 1c 8e bd 92 f8 2a 3d
       0.017067583 -0.07577565 -0.06939087 0.04174096
000170 d9 03 97 3d 07 58 10 3d d2 d7 51 bd 6b e7 1a bd
       0.07373781 0.0352402 -0.051231213 -0.037818354
000180 47 f0 9d bd 12 33 09 3d 46 98 50 3c 6f 76 82 3c
       -0.07711845 0.03349597 0.012731617 0.015925614
000190 c7 c4 79 3d 17 9a 08 bd 86 99 66 bc a5 d5 73 bd
       0.060978677 -0.033350077 -0.014074689 -0.05952992
0001a0 78 38 1f 3d a5 d7 33 bd 85 a9 ad 3d d2 4d 59 bc
       0.038872212 -0.043906827 0.08479599 -0.013263183
0001b0 ce f4 32 3d db fd 8c 3d 2b 5f a5 bc ae 2d 72 3c
       0.043690495 0.068843566 -0.020186981 0.014781399
0001c0 1a a2 a9 ba 45 07 ea 3c 21 51 91 bd 1d 4d a5 3d
       -0.0012941987 0.02856792 -0.07095552 0.08071349
0001d0 cf 0d 70 bd ca 04 5a 3d f9 21 cf 3c aa ab 63 bc
       -0.05860692 0.053227223 0.025284754 -0.013895908
0001e0 8e fc 9b bd 42 b6 b6 bb 23 a6 aa bd 4d 48 83 bd
       -0.0761653 -0.005575926 -0.08332469 -0.06410275
0001f0 2f 24 bb bc df 5b 9c 3b 1a 38 9a bd 79 cd 43 bd
       -0.022844402 0.004771694 -0.07530232 -0.047803376
000200 ee 03 4f bd 03 a6 a1 bc c6 30 8e 3d 07 1d b6 3d
       -0.050540857 -0.01973248 0.069428965 0.08892255
000210 d4 99 99 bd 72 17 d1 3b d9 33 24 bd 51 e7 90 bd
       -0.075000435 0.0063809687 -0.04008851 -0.0707537
000220 ee 1a a4 3d 6d 3e 08 3d 24 a8 29 3d e9 32 87 bc
       0.08012949 0.03326266 0.041420117 -0.016503768
000230 53 d8 a6 bd 45 1c 57 3d 18 4e 9e bc b4 17 e8 3b
       -0.08146729 0.052517194 -0.019324347 0.0070829038
000240 af f9 4c 3c 01 38 aa 3d 21 20 b1 bb 0f 70 83 3d
       0.012510701 0.08311463 -0.0054054414 0.06417858
000250 09 75 25 3d 99 dd 28 3d 0c 73 87 bc f4 03 62 3d
       0.040394817 0.041226957 -0.01653435 0.05517955
000260 96 50 7f 3d 1d b4 8b 3d af eb 9f 3d c6 a8 21 3d
       0.062332712 0.06821463 0.07808625 0.039467596
000270 94 01 e4 bc 7a 17 b9 3b 36 46 55 3d 0e 16 90 3d
       -0.027832784 0.0056485506 0.05206891 0.070354566
000280 48 90 af 3d ed 95 a0 3d 2f cd b5 3b 9d 32 30 3c
       0.08572441 0.07841096 0.0055481414 0.010754255
000290 0e a2 6b bc 87 1f 16 bd ec de bd bd 6d 33 a1 bd
       -0.014381899 -0.03665116 -0.092710346 -0.07871137
0002a0 66 8c c6 bd 38 dd 63 3d 22 5e aa 3c 98 31 9e bd
       -0.096947476 0.055630893 0.02079684 -0.07724303
0002b0 4c d8 f0 3c 7b 3a 80 3d 3e c8 60 3c 79 7f 7b bc
       0.029400013 0.06261154 0.013719616 -0.015350216
0002c0 c8 bb 8d 3d 5e 94 ef bc f9 46 49 3d 4e 66 5d bd
       0.06920582 -0.029245552 0.04913995 -0.054052643
0002d0 11 25 4d 3c 8d 41 a8 bc 00 66 b9 3b fd 1f a7 3d
       0.012521044 -0.02053907 0.0056579113 0.08160398
0002e0 f1 f9 c5 bc b7 1d 94 bd 05 64 1c 3d 55 39 51 3d
       -0.024167033 -0.0723223 0.038181324 0.051080067
0002f0 c3 72 88 3d 1f ff 61 bd d5 6f 08 3d cc de 7e bc
       0.06662514 -0.055174943 0.033309776 -0.015556049
000300 ea 9d 48 bc 01 61 f9 bc 6b d4 5d bc f1 6f d2 ba
       -0.012244681 -0.030441763 -0.013539414 -0.001605509
000310 ef 5a e2 3b 26 16 d5 bc 88 78 ad bd 3e bc 99 3b
       0.006907813 -0.026011538 -0.08470255 0.0046916297
000320 b7 a9 8e 3d c9 19 8e 3d 6a ee 01 bd ee d1 79 bd
       0.06965964 0.06938512 -0.03172151 -0.06099122
000330 77 20 2d bd dc 54 08 3d ab d0 81 bd f9 60 20 3d
       -0.04226729 0.033284053 -0.063386284 0.03915498
000340 15 a6 5c bd 6c d4 8e 3d 2f d8 e8 3c 83 f7 25 3d
       -0.053869326 0.0697411 0.028423397 0.04051925
000350 9e be a4 bd f2 7d 81 3d bb ce 73 3d f3 77 90 3d
       -0.0804417 0.0632285 0.059523325 0.070541285
000360 1a 60 9f 3c d2 3b a6 bd cb 23 ad bd c8 a2 d8 3c
       0.019455004 -0.081168786 -0.084540926 0.026444808
000370 b9 9f 2b bd b3 77 a7 bd 38 5c bc bd b0 c8 b1 3c
       -0.04190037 -0.08177128 -0.09197277 0.02170214
000380 41 d2 a6 3d 90 31 21 3d d6 96 4e bd 4e 3d 7d 3d
       0.081455715 0.039353907 -0.050436817 0.061826043
000390 ad 1e 0a bd 96 2c 8c bb 74 7a 31 3d d8 7d b1 3a
       -0.03372066 -0.004277776 0.04332967 0.0013541533
0003a0 2e c8 9f bc 3a 18 f7 bb 9c 1d 81 bd 9b 44 97 3d
       -0.019504633 -0.00754073 -0.06304476 0.07386132
0003b0 db ce ab 3d 1b 67 2b 3d 46 c6 c0 bc 1e be 1e 3d
       0.08389064 0.041846376 -0.023532044 0.03875553
0003c0 8d f8 94 3c 1a fe 13 3d 87 2a 7d 3d d1 33 01 bd
       0.018184924 0.036131002 0.061808135 -0.031543557
0003d0 4b bb 3f 3d ae ae 82 bc 53 d2 99 3d 60 87 e8 3c
       0.046809476 -0.015952434 0.07510819 0.028384864
0003e0 3b 42 3b 3d 47 8f b6 3b 3f 8c 28 bd 09 ae 6d bc
       0.04571746 0.005571279 -0.041149374 -0.014506825
0003f0 8d 4b 94 3c 58 28 17 3d db 9a b9 3c c6 48 b0 3c
       0.018102432 0.03690371 0.022656849 0.021519076

conv2.0.bias f4 [16]
000000 bf ba 3c 3d f8 39 43 3d 38 91 92 bd 2f 62 47 3d
       0.046076532 0.047662705 -0.071566045 0.04867762
000010 8a 1a 69 3d ad f4 91 bd 4c a6 68 3d 9c 4c e7 bc
       0.056910075 -0.07126746 0.056799218 -0.028234772
000020 73 52 0f 3d d5 d5 c8 3b 02 7d d3 3c 5a 2f 1b 3d
       0.03499074 0.0061290064 0.025816444 0.037886955
000030 06 94 8e bd 07 58 a2 3d 13 be 40 bd 9e 31 60 3d
       -0.06961827 0.07926946 -0.04705627 0.05473482

conv2.1.weight f4 [16]
000000 ff 9a 7e 3f e8 b5 7f 3f f1 a7 80 3f f4 27 7e 3f
       0.99455255 0.9988694 1.0051252 0.99279714
000010 ff 03 7f 3f 34 92 80 3f 9d b6 7f 3f 3c 9f 80 3f
       0.9961547 1.0044618 0.9988802 1.0048594
000020 38 5f 80 3f f6 cc 7e 3f e0 a7 80 3f 5c 6a 80 3f
       1.0029058 0.99531496 1.0051231 1.0032458
000030 a7 ea 7d 3f 09 34 7f 3f 77 8d 7f 3f 61 6d 80 3f
       0.99186176 0.99688774 0.99825233 1.003338

conv2.1.bias f4 [16]
000000 12 09 24 bc ac ef c7 ba e3 aa c4 3b ae e3 a6 bb
       -0.010011928 -0.0015253923 0.0060018166 -0.0050930595
000010 18 34 b2 ba 8f 89 25 bb 17 09 08 3c 2a cb 06 3c
       -0.0013595847 -0.0025258993 0.008302948 0.008227149
000020 31 52 64 3a 96 04 11 3c f0 af 9c 3b cf 56 11 3c
       0.0008709757 0.008851191 0.0047817156 0.008870794
000030 77 43 2f bb 4c 7e d9 3a 4a 9f 0c 3c b8 f3 c3 ba
       -0.0026743093 0.0016593426 0.008582899 -0.0014949953

conv2.1.running_mean f4 [16]
000000 99 7e c0 3d ac e1 90 3e 55 ba 5e be 2f c6 02 bd
       0.093991466 0.28297174 -0.21750768 -0.031927284
000010 e4 62 75 be 22 84 6d 3c b9 a1 4f be 32 2c a2 3d
       -0.23963505 0.014496835 -0.20276536 0.07918586
000020 78 35 3a 3c 9a 8d 97 bb 7a 6f 5b 3e bc df 2d 3d
       0.011365287 -0.0046250345 0.21429244 0.042449698
000030 9b a7 67 bd 44 dd 54 3e 0d 8a b2 bd 8b 71 29 3e
       -0.056556325 0.20787531 -0.08717737 0.1654722

conv2.1.running_var f4 [16]
000000 3e df cc 3e 2e 8e f3 3e 62 eb dd 3e 1c 1f cc 3e
       0.4001407 0.47569412 0.43343645 0.39867485
000010 15 51 e3 3e 26 ce d3 3e 2d c9 cb 3e ef d4 dd 3e
       0.44397798 0.41368216 0.39801922 0.43326518
000020 54 9b 0b 3f 77 67 ca 3e 8b 02 0f 3f 26 2c d1 3e
       0.54533887 0.39532062 0.55863255 0.40853995
000030 58 8f c6 3e 83 fa cb 3e 13 e2 e8 3e 1c ed ea 3e
       0.38781238 0.39839563 0.4548498 0.45884025

conv3.0.weight f4 [32, 16, 4, 4]
000000 9a fd 25 3d fd 4e e1 3c 91 49 92 3c f6 60 d0 3c
       0.040525056 0.027503485 0.017857345 0.02543686
000010 5e df 07 3d d0 39 c9 3a 43 b3 2b 3c d3 7e fd 3c
       0.033172004 0.0015352312 0.010479751 0.030944264
000020 f1 32 44 3d 78 37 1b 3d aa 31 16 3d 20 4f 49 3c
       0.047900144 0.037894696 0.036668457 0.012286931
000030 3a e4 5e 3c 36 ec 1d 3d 0e eb f9 3c c5 68 2e 3d
       0.013604218 0.038555346 0.03050759 0.042580385
000040 70 a1 20 bd 6d 64 10 3d 2d 0d a0 3c 7b 39 39 bd
       -0.03921646 0.035252023 0.019537533 -0.045220833
000050 72 c0 14 3d fe 5c 6f 3d ac 66 0c 3d b3 50 42 bd
       0.036316343 0.058438294 0.034277603 -0.047440242
000060 24 92 81 3d 84 23 ff bc 08 37 ac 3b 51 a7 22 bd
       0.06326702 -0.031144865 0.0052555837 -0.039710347
000070 b4 9f c9 3c 8b 7d e1 bc 4a 15 76 3d 34 81 98 3b
       0.024612285 -0.027525684 0.060078897 0.004654074
000080 bd 54 c8 3c be 11 72 ba e5 5b 17 3d 0f 97 6f 3d
       0.024454469 -0.0009234211 0.03695287 0.05849367
000090 f3 7c 4e 3d fa 83 6d 3d 6d 05 08 bc 8e 08 5f bc
       0.05041213 0.05798719 -0.008302075 -0.013612879
0000a0 91 0c 80 3d c7 70 05 3d 97 81 fe 3c cb 87 a0 3c
       0.06252397 0.032578256 0.031067653 0.019596001
0000b0 a1 34 51 bd bb 7f de bc 0c b2 51 bc b0 9c 39 3d
       -0.05107558 -0.027160516 -0.012798797 0.045315444
0000c0 5f 32 fb bb cc 47 55 3d 65 8d f9 3a fc 38 58 3c
       -0.007665917 0.052070424 0.0019039331 0.01319718
0000d0 e6 d6 6a bb de 48 1c bd 22 13 4f 3b 14 f0 d2 ba
       -0.0035833656 -0.03815543 0.0031597097 -0.0016093277
0000e0 c2 58 3f 3c 74 ae f3 3b a2 12 01 3d 46 d7 6e bd
       0.011678876 0.007436568 0.03151191 -0.05831077
0000f0 dd 78 0d 3c eb 80 54 bd f3 36 cf 3c 85 02 51 3d
       0.008634773 -0.05188076 0.025294757 0.051027793
000100 f7 f3 08 3c 3b 0c 87 bd 63 98 33 bd 7b 4d a5 bb
       0.008358947 -0.0659413 -0.0438465 -0.005044637
000110 d6 a9 37 bd 33 84 b5 bc 1f 68 01 3d b2 3f a5 3c
       -0.044839703 -0.022157764 0.03159344 0.020171974
000120 ce 36 36 3d de 6b 71 bc bd 40 8e bc 0b cd c2 3c
       0.04448586 -0.01473519 -0.017364854 0.023779413
000130 38 6b f1 3c 44 80 1b bc e2 e0 20 bd a0 4b da bc
       0.029470071 -0.00949103 -0.039276965 -0.026647389
000140 39 e1 4f 3c 37 51 2c bc 47 04 89 3d 23 98 83 3d
       0.012687975 -0.01051741 0.06690269 0.06425502
000150 d6 cd 06 3d 6e 65 8b bc 5e 17 b0 bc ba fb 0e bb
       0.032911144 -0.017016139 -0.021495517 -0.0021817521
000160 54 2d 05 bd 07 e7 18 3d 63 c4 cf ba 54 1c ae bc
       -0.03251393 0.0373297 -0.0015851374 -0.021253742
000170 55 a6 9d 3b 30 23 46 bd 4a d9 46 3d ab f5 a8 3c
       0.004811088 -0.0483734 0.048547067 0.020624956
000180 f4 6c 26 3d f2 43 af 3b 69 74 1f 3c c6 96 07 3c
       0.04063125 0.005348676 0.009732344 0.008275693
000190 67 b5 48 3d 42 1b 1c bd 20 9c 70 3d 73 da b1 3c
       0.049001124 -0.038111933 0.058742642 0.02171061
0001a0 03 11 b1 bc 2c f4 9c bc aa b0 f0 bc a6 45 8e bd
       -0.021614557 -0.019159399 -0.029381115 -0.06946878
0001b0 35 1a b4 3b 90 bf fb 3b 0d a1 18 3d 90 e0 b8 3b
       0.005496288 0.007682748 0.037262965 0.0056420043
0001c0 90 54 67 bd b4 f5 b5 3b f0 c8 f0 bb 45 44 02 bd
       -0.05647713 0.0055529717 -0.0073481724 -0.03180339
0001d0 d6 ec 7a 3d ce d8 57 3d 2d d2 e0 bc 1c 1e 6a bd
       0.06126102 0.052696995 -0.02744397 -0.05715762
0001e0 8e 03 9e 3b ae eb 61 3d 01 f4 48 3d ce fe 24 bd
       0.004822201 0.055156402 0.049060825 -0.040282063
0001f0 7b eb 92 3c f9 7f a7 bb 2b f7 2a 3c 21 53 6f 3d
       0.017934551 -0.005111691 0.010434906 0.058428887
000200 ff 72 82 ba 1d 94 47 3c 45 0b 21 bb ea a9 cd bb
       -0.0009952484 0.012181309 -0.0024573368 -0.006276359
000210 f1 5c 67 bd 2a 81 32 3d e4 01 4e 3d 74 41 20 3d
       -0.05648512 0.04358021 0.05029477 0.03912492
000220 89 79 5a ba 02 3f 31 bd 28 d6 31 3d 4e d9 4d 3d
       -0.000833415 -0.04327298 0.043417126 0.050256066
000230 b3 3f 1c 3d 69 36 e6 3c 3f a6 5a 3d d3 5b 03 3d
       0.038146686 0.028102117 0.0533812 0.032069992
000240 dc 47 3c bd 21 c0 3b bd 69 97 23 bd e8 7e 68 bd
       -0.045966968 -0.045837525 -0.039939318 -0.056761652
000250 98 9b 33 3d 7f 27 08 bd ba 8c 97 bb 90 f1 42 3d
       0.043849558 -0.03324079 -0.00462493 0.047593653
000260 c7 92 00 bc 77 1c fe 3c 0c 62 b9 bc d2 21 1f 3c
       -0.007847494 0.031019432 -0.02262976 0.009712653
000270 c0 5a 8d ba 87 a9 74 bb f8 d9 1c bd 33 29 1d bb
       -0.0010784492 -0.0037332491 -0.03829381 -0.0023980855
000280 00 cf 8a 3c e9 64 94 3c 92 ca 86 3d 01 92 bb bc
       0.016944408 0.018114524 0.06581606 -0.022896769
000290 9e ed 5f 3d 60 6f 6f 3d 01 90 d5 3c e3 4b 94 3c
       0.05466997 0.058455825 0.026069643 0.018102592
0002a0 4b 33 b9 3c 1e 5e 2c 3d 4f e0 b4 bc cb 9d e4 3b
       0.022607466 0.042081945 -0.022079615 0.006976818
0002b0 dc 98 35 3d 17 5e 63 3c 1a 79 12 bd c0 09 13 bd
       0.04433523 0.013877413 -0.035760023 -0.03589797
0002c0 5e 68 23 3d 5e 6d 52 bd 24 2b 12 bd da 3a e8 3c
       0.039894454 -0.051373832 -0.035685673 0.028348375
0002d0 b9 38 3e 3d 6f f8 cc bc 70 af 56 3d c1 c0 10 3d
       0.046440814 -0.025020806 0.052413404 0.035340074
0002e0 3b c6 ff 3c 0f 0e 69 3d 7f 37 30 bc 4e 65 3f 3c
       0.031222453 0.056898173 -0.010755419 0.011681868
0002f0 ea dc 65 3d 41 c8 6a 3d 63 d4 2a bd cd a5 05 3d
       0.056118883 0.057319883 -0.041706454 0.032628823
000300 03 d1 53 bc 47 35 ed bc 4d 50 a8 3c 6f cd 56 bd
       -0.01292825 -0.028956069 0.020546103 -0.05244201
000310 9f ed 7a 3b ce a5 58 3d 00 8b 13 bd 25 1a e5 bc
       0.0038288606 0.0528925 -0.036021233 -0.027966568
000320 77 1a 4e bb 02 58 39 bd 4f 6d 96 bc cb 95 73 bd
       -0.003144888 -0.045249946 -0.01836267 -0.059469026
000330 8c a4 f4 bc 5b 22 d1 3b 23 c4 49 3c b3 19 ff 3c
       -0.029863618 0.0063822693 0.012314829 0.031140184
000340 c1 56 63 bd 29 5f 22 3d 41 e9 30 3d fc 02 81 3d
       -0.055502657 0.039641533 0.0431912 0.06299397
000350 7a f6 e4 bc c6 a7 66 bb f7 5f c9 bc 4a 06 25 3a
       -0.02794956 -0.0035195216 -0.024581892 0.00062951876
000360 56 05 00 bd c4 37 07 3d d6 b0 af 3c 36 0b 0c 3d
       -0.03125509 0.033012167 0.021446627 0.03419038
000370 19 02 07 3d 07 62 88 bb 2c aa 7f 3d 51 a4 f5 bc
       0.032960985 -0.0041620764 0.062418148 -0.029985579
000380 f2 ac d1 3b e2 56 ba bc a0 82 50 bd ed 8b 4c 3d
       0.0063987905 -0.022746507 -0.050905824 0.04993813
000390 38 ab 2d 3d ba 8b 48 3c 98 2e e3 bc 23 64 1b 3c
       0.042399615 0.012240345 -0.027732179 0.009484324
0003a0 d5 4c f2 3c 7c a3 fa 3c fb 8e 13 bd 6f 81 34 3d
       0.029577652 0.030595534 -0.03602503 0.04406875
0003b0 c8 27 d4 3c 52 45 7a 3d 38 80 3f 3d 9c e3 50 3d
       0.025897875 0.061101265 0.04675314 0.050998315
0003c0 8e 6e 05 bd 88 ea ae bc ce 78 af bc a2 0e 4a bd
       -0.032576136 -0.021352068 -0.021419909 -0.04933036
0003d0 99 ef 70 3d 13 8b 23 3c d0 f1 2e bd 86 c3 fd bb
       0.058822248 0.009981888 -0.04271108 -0.0077442555
0003e0 59 6e 0b bd 3c b6 29 bc 75 01 47 bd 55 be fc 3c
       -0.034040783 -0.0103583895 -0.048585374 0.030852476
0003f0 fc 20 64 bb 18 4d c2 3c be 10 19 3d 8d 02 21 bc
       -0.00348097 0.023718402 0.037369482 -0.009827268

conv3.0.bias f4 [32]
000000 1f bd de 3c 88 d4 ef 3c ef 75 34 3c b4 53 b8 bb
       0.02718979 0.029276147 0.011014446 -0.0056252126
000010 3d 9f 6d bc 00 b0 9b 3c b2 cf 7d bd a6 85 09 3c
       -0.014503297 0.019004822 -0.06196565 0.008393681
000020 89 ca 22 bd 6f 83 29 3d 43 48 d9 3b 14 1a 94 3c
       -0.039743934 0.04138511 0.0066309287 0.018078841
000030 fa 5a 2b 3a 99 ab 55 3d 25 9d 33 bd cd 76 4e bd
       0.0006536689 0.0521656 -0.043851037 -0.050406266
000040 1e cd 5e bd 9c d2 ed 3c d0 14 af bc 3b a0 64 3d
       -0.054394834 0.02903109 -0.021372229 0.05581687
000050 34 ce 7e bd 4b 55 08 bd aa 13 2d 3d 0c 56 9a 3c
       -0.06220837 -0.033284467 0.04225508 0.018839858
000060 a7 22 a6 bc eb 4a 59 3d 5e 47 34 3c c7 37 75 3c
       -0.020280195 0.053049963 0.011003343 0.014966912
000070 0a 18 71 3d bf 03 3f bd c6 33 09 bc 58 c4 5c 3c
       0.058860816 -0.046634432 -0.00837416 0.013474546

conv3.1.weight f4 [32]
000000 31 51 80 3f a4 88 7f 3f af d7 7f 3f f7 11 7d 3f
       1.0024778 0.9981787 0.9993848 0.9885554
000010 6c 27 7e 3f fc 41 81 3f d1 27 7e 3f e2 ab 80 3f
       0.99278903 1.0098262 0.99279505 1.0052454
000020 b8 e2 80 3f 27 1d 80 3f 87 bd 7e 3f 8c 53 7e 3f
       1.0069189 1.0008897 0.99507946 0.9934623
000030 65 17 7d 3f 11 e6 7f 3f 27 50 7e 3f 5e db 7e 3f
       0.9886382 0.9996043 0.9934105 0.9955348
000040 b5 c6 80 3f 4b 20 81 3f 64 24 7e 3f 85 a9 7d 3f
       1.006064 1.008798 0.9927428 0.9908679
000050 5b 0b 81 3f 9e f6 80 3f 9a 08 7e 3f e9 06 7f 3f
       1.008159 1.0075262 0.99231875 0.9961992
000060 9d 4d 7f 3f 13 50 7e 3f 39 0b 7e 3f f5 0f 81 3f
       0.99727803 0.99340934 0.99235874 1.0082995
000070 de dc 7f 3f 43 5a 80 3f ae 8f 80 3f 28 26 80 3f
       0.9994639 1.0027546 1.0043848 1.0011644

conv3.1.bias f4 [32]
000000 d2 78 1b 3b 86 56 78 3a 7a fd ed bb 4b 13 ee bb
       0.0023723138 0.0009473342 -0.007262883 -0.0072654835
000010 bd 98 c6 bb fc c2 18 3c 15 fb f9 37 f3 de 0b 3c
       -0.0060606883 0.009323832 2.9800032e-05 0.008537042
000020 fd 38 44 3c 34 fc 0e 3c 4e a4 6a bb 08 9f 09 bc
       0.011976478 0.008727122 -0.00358035 -0.008399732
000030 5d 36 13 3c e8 52 9a 3b cd ff f6 3b 7b 96 0a bb
       0.008985129 0.00470959 0.007537818 -0.0021146822
000040 24 23 0e 3c 8d 43 12 3c 3d 44 7f bb 01 9c ec bb
       0.00867537 0.008927238 -0.0038950585 -0.0072207456
000050 fc 9d 19 3c f2 d1 bb 3b bc 51 86 bb 47 6e 32 3b
       0.009376045 0.0057318145 -0.004099099 0.0027226375
000060 04 fd fc 3b 4b 0e ee bb 2a de 84 bb 11 c1 2e 3c
       0.0077205915 -0.0072648874 -0.0040548043 0.010666148
000070 8d 9c 93 3b 11 9a cd 3b 4a 8d c8 3b a9 72 19 3c
       0.0045047463 0.0062744697 0.0061203586 0.009365716

conv3.1.running_mean f4 [32]
000000 ba 52 cc 3e b3 56 b5 3d 97 30 76 bd 45 ea dd bc
       0.39906865 0.08854427 -0.060104933 -0.027089247
000010 b6 9f 29 bd 7d 9a aa be ce ec 8e 3c 9a 3c 92 bd
       -0.041412078 -0.3332099 0.017446902 -0.07140465
000020 d5 9f 97 be 36 33 b0 3d f8 af a3 3c e4 ca 43 bd
       -0.2961413 0.08603518 0.01998137 -0.047800913
000030 36 18 df 3d ef 26 c0 3e 4f bb 0a be 99 10 28 be
       0.1089329 0.37529704 -0.13548015 -0.16412582
000040 e4 be 00 bf 3b a8 4b 3d ca 35 36 3d 6b b6 65 be
       -0.50291276 0.049720984 0.04448489 -0.22432868
000050 23 c8 85 be ba cd 4c 3e 7b 36 4f 3e de d8 3e 3d
       -0.26129255 0.20000353 0.20235626 0.04659354
000060 6f be 7c be 81 93 3f 3d 80 f5 9f bc 6c 9b 34 be
       -0.2468202 0.04677153 -0.019526243 -0.17637414
000070 cc 21 56 bd 31 13 42 be 5b 91 c5 be 35 68 59 be
       -0.052278325 -0.18952633 -0.3858746 -0.21231158

conv3.1.running_var f4 [32]
000000 24 31 10 3f 35 73 e2 3e 68 48 e1 3e 76 68 d7 3e
       0.5632498 0.4422852 0.44000554 0.42071885
000010 0c 16 eb 3e 27 46 df 3e 54 db d7 3e f6 39 f0 3e
       0.45915258 0.4360821 0.42159522 0.4691922
000020 52 cb 1f 3f c4 99 f0 3e f3 d4 e8 3e fe 6f ca 3e
       0.6241962 0.46992314 0.45474967 0.39538568
000030 5f 80 cd 3e 29 58 f5 3e bb 92 16 3f 7e 35 07 3f
       0.40137002 0.47918823 0.5881764 0.52816
000040 7b 8e 05 3f 7e 1a f1 3e 3a 06 d8 3e e8 37 d7 3e
       0.5217053 0.47090524 0.4219225 0.4203484
000050 d2 66 d3 3e a0 dd 00 3f df 26 c8 3e 87 d9 db 3e
       0.41289383 0.5033817 0.39092156 0.42939398
000060 cb d7 d6 3e 80 b7 d8 3e a1 ca eb 3e 10 f7 f4 3e
       0.41961512 0.423275 0.4605303 0.47844744
000070 b3 ae e0 3e 7c 2d d1 3e 61 2b fd 3e db d5 01 3f
       0.43883285 0.40855014 0.49447158 0.5071694

deconv2.0.weight f4 [32, 16, 4, 4]
000000 55 23 4e bd 60 34 45 bd 53 6c 44 3d 91 66 0d bd
       -0.050326664 -0.04814565 0.04795487 -0.034521643
000010 8e bb f0 3c 1a 8d 4a bd 8d dd 56 bd e1 9e d3 bc
       0.029386308 -0.04945097 -0.05245738 -0.025832595
000020 2b e2 e5 bc 9c 00 ce 3b d9 4d d2 3b 4d 0a e3 3b
       -0.028061947 0.0062866937 0.0064179716 0.006928718
000030 69 e8 b7 bc 33 cc 8c bd ed 89 86 3d d9 5a e7 3a
       -0.022449689 -0.068748854 0.06569276 0.0017650976
000040 a1 d0 79 bc 78 97 73 bd 84 1d 21 bc 94 63 4c 3d
       -0.015247495 -0.059470624 -0.009833697 0.049899653
000050 08 ba 38 3d 6d f7 60 3d cc 12 76 3d c4 66 64 3d
       0.04509929 0.054923464 0.06007652 0.055762067
000060 e5 c3 05 bd 52 df 48 3d 4d 5b c3 3c f8 52 7e bb
       -0.032657523 0.0490411 0.023847247 -0.0038806777
000070 35 ef 07 3d 75 ea cd 3b 0e a6 53 bd 60 91 83 3c
       0.03318711 0.006284053 -0.051672034 0.016060531
000080 04 31 62 3d 1c 7d 45 bd 00 e9 1d 3d 10 12 80 3d
       0.055222526 -0.048215017 0.038552284 0.06253445
000090 90 f1 2d 3d 1a b4 6d 3d 36 23 81 bc 57 be 99 bc
       0.0424667 0.058033086 -0.01576386 -0.018767519
0000a0 8d ce 10 bc b7 4f b5 bb 15 9a 85 3d f2 96 30 3d
       -0.008838308 -0.0055331844 0.065235294 0.043112703
0000b0 b8 17 c3 3c 48 41 26 3d 2b 30 2b bc 2e 06 34 bd
       0.02381502 0.0405896 -0.010448496 -0.043951206
0000c0 86 83 2d bd 3c 42 a7 bc 00 de b9 3c 05 5c 48 bd
       -0.04236176 -0.020417325 0.022688866 -0.04891588
0000d0 d1 e0 09 3c a6 97 56 bc 7e 8a 53 3c c9 ce db bb
       0.008415417 -0.013097679 0.012911437 -0.0067080003
0000e0 ec c6 7a 3d 2b 72 54 3d 33 d0 7d bd 74 e1 60 bd
       0.061224863 0.05186669 -0.061966132 -0.05490251
0000f0 3f db dd 3c ea 29 f9 bc 7b 7d b1 bc d5 ac 8d bd
       0.027082084 -0.030415494 -0.021666279 -0.06917731
000100 5a f6 16 3c ea 71 2b bd c5 4f 56 3c 9d a4 18 3d
       0.009214008 -0.041856684 0.013080542 0.037266362
000110 8e 4b 20 bd 97 2c 62 3d ad 47 a9 bc 7f 73 12 bd
       -0.039134555 0.055218305 -0.02066406 -0.035754677
000120 ab eb 31 bd 78 c7 d1 bc 3d e1 54 3d 25 9a e7 3c
       -0.04343764 -0.02560781 0.051972616 0.028271744
000130 89 c5 82 bd f1 cd 0c bd 7a 11 5e 3d 88 6e 2b 3d
       -0.06385333 -0.03437609 0.054215886 0.041853458
000140 1a 0d 3b 3c aa b9 95 bc 5b e8 4b bd 86 f0 25 bd
       0.011416698 -0.018277008 -0.04978214 -0.040512584
000150 7f b9 43 3d 0f c6 0c bc 2f c8 ee bb a0 f5 27 3b
       0.047784325 -0.008592143 -0.0072870473 0.0025628582
000160 d6 40 a9 bc af 42 48 bd c9 54 28 bd 54 62 9b 3c
       -0.020660799 -0.04889172 -0.041096482 0.018967785
000170 7a 20 9f bc 77 5c 43 3c d9 cf eb bc 1c 65 48 bc
       -0.019424666 0.011923901 -0.028785633 -0.012231138
000180 22 d9 40 bd 24 bd d4 bc 15 96 1d bd f1 27 ef ba
       -0.047082074 -0.025969096 -0.038473208 -0.0018246156
000190 b5 9f 5a 3d aa 07 5b 3c 60 dc ac bc fd e9 ec bc
       0.053374965 0.0133685265 -0.021101177 -0.028920168
0001a0 dd fa 01 bd f9 58 ed bc a1 8a d9 bc 56 48 82 bd
       -0.031733382 -0.02897309 -0.026555361 -0.06361453
0001b0 63 5d 0e 3d d4 ee 7f bd 4c 7f 1f 3d cb f2 0b 3d
       0.03475703 -0.062483624 0.03893976 0.034167092
0001c0 32 20 98 3c fb 65 8f bd 8e 8b 6a bd 74 ef 90 bd
       0.01857004 -0.07001873 -0.057261996 -0.07076922
0001d0 e6 95 89 3c 5f 6c 39 3d 91 b0 ae 3c c7 93 4b bd
       0.01679511 0.045269366 0.021324428 -0.04970148
0001e0 87 33 ad 3c 44 88 43 bd 2f fb ee 3c cc 4b 19 3d
       0.021142734 -0.047737375 0.029172508 0.0374258
0001f0 e7 d8 5e 3d a9 c6 c3 3c 51 db 1e 3d f0 28 69 bd
       0.054406073 0.02389844 0.038783375 -0.056923807
000200 95 83 31 bd c0 d0 09 3c 0a 3b 0b 3d 13 bd 7a 3d
       -0.043338377 0.008411586 0.03399185 0.06121547
000210 83 09 86 3d 04 14 26 3d 58 c6 29 3c 39 2b 71 3d
       0.06544783 0.040546432 0.01036223 0.05887911
000220 1e 03 85 bd 65 4e 26 bd 23 35 34 bc b0 f9 9e bc
       -0.06494735 -0.040602107 -0.010998997 -0.01940617
000230 45 76 1a bd 85 68 2f bd 67 19 96 bc df 92 69 3d
       -0.037710447 -0.042824287 -0.01832266 0.057024833
000240 85 e7 1b bd fc 49 63 bb 49 6e 50 3d 60 a0 6a 3b
       -0.03806259 -0.003468155 0.050886426 0.0035801157
000250 02 b0 30 bd b3 dd 81 bd 16 91 5d 3c 37 49 20 3d
       -0.043136604 -0.06341114 0.013523361 0.039132323
000260 37 ed 31 3b 15 a6 52 bd 5a 63 2d bd df ad 13 3d
       0.0027149448 -0.05142792 -0.042331077 0.03605449
000270 35 34 27 3d 02 fd da bc 7d 5e 52 3b 8d 7c 8b bd
       0.040821273 -0.026731972 0.0032099776 -0.068108656
000280 66 97 86 3c ae c6 4c 3d d8 64 72 3d 59 0a 06 bd
       0.016429614 0.049994163 0.059178203 -0.032724712
000290 98 b5 4d 3d 1a b0 a5 bb ba 70 35 bd d3 f0 8b bd
       0.05022201 -0.0050563933 -0.044296958 -0.06833043
0002a0 a4 69 7a 3d 50 71 85 3d 68 c0 18 bd 80 7d ed bb
       0.061135903 0.06515753 -0.037292868 -0.007247627
0002b0 0d 78 a9 3c f1 b5 b3 3b 93 7b 0c ba 5a 72 3e 3d
       0.020687127 0.0054843356 -0.000535899 0.046495773
0002c0 86 3f c5 bc 3e 1f 14 ba 4d 49 d7 bc 49 0a 00 3d
       -0.024078142 -0.00056504074 -0.02628007 0.03125981
0002d0 7d 9f 8b 3c 80 4f f5 bc a5 ae 6e bd ab 58 5a 3c
       0.017043823 -0.029945135 -0.058272023 0.013326804
0002e0 3f c8 f3 bb 87 62 da 3c a5 fe 52 3d cd 32 64 bd
       -0.0074396427 0.02665831 0.05151238 -0.05571251
0002f0 26 ad 18 3d fe de 23 bd 49 47 40 3d 19 3f 5e 3c
       0.037274502 -0.040007584 0.046942983 0.013564848
000300 45 7f 5e 3d b6 54 58 3b 8e 24 75 bc 2f 29 a4 3c
       0.054320592 0.0033009476 -0.014962329 0.02003917
000310 36 ea 4b bb 4c ff 11 bd ec ff b6 3c ac 24 b8 bc
       -0.0031114942 -0.03564386 0.02233883 -0.022478424
000320 58 5d 19 bd 2d 05 33 bd 5e 99 25 bd 7c 6d 9b bc
       -0.037442535 -0.043706108 -0.040429465 -0.018973105
000330 ed ad 1d bc 9a 44 dc 3c be fb 5a 3d 0e 08 79 bc
       -0.009623987 0.02688818 0.053462736 -0.015199674
000340 56 96 c9 3c c1 f7 1a bd ee 0d 3e 3d af 89 13 bd
       0.024607819 -0.037833933 0.046400003 -0.036019977
000350 b4 99 1c bd 0a 3e 7b 3c 49 da 3f bd 16 54 00 3d
       -0.03823252 0.0153346155 -0.046839032 0.03133019
000360 0d 5e 69 3d 7f d4 3a 3d ac 00 83 39 9b f9 56 bd
       0.05697446 0.04561281 0.00024986768 -0.052484136
000370 f5 2d 1d bc 3e 16 81 bd 66 21 ac bc 3a 78 50 3d
       -0.009593477 -0.063030705 -0.02101202 0.050895907
000380 3f 31 48 3d 6a 0f 3b 3d 9e d6 6d 3d d0 1e 46 bd
       0.04887509 0.045668997 0.058066003 -0.04836923
000390 68 39 56 bc bb 8c f7 bc de c5 04 3d af 89 fe 3c
       -0.01307521 -0.030218473 0.032415263 0.031071512
0003a0 70 c5 8f bc c2 2e aa bc 8d a7 19 bd 46 31 86 bc
       -0.0175502 -0.020774249 -0.037513305 -0.016380917
0003b0 cd bf 58 3d 93 24 63 bd 35 f4 ac bc 45 d3 99 bb
       0.05291729 -0.0554548 -0.02111254 -0.0046943747
0003c0 98 a4 43 3d 62 01 66 bd 6b bf 1b 3d 45 35 44 3d
       0.04776439 -0.056153663 0.038024347 0.047902364
0003d0 84 ca c3 3c 13 68 84 bc 1f ae 4a bd f6 79 7d bd
       0.023900278 -0.016162908 -0.04948246 -0.06188389
0003e0 71 58 59 bc 60 e3 97 bb b6 f5 53 bc de 0b 43 3d
       -0.013265715 -0.0046352595 -0.012937 0.04761874
0003f0 04 48 87 bd 2c 7c 78 bc 14 8b 1e bd b8 51 07 3c
       -0.06605533 -0.015166324 -0.038706854 0.008259229

deconv2.0.bias f4 [16]
000000 84 28 b0 bc f9 4b 7d bd 78 4d 71 bb 58 51 40 3d
       -0.021503694 -0.06184003 -0.0036819857 0.046952575
000010 11 3f fd 3b f4 03 4b bd fb 47 4c 3c 36 8b 0f 3d
       0.0077284654 -0.049564317 0.012468333 0.03504487
000020 88 09 22 bd af 76 28 3d ef c7 4e bd 5b 28 44 bd
       -0.03955987 0.04112881 -0.05048364 -0.04789005
000030 40 6d 2e 3c ff 1c b2 bc d2 09 4e 3d 82 87 80 bb
       0.010646164 -0.021742342 0.050302334 -0.003922404

deconv2.1.weight f4 [16]
000000 68 61 7e 3f f3 cd 7f 3f d8 5b 80 3f a3 22 80 3f
       0.9936738 0.9992363 1.0028028 1.001057
000010 da 9d 7f 3f 22 57 80 3f 4f 3b 80 3f 3d c2 7d 3f
       0.9985024 1.0026591 1.00181 0.9912451
000020 2c 1b 80 3f fb ce 7e 3f 41 f6 7e 3f 50 f0 7f 3f
       1.0008292 0.9953458 0.99594504 0.9997606
000030 75 fc 80 3f e3 9b 80 3f 6b 13 81 3f e4 07 7f 3f
       1.0077044 1.0047573 1.0084051 0.99621415

deconv2.1.bias f4 [16]
000000 57 99 36 3b 44 21 d1 3b 9e 41 af 3b 3e f6 1e 3c
       0.0027862394 0.0063821394 0.0053483984 0.009702263
000010 c4 27 b1 3b 9f 9e 21 3c 2f 2d 0c 3c 12 3a 11 3c
       0.0054063518 0.009864478 0.0085556945 0.008863943
000020 87 96 17 3c 1e 64 54 bb 1a 1d 00 3c 6e a3 a7 3b
       0.009252197 -0.0032408307 0.007819438 0.005115918
000030 2f cf 11 3c a7 d0 1b 3c 06 3b 2d 3c 6e 8f 3a 3c
       0.008899494 0.009510196 0.010573154 0.011386735

deconv2.1.running_mean f4 [16]
000000 3f 57 db bc 12 fb 3d bc d8 e5 12 bd 23 7c 06 bd
       -0.026775 -0.011595504 -0.035863727 -0.03283323
000010 dc 9d 00 bc 50 1f 18 be 59 75 ff bd dc 2d 93 bc
       -0.007850137 -0.14855695 -0.12473554 -0.017966203
000020 25 e0 fd bd df b6 62 bb c6 2d 80 bd 18 da eb bd
       -0.12396268 -0.0034593863 -0.062587306 -0.115162075
000030 35 cc a2 3c 18 4c 2b bd ca 0d fb 3c ad 86 33 bd
       0.019872764 -0.041820616 0.030646224 -0.04382961

deconv2.1.running_var f4 [16]
000000 f1 c6 d1 3e 6b 91 d7 3e fb 2f d4 3e e1 d3 d4 3e
       0.40972093 0.42103133 0.41442856 0.415679
000010 ae 62 cd 3e a5 2e ce 3e 43 de d9 3e 79 f9 cc 3e
       0.4011435 0.40269962 0.42552385 0.40034083
000020 d6 65 d4 3e fe c7 ce 3e f5 46 d7 3e 34 c7 d7 3e
       0.41483945 0.40386957 0.42046323 0.42144167
000030 bf 42 d1 3e 64 b0 f8 3e ee e6 cd 3e 21 08 d6 3e
       0.40871236 0.48572075 0.40215248 0.41803077

deconv3.0.weight f4 [16, 8, 4, 4]
000000 42 26 fd bc 5f 3f d4 3c 51 38 33 bd 0b e5 c2 3d
       -0.030902032 0.025909124 -0.04375488 0.09516343
000010 2e 6c 41 3d 4d d6 7c bd e1 54 7e 3d bd 1d 2f 3d
       0.04722231 -0.06172781 0.062092666 0.04275297
000020 ff 0d 70 3c 3a 11 aa bc 84 3e 9b 3d 5c 10 60 3d
       0.014651774 -0.020760167 0.07580283 0.0547031
000030 a3 de 56 bd 0f e8 84 3d 62 4d 9f 3d f9 1d 97 bd
       -0.052458417 0.06489574 0.077784315 -0.07378764
000040 db 0e 83 bd b5 64 82 3d 98 0f c8 bc bd 80 84 bd
       -0.06399318 0.063668646 -0.024421498 -0.064698674
000050 f2 13 2b bd 1e 10 91 3d 00 3b 9b bd 47 e2 41 3d
       -0.04176707 0.07083152 -0.07579613 0.047334936
000060 7b e6 70 3d 48 f3 89 bd 71 df 01 3c 2b 18 21 bd
       0.058813553 -0.06735855 0.007926808 -0.03932969
000070 e2 c1 90 3d 5b 2b c0 bb 1e 6c c1 bc 0d c9 56 bc
       0.0706823 -0.0058645434 -0.023611125 -0.013109458
000080 de c2 7a bc 19 d9 a4 3d b0 87 78 bd 7e 49 23 3d
       -0.015305249 0.080492206 -0.060676277 0.03986501
000090 01 fa 9b bc d7 a3 5d bd 71 23 64 bd 11 9a 0a bd
       -0.01904011 -0.054111328 -0.055697862 -0.033838335
0000a0 48 1d 5d bd df 1e 7a bc 31 cd 8b bd f1 c3 99 bc
       -0.053983003 -0.015266149 -0.068262465 -0.01877019
0000b0 56 c3 04 bd 0c 92 48 3d c6 67 97 3d 5a 4d a0 3d
       -0.03241285 0.048967406 0.0739284 0.07827254
0000c0 ec bf aa 3d 5f 2d 56 bd 54 e0 ee 3c 8e 3e e8 3c
       0.083373874 -0.052289363 0.029159702 0.02835014
0000d0 d3 8c a2 3d b4 99 c1 3d 11 7b 4b bd 7b a1 a1 3d
       0.07937016 0.09453145 -0.049677912 0.07892128
0000e0 fe 36 47 3d 43 27 09 bd 62 89 f2 3c c0 cb 5b bd
       0.04863643 -0.03348471 0.029606525 -0.053661108
0000f0 cf 16 4e 3d a4 93 7e 3d 13 d1 44 bb a5 8d 18 bd
       0.05031472 0.06215252 -0.0030031845 -0.037244458
000100 03 c1 1c 3d 62 99 35 3d 61 bf 52 3d d4 e6 1d 3d
       0.038270008 0.04433573 0.051452044 0.038550213
000110 15 40 70 bd ad 08 a5 bd 6d 5e 0d bd f8 1b f2 3c
       -0.058654863 -0.080582954 -0.03451388 0.029554352
000120 c4 ab 96 3d 46 22 43 3c d5 02 8d 3d d6 92 28 3d
       0.073569804 0.011910027 0.06885306 0.04115566
000130 03 e6 c7 bc e9 95 19 3d 7e d9 40 3d 63 4a 7a bd
       -0.02440167 0.03749648 0.047082417 -0.061106097
000140 57 ad c0 3c 0f 67 62 3d b2 53 98 bd 19 4a 3b 3d
       0.023520155 0.055274066 -0.074378386 0.045724962
000150 1a a6 b4 bd 18 bc 19 bc 3f 24 8c bd 3f 8c 99 3d
       -0.08820744 -0.009383224 -0.06842851 0.07497453
000160 20 dc 9b bd 63 2b 5a bd 2e 6a 99 bd 14 5f 56 3d
       -0.07610345 -0.053264033 -0.07490955 0.052336767
000170 7e 9e 34 3d ea a9 a9 3d 45 63 47 3b 53 c1 1c bd
       0.044096462 0.08284362 0.003042416 -0.038270306
000180 9e 1e a5 bd dc bc 81 3b 9b e3 62 3d a4 ec 36 3d
       -0.080624804 0.0039592814 0.055392843 0.04465927
000190 01 ba 29 3d 70 b9 2f bd 07 ee 93 3d 65 56 98 bd
       0.041437153 -0.042901456 0.072231345 -0.074383534
0001a0 c3 ab 86 bd 44 35 98 3d bf 0a 2d bc 3a e6 9e 3c
       -0.0657573 0.074320346 -0.010561644 0.01939689
0001b0 2e b3 33 3d e9 c5 b0 bc b3 0a a5 ba 26 51 9f bc
       0.04387205 -0.021578746 -0.001259169 -0.019447874
0001c0 59 11 59 bd eb 9e 48 3d 5d 66 d4 3c 60 62 ab 3d
       -0.05299506 0.04897968 0.025927717 0.08368373
0001d0 65 90 8e bd b7 08 6e 3d a6 d1 a0 bc 9a 5a 90 bd
       -0.06961135 0.05811378 -0.019631218 -0.07048531
0001e0 55 c4 c6 bc e8 b5 41 bd 00 89 28 bd 8f 12 a4 3d
       -0.02426354 -0.04729262 -0.04114628 0.08011352
0001f0 ce f0 b3 3d ce d1 19 bd 4e 02 41 3d 5f da b6 3c
       0.08786164 -0.0375536 0.04712134 0.022320924
000200 af 0a 7f 3d 0e ac 84 3d b1 bc d6 bc b1 8d 8a bd
       0.062266048 0.06478129 -0.026213022 -0.06765307
000210 35 69 7b 3d 5f 2c 06 3c 30 fc 26 3c b2 8d cd bc
       0.06137963 0.00818929 0.010191962 -0.02509198
000220 b9 d5 62 ba 4c e0 85 3d 6b f1 a6 bb b6 5f 84 3c
       -0.0008653063 0.06536922 -0.0050946972 0.01615892
000230 e0 62 14 3d c3 9d 41 bd 97 36 88 3d df fc ab bc
       0.036227107 -0.047269594 0.06651037 -0.020994602
000240 b3 bd 4b bd 4c 15 61 3d 0f 95 19 3c 9f fa 79 3d
       -0.04974146 0.05495195 0.009373917 0.061030027
000250 00 c9 26 39 ea 11 25 bd c8 9b bc bc a1 93 35 bd
       0.00015905872 -0.040300287 -0.023023501 -0.044330243
000260 86 2f 8f 3d 41 79 69 bd 54 38 12 3d a2 26 1d bb
       0.06991486 -0.057000402 0.03569825 -0.0023979326
000270 55 e0 46 bd 3a f1 a5 bd 84 06 0d bd 6a 39 59 3d
       -0.048553783 -0.08102651 -0.034430042 0.05303327
000280 b2 b4 2e 3d cb 4b a8 3c 3c d7 6d bc 35 5b 6a bd
       0.042652793 0.020543953 -0.014516648 -0.057215888
000290 10 e9 88 3d d8 86 9a 3d 74 2b f5 3c 70 39 0a 3d
       0.06685078 0.07545251 0.029927947 0.033746183
0002a0 3d 32 da 3a 55 ff 9c 3b e3 c3 98 bd 0e 81 b7 3d
       0.0016647052 0.00479118 -0.074592374 0.08960162
0002b0 7e df 25 bb ce 67 44 bd 9b 72 46 3c 70 64 a9 bc
       -0.0025310214 -0.04795056 0.012112285 -0.020677775
0002c0 b6 96 eb 3b c5 a3 94 3d 83 17 ba bc da 20 a3 3c
       0.007189597 0.07257799 -0.02271629 0.019913126
0002d0 e9 ad cb 3d bd bb c3 bb 39 46 e4 bc d2 20 24 3d
       0.0994528 -0.005973308 -0.027865516 0.040070362
0002e0 8e f6 9a bd f5 8c 1c 3d 39 2f 86 3d e0 4d 7d bd
       -0.07566558 0.038220365 0.06551976 -0.061841846
0002f0 79 f7 96 bd cd 87 b0 3c 60 74 24 bc 88 e6 95 3c
       -0.073714204 0.02154913 -0.010037512 0.018298402
000300 ce 12 9b bc ef 78 9c 3d f7 ea b1 3c 23 23 1f bd
       -0.018929865 0.07640254 0.021718485 -0.03885187
000310 fc 10 ad bd 26 1b 43 bd e7 ca d8 3c 7a f6 a1 bd
       -0.08450505 -0.047633313 0.026463939 -0.0790834
000320 b1 ce 47 bd 4a e9 6c 3c e9 6e 93 3d 1f c5 5f 3d
       -0.0487811 0.014459917 0.07198889 0.05463135
000330 a6 b8 e6 3c d4 9c 0f bd 45 50 8a 3d 9d b1 0d bd
       0.02816422 -0.035061672 0.067535914 -0.034593213
000340 a9 a5 a9 3d d1 55 c1 3c ad 8d 5f 3d 8c c3 b9 3c
       0.0828355 0.02360049 0.054578472 0.022676252
000350 17 ec b6 bc ec 13 8e 3c ed 71 19 bc 77 d0 a5 3c
       -0.022329373 0.017343484 -0.009365541 0.020241005
000360 c9 48 87 3d 19 06 08 3c ca fd 8c 3c c0 da f8 3c
       0.066056795 0.008302235 0.01721086 0.030377746
000370 d5 0a 47 3c 2d 50 51 3d c1 10 40 bd 2a bc 97 3d
       0.012148579 0.051101852 -0.046890978 0.07408936
000380 60 c9 45 3d 79 8e a2 bd 74 27 9d 3d 1c e6 97 3d
       0.04828775 -0.07937331 0.07673541 0.07416937
000390 ef 9e bc 3c a1 42 2c bd 51 70 28 bd 63 a1 25 bd
       0.023025004 -0.04205573 -0.04112274 -0.040437113
0003a0 df ca 83 3b 4a 9f 7e 3d f1 e9 90 3c dd f4 30 bd
       0.004021987 0.06216363 0.017689677 -0.04320227
0003b0 7c b2 5a bb 17 9e 2b 3d 83 30 ff bc 71 37 8a 3d
       -0.0033370545 0.041898813 -0.031151062 0.06748856
0003c0 a6 f2 55 3d db 5f 8b bc a8 dd 2d bd c6 56 ea bc
       0.05223336 -0.01701348 -0.042447716 -0.02860583
0003d0 cf a7 66 3d 6c 90 2e bd 94 61 9e bd 0e 25 21 3a
       0.05631238 -0.0426182 -0.07733455 0.0006147184
0003e0 87 88 a7 bd ee 43 96 3c ae 14 9f bd 38 5a 5c bd
       -0.081803374 0.018342938 -0.07767616 -0.053796977
0003f0 3c 1d 49 3a 27 c3 3b bd 7d 01 4b 3b c9 9c 4f 3d
       0.0007671898 -0.04584041 0.003097623 0.05068663

deconv3.0.bias f4 [8]
000000 10 d4 83 bb b5 81 6c 3d e9 1b 93 3d 73 4f f3 bc
       -0.0040230826 0.057740886 0.07183058 -0.02970097
000010 c9 d5 4c 3d 59 e7 d4 3b c6 3e 47 3d ec d7 2e bd
       0.05000857 0.0064973054 0.04864385 -0.042686388

deconv3.1.weight f4 [8]
000000 e4 71 81 3f f7 7c 81 3f 7b 44 80 3f bd 6b 81 3f
       1.0112882 1.0116261 1.0020899 1.0111004
000010 50 96 81 3f ca 67 81 3f f0 4f 80 3f de 3b 81 3f
       1.0123997 1.0109799 1.0024395 1.0096395

deconv3.1.bias f4 [8]
000000 23 bf 34 3c 3a 65 39 3c ba 82 40 3b f2 57 2e 3c
       0.011031899 0.011315638 0.0029374794 0.010641085
000010 86 41 46 3c 20 f0 2d 3c 8f 72 97 3b 44 eb 50 3c
       0.012100583 0.010616332 0.0046218107 0.012751404

deconv3.1.running_mean f4 [8]
000000 ed a6 f3 3c 3b 1d e1 3c ae e7 c4 3c 05 29 50 bc
       0.029742682 0.027479758 0.024036255 -0.012705092
000010 56 24 b1 3d 4b 0d 60 3d 49 50 01 3c be 5d 0d be
       0.08649509 0.054700177 0.007892677 -0.13805291

deconv3.1.running_var f4 [8]
000000 56 4a d2 3e fa 17 d2 3e db 34 c8 3e a9 50 ce 3e
       0.4107234 0.41033918 0.39102826 0.40295914
000010 c7 d0 d1 3e 47 0e cf 3e 00 71 c4 3e c8 72 cd 3e
       0.40979597 0.4044058 0.38367462 0.40126634
