Pix2Pix/checkpoints/pix2pix_model_epoch_80.pth (torch, 99150 bytes, 32 tensors)

conv1.0.weight f4 [8, 3, 4, 4]
000000 0b d6 ff 3d 4f 89 f3 3d f9 0d a8 bd 5d 85 16 3e
       0.12491997 0.11891424 -0.0820579 0.14699312
000010 a9 ea 8a 3d 69 c2 e7 3b 44 1a 93 bd ee 99 d8 3d
       0.06783039 0.007072736 -0.07182744 0.10576235
000020 5e 33 b5 bd 47 8d 58 bc 96 5c 55 3c 69 f9 a4 bc
       -0.08847688 -0.013217277 0.0130225625 -0.02013846
000030 10 68 f3 3d b0 a7 c0 3d 45 48 08 be bc 33 15 be
       0.11885083 0.09406984 -0.13308819 -0.14570516
000040 2b 9d 6c bd de 3a aa 3d 04 82 e8 3b 9f f5 1f 3e
       -0.057767075 0.08312009 0.007095577 0.15621041
000050 10 e5 86 bd 36 b4 5d bd cb a5 2f 3e 51 7b ad bd
       -0.06586659 -0.05412694 0.17153089 -0.08470786
000060 ef b8 12 be 77 f0 f7 bd 01 66 c1 bd 18 20 08 be
       -0.14328359 -0.12106412 -0.09443284 -0.13293493
000070 81 b9 c9 bd 48 b1 a9 3a b4 64 e4 3d 24 75 c7 bd
       -0.09849835 0.0012946511 0.1115202 -0.0973914
000080 1b d0 76 3d b3 e0 e7 3d 12 2c a3 bd db 56 f4 bd
       0.06025706 0.11322155 -0.0796739 -0.11930629
000090 06 08 95 bd 2b ef 43 bc e7 a7 f4 3d 62 77 07 bd
       -0.07276921 -0.011958878 0.11946087 -0.033072837
0000a0 14 92 84 bd 84 43 c6 bd c3 a5 0b be fb 25 a1 3c
       -0.06473175 -0.09680846 -0.13637452 0.01967143
0000b0 7b 0a ea 3d a1 e7 ad bd 8a cc 1d 3e 59 15 96 3b
       0.1142778 -0.08491445 0.15410057 0.0045801816
0000c0 06 2d 2f 3c 19 6f 92 3c ab 50 89 bd 58 e5 0e 3e
       0.010691887 0.017875241 -0.06704839 0.13954675
0000d0 77 7c fb 3d 16 45 8e 3d 4f b7 d6 3d de 2a 58 3c
       0.12279599 0.06946771 0.10484182 0.013193814
0000e0 b3 0f 03 3c 5b b3 a1 bd a3 d6 d1 bd e1 aa cf 3d
       0.007999348 -0.078955375 -0.10246017 0.101400144
0000f0 ca 77 8f bd 1e ee d4 3c 8e 62 b2 bd c3 7e 0a 3e
       -0.0700527 0.02599245 -0.08710204 0.13524918
000100 b2 56 ee bc 87 e9 88 bd 5c 14 f9 3d 48 7a 01 be
       -0.029094074 -0.06685167 0.12162086 -0.12644303
000110 80 60 6c bd 8a 3f f4 bd f4 cd 4a 3d 99 d7 29 bd
       -0.057709217 -0.119261816 0.04951282 -0.041465376
000120 74 98 af bb a9 28 3c 3d fe 28 3b 3d 14 b9 e3 3d
       -0.00535875 0.045937214 0.04569339 0.11119285
000130 d3 e2 3f 3d a9 66 14 be 3d 65 07 be dc f5 24 3d
       0.046847176 -0.14492287 -0.13222213 0.040273532
000140 15 5a 2a 3d 1c f7 a9 3d bc b8 f6 bd fa c0 05 be
       0.041589815 0.082990855 -0.12046954 -0.13061896
000150 d9 0c da 3d 70 9c 8a bd 13 49 27 bc 1e 06 75 bd
       0.10646982 -0.06768119 -0.010210293 -0.059820287
000160 4b 1a f0 bc 15 7e aa bd 13 2c dd bd c5 03 8b 3d
       -0.029309412 -0.083248295 -0.10799422 0.06787828
000170 33 da 17 bd 65 0f 0f bd 4f 57 ef bd a8 55 4e 3d
       -0.037073325 -0.03492679 -0.11686575 0.050374657
000180 6f 46 ba 3d 82 58 af bd c1 31 9f 3c 4d e5 15 3e
       0.090954654 -0.085618034 0.019432904 0.14638253
000190 1e 88 06 be 00 31 c5 bd 62 4a ab bd 90 70 35 3d
       -0.13137862 -0.09628487 -0.08363797 0.0442968
0001a0 78 7b 08 be ad 1c c3 bd 14 4c c4 3b da 52 da bc
       -0.1332835 -0.09526954 0.0059905145 -0.026650835
0001b0 de 5f d4 3d ff 38 cd bd dd 7d 3e 3d d4 85 e2 3d
       0.10369848 -0.10020637 0.04650675 0.11060682
0001c0 23 ca f3 3d 0a fb 09 be 05 52 85 3d 61 7a d4 bd
       0.11903789 -0.1347467 0.065097846 -0.103749044
0001d0 a7 15 f5 3d f1 ad 8f bd 1d 3c c8 3b 5b a8 14 3e
       0.119670205 -0.070155986 0.0061106817 0.14517348
0001e0 6b 4a d0 bd ed d4 0c 3c ef 8e fd 3c fe 48 15 3e
       -0.10170444 0.008595687 0.030951945 0.14578626
0001f0 db aa d7 3d ce 7c 90 bc 2a da c5 bc 43 55 ce 3d
       0.10530635 -0.017637637 -0.02415188 0.10074856
000200 a2 77 f2 3b 96 b6 e9 3c 3a 45 1d be f2 11 f3 3c
       0.0073995152 0.028529447 -0.15358439 0.029671643
000210 90 f7 86 3d 0d 6c e3 bd c2 3b 00 3e a9 2f 2c bd
       0.065901875 -0.111045934 0.12522796 -0.04203764
000220 ea 4f df 3d 6e b9 a9 bc 5a b3 8a 3d 77 fb af 3d
       0.10903914 -0.020718303 0.0677249 0.08592885
000230 a3 9e d5 bd 1f 8b cf bd 0f cf 0e be 1a bd 5b bd
       -0.10430648 -0.10133957 -0.13946174 -0.05364714
000240 a7 4d 22 bd db 8f b2 3c 2b a2 dc bc e9 25 a0 bd
       -0.039624836 0.021797111 -0.026932796 -0.07819731
000250 e4 eb 00 be 7c c6 f6 bd 64 c9 87 3d 11 a2 f7 3d
       -0.12589985 -0.12049577 0.06630209 0.120914586
000260 d2 25 ad 3d 72 0f 71 3d 0c bf 0a 3c e8 66 e9 3d
       0.08454479 0.05885262 0.008468401 0.11396581
000270 ee 1c ad 3d 63 2e af bd a1 b7 cf 3d b3 8a 94 bd
       0.084527835 -0.085537694 0.10142446 -0.07253017
000280 9d 15 ac bc 57 f3 c6 3d e6 f7 19 be ac ea a4 bd
       -0.0210064 0.09714382 -0.15035972 -0.080525726
000290 c4 9e ab bd bd 38 22 3d 13 43 0d be de 42 a0 bd
       -0.083798915 0.03960489 -0.13795118 -0.07825254
0002a0 18 0f 43 3b 54 67 ef 3b 0b 39 80 bc dd 50 67 bd
       0.0029763635 0.007306019 -0.0156522 -0.0564736
0002b0 d0 e4 35 3d b5 3e 36 3e 8c 6e c5 3d c6 67 04 3d
       0.044407666 0.17797358 0.09640226 0.03232553
0002c0 92 29 10 be 2b f8 91 3d 16 90 3f 3b 1c ef 19 3d
       -0.14078358 0.071274124 0.002923017 0.037581548
0002d0 c6 da 21 bd 70 f5 b3 3d 69 43 78 3c e1 62 ee 3d
       -0.03951528 0.08787048 0.015152791 0.116399534
0002e0 2e 56 f8 3d 75 08 2a 3d 78 ee dd 39 6c 86 76 3d
       0.121258125 0.04151197 0.00042330078 0.06018679
0002f0 59 f2 f3 3d f1 e8 c0 bd 47 8a 7d 3d 47 61 c3 3d
       0.119114585 -0.0941943 0.06189945 0.095400386
000300 c2 78 3f 3e 7f 2e 31 3e 7e 5e 32 3e 10 21 90 bc
       0.18698409 0.17302893 0.17418858 -0.01759389
000310 b2 79 0b 3d ed d9 8b 3d 67 00 e6 bd 1e cf 5c 3d
       0.034051605 0.068286754 -0.112305455 0.05390846
000320 08 60 ae 3d fe b9 a3 bd ad 97 04 bd b5 c5 af bc
       0.0851441 -0.079944596 -0.03237121 -0.021456579
000330 44 06 92 3d 85 3a e1 bd e4 0b 8e 3d c6 37 7d 3c
       0.07130101 -0.1099749 0.06935862 0.015455192
000340 50 a0 2d 3d 8a 3f 26 bd 51 5a f1 3d f1 76 04 be
       0.042389214 -0.04058794 0.117848046 -0.12935998
000350 7b b5 02 be b3 cd 60 bd 40 a8 4a 3c 7c b6 58 3d
       -0.12764542 -0.05488367 0.0123692155 0.052908406
000360 5f c4 08 3e 12 47 ae bd a0 22 e7 bd d4 87 03 be
       0.1335616 -0.08509649 -0.11285901 -0.12844783
000370 87 e5 d3 bd 55 d8 02 3e 14 a3 78 3d 2b d1 8f 3d
       -0.10346513 0.12777837 0.0607024 0.070223175
000380 09 1e 16 3e 7b 84 72 3d 7b 4d b8 bd 73 fd 55 3d
       0.14659895 0.059208374 -0.08999153 0.05224366
000390 ba 93 df bd cd 3e 15 3b 6d 01 ad 3d 47 4b d2 3c
       -0.109168485 0.0022773028 0.084475376 0.02567066
0003a0 9f 9a c3 bc 05 2d 48 3b 1c 7c 30 3d 0d 89 d3 3d
       -0.02387744 0.0030544412 0.04308711 0.10328875
0003b0 77 c6 01 be d4 75 b5 3b c9 6c 9c 3d 0f 85 d4 bc
       -0.12673365 0.005537728 0.076379366 -0.025942354
0003c0 7a b8 00 3e 27 56 d2 bb 00 75 11 3b bb 69 16 3d
       0.12570372 -0.0064189616 0.0022194982 0.036721926
0003d0 d5 d9 8e bc 0c ab 11 3e c5 03 2b 3d 0b 68 0d 3d
       -0.017437855 0.14225405 0.04175164 0.03452305
0003e0 85 ce 51 bd c0 e9 e4 bc fc 64 cc bd 33 da fb bc
       -0.051222343 -0.027943492 -0.09980199 -0.030743694
0003f0 0d 83 af 3d 8d 14 89 bd 8b e2 98 3d 9d 9f f7 bd
       0.08569918 -0.06693373 0.07465085 -0.12090991

conv1.0.bias f4 [8]
000000 1f a9 82 bd a9 aa e6 bd 2f 84 dd 3d 9e a2 a4 bd
       -0.063799135 -0.112630196 0.10816228 -0.08038829
000010 45 dd 0d 3e d3 25 c1 bd 99 18 dc 3d 4a ab 2d 3d
       0.13853939 -0.094310425 0.10746879 0.042399682

conv1.1.weight f4 [8]
000000 d6 81 80 3f ec d2 7e 3f bb 0b 7e 3f 6a 68 7e 3f
       1.0039623 0.9954059 0.9923665 0.99378073
000010 7c 6b 80 3f fd a7 82 3f 92 d7 81 3f 8b 1a 79 3f
       1.0032802 1.0207516 1.0143912 0.97306126

conv1.1.bias f4 [8]
000000 47 56 7f bc 3c 38 17 bc a4 ef 08 bd 73 5e ad 3c
       -0.015584535 -0.009229716 -0.033431664 0.021163201
000010 39 81 10 bd d9 30 cc 3c d4 37 05 3d 0c c8 ee bc
       -0.035279486 0.024925636 0.032523945 -0.029148124

conv1.1.running_mean f4 [8]
000000 d6 a7 62 bd 7b 41 fd bd e0 ce de 3d af 60 e4 bd
       -0.055335842 -0.12366005 0.10879302 -0.111512534
000010 83 20 51 3d eb 6a ea bd ff 7c 49 3e ad 6d 4b 3d
       0.051056396 -0.11446174 0.19676588 0.04966514

conv1.1.running_var f4 [8]
000000 97 05 39 3d 34 9f 2d 3d 87 ad 73 3c 53 43 a6 3d
       0.045171347 0.042388156 0.014872915 0.0811831
000010 ee 1c a6 3d 4e 13 ee 3c 6e 23 aa 3d 55 e8 1e 3c
       0.08110987 0.02906194 0.08307539 0.009698947

conv2.0.weight f4 [16, 8, 4, 4]
000000 ad 1d 6c 3d 79 f7 0e 3d b4 91 90 bd eb a2 53 bd
       0.05764549 0.034903977 -0.07059041 -0.051669043
000010 1e 54 89 3d 4d 8b 9d 3d 81 30 8a bc 19 f5 67 3d
       0.06705497 0.07692585 -0.016868832 0.056630228
000020 0a d2 ff bc 4c ae 2a bd a9 01 82 3d 0d c8 8b 3d
       -0.031228084 -0.04167013 0.06347973 0.06825266
000030 b5 4a ef bc de 0b 66 3d 6e cc 2d 3d fe 77 bb 3d
       -0.029210428 0.05616366 0.042431287 0.09153746
000040 6c 33 2f 3d 24 33 01 bc 43 ce cb 3d c2 06 90 3d
       0.04277365 -0.007885728 0.09951451 0.07032539
000050 b4 43 43 bd 93 6d 26 ba cb bb 5c bd 6b 47 9f 3c
       -0.04767199 -0.00063487253 -0.05389003 0.019443234
000060 d8 e2 8b 3d 26 62 58 bd 95 ae 39 bd 8a 5b a3 bc
       0.068303764 -0.052827977 -0.04533251 -0.01994111
000070 45 37 19 bd 35 73 29 3d 93 39 eb 3d fe 1e d6 3d
       -0.037406225 0.041369636 0.11485591 0.1045513
000080 4e 36 d9 bc 79 8f 7d bd d2 38 50 bd c5 c1 a0 bc
       -0.026515152 -0.061904404 -0.050835438 -0.019623647
000090 b1 7d 98 3d 21 6d 1a 3d c7 06 a7 3a 98 34 8f 3d
       0.07445849 0.03770173 0.0012743109 0.06992453
0000a0 51 57 6b 3c 0b b1 3d 3d 83 c9 b0 3d e3 80 1a bd
       0.01436408 0.04631142 0.08632185 -0.037720572
0000b0 07 20 38 3d a9 a5 17 3d 2f 1a 55 bd 7e 4a 12 bd
       0.04495242 0.03702322 -0.052026924 -0.035715573
0000c0 b8 dd 00 bd 63 70 1d bd 4b 55 03 3d 2f 78 22 bc
       -0.031461447 -0.03843726 0.032063764 -0.009916349
0000d0 4d 93 20 bd 5d ab 88 bd 88 ff ac 3d 0d 3a 1c 3c
       -0.039202977 -0.0667331 0.08447176 0.009535325
0000e0 0b 61 51 3d 05 a0 ee 3c 5f e2 20 3d 83 cb 5d 3c
       0.051117938 0.029129038 0.039278384 0.0135372905
0000f0 0b f2 89 bd 8a 2d 91 3d 91 7d 81 bd 44 1a 98 ba
       -0.06735619 0.07088764 -0.06322778 -0.0011604507
000100 c2 42 25 bc 41 a1 6b 3d b9 31 1a bd 89 f4 75 3d
       -0.010086717 0.05752683 -0.037645075 0.06004766
000110 94 6e 56 bd ab 1a d1 bc 43 87 16 3c a3 06 97 3d
       -0.05235155 -0.025525412 0.009187522 0.07374313
000120 8e 60 5e 3d ff c5 8e 3d 5e 02 dc bc 28 e0 da 3d
       0.0542913 0.069713585 -0.026856598 0.10687286
000130 87 11 85 3d 2a 19 c0 3d 10 22 a2 3d 7f 13 3b 3c
       0.06497484 0.093798 0.07916653 0.011418222
000140 1d 29 38 bc 81 49 1c bc b9 f6 90 3d 73 83 81 3d
       -0.011240271 -0.009539009 0.070783086 0.063239
000150 67 4a 89 3d 93 16 27 3c d7 95 93 3c 60 87 d9 3b
       0.06703644 0.010198253 0.018015785 0.0066384524
000160 09 51 0f 3d 0b 60 78 bd 8e da 3e bd cd ef 27 3d
       0.03498939 -0.06063847 -0.04659515 0.041000176
000170 a7 b9 98 3d 54 f8 1e 3d 40 e7 02 bd 9f 51 f8 bc
       0.074572854 0.038811043 -0.03195882 -0.030312357
000180 39 ee 9d bd 4d 76 14 3d fa 93 b4 3c 16 02 c3 3c
       -0.07711453 0.036245633 0.022043217 0.023804706
000190 45 54 77 3d d5 5c fd bc 37 5f a4 bb 0a 19 3d bd
       0.0603831 -0.030928055 -0.0050162333 -0.046166457
0001a0 6a cf 29 3d f5 0b 18 bd 4d fe c5 3d 67 cb 5f bb
       0.04145757 -0.037120778 0.09667645 -0.0034148337
0001b0 aa 85 40 3d 08 f6 99 3d ee ae 28 bc d7 2c d9 3c
       0.047002472 0.0751763 -0.010295613 0.02651064
0001c0 80 c6 82 bc a5 9b cb 3c 2e a3 8e bd 0b 8c 86 3d
       -0.015963793 0.02485449 -0.06964718 0.0656968
0001d0 da dd a1 bd 6d ce 15 3d c2 55 ba 3b 97 e1 ac bc
       -0.07903643 0.036573816 0.0056864927 -0.021103663
0001e0 f8 0e 4b bd c5 75 e0 3c e9 49 72 bd 17 68 57 bd
       -0.049574822 0.027399907 -0.059152517 -0.052589502
0001f0 d3 d3 07 bd 91 d8 77 3c 73 fa 56 bd 66 db 21 bb
       -0.033160996 0.015127317 -0.05248494 -0.0024697422
000200 5e 63 28 bd 64 37 b0 bc da 70 75 3d a0 0f 88 3d
       -0.04111039 -0.021510787 0.059922077 0.06643605
000210 f5 8e 94 bd 29 4f cf 3b 5b c4 40 bd e5 5e bc bd
       -0.072538294 0.0063265753 -0.04706226 -0.09197787
000220 87 55 b5 3d dc 9f 28 3d 92 4c 72 3d af e4 18 bc
       0.08854204 0.04116808 0.059155054 -0.009331866
000230 8d 1e 9f bd f9 e4 4b 3d 4b 31 b9 bc 03 df f9 bb
       -0.07769499 0.049778912 -0.022606513 -0.007625462
000240 ab 1a 69 3b b0 8f 8d 3d 40 f0 da bc 02 c9 20 3d
       0.0035568874 0.06912172 -0.026725888 0.039254196
000250 bf 84 fe 3c 61 75 89 3c 76 29 33 bd 25 cc d9 3c
       0.031069158 0.016779603 -0.043740712 0.026586602
000260 f6 57 6b 3d 7f ca 52 3d 1c 5d 60 3d 7d 2b b6 3c
       0.057456933 0.051462647 0.054776296 0.022237534
000270 c2 1e 14 bd 50 a6 49 bc ee 6f e2 3c 09 c1 3c 3d
       -0.036162145 -0.012307718 0.027641263 0.04608253
000280 13 d7 b6 3d 15 3f 95 3d 33 a6 8d 3c 7b 9f ed 3c
       0.08927741 0.072874226 0.017291164 0.02900671
000290 c9 2d 15 bd ef 30 8d bd f4 8f c8 bd fc a3 91 bd
       -0.036420617 -0.06894099 -0.09793082 -0.07111356
0002a0 da 10 09 be d4 5b 0b 3c 4f f6 ce bb ac 29 bd bd
       -0.13385335 0.00850578 -0.0063159834 -0.09236464
0002b0 3a da 98 ba 6e a2 9b 3c 22 dc 4d bc f6 0e 8f bc
       -0.0011661716 0.018998351 -0.012564691 -0.017463189
0002c0 a4 67 ba 3d ab 50 8e 3a 3c f2 a0 3d 30 8b b0 bc
       0.09101799 0.0010857781 0.078587025 -0.021550745
0002d0 01 f2 ff bb b2 90 06 bd 6f 25 d1 bb b0 7e 8f 3d
       -0.0078108315 -0.032852836 -0.0063826363 0.070065856
0002e0 c5 a0 3a bd 32 4d a5 bd 91 b5 b3 3c f2 16 08 3d
       -0.045563478 -0.080713645 0.021937164 0.033225007
0002f0 1e 19 9f 3d f2 9f 10 bd c9 b7 57 3d b1 a3 fd 3b
       0.077684626 -0.035308786 0.052665506 0.007740461
000300 4a c7 81 3b 6e 1e 4d bc 42 57 92 3b 69 a1 72 3c
       0.0039605247 -0.012519462 0.0044659683 0.014808991
000310 cb 56 c7 3c 98 f1 16 37 d5 74 64 bd b8 14 f4 3c
       0.024333378 8.996947e-06 -0.055775482 0.029795036
000320 15 2f 7b 3d 7a 70 8d 3d 50 67 c2 bc 91 4c 6e bd
       0.061324198 0.06906219 -0.023730904 -0.05817849
000330 4c 7d 8c bd aa f5 54 3c bb 24 a1 bd 08 be 8f 3c
       -0.06859836 0.012998024 -0.07868334 0.017546669
000340 a8 79 c5 bc 0f 39 c2 3d 91 59 5e 3d 30 d4 6e 3d
       -0.024105862 0.09483539 0.054284636 0.058307827
000350 6e 73 6f bd 2c 33 b0 3d 04 c9 b2 3d f5 9b c0 3d
       -0.05845969 0.0860351 0.08729747 0.094047464
000360 1c ec cf 3c c8 e8 55 bd 9b 3e 2f bd 6a db 66 3d
       0.02538114 -0.05222395 -0.042784315 0.056361593
000370 4b 4a a1 bd 49 e6 e3 bd 73 fb f5 bd 5a 74 97 bc
       -0.078754984 -0.11127908 -0.12010851 -0.018488098
000380 dc 12 9f 3d 16 cd fb 3c 43 a6 73 bd 67 0b 25 3d
       0.07767269 0.030737441 -0.05948473 0.040294077
000390 46 34 f6 bc 8c cb 07 bb d1 47 2c 3d 59 b5 3a bc
       -0.030054223 -0.0020720689 0.042060677 -0.011395776
0003a0 e1 19 38 bc 0d 3b 94 bb 0f 59 72 bd 1e c6 86 3d
       -0.011236639 -0.004523641 -0.059166964 0.065807566
0003b0 c0 16 b2 3d 79 a6 2d 3d 8b cf b4 bc 46 a3 cc 3c
       0.086957455 0.04239509 -0.02207162 0.024980199
0003c0 06 68 bf 3c a3 5b 2e 3d 3b 87 a5 3d ce 54 85 bc
       0.023365032 0.04256786 0.08082434 -0.01627579
0003d0 43 9e 54 3d ec 85 e6 bb 1a f7 b1 3d 9d f8 3c 3d
       0.051908743 -0.0070350077 0.08689709 0.046135534
0003e0 8f 9f da 3c 06 85 77 bc 23 07 1f bd 79 c3 82 bc
       0.026687412 -0.015107399 -0.038825165 -0.01596235
0003f0 a1 57 3a bd 86 2d 8f bc 7b 6e b2 bc 6d ac d6 bc
       -0.045493726 -0.017477762 -0.021781197 -0.026205266

conv2.0.bias f4 [16]
000000 6e d9 3c 3d a0 a4 42 3d 39 3f 92 bd af e1 46 3d
       0.046105795 0.04752028 -0.07140965 0.048555072
000010 f5 59 67 3d c2 c9 91 bd bb c7 69 3d 96 74 e7 bc
       0.056482274 -0.071185604 0.057075243 -0.028253835
000020 85 25 10 3d 43 71 ce 3b 42 ef d2 3c 23 69 1b 3d
       0.03519203 0.006300123 0.025748853 0.037942063
000030 d8 77 8f bd 5b 31 a2 3d 9b bc 40 bd c8 41 61 3d
       -0.0700528 0.0791957 -0.04705487 0.054994375

conv2.1.weight f4 [16]
000000 1a fd 7d 3f 44 d6 7d 3f 84 bd 83 3f ad 81 7f 3f
       0.9921433 0.9915507 1.029221 0.99807245
000010 fb e5 83 3f 4c 4b 7f 3f 46 cd 84 3f d2 05 7b 3f
       1.030456 0.9972427 1.0375144 0.98055756
000020 78 1a 80 3f d9 69 80 3f ba e4 7f 3f 21 56 7d 3f
       1.0008078 1.0032302 0.99958384 0.9895955
000030 5a 84 84 3f bc d1 76 3f ff 71 80 3f 49 03 7e 3f
       1.035289 0.9641378 1.0034789 0.9922376

conv2.1.bias f4 [16]
000000 76 ce 58 bd 5c de dd bb 45 c7 3c 3c e1 16 e8 3c
       -0.05293127 -0.006770892 0.011522119 0.028331222
000010 49 74 8b 3d 23 eb 13 bc b2 56 1a 3d aa ac 77 3c
       0.06809289 -0.009028229 0.037680335 0.01511685
000020 3e 20 8f 3c 92 16 6b 3c db 76 73 bc ec e2 82 3b
       0.017471429 0.014348643 -0.01485988 0.0039943364
000030 ce d1 bc 3c 5c 24 e8 bc d9 23 e6 3c a6 ea fa bb
       0.023049261 -0.02833765 0.028093265 -0.007657367

conv2.1.running_mean f4 [16]
000000 d1 a0 1d 3f 87 21 9c 3e fa ab 01 bf 4d 58 0d bf
       0.6157351 0.3049433 -0.5065304 -0.5521286
000010 2c d0 9e be 11 cb 15 3e 95 7b 13 bf 2b af 38 3e
       -0.31018198 0.14628245 -0.57610446 0.18035571
000020 0d ec 1d 3e ba 2a 81 3b c0 ea f9 3e f5 46 6b 3e
       0.15422077 0.003941861 0.48811913 0.22976287
000030 32 4c b6 bc e7 47 06 3f a8 ba 12 bf 05 ca a9 3e
       -0.02225313 0.52453464 -0.57316065 0.3316194

conv2.1.running_var f4 [16]
000000 d4 e7 2c 3e 9f ae 80 3e ea 31 1d 3e a8 e2 47 3e
       0.1688531 0.25133225 0.15351072 0.19520056
000010 26 f0 ee 3d 0a cf 41 3e 71 6a 85 3e e2 f3 0a 3e
       0.116668984 0.18926635 0.2605777 0.13569596
000020 c5 3e 10 3e 81 a5 0f 3e a5 34 88 3e 67 9a cf 3e
       0.14086445 0.14027978 0.26602665 0.40547487
000030 08 dd cb 3d c1 41 06 3e 06 ee 23 3f 7f 4d 2f 3e
       0.09954268 0.1311102 0.6403507 0.17119406

conv3.0.weight f4 [32, 16, 4, 4]
000000 17 c6 89 3d 9c 18 77 3d b1 93 18 3d eb 9c 93 3d
       0.06727236 0.060326204 0.037250225 0.07207664
000010 81 1d 78 3d 4f 7f 1a 3d f4 51 1a 3d 29 2d 89 3d
       0.060575012 0.037719067 0.037675813 0.06698067
000020 8b db 11 3d a0 3f 48 3d dd cc 6b 3d 25 42 5e 3d
       0.035609763 0.048888803 0.05756842 0.0542623
000030 cc 20 e8 3c 46 fd 89 3d db aa 77 3d 4e 87 b7 3d
       0.028335951 0.06737761 0.060465675 0.08961354
000040 a6 c9 f3 bc 15 69 53 3d c9 20 f8 3c ca 4c 9b bc
       -0.02975924 0.051613886 0.03028907 -0.018957514
000050 53 d4 fb 3c 82 7e 7c 3d 16 79 0c 3d d0 45 21 bd
       0.030740893 0.061644085 0.034295164 -0.03937322
000060 7d 0a 61 3d aa f0 dd bc 5b e1 aa 3b 06 46 f6 bc
       0.054941643 -0.027092297 0.0052148527 -0.030062687
000070 d8 69 2b 3c 84 5c 0e bd 44 c3 43 3d 9e de cd 39
       0.010462247 -0.0347562 0.04779364 0.0003926651
000080 6d 8d b1 3c ba d2 c1 bb bb 8e 19 3d 3d 95 f2 3c
       0.021673882 -0.005915013 0.037489634 0.029612178
000090 3e d5 4d 3d 35 a9 6a 3d 7b da 89 3b 81 04 a3 bc
       0.05025219 0.057290275 0.004206953 -0.019899609
0000a0 45 2a 81 3d 6c d2 00 3d 93 ed 0c 3d b6 07 0b 3c
       0.063068904 0.031450674 0.034406256 0.008485725
0000b0 e1 12 41 bd ba 0a d7 bc e9 7e fa bb 9d dd f4 3c
       -0.047137145 -0.026250232 -0.0076445234 0.02989083
0000c0 ea ce 4b bd d1 b5 8f 3c 34 07 e9 bc 6b f7 c2 bc
       -0.049757876 0.017542752 -0.028445818 -0.023799619
0000d0 22 65 ad 3a 9a 8f 9d bc d3 0f 7e 3c 80 96 e1 bb
       0.0013228992 -0.019233514 0.0155067025 -0.006884396
0000e0 54 7c da 3c 98 0a 09 3d 7b fc 42 3d 6b 22 55 bd
       0.026670612 0.03345737 0.047604065 -0.052034777
0000f0 e8 77 fe 3b 26 21 16 bd 09 a1 8e 3c a1 92 c4 3c
       0.007765759 -0.036652707 0.017410772 0.0239957
000100 7a a6 ec bc 16 33 98 bd 3c 43 54 bd c1 5d ed bc
       -0.028887976 -0.07431619 -0.051821932 -0.02897537
000110 69 dd 3b bd 64 e2 21 3c 1e 43 5d 3d 29 f9 e7 3c
       -0.04586545 0.009880636 0.054019086 0.028317051
000120 85 8a f9 3c 4b 2e 0e 3c 9d 92 fc 3a 6b b5 e0 3c
       0.03046156 0.008678029 0.0019269768 0.027430257
000130 f2 eb d6 bb 2a 7f 41 3b 40 c5 0f bd 9f b4 0d bd
       -0.0065588886 0.0029525259 -0.03510022 -0.03459608
000140 88 51 f6 3c a1 ed 1b 3c 03 98 b4 3d b5 3e ae 3d
       0.030068174 0.009517104 0.088180564 0.08508054
000150 44 20 36 3d 0d a0 4a bb da e9 51 ba 37 33 98 3c
       0.044464365 -0.0030918152 -0.0008007564 0.018579109
000160 09 5f 02 bd 81 66 1b 3d 52 54 35 3c 38 40 ec bb
       -0.031828914 0.037939552 0.011067467 -0.007209804
000170 ae b1 2b bb 90 3d 57 bd fc 4e 5d 3d f2 33 df 3c
       -0.0026198435 -0.052548945 0.054030403 0.02724645
000180 c5 21 2f bc fe 09 05 bd ab ff e2 bc 62 8c 17 bd
       -0.010689204 -0.032480232 -0.027709803 -0.036999114
000190 2c c6 81 3d 4f 94 18 3b e7 8a b1 3d 7c 4e 09 3d
       0.063366264 0.0023281758 0.08669072 0.033522114
0001a0 0e 2c 4f bc ed 8a 93 3b 08 19 5f bc 6c eb 8d bd
       -0.012644781 0.004502645 -0.013616808 -0.06929669
0001b0 2e 25 3a bc 4c 41 58 3c 7f bf ea 3c be 95 84 bc
       -0.011361403 0.013199162 0.028655766 -0.016184684
0001c0 06 7a 36 bd d3 45 8a 3c fa d5 8e 3b 82 04 7e bc
       -0.044549964 0.016878998 0.004359004 -0.015504004
0001d0 cc 16 4a 3d 16 7f 33 3d 1c ac b1 bc e8 a1 4e bd
       0.049338147 0.04382237 -0.021688513 -0.050447375
0001e0 1c 3f d0 ba 79 d3 4e 3d ac 7b 5a 3d 92 34 02 bd
       -0.0015887949 0.050494645 0.0533406 -0.031788416
0001f0 7c 1e ba 3b c0 2f 44 bc cf e7 54 3c 44 92 6d 3d
       0.0056799036 -0.011974275 0.012994721 0.058000818
000200 1a 05 05 3b 85 d9 81 3c cb c2 92 3b a0 56 a9 3c
       0.002029723 0.015850792 0.0044787875 0.020671189
000210 34 0b 85 bd ee cf 0c 3d 86 7b 1a 3d 11 8c 3b 3d
       -0.064962775 0.034377985 0.037715457 0.045787875
000220 a9 08 2e bc 95 e8 4f bd d1 67 09 3d 89 ee 58 3d
       -0.010622182 -0.050758917 0.033546273 0.05296186
000230 c3 77 5d 3c 9d 97 82 3b 2b d6 ef 3c 9a 65 b4 3c
       0.013517323 0.003985359 0.029276928 0.022021104
000240 38 d9 6e bd a9 47 72 bd f4 c5 40 bd fe a2 21 bd
       -0.058312625 -0.05915037 -0.047063783 -0.039462082
000250 25 ff 91 39 20 0c 8a bd 2d f9 00 bd 31 ab 91 bb
       0.00027846653 -0.06740594 -0.031487633 -0.0044454564
000260 26 45 4d bc 4d 79 aa 3c 2c b8 be bc 57 51 a8 bb
       -0.012528693 0.020809794 -0.02328118 -0.0051366496
000270 fe c8 91 bc 45 c3 e4 bc db a1 31 bd a3 0f 7a bc
       -0.017796036 -0.027925143 -0.043367248 -0.015262517
000280 27 a2 0a 3d 8b e8 f9 3c e9 27 ad 3d 5f b6 db bb
       0.033846047 0.030506393 0.08454878 -0.00670509
000290 46 55 8d 3d 4b 45 92 3d 81 ea 44 3d aa d9 0b 3d
       0.0690103 0.07142123 0.048075203 0.034143128
0002a0 30 1b 0a 3d 8e 49 5e 3d 5d 24 85 ba 88 9f bd 3c
       0.033717334 0.054269366 -0.0010157932 0.02314736
0002b0 24 da 59 3d ee 41 ad 3c 30 ac 8b bc 96 03 c1 bc
       0.05318655 0.021149602 -0.017049879 -0.02356128
0002c0 61 02 0c 3d 3d dd 5e bd c3 71 0f bd 62 b6 81 3c
       0.034181956 -0.054410208 -0.0350206 0.015834037
0002d0 37 b4 09 3d 1d 09 0c bd b6 0c 46 3d 3b 73 c5 3c
       0.033619132 -0.03418838 0.048351966 0.024102798
0002e0 63 c7 22 3c 3d aa 12 3d 0b 7d c5 bc 7f 96 f7 bb
       0.009935233 0.035806883 -0.024107477 -0.0075557823
0002f0 e4 50 21 3d 26 d6 2d 3d fa ab 35 bd 56 16 d5 3c
       0.039383784 0.042440556 -0.044353463 0.026011627
000300 f2 23 49 bd bb 0c 38 bd 76 0f af bc 64 d9 6e bd
       -0.049106546 -0.044934016 -0.021369677 -0.05831279
000310 81 4d 8c bc ec 93 01 3d 03 78 53 bd 54 ef d6 bc
       -0.0171268 0.03163521 -0.051628124 -0.026237167
000320 6b 17 b3 3c 98 e7 9e bb a7 74 48 3c 9e fc 83 bc
       0.021861752 -0.0048493855 0.012234843 -0.016111668
000330 d6 cf 37 bd b9 5a 04 3c 5a f1 a3 bb fb 0d 20 3c
       -0.044875942 0.008078271 -0.0050031366 0.009768958
000340 be 7f 3e bd 01 73 3a 3d df e3 65 3d 3d 91 40 3d
       -0.046508543 0.045519833 0.056125518 0.04701351
000350 df f2 da bc 64 19 8d 3b 50 26 cf bb cf e0 1d bb
       -0.026727138 0.0043060053 -0.006321706 -0.0024090295
000360 c2 80 af bc ba d1 2d 3d ff 1f 08 3d f1 2d 0c 3d
       -0.021423701 0.04243634 0.03323364 0.0342235
000370 c5 c5 67 3c 41 4f 22 bc aa c5 4e 3d a0 ab 13 bd
       0.014146273 -0.009906591 0.050481476 -0.036052346
000380 41 a7 e8 bb 61 30 ec bc 38 bf 7f bd 48 27 87 3c
       -0.0071000163 -0.028831663 -0.06243822 0.016498223
000390 5f 65 19 3d 8f 09 82 3c 7e a6 e6 bc 6c cf 58 bc
       0.03745019 0.015873699 -0.028155562 -0.013233047
0003a0 54 38 fe 3c 04 80 15 3d ae ce f1 bc 44 3c 12 3d
       0.031032719 0.03649904 -0.029517498 0.035702005
0003b0 99 8c a7 3c fb cf 81 3d 9d 9f 44 3d db c4 21 3d
       0.020452784 0.06338497 0.04800378 0.039494377
0003c0 25 11 c0 bc f9 0b 58 bc 50 73 1f bc 3d 7d f5 bc
       -0.023445675 -0.013186448 -0.0097320825 -0.029966945
0003d0 be 18 7e 3d bd 28 59 3c 5e 52 0e bd ba 82 f0 3b
       0.062035315 0.013254342 -0.03474652 0.0073398026
0003e0 af 39 14 bd 3c e4 62 bc b3 b1 43 bd e4 f5 07 3d
       -0.036187824 -0.013848361 -0.04777689 0.033193484
0003f0 af 55 4f bc 2c 92 58 3c ea 23 fc 3c 7a e7 d3 bb
       -0.012654706 0.013218444 0.030778844 -0.006466803

conv3.0.bias f4 [32]
000000 f3 b2 de 3c e7 70 f0 3c 78 50 34 3c 50 ab b7 bb
       0.027184939 0.029350711 0.011005513 -0.005605139
000010 5d 50 6e bc b6 6e 9a 3c 75 f0 7d bd d1 b4 09 3c
       -0.014545527 0.01885162 -0.061996896 0.008404926
000020 c9 06 23 bd 4f 0a 29 3d 02 5a d8 3b 32 d5 94 3c
       -0.039801393 0.041269597 0.0066025266 0.018168066
000030 74 39 3d 3a 42 b0 55 3d a2 6c 33 bd 8b 81 4e bd
       0.0007218339 0.052170046 -0.043804772 -0.05041651
000040 9b 17 5e bd f7 e7 ed 3c 7a 39 ae bc 3e 25 65 3d
       -0.05422173 0.029041274 -0.021267641 0.05594372
000050 73 9d 7e bd 9b 4c 08 bd 88 0b 2d 3d a2 9f 9a 3c
       -0.062161874 -0.03327618 0.042247325 0.018874947
000060 58 3b a6 bc f9 1b 59 3d fb 8a 34 3c ac 5e 75 3c
       -0.02029197 0.053005192 0.011019464 0.014976185
000070 3a e6 70 3d df 3a 3f bd e3 d9 08 bc 53 2c 5c 3c
       0.05881331 -0.046687003 -0.0083527295 0.013438302

conv3.1.weight f4 [32]
000000 0b 1d 82 3f 4a 16 7f 3f 84 03 81 3f 97 2e 79 3f
       1.0165113 0.99643385 1.0079198 0.97336715
000010 b4 f8 7c 3f d1 37 82 3f dd a8 7b 3f 9d 0c 7f 3f
       0.9881699 1.0173284 0.9830454 0.9962862
000020 46 7e 84 3f e9 e3 80 3f 84 9b 80 3f 82 00 80 3f
       1.0351036 1.0069553 1.004746 1.0000155
000030 39 c5 77 3f a5 88 82 3f ac 71 83 3f 6b 60 7d 3f
       0.9678531 1.0197951 1.0269065 0.9897525
000040 36 0b 81 3f de 33 7f 3f 8f 31 7c 3f 4d 26 82 3f
       1.0081546 0.9968852 0.9851312 1.0167938
000050 19 4c 84 3f 5b b0 81 3f 3f 12 7c 3f cb 2c 7f 3f
       1.0335723 1.0131944 0.9846534 0.99677724
000060 dd 56 79 3f cd 84 80 3f 95 f1 7b 3f 71 69 83 3f
       0.9739817 1.0040528 0.984155 1.0266553
000070 23 78 7c 3f 37 44 7f 3f 65 6d 80 3f 84 c6 7e 3f
       0.98620814 0.9971346 1.0033385 0.9952166

conv3.1.bias f4 [32]
000000 49 e8 80 bd af 28 05 bb 48 82 3a bd 47 d7 a9 bc
       -0.06294305 -0.0020318439 -0.045534402 -0.020732535
000010 d2 b8 16 b9 d9 83 1c 3b d0 6f 72 bc 17 69 11 3c
       -0.00014373966 0.0023882298 -0.014797166 0.008875153
000020 c4 d1 2b 3d e9 48 ad 3c 7d 76 1a bc f8 be a2 bc
       0.041948095 0.02115293 -0.009427664 -0.019866452
000030 bd c3 a1 3c 57 06 ef bc e1 3f 97 3d 4f 63 4d 3b
       0.019746656 -0.029177828 0.07385231 0.003133971
000040 d9 d6 d8 3c 23 01 86 bc f9 4f ac bb 9e 23 69 bd
       0.026469635 -0.016357964 -0.005258557 -0.056918733
000050 db 0a 7f 3c 7b 6c ba bc b5 50 d5 bb 62 1a c9 3c
       0.015566553 -0.022756806 -0.006509865 0.024548713
000060 05 3a b2 3c fe 6e 82 b9 68 4e 8b 3b 65 c9 3a 3d
       0.021756181 -0.00024878228 0.00425129 0.04560222
000070 9f 41 41 3a 12 57 28 3b 43 4d 03 3c 14 63 bb 3c
       0.0007372144 0.0025686664 0.008014026 0.022874393

conv3.1.running_mean f4 [32]
000000 ea 3b 4f 3f 4a 85 8a 3d 98 09 f9 3c e9 c4 0e bc
       0.80950797 0.06763704 0.030400082 -0.008713939
000010 b6 6b 9e 3d d0 e9 5e bf 3e 96 47 be 02 b4 34 bd
       0.07735388 -0.8707552 -0.19490907 -0.04411698
000020 11 e1 9a be 38 97 a9 3e 3e 22 f2 3d b8 18 65 bd
       -0.30249837 0.33123183 0.118229374 -0.055931777
000030 ef b4 34 be a2 07 d9 3e e7 30 7b bf e8 cb 39 bf
       -0.17647146 0.42388636 -0.98121494 -0.7257676
000040 9e f1 65 bf 69 a4 1b 3e 1e 97 4b bc 21 04 1f bf
       -0.89821804 0.15199436 -0.012426166 -0.62115675
000050 8a 68 09 bf bd 70 7d 3e 32 ba db 3e 92 a5 b0 be
       -0.5367514 0.24750037 0.42915493 -0.3450132
000060 c0 73 23 bf 15 cd 14 be f3 3c 80 3d 4e 6d 11 bf
       -0.63848495 -0.14531358 0.06261625 -0.5680741
000070 4c c5 8e bd 5a 2d df be 53 21 18 bf e9 3d 1b bd
       -0.06971225 -0.43589288 -0.5942585 -0.03790084

conv3.1.running_var f4 [32]
000000 cb c7 50 3f f5 60 83 3e a7 d9 ef 3e e0 74 ef 3e
       0.8155486 0.2565991 0.46845743 0.46768856
000010 81 ce d5 3e 61 62 2a 3e 20 bd 89 3e e8 ed 75 3e
       0.41759112 0.16639091 0.26902103 0.24016535
000020 05 1f 68 3e 10 6f 89 3e aa ff a7 3e 16 88 f1 3d
       0.22668083 0.26842546 0.32812244 0.117935345
000030 a0 dc 88 3e 28 74 1f 3f fd a6 15 3f b3 36 1b 3f
       0.26730824 0.62286615 0.5845793 0.6063034
000040 ee f8 94 3e 48 80 de 3e a6 8d 89 3e 94 03 57 3e
       0.29096168 0.43457246 0.26865882 0.20997459
000050 f1 c8 24 3e 90 4f aa 3e a0 57 4c 3e 97 0c 11 3f
       0.16092278 0.33263826 0.19955301 0.56659836
000060 7a df 33 3e 9b d0 9a 3e 3a 40 8d 3e af 07 cd 3e
       0.17565718 0.30237278 0.27588063 0.40044925
000070 58 86 64 3e be 17 1f 3e d6 23 91 3e 21 bc 1f 3f
       0.22316873 0.155364 0.28347653 0.62396437

deconv2.0.weight f4 [32, 16, 4, 4]
000000 74 0b 50 bd 6d 2a 2c bd da bf 26 3d 2c 87 01 bd
       -0.050792173 -0.042032648 0.040710308 -0.03162305
000010 28 dd c9 3c 39 56 6b bd 3f 4c 7c bd 3b dc 0f bd
       0.024641588 -0.057455275 -0.06159615 -0.035122138
000020 9b de e8 bc cd 7d 38 3c 3f 99 92 ba 86 d3 1c 3c
       -0.028426459 0.011260462 -0.0011184587 0.0095719155
000030 55 79 e9 bc 05 ff 8d bd 06 21 5d 3d 2f c3 8c ba
       -0.028500238 -0.06933407 0.05398657 -0.0010739322
000040 9f 0d 6d bc 42 43 8a bd 31 e8 72 bc 77 0b 1e 3d
       -0.01446858 -0.0675111 -0.014825867 0.038585152
000050 1b 62 31 3d 04 90 4f 3d 22 37 73 3d ee 69 4c 3d
       0.04330645 0.050674453 0.05937875 0.04990571
000060 3f 2e 11 bd 28 80 11 3d 77 64 6f 3c 6e 7b 98 bc
       -0.035444494 0.03552261 0.014611355 -0.018613543
000070 27 4a d5 3c 90 d6 00 3c d3 84 69 bd 0b 69 76 3c
       0.026036335 0.007863656 -0.057011437 0.015039693
000080 15 14 34 3d 7b 13 7a bd 34 23 08 3d 68 ec 49 3d
       0.043964464 -0.061053734 0.033236697 0.04929772
000090 7f 13 15 3d 92 63 39 3d 72 c9 e0 bc bc 14 13 bd
       0.036395546 0.045260973 -0.027439807 -0.035908446
0000a0 50 d0 75 bb 58 5c 82 bc 97 87 97 3d 60 44 06 3d
       -0.0037508197 -0.015913174 0.073989086 0.03278005
0000b0 07 3f aa 3c 0c 4b f2 3c 1e d3 94 bc 3a 55 73 bd
       0.020782007 0.0295768 -0.018167075 -0.05940745
0000c0 8d 26 06 bd be 1d 5c bc fe 13 d6 3c 37 84 44 bd
       -0.03275161 -0.013434825 0.02613258 -0.047977652
0000d0 bf 59 bf 3b 4a 30 dc bc 79 40 29 3c 52 f3 a5 bc
       0.005839556 -0.026878495 0.010330313 -0.020257626
0000e0 43 11 8b 3d 2b bd 89 3d e5 73 72 bd 6a 3d 26 bd
       0.06790402 0.06725534 -0.059192557 -0.040585913
0000f0 b4 3f bf 3c a2 d3 4b bd 7f a2 cc bc a6 09 b5 bd
       0.023345806 -0.049762376 -0.024979828 -0.08839731
000100 d5 6e 47 3a 48 28 61 bd f1 bc 1f bb 3f 26 9d 3c
       0.0007607763 -0.054970056 -0.0024374092 0.019183276
000110 6d 6d 2b bd 72 58 36 3d 02 b1 66 bc 27 6e 3c bd
       -0.041852403 0.04451794 -0.014080288 -0.046003487
000120 df 86 58 bd ed 4d 20 bd 8f ab 0c 3d d5 ae 2d 3c
       -0.052862998 -0.039136816 0.0343433 0.010600765
000130 98 f4 9d bd 99 22 15 bd 1c e5 3d 3d 66 78 28 3d
       -0.07712668 -0.036409948 0.046361074 0.041130446
000140 d7 7a 6f bc ec 22 cf bc 6c 7d 92 bd bd 66 1b bd
       -0.01461669 -0.025285207 -0.071528286 -0.037939776
000150 60 ee 0c 3d 1e b7 48 bc 3a 53 8e bc c7 71 7b bb
       0.03440702 -0.01225069 -0.01737367 -0.0038367377
000160 ef e1 27 bd 0a b5 84 bd 6b 45 6c bd d6 0e 95 3b
       -0.04098695 -0.06479843 -0.05768339 0.0045488877
000170 fd 8b f4 bc 82 41 8e 3c c4 2b 15 bd 88 72 4a bc
       -0.029851908 0.017365221 -0.03641869 -0.012356408
000180 80 8e 2a bd ef 48 8f bd 0d 15 1b bd 0c e3 05 bd
       -0.041639805 -0.06996333 -0.037861872 -0.032687232
000190 9b 6c 2a 3d db 57 44 3c 28 26 01 bd 99 33 f2 bc
       0.04160748 0.011983837 -0.03153053 -0.02956562
0001a0 1d 2a 47 bd b9 b2 bf bd b7 39 66 bd 19 1f 01 be
       -0.048624147 -0.093602605 -0.056207385 -0.12609519
0001b0 64 86 0b 3d 8d 37 9c bd 6b 23 12 3d 53 79 b8 3c
       0.03406371 -0.07627783 0.03567831 0.02251879
0001c0 bc 04 a7 39 75 b9 90 bd 89 af c0 bd ac df 96 bd
       0.0003185625 -0.07066623 -0.09408481 -0.07366881
0001d0 9d c7 08 3b 75 15 20 bc ad 2c 00 3c f6 f8 c5 bd
       0.0020870932 -0.009770741 0.007823152 -0.09666626
0001e0 38 70 f8 3c 67 41 54 bd 49 b6 76 3b 06 36 df 3c
       0.030326948 -0.051820185 0.0037645272 0.02724744
0001f0 65 e0 3e 3d e3 9b f9 bc 6b 02 ec 3c 47 67 b9 bd
       0.046600718 -0.03046984 0.028809747 -0.09052902
000200 a2 30 6f bd fd 1e 67 3b ae d8 e7 3c be f6 63 3d
       -0.05839599 0.0035266273 0.028301563 0.055655234
000210 47 ad 89 3d 68 52 12 3d e0 df 78 3c d9 ea 33 3d
       0.06722503 0.03572312 0.015190095 0.04392514
000220 80 12 ae bd 87 44 fa bc 4c 8e c4 bc 18 e9 f7 bb
       -0.08499622 -0.030550255 -0.023993634 -0.0075656287
000230 d9 6e e8 bc 20 8e 3a bd d7 76 d5 bb ce 69 37 3d
       -0.028373169 -0.045545697 -0.006514411 0.044778638
000240 2c 01 96 bd db 9e 84 bb 94 3b b0 3b ba de 6f ba
       -0.07324442 -0.0040472574 0.005378196 -0.00091503153
000250 86 bd 54 bd e9 70 89 bd d1 b3 47 3b 90 5f 1f 3d
       -0.051938556 -0.06710989 0.003047217 0.038909495
000260 93 20 43 bd 96 6a 37 bd be e1 d0 bd 42 98 18 3d
       -0.047638487 -0.044779383 -0.10199307 0.03725458
000270 ca bf f6 3c d4 20 22 bd a3 0c f5 bb 8d cf a1 bd
       0.030120749 -0.03958209 -0.007478313 -0.07900915
000280 47 78 65 3c 20 20 11 3d 51 12 5c 3d 84 8a 32 bd
       0.014005727 0.035431027 0.053728405 -0.04358913
000290 25 60 32 3d a2 70 b2 bc 7e 82 3c bd 74 03 af bd
       0.04354872 -0.021782223 -0.046022885 -0.085455805
0002a0 1d 56 8a 3d 46 e1 77 3d f7 78 0f bd 31 a4 14 bc
       0.06754706 0.060517572 -0.03502747 -0.009072349
0002b0 7a 7d a0 3c 40 4b 49 bc 46 03 e7 3a 2e 3b e2 3c
       0.019591082 -0.012286007 0.0017624877 0.02761611
0002c0 33 5e 0a bd 77 95 6f bc 27 9a 1f bd dc e2 87 3c
       -0.03378124 -0.014623038 -0.03896537 0.016587667
0002d0 be 84 55 3c 52 f4 24 bd c5 60 84 bd b4 0d 65 3b
       0.0130321365 -0.040272065 -0.0646377 0.0034950795
0002e0 4f 4b a1 bc a5 08 93 3c bf 25 0c 3d b9 02 85 bd
       -0.01968923 0.017948458 0.034215685 -0.0649466
0002f0 11 5c f9 3c 81 73 4c bd 52 6c 17 3d 35 68 89 3b
       0.030439408 -0.04991484 0.036968537 0.0041933306
000300 6f e0 d9 3c 21 52 35 3c 5d 1c 1b bd 4d 18 ee 3c
       0.026596276 0.011066944 -0.037868846 0.029064322
000310 df 29 83 bc 4f de 48 bd 5d 62 bd bb 7a a3 0c bd
       -0.016011177 -0.049040135 -0.005779548 -0.03433559
000320 b2 d5 8c bd d5 b0 18 bd 38 85 93 bd fd 42 fb bb
       -0.06876697 -0.037278015 -0.07203144 -0.0076678977
000330 08 3c 92 bc a2 77 36 3c c4 62 02 3d 1e ee f2 bc
       -0.01785089 0.011136921 0.03183247 -0.029654559
000340 b9 6c 83 3c ff 9c 2f bd 51 94 0b 3d 12 9b 31 bd
       0.016043054 -0.042874333 0.034076992 -0.043360777
000350 9a 73 4a bd b5 9a af 3c 49 89 6d bd 29 f1 eb 3c
       -0.049426652 0.021436075 -0.057992253 0.028801518
000360 87 80 26 3d 96 f1 15 3d 77 a5 97 bc 1d 4a 7c bd
       0.040649917 0.036607347 -0.018511517 -0.061594117
000370 0d f6 f3 bc a5 90 7c bd 76 fd 2b bd 0f 6b 34 3d
       -0.029780412 -0.06166138 -0.041989766 0.04404741
000380 92 fa 49 3d e3 15 1c 3d de 50 66 3d 02 10 57 bd
       0.049311228 0.03810681 0.056229465 -0.0525055
000390 53 3e 1c bc 02 e6 31 bd 59 07 0d 3d 86 e7 6d 3c
       -0.009536344 -0.043432243 0.034430835 0.0145205315
0003a0 21 ac 83 bc eb 55 0f bd 0a e6 24 bd 09 18 f3 bc
       -0.016073288 -0.034994047 -0.040258445 -0.029674547
0003b0 ea 1d 47 3d f3 30 97 bd 5b 61 da bc 87 6d e3 bc
       0.048612513 -0.07382383 -0.02665775 -0.027762188
0003c0 92 63 e8 3c 33 b4 8b bd dc c5 dd 3c e6 94 fd 3c
       0.028367791 -0.0682148 0.027071886 0.03095479
0003d0 83 f4 ba bb ea 13 80 bc a1 36 94 bd 2b 2e 0a bd
       -0.0057054176 -0.015634496 -0.07236982 -0.033735435
0003e0 61 23 75 bc 62 c7 5f bc e4 69 17 bc 63 9e 19 3d
       -0.014962048 -0.013658376 -0.009241555 0.037504565
0003f0 77 e8 50 bd bf 26 d6 bc 7c 92 ff bc de c7 62 3c
       -0.051002946 -0.026141522 -0.031197779 0.013841597

deconv2.0.bias f4 [16]
000000 91 73 b0 bc 7b 7f 7d bd a5 15 70 bb eb 12 40 3d
       -0.021539481 -0.061889153 -0.0036633995 0.04689304
000010 37 28 00 3c dc 0c 4d bd ff b3 4e 3c ed 5f 0f 3d
       0.007822088 -0.05006109 0.012616157 0.03500359
000020 1c 63 22 bd f7 bd 28 3d 13 62 4e bd 3a e9 43 bd
       -0.0396453 0.04119679 -0.0503865 -0.047829844
000030 2f f8 2e 3c 00 35 b2 bc 52 06 4e 3d c1 07 81 bb
       0.010679289 -0.021753788 0.050298996 -0.003937692

deconv2.1.weight f4 [16]
000000 2e e5 72 3f 58 6c 79 3f f8 32 7f 3f 67 18 7f 3f
       0.9488095 0.97430944 0.9968715 0.9964661
000010 b4 a4 7c 3f 8f 39 84 3f e5 f0 84 3f 19 9e 7f 3f
       0.9868882 1.0330065 1.0386015 0.9985061
000020 39 42 79 3f 75 d0 7a 3f 50 0d 81 3f 19 09 80 3f
       0.9736667 0.9797433 1.0082188 1.0002776
000030 66 d4 81 3f 58 6b 80 3f ba 44 83 3f 12 37 85 3f
       1.0142944 1.0032759 1.0255349 1.0407431

deconv2.1.bias f4 [16]
000000 80 02 40 bc 3d 6b 95 3c 77 13 e0 3c 80 19 12 3d
       -0.011719346 0.018239612 0.027353032 0.03566885
000010 2f 1f 1a 3d 15 5c 88 3c 00 0b 90 3d c1 6c ad 3c
       0.037627395 0.01664547 0.07033348 0.021170022
000020 ef 12 1a 3d ba c5 f5 bc 38 70 51 3d 08 5b 0e 3d
       0.037615713 -0.03000151 0.05113241 0.034754783
000030 41 3e 07 3d 26 83 28 3d a4 31 32 3d f3 59 ad 3c
       0.033018354 0.041140698 0.043504372 0.021161055

deconv2.1.running_mean f4 [16]
000000 78 5d 93 be d0 12 db be b9 d7 ae be 14 1a d9 be
       -0.28782248 -0.4278779 -0.34148958 -0.4240271
000010 54 00 ef be e9 a7 07 bf 81 ce 03 bf 51 1d c6 be
       -0.46679938 -0.52990586 -0.51486975 -0.38694242
000020 a5 90 f1 be 3b 3a 90 be 77 67 14 bf f3 2d 2a bf
       -0.47180668 -0.28169426 -0.57970375 -0.6647636
000030 5e 52 e1 be fb 0a 20 bf 25 2c c9 be 2a 51 d5 be
       -0.44008154 -0.62516755 -0.39291492 -0.41663486

deconv2.1.running_var f4 [16]
000000 69 77 ca 3e 77 36 e7 3e 22 a2 c3 3e e8 74 1a 3f
       0.39544228 0.4515874 0.38209635 0.60334635
000010 7c 9c 96 3e e7 07 10 3e 7a 9d f5 3e 98 64 a8 3e
       0.29416263 0.14065515 0.47971708 0.32889247
000020 55 87 df 3e 81 b8 8d 3e c2 c1 4a 3f 85 b2 03 3f
       0.43657938 0.27679828 0.792019 0.51444274
000030 ad 94 12 3f a3 d9 42 3f 3e 9e 4b 3e ce b9 17 3e
       0.5725811 0.7611334 0.19884583 0.14816973

deconv3.0.weight f4 [16, 8, 4, 4]
000000 48 20 15 bc 43 58 11 3b a2 04 91 3a 15 e5 cf 3d
       -0.009101935 0.0022177852 0.0011064003 0.10151116
000010 ea f5 13 3d 2c 52 2a bd 4a 14 1f 3d 80 a2 0f 3d
       0.036123194 -0.04158227 0.03883771 0.03506708
000020 7b 57 a3 bc 53 a5 a0 3c fa 5f 7e 3d 70 78 40 3c
       -0.019939175 0.019610083 0.06210325 0.011747465
000030 5c b2 6e bd ae c3 60 3d 61 fd 10 3d 14 b9 7e bd
       -0.058275566 0.054874115 0.03539789 -0.062188223
000040 cc 4d 13 bd c8 d3 89 3d 17 6b 2c bd 54 71 02 bd
       -0.035962865 0.06729847 -0.042094316 -0.03184636
000050 0f c2 49 bd d6 fe 92 3c d1 f6 f4 bc 03 16 b1 3c
       -0.049257334 0.01794378 -0.029902847 0.021616941
000060 36 91 16 3d ed 4b 8b bd 6f f0 4f 3d db fc 49 bd
       0.036759578 -0.06801591 0.050766405 -0.049313407
000070 66 a9 79 3d ae 98 9f 3c 74 56 3a bb 32 bd ae 3c
       0.060952567 0.019481983 -0.0028432878 0.02133045
000080 0a 84 8f bc e6 cd a0 3d af c4 c9 bb b3 15 62 bb
       -0.017519016 0.07851772 -0.0061574797 -0.0034497797
000090 7a 8c e5 bc 18 7d 3a bd cd 69 27 bd 69 1a 8c bd
       -0.028021086 -0.045529455 -0.040872384 -0.06840975
0000a0 cf 47 10 bb ff d7 a4 3c 5c 77 8e bc eb ec ae 3b
       -0.0022015458 0.020122526 -0.0173909 0.0053383014
0000b0 cd eb 07 3a 90 34 18 3d f2 e8 69 3d 26 09 a1 3d
       0.00051849784 0.037159503 0.05710692 0.07863073
0000c0 84 73 f9 3d 1c 3e 4f bd 20 27 4a bb 7d ff 02 3d
       0.12180236 -0.05059634 -0.0030846074 0.031981934
0000d0 b5 1e 97 3d 27 f8 ab 3d 8f e8 5e bc dd ae 64 3d
       0.07378904 0.08396941 -0.013605251 0.055830825
0000e0 b5 aa 9a 3c 97 ea f4 bc e0 96 05 3d d4 ee fb bc
       0.018880228 -0.029897017 0.03261459 -0.03075353
0000f0 28 46 04 3d 73 a2 72 3d 95 c1 4d 3c 0d 89 45 bc
       0.03229347 0.059236955 0.012558361 -0.012056601
000100 29 7a 80 3d ef 8f 4b bc 36 0b 92 3d f2 ac 91 3d
       0.062733 -0.012424453 0.071310446 0.07113065
000110 2d 49 aa bc 60 01 96 bc ff ed 6a bc ef 96 37 bc
       -0.020786846 -0.018311203 -0.014338969 -0.011205419
000120 43 07 6b 3d 33 67 68 3d c2 a3 b3 3d 98 cb 8d 3c
       0.057379972 0.056739043 0.08771469 0.017308995
000130 cc ea 64 bc ca 4f 3b bc a6 d8 9b 3b 9f 80 0b bd
       -0.013971996 -0.011432597 0.004756051 -0.03405821
000140 07 ec c9 bb 20 05 2d 3d f4 c4 7f bd ef 61 1a 3d
       -0.00616217 0.042241216 -0.06244369 0.037691053
000150 18 5a 5d bd 10 cc f4 3b 57 c2 76 bd 64 61 88 3d
       -0.054041 0.007470615 -0.06024393 0.06659201
000160 50 57 12 bd fa a0 77 bd 9f f2 19 bd 6a 05 9a 3d
       -0.0357278 -0.060456254 -0.037584897 0.07520564
000170 8a 04 58 3d 15 65 8c 3d e9 f2 02 3d b4 4a 35 bd
       0.052738704 0.06855217 0.03196994 -0.044260696
000180 c7 d0 02 bd c7 8c 0a 3c 1a 9c 9a 3c bc fc ce 3c
       -0.031937387 0.0084564155 0.018873263 0.025266998
000190 d0 eb 67 3d 17 d6 43 3b 27 58 a2 3d ff 52 21 bd
       0.056621373 0.0029882246 0.0792697 -0.039385792
0001a0 db 16 f0 bc b7 5d e1 3d da eb eb 3c 34 c9 51 bc
       -0.029307773 0.11004203 0.028798986 -0.012804318
0001b0 1b 1b b7 3c 86 87 b4 bc c7 cd 7c bd c8 30 5e 3c
       0.022351792 -0.022037279 -0.061719682 0.013561435
0001c0 16 2e 97 bc d4 7a 83 3d 1a ba 5a ba b6 e9 6d 3d
       -0.018454593 0.06419912 -0.00083437713 0.058084212
0001d0 45 b2 80 bd e6 1a a9 3c 37 fd de 3c 00 51 72 bd
       -0.06284002 0.020642709 0.027220352 -0.05915928
0001e0 8e bf 9f bc 72 30 a2 ba 92 78 8e bc 16 9c df 3d
       -0.01950052 -0.0012374057 -0.017391477 0.10918443
0001f0 80 3a 95 3d 75 08 2e bc 59 72 c4 3d 1f 58 5a 3d
       0.072865486 -0.0106221335 0.095921226 0.053306695
000200 d9 b3 47 3d 7a 83 88 3d e8 e9 af bc 79 44 76 bd
       0.0487555 0.06665702 -0.02147384 -0.060123894
000210 df 95 46 3d 49 6e 28 3c a7 a6 7f bb a0 2c 27 bd
       0.048482772 0.0102802 -0.0039009245 -0.040814042
000220 87 41 2d bd cb f5 75 3d 7b c0 9d 3c 0e ed f1 3b
       -0.04229882 0.06004886 0.01925682 0.0073829954
000230 67 f1 24 3b 35 d2 0f bd 40 19 39 3d c5 8d 2d bd
       0.00251683 -0.03511258 0.045190096 -0.04237153
000240 92 1b 70 bd 62 ee a6 bb 1b 3f 03 3d 30 69 21 3d
       -0.058620043 -0.0050943354 0.032042604 0.039406955
000250 57 37 8b 3c 66 58 e6 bc 6f 1f 97 bc 46 ea c7 bc
       0.016994162 -0.028118324 -0.018447606 -0.024403702
000260 4f 8a 8f 3d 0d ad 6a bd b9 2c c3 3c a4 ff 81 bc
       0.07008802 -0.05729394 0.023825036 -0.01586897
000270 b5 bf 3d bd fe 3e 72 bd 90 40 bd bc ab b1 1c 3d
       -0.046325404 -0.059142105 -0.023102075 0.038255375
000280 eb 81 12 3d 99 a8 35 3b fc 20 89 bd 9f 81 16 bd
       0.03576843 0.00277189 -0.066957444 -0.03674471
000290 5b d6 13 3d 5c 10 d6 3d 25 2b f4 3c ca f7 a1 3d
       0.036093097 0.10452339 0.02980573 0.0790859
0002a0 cd 17 6f 3b ce 4f 28 3b 48 67 85 bd 8d 64 b4 3d
       0.0036482692 0.0025682333 -0.0651384 0.08808241
0002b0 01 18 53 bc e7 62 80 bd 5e 94 26 3c 27 e5 95 bd
       -0.012884141 -0.06268864 0.010167209 -0.07319098
0002c0 c8 07 14 bc eb 81 74 3d ab 25 a5 bc 27 7f b0 3c
       -0.009035058 0.059694212 -0.020159563 0.021545006
0002d0 22 c6 ca 3d 9a a7 57 3b ce 39 f8 bc 58 15 40 3d
       0.09901072 0.0032906295 -0.030301 0.046895355
0002e0 1f 07 95 bd 1a 30 21 3d 2e af 7c 3d 24 11 5f bd
       -0.07276749 0.039352514 0.061690502 -0.054459706
0002f0 3d 49 80 bd 55 e4 4a 3c c1 b3 e6 bc 0b b8 d0 3c
       -0.06263969 0.01238354 -0.028161885 0.025478384
000300 6d 33 10 bd 6a 7e 77 3d 64 15 9e 3c 2e d8 a9 bc
       -0.035205293 0.060423292 0.01929731 -0.020732965
000310 d7 ba 13 bd 1a 18 59 bd f6 08 e3 3c 39 c8 a9 bd
       -0.036066856 -0.0530015 0.027714234 -0.082901426
000320 1f 0d 22 bd 3a d3 fc 3c fa 53 82 3d 9c 3e 98 3d
       -0.039563295 0.03086244 0.063636735 0.07433817
000330 73 0e d2 3c 5e c3 68 bc 05 b9 65 3d b5 da f5 bc
       0.025641656 -0.014206735 0.05608465 -0.030011514
000340 ca a4 30 3d 51 12 59 3c 78 4d f2 3c a0 74 ca 3c
       0.043125905 0.013248996 0.029577956 0.024713814
000350 1d 51 d5 bc 59 6a b3 3c f4 4b fa 3c 76 48 cc 3c
       -0.026039654 0.021901296 0.030553795 0.024936896
000360 c7 07 2a 3d 9e bb 14 3c 28 3d 38 3b c9 8f ba 3c
       0.041511323 0.009077935 0.0028112624 0.02277364
000370 48 0f bc 3c 32 9f 77 3d 73 2b a3 bc 9c 14 a2 3d
       0.022956505 0.060454555 -0.01991818 0.07914087
000380 fa 4d 0f 3d 28 93 95 bd 69 e0 87 3d 12 0b a6 3d
       0.034986474 -0.073034585 0.066346 0.0810758
000390 0e 22 f6 3b 3b e9 95 bc 71 0f 8c bd c3 f5 18 bc
       0.007511384 -0.01829969 -0.06838883 -0.009335938
0003a0 19 92 78 3c 77 64 8b 3d b7 d7 b7 bb 6b 3b 8a bb
       0.015171551 0.068062715 -0.005610432 -0.004218509
0003b0 cf 4c bb 3b 4f 6e 49 3d 74 c5 19 bc 90 12 ae 3d
       0.0057159434 0.049177464 -0.009385455 0.08499634
0003c0 ab 9b 99 3c 34 93 56 3c 87 02 47 bd d5 b6 82 3a
       0.018750986 0.013096619 -0.048586395 0.0009972701
0003d0 9e 96 53 3d 7d 83 30 bd b7 66 28 bd 7c 56 ab 3c
       0.05165731 -0.043094147 -0.04111358 0.020915262
0003e0 52 7e 53 bd 65 55 6f 3d 68 2c 9b bd f9 2a 07 bc
       -0.05163414 0.058431048 -0.07576829 -0.008249992
0003f0 bf 24 54 3c 6f ee 8e bc 3d c2 a3 3c 2e 69 8d 3d
       0.012948214 -0.017447678 0.019990081 0.06904827

deconv3.0.bias f4 [8]
000000 ce 4e 32 3a 33 78 7f 3d 01 32 98 3d cb 2b ce bc
       0.0006801904 0.06237049 0.074314125 -0.025167366
000010 49 67 56 3d ea a6 c2 3b de 79 49 3d 4b 47 15 bd
       0.052344594 0.005940308 0.049188487 -0.036444943

deconv3.1.weight f4 [8]
000000 37 81 8c 3f 58 56 8d 3f 73 ba 8d 3f ef ff 8b 3f
       1.0976933 1.1041975 1.1072525 1.093748
000010 fd 41 8e 3f 86 df 8b 3f 6b d1 8d 3f b5 90 8e 3f
       1.1113888 1.0927589 1.1079534 1.1137911

deconv3.1.bias f4 [8]
000000 a8 0b c7 3d 4e dd ce 3d 9e 29 dc 3d ba cf b9 3d
       0.0971902 0.10100804 0.10750125 0.09072824
000010 d9 e2 e0 3d 5f f5 b9 3d a3 66 dd 3d 73 ac e7 3d
       0.10980768 0.09080004 0.10810592 0.11312189

deconv3.1.running_mean f4 [8]
000000 30 ed e8 3c b7 d6 82 bc 09 a1 9a 3d 97 72 79 bc
       0.028433412 -0.015971525 0.07550246 -0.015225074
000010 63 f7 52 3e db 45 85 3d ca b7 b6 3d 40 96 30 bd
       0.20602183 0.065074645 0.08921774 -0.04311204

deconv3.1.running_var f4 [8]
000000 da 3e 14 3e 66 82 37 3e 19 e4 36 3e 4d a7 1f 3e
       0.14477101 0.17920837 0.1786045 0.15591164
000010 95 b7 6c 3e 23 2f 49 3e a0 c2 35 3e f7 d2 62 3e
       0.23116906 0.19646887 0.17750025 0.22150789
