Pix2Pix/checkpoints/pix2pix_model_epoch_130.pth (torch, 99191 bytes, 32 tensors)

conv1.0.weight f4 [8, 3, 4, 4]
0	0x3dfd01c1	0.1235385
1	0x3dec7c00	0.115470886
2	0xbdaaed04	-0.083459884
3	0x3e182baf	0.14860414
4	0x3d8c5abc	0.06853244
5	0x3bbeee1d	0.005826725
6	0xbd8e61e2	-0.069522634
7	0x3de25434	0.11051217
8	0xbdc8c6f5	-0.09803573
9	0xbccee837	-0.025257213
10	0x3bb59820	0.0055418164
11	0xbcbbb565	-0.022913644
12	0x3df0e40e	0.11762248
13	0x3dbc0679	0.09180922
14	0xbe0831c9	-0.13300242
15	0xbe100436	-0.14064106
16	0xbd5261c6	-0.051362775
17	0x3db2ee23	0.08736827
18	0x3c5b18d2	0.013372617
19	0x3e28ef8f	0.16497634
20	0xbd6872a1	-0.056749944
21	0xbd4063ec	-0.046970293
22	0x3e3a6c0e	0.18205282
23	0xbd94561c	-0.072429866
24	0xbe1175f3	-0.1420515
25	0xbdfa2db1	-0.12215746
26	0xbdba5cab	-0.09099706
27	0xbe0075ef	-0.12544988
28	0xbdbc0ccd	-0.09182129
29	0x3bedc99e	0.0072567007
30	0x3df59fa4	0.1199334
31	0xbdad33c8	-0.08457142
32	0x3d8a3143	0.06747677
33	0x3df27034	0.11837807
34	0xbd940ae4	-0.0722864
35	0xbde0554e	-0.109537706
36	0xbd85d8b1	-0.06535471
37	0xbbd07166	-0.0063611744
38	0x3e03aacf	0.12858127
39	0xbcb6b431	-0.022302719
40	0xbd8c92cc	-0.06863937
41	0xbdd2f68f	-0.103009336
42	0xbe0d1bc9	-0.1378013
43	0x3cb5f847	0.022213114
44	0x3def3556	0.11680095
45	0xbdaa1d69	-0.08306391
46	0x3e226bad	0.15861388
47	0x3c5c0bf5	0.013430585
48	0x3c2bd66b	0.010488133
49	0x3c8f1779	0.017467247
50	0xbd8a5bd3	-0.06755795
51	0x3e0c0022	0.13671926
52	0x3dff7174	0.12472811
53	0x3d92857a	0.07154365
54	0x3dd8548a	0.105629995
55	0x3c4046a5	0.011735593
56	0x3c4cd1de	0.012501208
57	0xbd91bb7c	-0.07115838
58	0xbdc028af	-0.0938276
59	0x3dd3b433	0.10337105
60	0xbd794150	-0.060853302
61	0x3d2d2543	0.042271864
62	0xbd8ee0df	-0.069764845
63	0x3e124204	0.14282995
64	0xbcdf73cd	-0.027276898
65	0xbd86b761	-0.065779455
66	0x3df8566b	0.12125858
67	0xbe0364c4	-0.12831408
68	0xbd65cf12	-0.05610568
69	0xbdf290a4	-0.11843994
70	0x3d440309	0.047854457
71	0xbd35212a	-0.04422108
72	0xbb29278a	-0.002581092
73	0x3d513d21	0.051083688
74	0x3d4ed915	0.050499994
75	0x3de24e99	0.110501476
76	0x3d56f5b8	0.05248043
77	0xbe08a8bd	-0.13345619
78	0xbdf67459	-0.1203391
79	0x3d3255da	0.043538906
80	0x3d210be2	0.039317973
81	0x3da17dfe	0.07885359
82	0xbe01bf70	-0.12670684
83	0xbe0d28e9	-0.13785137
84	0x3dd0ff75	0.102049746
85	0xbd9816e2	-0.074262396
86	0xbca16414	-0.019701041
87	0xbd8e4a7d	-0.06947801
88	0xbd1439e0	-0.036188006
89	0xbdb91914	-0.090379864
90	0xbdeb711d	-0.11496184
91	0x3d6d79ee	0.05797761
92	0xbd34bd00	-0.044125557
93	0xbd2413f3	-0.040058088
94	0xbdf6331b	-0.12021466
95	0x3d2eb8f7	0.042656865
96	0x3daed2b5	0.08536283
97	0xbdb2ef44	-0.087370425
98	0x3ca32c32	0.019918535
99	0x3e1a4824	0.15066582
100	0xbe073982	-0.13205531
101	0xbdbff040	-0.09371996
102	0xbda10fd3	-0.07864346
103	0x3d520f7f	0.05128431
104	0xbe07ec0e	-0.13273641
105	0xbdc392c8	-0.09549481
106	0x3bec66b4	0.0072143916
107	0xbcb6223c	-0.022233121
108	0x3ddb9e20	0.10723519
109	0xbdcb192a	-0.09916909
110	0x3d5520be	0.05203318
111	0x3df173e3	0.11789682
112	0x3de5e405	0.11225132
113	0xbe0dd26d	-0.13849802
114	0x3d81c492	0.06336321
115	0xbdd33265	-0.10312346
116	0x3ded1ea3	0.11578109
117	0xbd924ae2	-0.07143189
118	0x3be890a4	0.0070973206
119	0x3e16930b	0.1470453
120	0xbdd8943a	-0.10575147
121	0x3b72bd74	0.0037039192
122	0x3ce23797	0.027614398
123	0x3e1410b1	0.14459492
124	0x3dd27ed7	0.10278099
125	0xbcb72644	-0.022357114
126	0xbcc8d7df	-0.024516998
127	0x3dcf625b	0.10126182
128	0x3baf0910	0.0053416565
129	0x3cee3f03	0.02908278
130	0xbe1b4a01	-0.15164949
131	0x3d0a51a8	0.03376928
132	0x3d85dbdf	0.06536078
133	0xbddfc0f6	-0.10925476
134	0x3e039678	0.12850368
135	0xbd1b2fad	-0.037887264
136	0x3ddaded0	0.10687029
137	0xbcc0d598	-0.02353935
138	0x3d86efa3	0.06588676
139	0x3dafce1b	0.085842334
140	0xbdda39a6	-0.10655527
141	0xbdd7a9ea	-0.105304554
142	0xbe0f5958	-0.13998926
143	0xbd5a9093	-0.053360533
144	0xbd285bc5	-0.041103143
145	0x3c805a89	0.01566817
146	0xbcd5a1c4	-0.026078112
147	0xbd920527	-0.07129889
148	0xbdfd27b3	-0.12361088
149	0xbe00616c	-0.12537163
150	0x3d850b86	0.064963385
151	0x3dfdc00d	0.123901464
152	0x3da84202	0.08215715
153	0x3d475901	0.048668865
154	0x3bf1f3cf	0.0073838006
155	0x3decc616	0.115612194
156	0x3daf9686	0.08573632
157	0xbdb68d12	-0.08913626
158	0x3dccce78	0.10000318
159	0xbd8f7fb8	-0.07006782
160	0xbc98de76	-0.018660765
161	0x3dbb5935	0.09147874
162	0xbe190d86	-0.14946565
163	0xbd988bfe	-0.074485764
164	0xbd99c813	-0.07508864
165	0x3d1701fc	0.036867127
166	0xbe0ddae5	-0.13853033
167	0xbd9b4739	-0.07581944
168	0x3c15305c	0.009105768
169	0x3af79c54	0.0018891194
170	0xbc5ed3d1	-0.013600306
171	0xbd5d2e33	-0.053999137
172	0x3d673f10	0.056456625
173	0x3e3d2c7d	0.18474002
174	0x3dcf8d8a	0.10134418
175	0x3d1ea70f	0.03873354
176	0xbe0f360a	-0.13985458
177	0x3d85871c	0.06519911
178	0x3b09e2a8	0.0021039639
179	0x3d21c3de	0.039493434
180	0xbcfb71fe	-0.030694004
181	0x3daed9c0	0.08537626
182	0x3c5616bb	0.013066943
183	0x3dea2c6e	0.114342555
184	0x3e04c670	0.12966323
185	0x3d1b20a4	0.037872925
186	0x3b4c1888	0.0031142551
187	0x3d6d332f	0.05791014
188	0x3e0af68d	0.13570614
189	0xbda14795	-0.07874981
190	0x3d95e7fb	0.073196374
191	0x3dd13a69	0.10216219
192	0x3e4b69c9	0.19864573
193	0x3e3f9990	0.18710923
194	0x3e373497	0.17891155
195	0xbc9133e9	-0.017724948
196	0x3d2c7e8c	0.042112872
197	0x3d8e9767	0.069624715
198	0xbdebe372	-0.11517991
199	0x3d5eaaa0	0.05436194
200	0x3dbfd9ab	0.09367689
201	0xbd9a3d93	-0.075312756
202	0xbccf735b	-0.02532356
203	0xbc60f19b	-0.013729478
204	0x3d88369e	0.066510424
205	0xbdfaa171	-0.12237824
206	0x3d4e2ef9	0.050337765
207	0x39abdf84	0.00032782194
208	0x3d6809cf	0.05664998
209	0xbccca816	-0.024982493
210	0x3e0060ad	0.12536879
211	0xbdfa06fd	-0.12208364
212	0xbdee7a6a	-0.116444424
213	0xbd4a29a6	-0.049356125
214	0x3c6f2a2f	0.01459746
215	0x3d7beed4	0.06150706
216	0x3e12d817	0.14340244
217	0xbda0dc85	-0.07854561
218	0xbdd6aa67	-0.104817204
219	0xbdf109c8	-0.11769444
220	0xbdcfbab6	-0.10143034
221	0x3dfff4d8	0.12497872
222	0x3d5c5532	0.053792186
223	0x3d8b7e74	0.068112284
224	0x3e12df87	0.14343081
225	0x3d76a2d6	0.060213886
226	0xbdbed7c5	-0.093184985
227	0x3d466f0b	0.048445743
228	0xbde25873	-0.110520266
229	0x3a2c87cd	0.0006581515
230	0x3da7859d	0.081797816
231	0x3cd5c972	0.026097033
232	0xbcaedd21	-0.021345677
233	0x3bb10326	0.0054019867
234	0x3d40e8a2	0.047096856
235	0x3ddec9e4	0.10878351
236	0xbe021838	-0.12704551
237	0x3b72d80e	0.0037055048
238	0x3d9471af	0.07248246
239	0xbcdb0ca5	-0.026739428
240	0x3e03aa72	0.12857988
241	0xbb6db735	-0.003627253
242	0x3b4b3afd	0.0031010502
243	0x3d20b7bb	0.03923772
244	0xbc7fac5d	-0.015605059
245	0x3e124250	0.14283109
246	0x3d27dcc0	0.040982008
247	0x3d0cd033	0.03437824
248	0xbd560c4e	-0.05225783
249	0xbcf1cdff	-0.029517172
250	0xbdd3aac5	-0.10335306
251	0xbd08f51f	-0.03343689
252	0x3dae8bca	0.085227564
253	0xbd8a3b36	-0.06749575
254	0x3d947a8f	0.07249939
255	0xbdf99359	-0.121863075

conv1.0.bias f4 [8]
0	0xbd80fe24	-0.062984735
1	0xbde82881	-0.113358505
2	0x3dddf731	0.10838164
3	0xbda51944	-0.0806146
4	0x3e0d277c	0.13784593
5	0xbdc55442	-0.096352115
6	0x3ddc6ff6	0.10763542
7	0x3d3d5619	0.046224687

conv1.1.weight f4 [8]
0	0x3f7fba7c	0.9989393
1	0x3f7e5386	0.99346197
2	0x3f7f708e	0.9978112
3	0x3f80be20	1.0058022
4	0x3f80b07e	1.0053861
5	0x3f8287f5	1.0197741
6	0x3f817813	1.0114769
7	0x3f7a23fb	0.9771115

conv1.1.bias f4 [8]
0	0xbc926388	-0.017869726
1	0xbbc16117	-0.0059014666
2	0xbd7044e2	-0.05865944
3	0x3d5a9523	0.053364884
4	0xbd1a458c	-0.03766398
5	0x3d06e827	0.03293624
6	0x3d16b993	0.03679807
7	0xbba88e8c	-0.005143946

conv1.1.running_mean f4 [8]
0	0xbd7e5636	-0.062093936
1	0xbe0c7a7c	-0.13718599
2	0x3de3d9cf	0.11125528
3	0xbde96b52	-0.11397423
4	0x3d313ccb	0.043270867
5	0xbde52e7c	-0.11190507
6	0x3e4c1f4b	0.19933812
7	0x3d43c180	0.047791958

conv1.1.running_var f4 [8]
0	0x3cff50cd	0.031166459
1	0x3d272757	0.040809
2	0x3c8196a0	0.015818894
3	0x3dbc6e7f	0.09200763
4	0x3dd2cda9	0.10293133
5	0x3cea10b3	0.028572416
6	0x3dcc0700	0.09962273
7	0x3c2c6853	0.01052292

conv2.0.weight f4 [16, 8, 4, 4]
0	0x3d3c9c71	0.04604763
1	0x3cafadf3	0.02144525
2	0xbdb083eb	-0.08618911
3	0xbd80ebe3	-0.06294992
4	0x3d479eaf	0.048735317
5	0x3d6aa32e	0.057284527
6	0xbce57718	-0.02801089
7	0x3d338b05	0.04383375
8	0xbcafb1e8	-0.021447137
9	0xbd0c6f7b	-0.034286004
10	0x3d864327	0.06555777
11	0x3d8e970a	0.06962402
12	0xbd3a2884	-0.045448795
13	0x3d34c061	0.04412878
14	0x3d04f4a3	0.032459866
15	0x3daa77b8	0.08323616
16	0x3d43c475	0.047794778
17	0x3c32b2a6	0.010906851
18	0x3dda8f17	0.106718235
19	0x3da8d3eb	0.08243545
20	0xbd1cd97a	-0.03829334
21	0x3c7706f4	0.015077341
22	0xbd1f9c20	-0.03896725
23	0x3d1a5a06	0.03768351
24	0x3da16ce8	0.078821
25	0xbd05ed3a	-0.03269694
26	0xbce2b019	-0.02767186
27	0xbb650d90	-0.003495071
28	0xbcc652bd	-0.024209375
29	0x3d62237c	0.05520962
30	0x3e0becba	0.13664523
31	0x3e009042	0.1255503
32	0xbd1275d7	-0.035756912
33	0xbd519274	-0.05116506
34	0xbd23b15d	-0.03996407
35	0xbc910682	-0.017703298
36	0x3d802ee7	0.06258946
37	0x3d0d9479	0.034565423
38	0xbb1b0856	-0.0023656092
39	0x3d97fd7f	0.074213974
40	0x3b57ba56	0.0032917461
41	0x3d32a09e	0.043610208
42	0x3db502b9	0.0883841
43	0xbd1fc051	-0.039001767
44	0x3cfe3555	0.03103129
45	0x3cf29ea3	0.02961666
46	0xbd3a694f	-0.045510586
47	0xbd04f2e8	-0.032458216
48	0xbd157248	-0.03648594
49	0xbd30911e	-0.043107145
50	0x3ce2af26	0.027671408
51	0xbc58e8bf	-0.013239085
52	0xbd2ad5b4	-0.04170771
53	0xbd8c8955	-0.068621315
54	0x3dab5402	0.083656326
55	0x3bc7e9eb	0.0061008832
56	0x3d3b9d14	0.0458041
57	0x3cbc95cb	0.023020646
58	0x3d1425e9	0.036168966
59	0x3c0fd790	0.008779421
60	0xbd870bdc	-0.06594059
61	0x3d92b622	0.07163645
62	0xbd7b4765	-0.061347384
63	0xba9c25e1	-0.0011913144
64	0xbb0ab9ce	-0.0021167877
65	0x3d836925	0.06416539
66	0xbcf49c3f	-0.02985966
67	0x3d8b0096	0.06787221
68	0xbd37eb43	-0.044902097
69	0xbc8e624b	-0.017380854
70	0x3ca6393e	0.020290967
71	0x3dad9cf5	0.08477203
72	0x3d7fdd4f	0.062466916
73	0x3da07377	0.07834523
74	0xbc85158d	-0.016245628
75	0x3ded406c	0.11584553
76	0x3d942131	0.07232893
77	0x3dcac232	0.09900321
78	0x3daebf2f	0.08532559
79	0x3c902c8d	0.017599368
80	0xbc9b6ba5	-0.018972227
81	0xbc9adf2a	-0.018905241
82	0x3d753675	0.059866387
83	0x3d4981c7	0.04919603
84	0x3d464b8d	0.048411895
85	0xbbd3a8d6	-0.006459336
86	0x3c69a5a1	0.01426068
87	0x3ac49d10	0.0015000422
88	0x3d26fffe	0.040771477
89	0xbd76a954	-0.060220078
90	0xbd32544b	-0.04353742
91	0x3d113e8d	0.035460044
92	0x3d55c189	0.052186523
93	0x3cb90cc7	0.0225891
94	0xbd176660	-0.036962867
95	0xbd094f51	-0.033522908
96	0xbd933b83	-0.07189085
97	0x3d2693f3	0.04066844
98	0x3cd6de40	0.026229024
99	0x3cd2f607	0.02575208
100	0x3d71f0b1	0.05906743
101	0xbd06a0ba	-0.032868125
102	0xbb27994a	-0.0025573545
103	0xbd3052ae	-0.0430476
104	0x3d26d2f1	0.040728513
105	0xbd186eb6	-0.037214957
106	0x3dc55e24	0.096370965
107	0xbbabb62c	-0.0052402224
108	0x3d302e9f	0.04301321
109	0x3d903b73	0.07042589
110	0xbc6b3ab0	-0.014357254
111	0x3cd6d7c0	0.026225924
112	0xbcb8cece	-0.02255955
113	0x3ce15077	0.027504189
114	0xbd8e5aab	-0.06950887
115	0x3d79f14d	0.061021138
116	0xbd9f0bf2	-0.0776595
117	0x3d0c2ba3	0.034221303
118	0x3bfc8ee4	0.0077074636
119	0xbbf4ec07	-0.0074744257
120	0xbd0e355b	-0.034718852
121	0x3d7a830a	0.061160125
122	0xbd30b5f5	-0.043142278
123	0xbd440d09	-0.047863994
124	0xbcac9775	-0.021068314
125	0x3d0957ad	0.03353088
126	0xbd11f90f	-0.03563791
127	0x3d140c98	0.036144823
128	0xbd1fd1d8	-0.039018482
129	0xbccb8b8c	-0.024846815
130	0x3d570c85	0.052502174
131	0x3d6ba791	0.05753285
132	0xbd84ae5e	-0.064785704
133	0x3c9b41d5	0.01895229
134	0xbd1e7aa0	-0.038691163
135	0xbdbd9da7	-0.092585854
136	0x3d8f45a1	0.069957025
137	0x3cc562b1	0.024094911
138	0x3d5a9446	0.05336406
139	0xbc8e8c5c	-0.017400913
140	0xbda9130d	-0.08255587
141	0x3d3945af	0.04523247
142	0xbcd6cd68	-0.026220992
143	0xbc611075	-0.013736834
144	0x39169dc8	0.00014363893
145	0x3d8fbe8b	0.07018765
146	0xbcf9502e	-0.03043374
147	0x3d068427	0.032840874
148	0x3cd9f8f1	0.026607962
149	0x3c77a558	0.015115105
150	0xbd372cba	-0.04472039
151	0x3cb1eb5b	0.021718672
152	0x3d67c4ae	0.056584053
153	0x3d536275	0.051607568
154	0x3d53a77e	0.051673405
155	0x3ca2c12f	0.019867508
156	0xbd2b31ac	-0.041795418
157	0xbc842d26	-0.01613481
158	0x3cb42cd9	0.021994041
159	0x3d1ae839	0.03781912
160	0x3db4d056	0.088287994
161	0x3d924e28	0.07143813
162	0x3bed3d89	0.0072400016
163	0x3cc95332	0.024575803
164	0xbd3e8d34	-0.04652138
165	0xbd9ec8db	-0.07753154
166	0xbdd05d7d	-0.101740815
167	0xbd9357f5	-0.07194511
168	0xbe0a042b	-0.13478152
169	0x38a09a33	7.6581164e-05
170	0xbbdc2158	-0.006717842
171	0xbdca211c	-0.09869596
172	0x3c2a4127	0.01039151
173	0x3c4eb85e	0.012617199
174	0xbc891564	-0.016733833
175	0xbbda6405	-0.0066647553
176	0x3dc07288	0.09396845
177	0x3ba755b7	0.0051066536
178	0x3dab9197	0.083773784
179	0xbc84b20a	-0.016198177
180	0xbc89dbd8	-0.016828462
181	0xbd2e9481	-0.042622093
182	0xbc6d6ee2	-0.014491769
183	0x3d7d766a	0.061880507
184	0xbd488e86	-0.048964046
185	0xbdabe792	-0.08393778
186	0x3c981098	0.0185626
187	0x3cf42bc3	0.029806023
188	0x3d9b304e	0.07577573
189	0xbd11c16a	-0.035584845
190	0x3d591437	0.052997794
191	0x3c0d467f	0.008622765
192	0x3c1288d5	0.008943756
193	0xbc07df9d	-0.00829306
194	0x3ba2ee47	0.0049722525
195	0x3c6c4db5	0.014422824
196	0x3d09d0b6	0.033646308
197	0x3c171f76	0.0092238095
198	0xbd443630	-0.04790324
199	0x3d1090e0	0.035294414
200	0x3d687bb5	0.0567586
201	0x3d85b622	0.0652888
202	0xbce337cc	-0.027736567
203	0xbd82ab7d	-0.06380365
204	0xbd8d748a	-0.06906994
205	0x3c6d8a3c	0.01449829
206	0xbd9ea4f9	-0.0774631
207	0x3c989b33	0.018628692
208	0xbc5e8cb6	-0.013583353
209	0x3dd2102e	0.10256992
210	0x3d70c692	0.05878312
211	0x3d7598f8	0.059960335
212	0xbd676b33	-0.056498718
213	0x3db7d896	0.08976857
214	0x3dbc56bc	0.09196231
215	0x3dc2b20b	0.09506615
216	0x3ccfe684	0.025378473
217	0xbd4bad94	-0.049726084
218	0xbd1ee317	-0.03879079
219	0x3d7bc8a5	0.061470646
220	0xbdb86f58	-0.09005612
221	0xbde84a25	-0.11342267
222	0xbdfd9ff4	-0.12384024
223	0xbcd7529e	-0.026284512
224	0x3d9408fa	0.07228275
225	0x3cd28426	0.025697779
226	0xbd849eda	-0.06475611
227	0x3d07103b	0.032974463
228	0xbd0a94ce	-0.033833317
229	0xbbb433f1	-0.005499356
230	0x3d226d36	0.039654933
231	0xbc86837a	-0.016420115
232	0xbc3f21ed	-0.011665803
233	0xbb5408c9	-0.003235387
234	0xbd72d56d	-0.05928557
235	0x3d83a69c	0.064282626
236	0x3dae0171	0.08496369
237	0x3d290c48	0.041271478
238	0xbcb52d72	-0.022116397
239	0x3ca9b7d6	0.020717543
240	0x3d0b674d	0.034034062
241	0x3d63ffea	0.05566398
242	0x3dbdd431	0.09268988
243	0xbb7d6e40	-0.003867045
244	0x3d456e78	0.048201054
245	0xbc0ff3e7	-0.008786178
246	0x3db3088c	0.087418646
247	0x3d41fdfe	0.047361366
248	0x3d015a87	0.031580474
249	0xb91f4265	-0.00015188156
250	0xbd1b93e5	-0.03798284
251	0xbc043f3b	-0.008071716
252	0xbda3a1d5	-0.079898514
253	0xbd3a8f3b	-0.04554675
254	0xbd250cdf	-0.040295478
255	0xbd568fa9	-0.0523831

conv2.0.bias f4 [16]
0	0x3d3c8ba4	0.04603161
1	0x3d42fec4	0.047606245
2	0xbd91a769	-0.07112009
3	0x3d45b7ba	0.04827092
4	0x3d663279	0.05620048
5	0xbd921b75	-0.07134143
6	0x3d6a73cd	0.057239342
7	0xbce781f5	-0.02826021
8	0x3d10e97d	0.03537892
9	0x3bd26625	0.006420868
10	0x3cd3276f	0.02577564
11	0x3d1c804d	0.038208295
12	0xbd8fa136	-0.070131704
13	0x3da2598b	0.07927235
14	0xbd41126c	-0.04713671
15	0x3d60e9dd	0.05491053

conv2.1.weight f4 [16]
0	0x3f7fb5f3	0.9988701
1	0x3f7dc546	0.9912914
2	0x3f8737c9	1.0563899
3	0x3f7db6fb	0.9910733
4	0x3f850c87	1.0394448
5	0x3f7e22e4	0.9927199
6	0x3f85ef6b	1.046369
7	0x3f7c73bc	0.98614097
8	0x3f7d119f	0.9885501
9	0x3f805ec1	1.0028917
10	0x3f7f6c3e	0.9977454
11	0x3f7d3b0f	0.9891824
12	0x3f848c28	1.0355272
13	0x3f770a24	0.9649985
14	0x3f80721c	1.0034823
15	0x3f7c8a82	0.98648846

conv2.1.bias f4 [16]
0	0xbda2a053	-0.07940736
1	0xbba1d4c6	-0.0049386946
2	0x3c042970	0.00806652
3	0x3d137930	0.036004245
4	0x3d88a835	0.06672708
5	0xbc20529e	-0.0097853225
6	0x3d151840	0.03640008
7	0x3cbef6b5	0.023310998
8	0x3c65c23f	0.014023363
9	0x3d087f9b	0.03332482
10	0xbcd295af	-0.02570614
11	0xb9d8996a	-0.00041313033
12	0x3d05ed96	0.032697283
13	0xbbea0ba5	-0.0071425014
14	0x3cf1c314	0.029511966
15	0xbc410960	-0.01178202

conv2.1.running_mean f4 [16]
0	0x3f2f3720	0.6844349
1	0x3e795dea	0.24352232
2	0xbf0327af	-0.5123243
3	0xbf0862af	-0.5327558
4	0xbe924f2b	-0.28576025
5	0x3daa28b4	0.08308545
6	0xbf0a62d9	-0.5405708
7	0xbbffbb61	-0.0078043197
8	0x3e3c0d57	0.18364464
9	0x3cbd976c	0.023143493
10	0x3e9a7bc2	0.30172545
11	0x3e87fba3	0.2655917
12	0xbc3ded2f	-0.0115921935
13	0x3ea296df	0.3175573
14	0xbf0dbb0f	-0.55363554
15	0x3eb2b3e2	0.34902865

conv2.1.running_var f4 [16]
0	0x3e3f51da	0.18683568
1	0x3e93cf54	0.28869116
2	0x3e5fc1fe	0.21851346
3	0x3e3f708f	0.18695281
4	0x3dec3f86	0.11535554
5	0x3e2b83e3	0.1674953
6	0x3e9ac97d	0.30231848
7	0x3e1758e8	0.14780009
8	0x3e2b7300	0.16743088
9	0x3e301ba2	0.17198041
10	0x3e7f0092	0.24902561
11	0x3eeb607b	0.45972046
12	0x3ddd0e6b	0.10793766
13	0x3dc51b78	0.0962438
14	0x3f4b5f6c	0.7944248
15	0x3e352559	0.17690028

conv3.0.weight f4 [32, 16, 4, 4]
0	0x3d8f7f88	0.070067465
1	0x3d9b32c8	0.07578045
2	0x3d171b10	0.036891043
3	0x3dada639	0.0847897
4	0x3d5c7b3d	0.053828467
5	0x3d2ba48c	0.04190497
6	0x3cfc59e8	0.03080459
7	0x3d850552	0.064951554
8	0x3d3acbf4	0.04560466
9	0x3d9ee4ea	0.07758506
10	0x3d9e1382	0.077185646
11	0x3da540a2	0.08068968
12	0x3d3c0a86	0.045908473
13	0x3dc6783e	0.09690903
14	0x3da5f61e	0.08103584
15	0x3df1cd29	0.11806709
16	0xbcfced29	-0.030874806
17	0x3d4ffcee	0.050778322
18	0x3ce6ce6d	0.028174603
19	0xbc115c32	-0.008872079
20	0x3d0d530b	0.034503024
21	0x3d85bf1e	0.06530593
22	0x3d149edc	0.036284313
23	0xbd060523	-0.032719743
24	0x3d4b2c48	0.049602777
25	0xbcbe05d4	-0.023196138
26	0x3b85a0fb	0.0040780283
27	0xbcd11e48	-0.025527135
28	0x3c90b00e	0.017662074
29	0xbcf2c7fa	-0.029636372
30	0x3d494694	0.049139574
31	0x3ba92da5	0.005162912
32	0x3c9dccf2	0.019262765
33	0xbc02fad1	-0.00799437
34	0x3d473d83	0.048642647
35	0x3c8082b6	0.015687328
36	0x3d1dbf2d	0.038512398
37	0x3d32328e	0.043505244
38	0x3c2d5e02	0.010581495
39	0xbcfb3a6d	-0.030667508
40	0x3d612f5c	0.054976806
41	0x3c9d2f4f	0.019187598
42	0x3d1c2fdb	0.038131576
43	0xb6ab3b8c	-5.1031293e-06
44	0xbd4eeb3f	-0.050517317
45	0xbd073efa	-0.033019044
46	0x3b03c49d	0.0020106204
47	0x3cbd0fe3	0.023078864
48	0xbd3d0dd1	-0.046155754
49	0x3cd6d458	0.0262243
50	0xbc5aa525	-0.013345038
51	0xbc9c1527	-0.019053055
52	0x3d09e188	0.03366235
53	0x3c854b80	0.016271353
54	0x3d581904	0.05275823
55	0x3caefb72	0.021360133
56	0x3d1aeec3	0.037825357
57	0x3d6f8114	0.058472708
58	0x3d7624af	0.060093578
59	0xbcfd5e0f	-0.03092864
60	0xbca46276	-0.020066481
61	0xbd1faf2e	-0.038985424
62	0x3c5b8c9f	0.013400226
63	0x3c5dea92	0.013544695
64	0xbd1d74d7	-0.038441505
65	0xbd959f5d	-0.07305787
66	0xbd25dd05	-0.040493984
67	0xbcf03220	-0.029320776
68	0xbd539338	-0.05165407
69	0x3c91cb79	0.017797219
70	0x3d7ebcb8	0.062191695
71	0x3d2197c2	0.03945137
72	0x3c102a32	0.008799123
73	0x3b99b4aa	0.0046907263
74	0x3c268754	0.010164101
75	0x3cd0aacb	0.025472065
76	0xbd18e511	-0.03732783
77	0x39c8ebbe	0.00038322614
78	0xbcac0201	-0.02099705
79	0xbcb29352	-0.021798763
80	0x3d13d500	0.036091805
81	0x3c89542f	0.016763775
82	0x3db51090	0.0884105
83	0x3db39a7e	0.087697014
84	0x3d322696	0.04349383
85	0xbb46bf11	-0.0030326287
86	0x3b550985	0.0032506895
87	0x3cc650c1	0.024208428
88	0xbcc74174	-0.024323203
89	0x3d3eec49	0.046612058
90	0x3c9ae66e	0.018908706
91	0x3b011746	0.001969771
92	0x3b8a11aa	0.0042135315
93	0xbd468430	-0.048465908
94	0x3d7b76b7	0.061392512
95	0x3d04fb48	0.032466203
96	0xbcd1dd14	-0.025618114
97	0xbd0e3bfc	-0.034725174
98	0xbd00080c	-0.031257674
99	0xbd3a811a	-0.045533277
100	0x3d86b411	0.06577314
101	0x3cd5279b	0.026019862
102	0x3dc775d2	0.09739269
103	0x3d4b8389	0.04968599
104	0xbc6e5587	-0.0145467585
105	0x3cb1d1f4	0.021706559
106	0xb9ac35e4	-0.00032846548
107	0xbd49a2ab	-0.049227398
108	0xbd0e5f87	-0.03475907
109	0x3ca57937	0.020199401
110	0x3ce70419	0.028200196
111	0xbc8d6f1d	-0.017264897
112	0xbd2cf4f2	-0.042225786
113	0x3cb68627	0.022280766
114	0x3c07e92e	0.00829534
115	0xbc552d16	-0.013011238
116	0x3cd667f4	0.026172616
117	0x3ce253ed	0.02762791
118	0xbcc6e72f	-0.024280159
119	0xbd674b6b	-0.05646841
120	0xbc103d4d	-0.008803678
121	0x3d344f8b	0.04402117
122	0x3d4e3518	0.050343603
123	0xbd0dfdec	-0.034665987
124	0xbc0a1c38	-0.008429579
125	0xbcac1cc7	-0.021009816
126	0x3c05458a	0.008134255
127	0x3d3e0d93	0.046399664
128	0x3b6a97db	0.003579608
129	0x3c81f8e1	0.015865745
130	0x3c261b5a	0.010138357
131	0x3d08b3fd	0.033374775
132	0xbd86ab94	-0.06575695
133	0x3d0c4286	0.03424313
134	0x3cf2541e	0.029581126
135	0x3d407318	0.046984762
136	0xbc2b1c87	-0.010443813
137	0xbd5ace1a	-0.05341921
138	0x3cffe17d	0.03123545
139	0x3d58e542	0.052953012
140	0x3c7fd9d0	0.015615895
141	0xbb69afd5	-0.0035657783
142	0x3ca286ff	0.019839762
143	0x3cacf955	0.021114985
144	0xbd5aa9ad	-0.05338447
145	0xbd724838	-0.059150904
146	0xbd6da899	-0.058022115
147	0xbd156310	-0.036471426
148	0xbbbdf778	-0.005797323
149	0xbd8b6001	-0.06805421
150	0xbcc5f8d6	-0.024166506
151	0xbc9cc95e	-0.019138988
152	0xbc57fe3e	-0.013183175
153	0x3cc8eb93	0.024526393
154	0xbd004d0f	-0.03132349
155	0xbc8c3239	-0.017113792
156	0xbc5fafb0	-0.013652727
157	0xbd1bb0b0	-0.0380103
158	0xbd3fa337	-0.046786513
159	0xbc8589d9	-0.016301082
160	0x3d07a839	0.033119414
161	0x3d01f7bb	0.031730395
162	0x3db40a91	0.08791078
163	0xbbcacbb0	-0.006188832
164	0x3d87fc9b	0.066399775
165	0x3d900905	0.0703297
166	0x3d532191	0.051545683
167	0x3d06ca33	0.032907676
168	0x3d0cc347	0.03436592
169	0x3d73d99f	0.05953371
170	0x3b763bf1	0.003757235
171	0x3cd3a438	0.025835142
172	0x3d6377b4	0.05553408
173	0x3cd08f28	0.025458887
174	0xbbf45700	-0.0074566603
175	0xbc86d12c	-0.016457163
176	0x3cc9b209	0.024621027
177	0xbd797e72	-0.060911603
178	0xbd2b5c4a	-0.04183606
179	0xbb98a602	-0.0046584615
180	0x3cae0314	0.021241702
181	0xbd2dcd5f	-0.042432185
182	0x3d368b99	0.044566724
183	0x3c2ba087	0.010475284
184	0x3bdb5fe4	0.0066947807
185	0x3d022214	0.03177078
186	0xbcd8dda4	-0.026472874
187	0xbc90456b	-0.017611226
188	0x3d21f358	0.03953871
189	0x3d212ec4	0.03935124
190	0xbd2a3184	-0.041551128
191	0x3cc3070a	0.023807067
192	0xbd7c3ed1	-0.061583344
193	0xbd6174ba	-0.05504296
194	0xbd517ec4	-0.051146284
195	0xbd16cac4	-0.036814466
196	0xbc9e9824	-0.019359656
197	0x3c828620	0.015933096
198	0xbd6fd3be	-0.058551542
199	0xbca9b220	-0.02071482
200	0x3cce2271	0.025162907
201	0xb9fb648a	-0.00047949358
202	0x3c978596	0.018496316
203	0xbb3a12f6	-0.002839265
204	0xbd240738	-0.040045947
205	0x3c84a26e	0.016190734
206	0xbc68cb7c	-0.014208671
207	0x3c0f04a4	0.008729134
208	0xbd3ba1a0	-0.045808434
209	0x3d019894	0.03163965
210	0x3d18d17d	0.03730916
211	0x3cd4bc27	0.025968624
212	0xbd112ebd	-0.035444964
213	0x3c086bb5	0.008326461
214	0xba1a427f	-0.00058845425
215	0xbb068dfd	-0.002053141
216	0xbcd55243	-0.026040202
217	0x3cf37f1f	0.029723702
218	0x3c9b2408	0.01893808
219	0x3cb9c8c2	0.022678737
220	0x3abd5b1f	0.0014446712
221	0xbcad0d58	-0.021124527
222	0x3d09ceb8	0.033644408
223	0xbd211bdb	-0.039333206
224	0xbcbf87e6	-0.023380231
225	0xbd0deb07	-0.034647968
226	0xbd911015	-0.070831455
227	0xbba05de9	-0.0048940075
228	0x3c8fa8a4	0.017536469
229	0x3bc49af3	0.0059999167
230	0xbd30f0d1	-0.04319841
231	0xbd1bbf56	-0.03802427
232	0x3c6a4113	0.014297741
233	0x3cf5ebcc	0.030019663
234	0xbd18c7c7	-0.037299898
235	0x3cabb1f8	0.020958886
236	0xba6268c1	-0.00086368254
237	0x3d56fde7	0.052488234
238	0x3d11a907	0.035561588
239	0x3cad5710	0.021159679
240	0xbca76f60	-0.02043885
241	0xbc622571	-0.013802872
242	0xbc2f0fbf	-0.0106849065
243	0xbce229fc	-0.02760791
244	0x3d78e51b	0.060765367
245	0x3c56dff1	0.013114915
246	0xbd04bb73	-0.032405328
247	0x3c2a8b3c	0.010409173
248	0xbd0d0d95	-0.03443678
249	0xbc88fad3	-0.016721165
250	0xbd4c5b76	-0.04989191
251	0x3cf01fae	0.029311981
252	0xbc31da1d	-0.010855225
253	0x3c314118	0.010818742
254	0x3ce6b77c	0.028163664
255	0xbbcc4109	-0.0062333387

conv3.0.bias f4 [32]
0	0x3cdec131	0.02719173
1	0x3cf05e04	0.029341705
2	0x3c34b5d1	0.0110296765
3	0xbbb8d164	-0.0056401957
4	0xbc6eacfb	-0.014567609
5	0x3c9a9290	0.018868715
6	0xbd7e37ee	-0.062065057
7	0x3c086422	0.008324655
8	0xbd2313b0	-0.039813697
9	0x3d28f64a	0.041250505
10	0x3bd82eb0	0.0065973625
11	0x3c9599c2	0.018261794
12	0x3a58b8b9	0.0008267272
13	0x3d55bb81	0.05218077
14	0xbd334cc6	-0.04377439
15	0xbd4e51b6	-0.050370894
16	0xbd5dd4ff	-0.054158207
17	0x3cedc7ed	0.029025996
18	0xbcad914f	-0.021187453
19	0x3d64fae5	0.055903334
20	0xbd7ebee1	-0.062193755
21	0xbd083d95	-0.033261854
22	0x3d2cda7b	0.042200547
23	0x3c9a8a3d	0.018864745
24	0xbca6e8a7	-0.02037461
25	0x3d588491	0.0528608
26	0x3c33d469	0.0109759355
27	0x3c74b5ac	0.014935892
28	0x3d7111d1	0.05885488
29	0xbd3f301d	-0.046676744
30	0xbc08d24d	-0.008350921
31	0x3c5cb8b0	0.013471767

conv3.1.weight f4 [32]
0	0x3f85c172	1.044966
1	0x3f7f7fbd	0.9980429
2	0x3f81ba44	1.0134969
3	0x3f798e6b	0.9748294
4	0x3f7db323	0.99101466
5	0x3f8227f7	1.0168446
6	0x3f7b3db4	0.98141026
7	0x3f7dfc57	0.99213165
8	0x3f8481c7	1.0352105
9	0x3f81058a	1.0079815
10	0x3f80a323	1.0049785
11	0x3f7fc1b8	0.99904966
12	0x3f779634	0.96713567
13	0x3f858a2e	1.0432794
14	0x3f84e96f	1.0383738
15	0x3f7d90ce	0.9904908
16	0x3f8123f2	1.0089095
17	0x3f7f2c6e	0.9967717
18	0x3f7b32b2	0.9812423
19	0x3f813372	1.0093825
20	0x3f846972	1.0344679
21	0x3f81f5d9	1.0153152
22	0x3f7a958e	0.9788445
23	0x3f7f1751	0.99644953
24	0x3f7836cc	0.96958613
25	0x3f8077f3	1.0036606
26	0x3f7b6e64	0.9821532
27	0x3f83c3ce	1.029413
28	0x3f7cf51b	0.988115
29	0x3f7e2d13	0.9928753
30	0x3f800e1f	1.000431
31	0x3f7ed275	0.9953988

conv3.1.bias f4 [32]
0	0xbdb15aa1	-0.08659864
1	0xbb8bef5b	-0.0042704768
2	0xbd7e97e8	-0.062156588
3	0xbcbd8e5e	-0.023139175
4	0xbb8b4475	-0.004250104
5	0xbc197e49	-0.009368488
6	0xbcca7a89	-0.024716632
7	0x3b5b5ab8	0.003347082
8	0x3d0a958b	0.03383402
9	0x3c2f7bb9	0.01071065
10	0xbc83dc36	-0.016096216
11	0xbccda3fb	-0.025102606
12	0x3c147de3	0.009063217
13	0xbd2119ad	-0.039331127
14	0x3dbfa9e9	0.0935858
15	0x3a7fe97a	0.0009762269
16	0x3cdefcdf	0.027220188
17	0xbca20c75	-0.01978133
18	0xbc9472f7	-0.018121226
19	0xbdaf1309	-0.085485525
20	0xbc6c68a2	-0.014429243
21	0xbd02923b	-0.031877737
22	0xbc114b7c	-0.0088680945
23	0x3cf919e5	0.030407855
24	0x3c3ca3a7	0.011513627
25	0xbc25b33b	-0.010113533
26	0x3bb5845c	0.00553946
27	0x3d3e4455	0.046451885
28	0xbbc3c253	-0.005974093
29	0xbb4a4a48	-0.003086703
30	0xbc548938	-0.012972169
31	0x3c976f20	0.018485606

conv3.1.running_mean f4 [32]
0	0x3f39ac57	0.72528595
1	0x3c977b4f	0.018491415
2	0x3e779bae	0.24180481
3	0x3e075da2	0.13219312
4	0x3e018655	0.126489
5	0xbf820d27	-1.0160264
6	0xbeb4219e	-0.35181898
7	0xbcc637f7	-0.024196608
8	0xbdca80c5	-0.09887842
9	0x3f051f0e	0.5200051
10	0x3e4291b0	0.19000888
11	0xbd70fa5f	-0.058832522
12	0xbe9757ac	-0.29559076
13	0x3edac92c	0.42731607
14	0xbf7fc84d	-0.9991501
15	0xbf2280b7	-0.63477653
16	0xbf537b62	-0.8261014
17	0x3e6dfa65	0.23240049
18	0x3d01fa54	0.031732872
19	0xbf5135ba	-0.81722605
20	0xbe9e00fb	-0.30860123
21	0x3ec751e3	0.38929662
22	0x3ea12de6	0.3148033
23	0xbea79aef	-0.32735392
24	0xbf21472f	-0.6299924
25	0xbe7f1ccd	-0.2491333
26	0x3d64511a	0.055741407
27	0xbf21c06e	-0.6318425
28	0x3e843957	0.25824997
29	0xbebee96f	-0.3728747
30	0xbef35989	-0.47529247
31	0x3e7d8653	0.24758272

conv3.1.running_var f4 [32]
0	0x3f456fc1	0.7712365
1	0x3e759f40	0.2398653
2	0x3ecf8c0a	0.4053653
3	0x3ed7af27	0.42125818
4	0x3f022cb7	0.5084948
5	0x3e4fb4fa	0.20283881
6	0x3e6f51c5	0.23371036
7	0x3e816fdd	0.25280657
8	0x3e479819	0.19491614
9	0x3e3835a5	0.17989214
10	0x3ea96f67	0.33092806
11	0x3dfca391	0.12335885
12	0x3e73b7df	0.2380061
13	0x3f0357a5	0.5130561
14	0x3f0e9772	0.5569984
15	0x3eb83177	0.3597524
16	0x3e6ef7e4	0.2333675
17	0x3edc1758	0.4298656
18	0x3e92387f	0.28558728
19	0x3e7612c3	0.24030595
20	0x3e2140fc	0.15747446
21	0x3ea2db84	0.31808102
22	0x3e5f3c20	0.2180028
23	0x3ef27782	0.47356802
24	0x3e3190b8	0.17340362
25	0x3eaddf71	0.33959535
26	0x3ea41b18	0.3205192
27	0x3edfe2f5	0.43727842
28	0x3e0f4728	0.13991988
29	0x3e218c06	0.15776071
30	0x3e2a721b	0.1664509
31	0x3ef9b1c8	0.4876845

deconv2.0.weight f4 [32, 16, 4, 4]
0	0xbd4d0c65	-0.05006065
1	0xbd281aac	-0.04104106
2	0x3d1cfb66	0.03832569
3	0xbd054bbd	-0.032542933
4	0x3cbfb87e	0.023403402
5	0xbd6c2fd1	-0.05766279
6	0xbd8364ae	-0.064156875
7	0xbd17dc39	-0.037075255
8	0xbce09da3	-0.027418917
9	0x3c3ffa44	0.011717383
10	0xbb6c0064	-0.0036010975
11	0x3c124d7c	0.0089296065
12	0xbcf33c7d	-0.029691929
13	0xbd8229dc	-0.0635564
14	0x3d53a3a0	0.051669717
15	0x3b236999	0.0024934767
16	0xbc44d3b0	-0.012013361
17	0xbd84999f	-0.064746134
18	0xbc93ff37	-0.018066032
19	0x3d231b90	0.039821208
20	0x3d396d15	0.045270044
21	0x3d51e93f	0.05124783
22	0x3d7aebad	0.061259914
23	0x3d466386	0.048434757
24	0xbd1986ae	-0.037481956
25	0x3d12b72e	0.035819225
26	0x3be05a9c	0.006846739
27	0xbc9b84a2	-0.018984143
28	0x3cf2e44a	0.029649872
29	0x3c504b1b	0.012713219
30	0xbd5812a0	-0.052752137
31	0x3c9ac228	0.018891409
32	0x3d2395a5	0.039937634
33	0xbd7cc7af	-0.06171387
34	0x3cde2ebe	0.027121898
35	0x3d48b8c3	0.049004328
36	0x3cf7a677	0.030230744
37	0x3d218ff0	0.03944391
38	0xbd0e42cb	-0.034731667
39	0xbd2f672f	-0.042823013
40	0xbbb1b8dc	-0.0054236483
41	0xbc8d67ac	-0.017261349
42	0x3d8dcb6b	0.069235645
43	0x3d04e167	0.032441523
44	0x3c90f285	0.017693767
45	0x3cc27b49	0.023740428
46	0xbcb90ae9	-0.02258821
47	0xbd88434d	-0.066534616
48	0xbd1f141f	-0.03883755
49	0xbbcddd36	-0.006282474
50	0x3cb7d2f9	0.022439467
51	0xbd42eda8	-0.047589928
52	0x3baa6d2b	0.005201002
53	0xbce963cc	-0.02848997
54	0x3c222200	0.009895802
55	0xbcb2dc1e	-0.021833476
56	0x3d82e694	0.063916355
57	0x3da27d6b	0.07934078
58	0xbd734383	-0.059390556
59	0xbd041417	-0.03224572
60	0x3cd1da98	0.025616929
61	0xbd51d07d	-0.05122422
62	0xbcb46984	-0.02202297
63	0xbdb7e56a	-0.08979304
64	0x3a35b64d	0.0006931767
65	0xbd6f81b0	-0.05847329
66	0xbbd596b7	-0.0065182108
67	0x3c4df372	0.012570249
68	0xbd37302f	-0.044723686
69	0x3d04da46	0.032434724
70	0xbcdc6118	-0.026901767
71	0xbd72a09d	-0.059235204
72	0xbd59f723	-0.053214204
73	0xbd2edd3d	-0.042691458
74	0x3cf1111d	0.029427106
75	0x3bb44115	0.0055009224
76	0xbd9eb4b1	-0.07749308
77	0xbd0d783e	-0.0345385
78	0x3d10bece	0.035338216
79	0x3d2c474f	0.042060193
80	0xbcd20be7	-0.025640441
81	0xbd114b73	-0.035472345
82	0xbdaa3287	-0.083104186
83	0xbd456308	-0.048190147
84	0x3cc11fa8	0.023574665
85	0xbc273b31	-0.010206983
86	0xbcb92d2a	-0.022604544
87	0xbb8592b8	-0.004076328
88	0xbd51deda	-0.05123792
89	0xbd8ce918	-0.068803966
90	0xbd8a8c20	-0.06765008
91	0xbb9a2910	-0.004704602
92	0xbcec6dc1	-0.028860928
93	0x3cb56848	0.022144452
94	0xbd01e311	-0.031710688
95	0xbc400948	-0.011720963
96	0xbcf9c3e2	-0.030488912
97	0xbdd23444	-0.10263875
98	0xbd3cdb62	-0.046107657
99	0xbd5fb6a9	-0.054617558
100	0x3d29c9a1	0.041452054
101	0x3c8469ef	0.016163794
102	0xbcd31504	-0.025766857
103	0xbcc5b67b	-0.024134865
104	0xbd484ae2	-0.04889954
105	0xbe016c42	-0.12638953
106	0xbda95968	-0.08269006
107	0xbe2004ff	-0.15626906
108	0x3d083f6e	0.033263616
109	0xbd9e8760	-0.077406645
110	0x3d1e1973	0.03859849
111	0x3cbcc052	0.023040924
112	0xbc139b7b	-0.009009237
113	0xbd7e941d	-0.06215297
114	0xbdd525e2	-0.10407616
115	0xbd981a76	-0.07426922
116	0xbbd93d28	-0.006629605
117	0xbd23a729	-0.03995434
118	0x3ad544f8	0.0016271165
119	0xbe021fda	-0.12707463
120	0x3cfd2e30	0.030905813
121	0xbd310a35	-0.043222625
122	0xbab969bd	-0.0014145892
123	0x3ca5037e	0.020143267
124	0x3d251d41	0.0403111
125	0xbd651161	-0.055924777
126	0x3cab1925	0.020886013
127	0xbde42530	-0.111399055
128	0xbd83c1dd	-0.06433461
129	0x3ab1ad93	0.0013555757
130	0x3ca5ded8	0.020247862
131	0x3d502f91	0.050826613
132	0x3d884379	0.066534944
133	0x3d1952b2	0.03743238
134	0x3c79c7f0	0.015245423
135	0x3d30d2d5	0.043169815
136	0xbdbd1556	-0.09232585
137	0xbce09e78	-0.027419314
138	0xbd0b2f7d	-0.033980835
139	0xbba5e963	-0.0050632223
140	0xbd0cabfa	-0.034343697
141	0xbd2c82ac	-0.042116806
142	0xbc37f78b	-0.011228452
143	0x3d3a8d11	0.045544688
144	0xbdad0786	-0.084487006
145	0xbb353c51	-0.002765436
146	0xbc482d8b	-0.01221789
147	0xba62ded9	-0.00086544227
148	0xbd3dd9a1	-0.046350125
149	0xbd924a1b	-0.07143041
150	0x3bfae73d	0.0076569603
151	0x3d17d89a	0.0370718
152	0xbd8fca55	-0.07021014
153	0xbd25dd5b	-0.040494304
154	0xbe062cf7	-0.1310309
155	0x3d239fd4	0.039947346
156	0x3d1270d7	0.035752144
157	0xbd46d1bb	-0.04853986
158	0xbaf1e84d	-0.0018456072
159	0xbdb031d9	-0.08603258
160	0x3c6db6e0	0.014508933
161	0x3d0b4200	0.03399849
162	0x3d5b9a3e	0.053613894
163	0xbd399c7e	-0.04531526
164	0x3d1e445f	0.038639423
165	0xbd01a6f4	-0.03165336
166	0xbd41575b	-0.04720245
167	0xbdc21a5b	-0.09477683
168	0x3d8a8504	0.06763652
169	0x3d72cdbc	0.059278235
170	0xbd135dc1	-0.035978083
171	0xbc27fb4c	-0.010252785
172	0x3c8d27c6	0.01723088
173	0xbcb8b895	-0.022548953
174	0x3b41878b	0.0029530253
175	0x3c9271dd	0.01787656
176	0xbd2435a1	-0.040090207
177	0xbc991831	-0.018688293
178	0xbd44c1e4	-0.04803647
179	0x3c686f21	0.014186651
180	0x3c3e9510	0.011632219
181	0xbd2b5eb4	-0.041838363
182	0xbd86e1df	-0.0658605
183	0x3b040016	0.0020141653
184	0xbcdd1a75	-0.026990155
185	0x3c6a8e27	0.014316118
186	0x3cb795bc	0.022410266
187	0xbd88d625	-0.0668147
188	0x3cdf4b95	0.02725772
189	0xbd524df9	-0.05134389
190	0x3d08e28b	0.033419173
191	0x3b3d7475	0.0028908525
192	0x3c9c0ab1	0.019048067
193	0x3c47bd98	0.012191199
194	0xbd2ba800	-0.041908264
195	0x3cfa73f3	0.030572867
196	0xbcaa240a	-0.020769138
197	0xbd6ad674	-0.057333425
198	0xbc2bd154	-0.010486919
199	0xbd2ee8ad	-0.042702366
200	0xbd9d1ba9	-0.076712914
201	0xbd160bea	-0.036632456
202	0xbda1deda	-0.07903834
203	0xbbcc57a6	-0.0062360344
204	0xbca7ab85	-0.02046753
205	0x3b1004b1	0.0021975453
206	0x3cec0ac6	0.02881373
207	0xbd1e76aa	-0.038687386
208	0x3c1630ea	0.009166935
209	0xbd4a73e8	-0.049426943
210	0x3ccd91f9	0.02509402
211	0xbd59546a	-0.05305902
212	0xbd60d1c2	-0.05488754
213	0x3caf12c9	0.021371262
214	0xbd82c39e	-0.06384967
215	0x3ccc8dbe	0.024969932
216	0x3d092a38	0.03348753
217	0x3d050366	0.032473944
218	0xbcded1d9	-0.027199673
219	0xbd8a3a8b	-0.067494474
220	0xbd17c129	-0.037049446
221	0xbd75d964	-0.060021773
222	0xbd524108	-0.05133155
223	0x3d2d19ef	0.04226106
224	0x3d4cf88c	0.05004172
225	0x3d10eab9	0.0353801
226	0x3d5e917b	0.05433796
227	0xbd4eedf9	-0.050519917
228	0xbc02fadf	-0.007994383
229	0xbd4920b4	-0.049103454
230	0x3d0a32ec	0.03373997
231	0x3c2bdb22	0.010489257
232	0xbc77b9dc	-0.015119996
233	0xbd2f0890	-0.042732775
234	0xbd3118d8	-0.043236583
235	0xbd09fb56	-0.03368696
236	0x3d40e1bc	0.047090277
237	0xbda1e56f	-0.07905089
238	0xbcfa7a8d	-0.030576015
239	0xbd05fc8c	-0.03271155
240	0x3ae799ec	0.0017669774
241	0xbda2c68e	-0.079480276
242	0x3bf2152c	0.007387778
243	0x3ca2da29	0.019879417
244	0xbc8e61fa	-0.017380703
245	0xbc509ca9	-0.012732663
246	0xbda22637	-0.07917445
247	0xbcd5787f	-0.026058434
248	0xbcbcf6b1	-0.02306685
249	0xbc8b00c2	-0.016968135
250	0xbc919017	-0.017768903
251	0x3cf2bed4	0.02963201
252	0xbd4d43a9	-0.050113354
253	0xbcc5da67	-0.024151994
254	0xbd02892b	-0.031869095
255	0x3c8d845b	0.017275026

deconv2.0.bias f4 [16]
0	0xbcaf3408	-0.021387115
1	0xbd7d60ca	-0.061859883
2	0xbb6dad0f	-0.003626648
3	0x3d400abe	0.046885245
4	0x3bfe773b	0.007765678
5	0xbd4ebc69	-0.05047265
6	0x3c4f10fb	0.012638326
7	0x3d0f89cf	0.035043534
8	0xbd2277e3	-0.039665114
9	0x3d2886a7	0.04114404
10	0xbd4e656e	-0.0503897
11	0xbd44257b	-0.047887307
12	0x3c2edecf	0.010673239
13	0xbcb24975	-0.021763543
14	0x3d4e82be	0.050417654
15	0xbb6fbf1a	-0.0036582411

deconv2.1.weight f4 [16]
0	0x3f6fbacc	0.93644404
1	0x3f781e41	0.96921164
2	0x3f7d5f4c	0.98973536
3	0x3f7f4595	0.9971555
4	0x3f796895	0.97425205
5	0x3f86ce47	1.0531701
6	0x3f861679	1.0475608
7	0x3f82b0ec	1.0210242
8	0x3f77bba8	0.96770716
9	0x3f7b59ad	0.9818371
10	0x3f804afe	1.0022886
11	0x3f7fc217	0.9990553
12	0x3f8099d5	1.0046946
13	0x3f802f92	1.0014517
14	0x3f828a8b	1.019853
15	0x3f895d4a	1.0731595

deconv2.1.bias f4 [16]
0	0xbc6b1ce0	-0.014350146
1	0x3cc598a4	0.024120636
2	0x3ccd19ea	0.02503677
3	0x3d25d805	0.040489215
4	0x3d2b1802	0.041770943
5	0x3a8c4228	0.0010700868
6	0x3da87d0c	0.08226976
7	0x3ce20400	0.027589798
8	0x3d2cfe64	0.042234793
9	0xbd27364d	-0.04082327
10	0x3d7ddf79	0.0619807
11	0x3d13d771	0.036094133
12	0x3cf5f220	0.03002268
13	0x3d44a74f	0.04801112
14	0x3d1bdf8c	0.038054988
15	0xbcf8e40b	-0.030382177

deconv2.1.running_mean f4 [16]
0	0xbeba5ea0	-0.36400318
1	0xbf079a33	-0.52969664
2	0xbefbdd83	-0.49192438
3	0xbefce4a0	-0.49393177
4	0xbf1cf93c	-0.613178
5	0xbf19fa50	-0.6014757
6	0xbf0d5034	-0.55200505
7	0xbed2e14a	-0.41187507
8	0xbf19b7b6	-0.60045946
9	0xbea3d2ed	-0.3199686
10	0xbf3b4fa7	-0.73168415
11	0xbf3d2b45	-0.7389415
12	0xbf12464b	-0.5713851
13	0xbf5ac14e	-0.8545121
14	0xbef8634c	-0.48513258
15	0xbee5df24	-0.44896805

deconv2.1.running_var f4 [16]
0	0x3f07af8e	0.5300225
1	0x3f105306	0.56376684
2	0x3f071085	0.5275958
3	0x3f4234a7	0.7586159
4	0x3ec87eab	0.3915914
5	0x3e0c49c7	0.13700019
6	0x3f24bc0f	0.64349455
7	0x3eab86e7	0.3350136
8	0x3f0b4f44	0.54417825
9	0x3e8aa75d	0.27080813
10	0x3f938540	1.152504
11	0x3f1ccb67	0.6124787
12	0x3f6089f1	0.8771048
13	0x3f8947ae	1.0725
14	0x3e6eedde	0.23332927
15	0x3e0a93a5	0.13532884

deconv3.0.weight f4 [16, 8, 4, 4]
0	0x3b10a2c0	0.0022069663
1	0x3c1a1bcc	0.009406041
2	0x3c670828	0.014101066
3	0x3dcfbd65	0.10143546
4	0x3c08bc8a	0.008345732
5	0xbd1e3338	-0.038623065
6	0x3d4027e8	0.046913058
7	0x3d316752	0.043311425
8	0xbcd29f15	-0.025710622
9	0x3ce74910	0.028233081
10	0x3d664230	0.056215465
11	0xbb4f558c	-0.0031636683
12	0xbd5d01e3	-0.053956877
13	0x3d51dda4	0.051236764
14	0x3d1fd06f	0.039017137
15	0xbd722918	-0.05912122
16	0xbd46afd6	-0.048507534
17	0x3d6e8889	0.05823568
18	0xbd204932	-0.039132304
19	0xbcc4dde8	-0.024031594
20	0xbd491d1a	-0.04910002
21	0x3bfd19eb	0.007724037
22	0xbcc9cf6f	-0.024635045
23	0xba167b51	-0.00057404215
24	0x3cd984b1	0.02655253
25	0xbd8f55e2	-0.06998803
26	0x3d2b4a9b	0.041819196
27	0xbd4a5b55	-0.049403507
28	0x3d4628d6	0.048378788
29	0x3ca88c35	0.020574668
30	0xbaa4d2d5	-0.001257504
31	0x3c93e68e	0.018054273
32	0xbc839f14	-0.016067065
33	0x3d8eb8af	0.06968819
34	0x3b93c1e4	0.0045091975
35	0x3c1dc868	0.0096303
36	0xbcdf4296	-0.02725343
37	0xbd3f3d4f	-0.046689328
38	0xbd5253d2	-0.05134947
39	0xbd69d527	-0.057088044
40	0x3bb5d7f6	0.005549426
41	0x3c2b0ad0	0.01043959
42	0xbc8554f1	-0.016275855
43	0x3ae042ec	0.0017109788
44	0x3cc842f8	0.024445996
45	0x3cfcef99	0.030875968
46	0x3d3d28b9	0.046181414
47	0x3d8f3f7c	0.069945306
48	0x3e0f389a	0.13986436
49	0xbd49dcd0	-0.04928285
50	0xbc55c994	-0.013048548
51	0x3d07e465	0.0331768
52	0x3d6ac08b	0.05731253
53	0x3dadc6a7	0.084851556
54	0xbbc2d320	-0.005945578
55	0x3d30a0c1	0.043122057
56	0x3c8f95f0	0.01752755
57	0xbd098d58	-0.03358206
58	0x3c701ce4	0.014655326
59	0xbcd732a1	-0.026269259
60	0x3c93011b	0.017944863
61	0x3d55dab6	0.052210532
62	0x3cb0b33b	0.021569839
63	0xbc83ae64	-0.016074367
64	0x3d8170d2	0.06320347
65	0xbce229bc	-0.027607791
66	0x3d8e39e5	0.06944636
67	0x3d794634	0.060857967
68	0xbc9830b6	-0.018577915
69	0xbc6b0d78	-0.014346473
70	0xbcf4960d	-0.029856706
71	0xbc61f9c7	-0.013792462
72	0x3d5995e9	0.05312148
73	0x3d723091	0.059128348
74	0x3d94df40	0.07269144
75	0x3b8cf572	0.0043017203
76	0xbb6abfb5	-0.0035819833
77	0xbcdad2d4	-0.026711859
78	0x3cbaad48	0.022787705
79	0xbd060786	-0.03272202
80	0xbb93b022	-0.0045070807
81	0x3d1d024d	0.038332272
82	0xbd4a58b9	-0.04940102
83	0x3d1e6143	0.038666975
84	0xbd488916	-0.04895886
85	0x3cd9cdab	0.026587328
86	0xbd8347a2	-0.06410147
87	0x3d9c4dce	0.076320276
88	0xbce6515d	-0.028114969
89	0xbd7d2a65	-0.06180801
90	0xbce71ec4	-0.028212912
91	0x3da8e9dd	0.08247731
92	0x3d604bd9	0.054759834
93	0x3d439e89	0.047758613
94	0x3d051a77	0.032495942
95	0xbd55af47	-0.05216911
96	0xbcdda24c	-0.027054928
97	0x3ba280ea	0.0049592154
98	0x3c840f0e	0.01612046
99	0x3bba6666	0.0056884764
100	0x3d82edeb	0.063930355
101	0x3c38c667	0.011277772
102	0x3d888021	0.06665064
103	0xbd196545	-0.037450094
104	0xbc80f4c2	-0.01574171
105	0x3ddd3191	0.1080047
106	0x3cc80db5	0.024420599
107	0xbbe369c3	-0.006940098
108	0x3b88df14	0.0041769836
109	0xbcab7250	-0.020928532
110	0xbd8a5efe	-0.067563996
111	0x3c9cf76e	0.019160952
112	0xbc8d26f7	-0.017230494
113	0x3d88f8e4	0.06688097
114	0xbc2a4585	-0.010392551
115	0x3d2618e8	0.040551096
116	0xbd8b483a	-0.068008855
117	0x3bcb060a	0.0061957883
118	0x3caea2bf	0.021317838
119	0xbd720029	-0.059082184
120	0xbca8806c	-0.020569049
121	0x3bc36b29	0.005963702
122	0xbcd48cd7	-0.025946064
123	0x3daf0e51	0.085476525
124	0x3d34739b	0.044055562
125	0xbca5608e	-0.020187642
126	0x3db578f4	0.088609606
127	0x3d4873d4	0.048938587
128	0x3d1f952b	0.038960617
129	0x3d7cbd6f	0.061704095
130	0xbcf02457	-0.029314203
131	0xbd76e61d	-0.060278047
132	0x3d4536d6	0.048148
133	0x3c02b6ce	0.007978154
134	0xbc92606e	-0.017868247
135	0xbd174a52	-0.03693611
136	0xbd52285f	-0.051308032
137	0x3d8165e9	0.06318266
138	0x3ce2810a	0.027649421
139	0x3aba01cb	0.0014191208
140	0x3c06a81d	0.008218792
141	0xbcebd69b	-0.028788855
142	0x3d3e327c	0.046434864
143	0xbd291f19	-0.041289423
144	0xbd968990	-0.07350457
145	0xbd09f1b8	-0.033677787
146	0x3caec341	0.021333339
147	0x3d02ef5c	0.031966552
148	0x3c184c3a	0.009295518
149	0xbcda3603	-0.026637083
150	0xbc9b0d7c	-0.018927328
151	0xbd09bcd4	-0.033627346
152	0x3d6c052e	0.057622127
153	0xbd87dbc0	-0.06633711
154	0x3cf66a7c	0.030080073
155	0xbcc66170	-0.024216384
156	0xbd33da6b	-0.04390947
157	0xbd636f77	-0.055526223
158	0xbca49141	-0.020088794
159	0x3ca4df5b	0.020126035
160	0x3cded0fb	0.027199259
161	0x3abd2197	0.0014429566
162	0xbd9b900e	-0.075958356
163	0xbd06dbc6	-0.032924436
164	0x3cfb4a60	0.030675113
165	0x3dca7768	0.09886056
166	0x3d205bf9	0.039150212
167	0x3db05005	0.086090125
168	0xbb261185	-0.0025340032
169	0xbbb2ba9c	-0.0054543745
170	0xbd9471e4	-0.072482854
171	0x3da92adc	0.08260128
172	0xbc776449	-0.015099593
173	0xbd93a1ee	-0.0720862
174	0x3c4b7de9	0.012420156
175	0xbd97221f	-0.07379555
176	0xbc9e6fd0	-0.019340426
177	0x3d5d3771	0.05400795
178	0xbcb544c4	-0.022127517
179	0x3c74e04b	0.014946054
180	0x3dabdd73	0.083918475
181	0x3b4cfb14	0.0031277584
182	0xbd066287	-0.032808807
183	0x3d075841	0.03304315
184	0xbd964c33	-0.073387526
185	0x3cd2d58f	0.025736598
186	0x3d71169a	0.058859445
187	0xbd43704b	-0.047714513
188	0xbd942e19	-0.07235355
189	0x3c85cbb2	0.016332481
190	0xbd112543	-0.035435926
191	0x3cb74fd4	0.022376932
192	0xbd32fade	-0.043696277
193	0x3d645e8a	0.055754222
194	0x3ca089c5	0.019596944
195	0xbcf0c62d	-0.029391373
196	0xbd01b52b	-0.031666916
197	0xbd55cbbb	-0.052196246
198	0x3c396ded	0.011317712
199	0xbda069d8	-0.07832688
200	0xbd22e3e0	-0.0397681
201	0x3d1d6c5e	0.038433425
202	0x3d786d51	0.060651127
203	0x3da05b82	0.07829954
204	0x3d3dda0b	0.04635052
205	0xbc7f573d	-0.015584764
206	0x3d1f496a	0.038888372
207	0xbc9cb89f	-0.019131003
208	0x3cf3b41d	0.02974897
209	0x3c6329e5	0.013864969
210	0x3ca8d76e	0.020610537
211	0x3cba0a3e	0.022709962
212	0xbd016465	-0.031589884
213	0x3c8d02e9	0.017213302
214	0x3d1cedce	0.038312726
215	0x3d05c9af	0.032663044
216	0x3d07b5df	0.03313243
217	0x3c06741a	0.008206392
218	0xbbb6418f	-0.0055620144
219	0x3cc504dc	0.024050169
220	0x3cc79683	0.024363762
221	0x3d64cfdb	0.05586229
222	0xbc26b729	-0.010175505
223	0x3d9ff331	0.07810057
224	0x3c737f53	0.014861899
225	0xbda73b94	-0.081656605
226	0x3d441bfe	0.047878258
227	0x3da38978	0.079852045
228	0xba3e8bee	-0.0007268776
229	0xbcf36420	-0.02971083
230	0xbd8c46e9	-0.068494625
231	0xbc52a5fe	-0.012856958
232	0x3bcc5cb6	0.006236638
233	0x3d932d89	0.071864195
234	0xbb7a77a6	-0.0038218289
235	0xba5a2679	-0.0008321773
236	0x3c237c78	0.009978406
237	0x3d6adc5a	0.05733905
238	0xbc6503db	-0.01397797
239	0x3da871be	0.082248196
240	0x3c21cfbd	0.009876189
241	0x3c94c40e	0.018159892
242	0xbd742a28	-0.059610516
243	0xbc52d73c	-0.012868699
244	0x3d13481c	0.03595744
245	0xbd42f1d0	-0.04759389
246	0xbd112dc1	-0.035444025
247	0x3cd931f6	0.026513081
248	0xbd32de3c	-0.04366897
249	0x3d75b06d	0.059982706
250	0xbd9adf0c	-0.07562074
251	0xbc84f386	-0.016229402
252	0x3c23dd6c	0.010001522
253	0xbc53a6ef	-0.012918218
254	0x3c90251c	0.01759582
255	0x3d85c1f7	0.065311365

deconv3.0.bias f4 [8]
0	0x3b6e85ea	0.0036395737
1	0x3d7cd75a	0.061728813
2	0x3d9bb2a5	0.07602433
3	0xbcb52f97	-0.02211742
4	0x3d6b186c	0.057396337
5	0x3bc573bb	0.006025759
6	0x3d5443a1	0.05182231
7	0xbd07a32a	-0.03311459

deconv3.1.weight f4 [8]
0	0x3f920369	1.1407291
1	0x3f9332d8	1.1499891
2	0x3f9415ab	1.1569113
3	0x3f9142a4	1.1348462
4	0x3f9477a5	1.1599013
5	0x3f912cb6	1.134177
6	0x3f94177c	1.1569667
7	0x3f94fb79	1.1639243

deconv3.1.bias f4 [8]
0	0x3e104834	0.14090043
1	0x3e16b9be	0.14719293
2	0x3e21b2d8	0.1579088
3	0x3e0728f1	0.13199212
4	0x3e22fcd4	0.15916759
5	0x3e075738	0.13216865
6	0x3e21ccef	0.15800832
7	0x3e270747	0.1631137

deconv3.1.running_mean f4 [8]
0	0xbcdfae8e	-0.027304914
1	0xbe30f606	-0.1728135
2	0xb80782fc	-3.2308497e-05
3	0xbe0538a4	-0.13009888
4	0x3de02f75	0.10946552
5	0x3b8890b9	0.004167643
6	0x3c222a7a	0.0098978225
7	0xbe1a858c	-0.15090007

deconv3.1.running_var f4 [8]
0	0x3e011f5b	0.12609617
1	0x3e21cc64	0.15800625
2	0x3e1a807b	0.15088074
3	0x3e1a0ebf	0.15044688
4	0x3e694eb1	0.22783925
5	0x3e45c2cf	0.19312595
6	0x3e31516e	0.17316219
7	0x3e5d3a8c	0.21604365
