Pix2Pix/checkpoints/pix2pix_model_epoch_70.pth (torch, 99150 bytes, 32 tensors)

conv1.0.weight f4 [8, 3, 4, 4]
0	0x3dfe2b91	0.124106534
1	0x3df341d6	0.118777916
2	0xbda8f472	-0.08249749
3	0x3e156090	0.14587617
4	0x3d887c94	0.066643864
5	0x3bd48b91	0.006486364
6	0xbd959d38	-0.07305378
7	0x3dd4da5d	0.10393212
8	0xbdb15580	-0.08658886
9	0xbc2bf73a	-0.010495955
10	0x3c70b3ce	0.014691306
11	0xbc9fd9be	-0.019513007
12	0x3df24bf6	0.11830895
13	0x3dc053ca	0.093909815
14	0xbe096e70	-0.13421035
15	0xbe17911b	-0.14801447
16	0xbd783585	-0.060597915
17	0x3da5e6b6	0.08100645
18	0x3b976ca9	0.0046211076
19	0x3e1cd930	0.15317225
20	0xbd8e29ef	-0.06941592
21	0xbd69aa90	-0.057047427
22	0x3e2bf249	0.16791643
23	0xbdb5bd98	-0.08874053
24	0xbe13f667	-0.14449464
25	0xbdf89a8b	-0.12138852
26	0xbdc48b02	-0.09596826
27	0xbe0aa8c1	-0.13540937
28	0xbdcfc157	-0.101442985
29	0xbaaa8f3b	-0.0013012657
30	0x3ddcf261	0.107884176
31	0xbdd0fb36	-0.10204165
32	0x3d6d40bd	0.057923067
33	0x3de4988a	0.11161907
34	0xbda74183	-0.08166792
35	0xbdf9a4de	-0.12189649
36	0xbd996fc4	-0.07492021
37	0xbc5c53f5	-0.013447751
38	0x3df00c35	0.11721078
39	0xbd12ab22	-0.035807736
40	0xbd80e11d	-0.06292937
41	0xbdc0822d	-0.09399829
42	0xbe0a13e7	-0.13484155
43	0x3ca48b59	0.020085977
44	0x3de8609e	0.11346553
45	0xbdaebfc5	-0.08532671
46	0x3e1c3ca5	0.15257509
47	0x3afaaf55	0.0019125739
48	0x3c233803	0.009962085
49	0x3c8fc1e5	0.01754851
50	0xbd891d02	-0.06694986
51	0x3e0f51f2	0.13996103
52	0x3dfa4f84	0.12222198
53	0x3d8d3260	0.06894374
54	0x3dd6e22d	0.10492358
55	0x3c605d2e	0.013694091
56	0x3bd5c94d	0.006524241
57	0xbda5d059	-0.0809638
58	0xbdd58a1c	-0.10426733
59	0x3dcf16ad	0.10111747
60	0xbd9287a9	-0.07154781
61	0x3cc09228	0.023507193
62	0xbdb7fd24	-0.089838296
63	0x3e09a674	0.13442403
64	0xbcf06ce9	-0.029348807
65	0xbd882bf7	-0.06649011
66	0x3dfb6104	0.12274364
67	0xbe00528e	-0.12531492
68	0xbd6ae88e	-0.057350688
69	0xbdf2e30e	-0.118597135
70	0x3d511642	0.051046617
71	0xbd233785	-0.03984787
72	0xbbb2235f	-0.0054363455
73	0x3d3af99f	0.045648213
74	0x3d3bd5db	0.045858245
75	0x3de62cc3	0.11239006
76	0x3d4272f3	0.047472905
77	0xbe141d6d	-0.1446435
78	0xbe0745ce	-0.13210222
79	0x3d29a690	0.041418612
80	0x3d283f85	0.041076202
81	0x3daa757e	0.08323191
82	0xbdf469f6	-0.11934273
83	0xbe049b05	-0.1294976
84	0x3ddb09c8	0.10695225
85	0xbd88995b	-0.06669875
86	0xbc06b21b	-0.008221175
87	0xbd6cda1d	-0.057825197
88	0xbced324c	-0.028954647
89	0xbda987e9	-0.08277876
90	0xbddb2695	-0.10700718
91	0x3d8eec9d	0.06978724
92	0xbd110917	-0.03540906
93	0xbd06d0b2	-0.03291387
94	0xbdebddfe	-0.11516951
95	0x3d57bf49	0.052672658
96	0x3dbfd900	0.09367561
97	0xbdabced9	-0.083890624
98	0x3caa7982	0.020809893
99	0x3e164080	0.14673042
100	0xbe04dbb4	-0.12974435
101	0xbdc44d9b	-0.095851146
102	0xbdab23d7	-0.08356445
103	0x3d31bdc1	0.043393854
104	0xbe0723c7	-0.13197242
105	0xbdc10d17	-0.09426325
106	0x3bdd8579	0.006760296
107	0xbcdccd02	-0.026953224
108	0x3dd53a53	0.10411515
109	0xbdcc462b	-0.09974321
110	0x3d3dae63	0.046308886
111	0x3de0e5c9	0.10981328
112	0x3df8cfd8	0.12149018
113	0xbe085587	-0.13313876
114	0x3d880401	0.06641389
115	0xbdd371d5	-0.10324446
116	0x3df89484	0.12137702
117	0xbd8e4fba	-0.069488004
118	0x3bd43ca6	0.0064769564
119	0x3e1438dc	0.14474815
120	0xbdcce5d5	-0.100047745
121	0x3c238e90	0.00998272
122	0x3d039dd4	0.03213294
123	0x3e1593c3	0.14607148
124	0x3dd9f534	0.10642472
125	0xbc87415b	-0.016510656
126	0xbcc16522	-0.023607794
127	0x3dce7a0f	0.100818746
128	0x3c12c828	0.008958854
129	0x3cf04679	0.029330479
130	0xbe1cadaa	-0.15300623
131	0x3cf194aa	0.029489834
132	0x3d88fca4	0.066888124
133	0xbde35690	-0.11100495
134	0x3e000f4d	0.12505837
135	0xbd2fdcff	-0.042935368
136	0x3de1ab78	0.11019033
137	0xbca27a41	-0.019833686
138	0x3d8c3be6	0.06847362
139	0x3dafe4c8	0.085885584
140	0xbdd3a641	-0.10334445
141	0xbdcda7d7	-0.100417785
142	0xbe0e5466	-0.13899383
143	0xbd5b92e0	-0.053606868
144	0xbd238f6b	-0.039931696
145	0x3cc29db2	0.023756836
146	0xbcd7d3b3	-0.026346063
147	0xbda2ab29	-0.079428025
148	0xbe02c073	-0.12768726
149	0xbdf471a5	-0.119357385
150	0x3d886373	0.066595934
151	0x3df4e057	0.11956852
152	0x3daa500f	0.08316051
153	0x3d78533d	0.060626257
154	0x3c0548f5	0.00813507
155	0x3de67c03	0.11254122
156	0x3da79a4d	0.081837274
157	0xbdb0fafa	-0.0864162
158	0x3dcc30d9	0.099702545
159	0xbd9a2854	-0.07527223
160	0xbcb849a3	-0.02249605
161	0x3dc9de15	0.09856812
162	0xbe19c735	-0.15017398
163	0xbda8031d	-0.08203719
164	0xbdb25b58	-0.08708829
165	0x3d233923	0.03984941
166	0xbe0da4fa	-0.13832465
167	0xbda41d92	-0.080134526
168	0xb98cf62e	-0.000268863
169	0x3bfd0630	0.007721685
170	0xbc8e16ad	-0.017344797
171	0xbd7131e7	-0.05888548
172	0x3d22d722	0.039755948
173	0x3e32eed4	0.17473918
174	0x3dbdd0a9	0.092683144
175	0x3ce6edeb	0.02818962
176	0xbe0f5f72	-0.14001253
177	0x3d99b7df	0.07505774
178	0x3bc4b480	0.0060029626
179	0x3d2393d6	0.03993591
180	0xbd26352e	-0.04057806
181	0x3dba4a83	0.09096243
182	0x3c9568b0	0.018238395
183	0x3df3ddee	0.11907564
184	0x3df5556f	0.11979186
185	0x3d38ae7a	0.04508827
186	0x3b3582cb	0.0027696367
187	0x3d80d932	0.06291427
188	0x3dec0e7d	0.11526201
189	0xbdc3d9e0	-0.09563041
190	0x3d762398	0.06009254
191	0x3dbf8d25	0.09353093
192	0x3e3cf867	0.18454133
193	0x3e2d994b	0.16953008
194	0x3e30eee8	0.17278636
195	0xbc9ae359	-0.018907236
196	0x3d0d78dd	0.034539092
197	0x3d8d9061	0.06912304
198	0xbde4315f	-0.11142229
199	0x3d5d2659	0.05399165
200	0x3dacd055	0.08438174
201	0xbda50560	-0.08057666
202	0xbd0b7b43	-0.0340531
203	0xbcbf2071	-0.023330899
204	0x3d9c0e79	0.07619948
205	0xbdd494bd	-0.10379932
206	0x3d9e1d5b	0.07720443
207	0x3cb30595	0.021853248
208	0x3d206954	0.03916295
209	0xbd361430	-0.044452846
210	0x3deddea0	0.11614728
211	0xbe0753ce	-0.13215563
212	0xbe03060f	-0.1279528
213	0xbd615b17	-0.05501851
214	0x3c4d5415	0.012532254
215	0x3d52f3b0	0.05150193
216	0x3e071bb3	0.1319416
217	0xbdb10fc7	-0.086455874
218	0xbdeb0632	-0.11475791
219	0xbe0650ed	-0.13116808
220	0xbdd04afb	-0.101705514
221	0x3e04fc6c	0.12986916
222	0x3d828048	0.06372124
223	0x3d92df07	0.07171445
224	0x3e1606d5	0.14651044
225	0x3d6e294d	0.058144856
226	0xbdb85340	-0.09000254
227	0x3d53dade	0.0517224
228	0xbddd946d	-0.108193256
229	0x3b342c56	0.0027492247
230	0x3dadaf22	0.084806696
231	0x3cce2991	0.025166305
232	0xbcca84c1	-0.024721505
233	0x3b03962e	0.0020078528
234	0x3d29e515	0.041478235
235	0x3dcf464e	0.101208314
236	0xbe012209	-0.1261064
237	0x3bc7475d	0.006081505
238	0x3d9e33a2	0.07724692
239	0xbcd546a9	-0.02603467
240	0x3dff7929	0.12474281
241	0xbbf36078	-0.0074272715
242	0x3abf4083	0.001459137
243	0x3d119c95	0.03554972
244	0xbc939845	-0.018016944
245	0x3e1158d2	0.14194039
246	0x3d2a8395	0.041629393
247	0x3d0c0b31	0.03419036
248	0xbd50d8dd	-0.050988067
249	0xbce285b9	-0.027651655
250	0xbdcb0847	-0.09913688
251	0xbcf73ef4	-0.030181386
252	0x3daf5a1a	0.085621074
253	0xbd896cbd	-0.06710193
254	0x3d990893	0.074723385
255	0xbdf79b0d	-0.120901205

conv1.0.bias f4 [8]
0	0xbd81f54f	-0.06345617
1	0xbde744db	-0.1129243
2	0x3ddd9c1e	0.108207926
3	0xbda3f081	-0.08004857
4	0x3e0e18a9	0.13876595
5	0xbdc0f4e8	-0.09421712
6	0x3dddab17	0.108236484
7	0x3d29da81	0.041468147

conv1.1.weight f4 [8]
0	0x3f80a353	1.0049843
1	0x3f7ee31e	0.99565303
2	0x3f7e2e10	0.99289036
3	0x3f7de18c	0.9917228
4	0x3f8060df	1.0029563
5	0x3f8283d3	1.019648
6	0x3f82392d	1.0173699
7	0x3f78dd7d	0.97212964

conv1.1.bias f4 [8]
0	0xbc6cdb8b	-0.01445664
1	0xbc23c676	-0.009996047
2	0xbcedc7ba	-0.029025901
3	0x3c87c11a	0.01657157
4	0xbd0b10d2	-0.033951588
5	0x3cbd2d7a	0.023092974
6	0x3d034dc9	0.032056604
7	0xbcfb74e8	-0.030695394

conv1.1.running_mean f4 [8]
0	0xbd5b7d5e	-0.053586356
1	0xbdfa460f	-0.12220394
2	0x3dd8db00	0.10588646
3	0xbddeccad	-0.108788826
4	0x3d4f3150	0.050584137
5	0xbdece448	-0.11566979
6	0x3e480ec4	0.19536883
7	0x3d4efa9e	0.050531976

conv1.1.running_var f4 [8]
0	0x3d49049b	0.049076658
1	0x3d2bce4f	0.041944798
2	0x3c7ebde3	0.015548202
3	0x3da39637	0.079876356
4	0x3da48d1c	0.08034727
5	0x3cf786a9	0.030215578
6	0x3da5a7ec	0.08088669
7	0x3c1ffbc0	0.009764612

conv2.0.weight f4 [16, 8, 4, 4]
0	0x3d801b54	0.062552124
1	0x3d234eaa	0.03986994
2	0xbd85c505	-0.06531719
3	0xbd441083	-0.04786731
4	0x3d8d7916	0.06907861
5	0x3da10afb	0.078634225
6	0xbc8b4b28	-0.01700361
7	0x3d6a285d	0.0571674
8	0xbd02f83b	-0.031975012
9	0xbd2c4e13	-0.042066645
10	0x3d8193cd	0.06327019
11	0x3d8bdf79	0.068297334
12	0xbcde5323	-0.027139252
13	0x3d6a9445	0.057270307
14	0x3d2f82af	0.04284924
15	0x3dbcc7e2	0.09217812
16	0x3d2fd577	0.042928185
17	0xbc32e568	-0.0109189525
18	0x3dc965ac	0.098338455
19	0x3d8b39ca	0.06798132
20	0xbd48282b	-0.048866432
21	0xbb5d2058	-0.0033741202
22	0xbd6902d4	-0.056887463
23	0x3c7a2b0a	0.01526905
24	0x3d88a4ea	0.0667208
25	0xbd689048	-0.056778222
26	0xbd4a4378	-0.04938075
27	0xbcc3ff1a	-0.023925353
28	0xbd239f0a	-0.039946593
29	0x3d1b6a6f	0.0379433
30	0x3de18e81	0.110135086
31	0x3dcd0062	0.10009839
32	0xbcbb8228	-0.022889212
33	0xbd82a159	-0.06378431
34	0xbd55606d	-0.052093912
35	0xbca3e17b	-0.020004978
36	0x3da12f90	0.078704
37	0x3d1da406	0.038486503
38	0x3b4abd22	0.0030935486
39	0x3d8ca9ee	0.06868349
40	0x3c90bf23	0.017669266
41	0x3d41868d	0.04724746
42	0x3db12901	0.08650399
43	0xbd1dc275	-0.038515527
44	0x3d4671bc	0.04844831
45	0x3d1e8ec3	0.038710367
46	0xbd5a4505	-0.05328848
47	0xbd1951a3	-0.03743137
48	0xbd01460e	-0.03156095
49	0xbd1d97bb	-0.03847478
50	0x3d0305a5	0.031987805
51	0xbc1ddf03	-0.00963569
52	0xbd22ca28	-0.039743572
53	0xbd89d0ac	-0.06729254
54	0x3dac023c	0.08398864
55	0x3c236c66	0.009974575
56	0x3d54ee65	0.051985163
57	0x3cf73ba2	0.030179802
58	0x3d21d2a9	0.03950754
59	0x3c660513	0.014039296
60	0xbd8b7d34	-0.0681099
61	0x3d8f43cb	0.06995352
62	0xbd839a2a	-0.06425889
63	0xbab49371	-0.0013776851
64	0xbc4ebb64	-0.01261792
65	0x3d6241aa	0.055238403
66	0xbd23d602	-0.039999016
67	0x3d6d35a5	0.057912488
68	0xbd63f65e	-0.055654876
69	0xbceb18dd	-0.02869838
70	0x3bb0abbd	0.0053915665
71	0x3d90205f	0.07037424
72	0x3d4fa442	0.050693758
73	0x3d87ddf5	0.06634132
74	0xbcfa7ce1	-0.030577125
75	0x3dd4db83	0.10393431
76	0x3d7d68f7	0.06186768
77	0x3dbaaa1b	0.09114476
78	0x3d9ca14f	0.07647955
79	0x3c15f369	0.009152272
80	0xbc0b7571	-0.008511887
81	0xbbe5b43d	-0.0070100115
82	0x3d96febd	0.07372806
83	0x3d8a15c8	0.06742436
84	0x3d9079b1	0.07054461
85	0x3c4efde5	0.012633775
86	0x3c972b49	0.018453257
87	0x3c04ae94	0.008098263
88	0x3d0c4645	0.0342467
89	0xbd78291f	-0.06058609
90	0xbd429046	-0.04750087
91	0x3d2f767c	0.042837605
92	0x3d9edc84	0.07756904
93	0x3d298015	0.041381914
94	0xbd027213	-0.03184707
95	0xbcf71565	-0.030161569
96	0xbd9dca8a	-0.07704647
97	0x3d151047	0.036392476
98	0x3cb14568	0.02163954
99	0x3cc29c9c	0.023756318
100	0x3d792569	0.060826693
101	0xbcfa0833	-0.030521488
102	0xbbb230be	-0.0054379394
103	0xbd3f7bd8	-0.046748966
104	0x3d2957f9	0.041343663
105	0xbd19441e	-0.037418477
106	0x3dc4902c	0.09597811
107	0xbb676f7f	-0.003531426
108	0x3d401f6b	0.046904963
109	0x3d9a48be	0.07533406
110	0xbc28e7ba	-0.010309154
111	0x3cd3e9e1	0.025868358
112	0xbc6a2444	-0.014290873
113	0x3cca670f	0.024707345
114	0xbd8ff9df	-0.07030081
115	0x3d87fc0e	0.066398725
116	0xbd9e3f07	-0.07726865
117	0x3d1e275c	0.038611755
118	0x3c0435ba	0.00806945
119	0xbcb00391	-0.021486076
120	0xbd52e0c9	-0.051483903
121	0x3cb62d80	0.022238493
122	0xbd799d61	-0.060941104
123	0xbd53efe3	-0.051742446
124	0xbd0e7b30	-0.03478545
125	0x3c3d0b70	0.011538371
126	0xbd63bad3	-0.05559809
127	0xbc44099f	-0.0119651845
128	0xbd261c75	-0.040554482
129	0xbca346d2	-0.01993123
130	0x3d801d10	0.06255543
131	0x3d8eb282	0.069676414
132	0xbd941fcb	-0.072326265
133	0x3bc0e0d4	0.0058861766
134	0xbd3dcdc8	-0.046338826
135	0xbdb70b4a	-0.089377
136	0x3dbaa5dd	0.09113667
137	0x3d30f1ad	0.04319923
138	0x3d735d64	0.059415236
139	0xbc12fdbc	-0.008971628
140	0xbd9c5dfc	-0.076351136
141	0x3d51eec7	0.051253106
142	0xbcacd709	-0.02109863
143	0xbbb582bf	-0.005539268
144	0x3b9dc82d	0.0048151226
145	0x3d8ee77b	0.06977745
146	0xbccf3aa1	-0.025296511
147	0x3d29c818	0.04145059
148	0x3d0747f7	0.033027615
149	0x3c9a470c	0.018832706
150	0xbd2d50c1	-0.04231334
151	0x3ced3325	0.028955052
152	0x3d6e854b	0.058232587
153	0x3d569994	0.052392557
154	0x3d65b594	0.05608137
155	0x3cbfa4a3	0.023393935
156	0xbd0cb513	-0.034352373
157	0xbc2be8c5	-0.010492508
158	0x3cf4bcc4	0.029875167
159	0x3d475ccf	0.048672494
160	0x3db63767	0.08897286
161	0x3d9667c7	0.07344013
162	0x3c91b4d7	0.017786426
163	0x3cf41a76	0.029797774
164	0xbd0c4fe6	-0.034255885
165	0xbd88e83f	-0.066849224
166	0xbdc85a99	-0.09782905
167	0xbd917352	-0.07102074
168	0xbe0756f7	-0.13216768
169	0x3c351cd4	0.011054236
170	0xbbd22dc7	-0.0064141485
171	0xbdbc3fc2	-0.09191848
172	0xba926beb	-0.0011171078
173	0x3cab4820	0.020908415
174	0xbc37717b	-0.011196489
175	0xbc9be68f	-0.019030837
176	0x3db6897a	0.0891294
177	0xba88bd44	-0.0010432382
178	0x3d9c373b	0.07627722
179	0xbcc4f2a1	-0.024041476
180	0xbbe6ccd7	-0.007043462
181	0xbd02fce8	-0.03197947
182	0xbbc5ef44	-0.0060404856
183	0x3d8fd864	0.07023695
184	0xbd39a8e6	-0.04532709
185	0xbda4a8a1	-0.08039976
186	0x3cb62f11	0.02223924
187	0x3d09c92c	0.033639118
188	0x3d9e1d0c	0.07720384
189	0xbd145c2d	-0.03622072
190	0x3d52b890	0.051445544
191	0x3bd2a082	0.0064278254
192	0x3b0d9764	0.0021605128
193	0xbc66e881	-0.014093519
194	0x3b69efaf	0.003569584
195	0x3c68d8f5	0.014211883
196	0x3cb05723	0.021525925
197	0xbb41935f	-0.0029537303
198	0xbd6f0b6c	-0.058360502
199	0x3ce1c7e0	0.027561128
200	0x3d7b9900	0.06142521
201	0x3d8d44ee	0.06897913
202	0xbcc52448	-0.024065152
203	0xbd6e14c7	-0.058125284
204	0xbd8b9f9c	-0.068175524
205	0x3c598d81	0.013278366
206	0xbda06e1c	-0.07833502
207	0x3c91fc3e	0.017820474
208	0xbce03cb0	-0.027372688
209	0x3dbccc97	0.0921871
210	0x3d577d82	0.052609928
211	0x3d69f4e2	0.057118304
212	0xbd7238aa	-0.05913607
213	0x3dae284b	0.08503779
214	0x3db0b159	0.086275764
215	0x3dc0245d	0.09381936
216	0x3cb86c3f	0.022512553
217	0xbd698448	-0.05701092
218	0xbd43ed12	-0.04783351
219	0x3d4fe674	0.050756887
220	0xbd9ad8f2	-0.0756091
221	0xbde26c03	-0.11055758
222	0xbdf2e145	-0.11859373
223	0xbc8bb6ee	-0.017055001
224	0x3da2b884	0.0794535
225	0x3d04d496	0.0324293
226	0xbd6c0f70	-0.05763191
227	0x3d2eb14f	0.042649563
228	0xbce75728	-0.028239802
229	0xb995056a	-0.00028423528
230	0x3d33b038	0.043869227
231	0xbc1304aa	-0.00897328
232	0xbc33ff19	-0.010986113
233	0xbb957252	-0.004560747
234	0xbd70e276	-0.05880972
235	0x3d887d76	0.06664555
236	0x3db3c1c4	0.08777192
237	0x3d307d9d	0.043088544
238	0xbcaf3cb2	-0.021391246
239	0x3cd9d67c	0.026591532
240	0x3caa2df7	0.02077387
241	0x3d226b13	0.039652895
242	0x3d9ecd6c	0.07754025
243	0xbc987bcc	-0.018613718
244	0x3d56507a	0.052322842
245	0xbbdbdb9d	-0.0067095296
246	0x3db1ce78	0.08681959
247	0x3d3c8e69	0.04603425
248	0x3cbcaeaa	0.023032505
249	0xbca6ac36	-0.020345788
250	0xbd3ce517	-0.046116915
251	0xbcbc3918	-0.022976443
252	0xbd17a323	-0.037020814
253	0xbc2da670	-0.010598764
254	0xbc878d8c	-0.016546987
255	0xbca46fa4	-0.020072766

conv2.0.bias f4 [16]
0	0x3d3cdb82	0.046107776
1	0x3d42c35f	0.0475496
2	0xbd92606b	-0.071472965
3	0x3d47580b	0.04866795
4	0x3d67a26a	0.056551374
5	0xbd91cf96	-0.07119672
6	0x3d6999d5	0.05703147
7	0xbce7f8ce	-0.028316882
8	0x3d10415f	0.035218593
9	0x3bca1f39	0.006168273
10	0x3cd27fbc	0.025695674
11	0x3d1b52d2	0.03792078
12	0xbd8f7b03	-0.070058845
13	0x3da23fcc	0.079223245
14	0xbd40ccb7	-0.04707023
15	0x3d60ec8a	0.05491308

conv2.1.weight f4 [16]
0	0x3f7e148b	0.99250096
1	0x3f7de028	0.9917016
2	0x3f828f65	1.020001
3	0x3f8002d0	1.0000858
4	0x3f83b0d4	1.0288339
5	0x3f7f96bb	0.9983937
6	0x3f8469eb	1.0344824
7	0x3f7ad842	0.97986233
8	0x3f8059bd	1.0027386
9	0x3f80048d	1.0001389
10	0x3f802c37	1.0013493
11	0x3f7d9cbf	0.990673
12	0x3f845dc6	1.0341117
13	0x3f772b04	0.9655001
14	0x3f80636d	1.0030342
15	0x3f7e7106	0.9939121

conv2.1.bias f4 [16]
0	0xbd3806f0	-0.04492849
1	0xbbf8f8ee	-0.007598034
2	0x3c1acc4a	0.00944812
3	0x3ccad3a3	0.02475912
4	0x3d858454	0.0651938
5	0xbc100bcb	-0.008791874
6	0x3d1534bd	0.03642725
7	0x3c5cd3b5	0.013478209
8	0x3c9451b2	0.018105362
9	0x3c3266d9	0.010888779
10	0xbc3175d0	-0.010831311
11	0x3bac5106	0.005258682
12	0x3cbc0b2d	0.022954548
13	0xbce38228	-0.027772024
14	0x3ce12f62	0.027488414
15	0xbbdef8ba	-0.006804553

conv2.1.running_mean f4 [16]
0	0x3f16c9c4	0.5890162
1	0x3ea01d02	0.3127213
2	0xbeffd48c	-0.49966848
3	0xbf057a3d	-0.52139646
4	0xbea190d6	-0.31555814
5	0x3e188160	0.14893103
6	0xbf16416a	-0.58693564
7	0x3e822d83	0.25425348
8	0x3e093362	0.13398507
9	0x3be654ee	0.0070291674
10	0x3f0423e5	0.5161727
11	0x3e4a9922	0.19784978
12	0xbcd6cb0a	-0.026219863
13	0x3f0bb117	0.5456709
14	0xbf16bc24	-0.5888083
15	0x3ea94390	0.3305936

conv2.1.running_var f4 [16]
0	0x3e26b3ff	0.162796
1	0x3e81f141	0.25379375
2	0x3e0fa49d	0.14027639
3	0x3e457dfb	0.19286339
4	0x3df2ce89	0.118558
5	0x3e42719a	0.18988648
6	0x3e7fa841	0.24966528
7	0x3e13de62	0.14440301
8	0x3e105b45	0.14097317
9	0x3e05b3ae	0.13056824
10	0x3e8875b6	0.26652306
11	0x3ec0c2d5	0.37648645
12	0x3dc470d2	0.09591831
13	0x3e0b4c5d	0.13603349
14	0x3f1ab5bf	0.6043357
15	0x3e2ff815	0.1718448

conv3.0.weight f4 [32, 16, 4, 4]
0	0x3d81be27	0.06335097
1	0x3d656fa8	0.056014687
2	0x3d1a808d	0.03772025
3	0x3d8c028a	0.06836422
4	0x3d6b81c3	0.057496797
5	0x3d1062a5	0.035250325
6	0x3d1d751a	0.038441755
7	0x3d879b52	0.06621422
8	0x3d14145d	0.036152232
9	0x3d3ab53f	0.045583006
10	0x3d64276e	0.055701666
11	0x3d4c3f62	0.049865134
12	0x3cbe1d27	0.02320726
13	0x3d780a2f	0.060556587
14	0x3d5f72e6	0.054552935
15	0x3da97235	0.082737364
16	0xbcfb27de	-0.030658659
17	0x3d4f2012	0.050567694
18	0x3cf7c666	0.030245971
19	0xbcb5f043	-0.022209292
20	0x3cfee80f	0.031116514
21	0x3d7c6744	0.06162192
22	0x3d0dff8f	0.034667548
23	0xbd24d922	-0.040246136
24	0x3d68e40d	0.05685811
25	0xbcdeafbd	-0.027183408
26	0x3bbe9ff2	0.005817407
27	0xbcf83f54	-0.030303635
28	0x3c2de5a9	0.010613837
29	0xbd0ee979	-0.034890626
30	0x3d456415	0.04819115
31	0xb968b80a	-0.00022193804
32	0x3cb4e5de	0.022082265
33	0xbba2667f	-0.004956066
34	0x3d14ed74	0.036359265
35	0x3d0fead6	0.035136066
36	0x3d5260d3	0.05136187
37	0x3d711ca9	0.058865223
38	0x3b412f2b	0.0029477577
39	0xbc8968f3	-0.016773676
40	0x3d8116c2	0.06303169
41	0x3d04dd63	0.032437693
42	0x3d0a1c97	0.03371867
43	0x3c38d802	0.011281969
44	0xbd451ffe	-0.048126213
45	0xbcd5c640	-0.02609551
46	0xbc18bc85	-0.00932229
47	0x3d049a1f	0.032373544
48	0xbd44fa9e	-0.04809057
49	0x3c9196a2	0.017772023
50	0xbcedd48f	-0.02903202
51	0xbcb498b5	-0.022045473
52	0xbb920283	-0.004455866
53	0xbcd3fcb5	-0.025877336
54	0x3c119d32	0.008887576
55	0xbc2daae7	-0.010599828
56	0x3cab1ee0	0.020888746
57	0x3cd5f048	0.026115552
58	0x3d2d5212	0.042314596
59	0xbd62fc67	-0.05541649
60	0x3c152fbd	0.00910562
61	0xbd1ba2ac	-0.037996933
62	0x3c995876	0.01871894
63	0x3ce7bf62	0.0282895
64	0xbcd3634e	-0.025804188
65	0xbd98e64b	-0.074658
66	0xbd5a4fd0	-0.05329877
67	0xbce1a641	-0.027545096
68	0xbd3ba9f3	-0.045816373
69	0x3bb09f78	0.005390104
70	0x3d4a5176	0.049394093
71	0x3ccde9d6	0.025135916
72	0x3d0bdbeb	0.034145277
73	0x3be53a60	0.0069954842
74	0xb764a40d	-1.3628055e-05
75	0x3ce44c3d	0.027868384
76	0x372a5d58	1.0154523e-05
77	0x3b1a4100	0.0023537278
78	0xbd11d05e	-0.035599105
79	0xbd0831c3	-0.03325058
80	0x3ce140e7	0.027496768
81	0x3bea43cc	0.0071491953
82	0x3db21914	0.086961895
83	0x3dacdadc	0.084401816
84	0x3d2f70f4	0.04283233
85	0xbb9a7332	-0.0047134394
86	0xbb3f5bac	-0.0029198928
87	0x3c8c5c92	0.017133985
88	0xbd099d6d	-0.0335974
89	0x3d1550ee	0.036454134
90	0x3c14265d	0.00904235
91	0xbc0e56fe	-0.008687733
92	0xbb4f6192	-0.003164385
93	0xbd59edbc	-0.053205237
94	0x3d581877	0.052757706
95	0x3cd796d4	0.026317038
96	0xbbf7b823	-0.0075597926
97	0xbd011cf1	-0.03152174
98	0xbce08c44	-0.027410634
99	0xbd09e604	-0.033666626
100	0x3d6fb194	0.05851896
101	0xbbd2697c	-0.006421266
102	0x3da268e9	0.07930166
103	0x3cf11f04	0.029433735
104	0xbc7f3d6d	-0.01557861
105	0xba1dda30	-0.0006021587
106	0xbc92dfde	-0.017929014
107	0xbd92390d	-0.07139788
108	0xbbe4fd69	-0.0069882167
109	0x3c59b73c	0.013288315
110	0x3cff9d45	0.031202922
111	0xbc341eef	-0.010993703
112	0xbd3376ef	-0.043814596
113	0x3c8a0770	0.01684925
114	0x3b9a5498	0.0047097914
115	0xbc7a4ea8	-0.015277542
116	0x3d5ae06e	0.05343669
117	0x3d418fe4	0.047256365
118	0xbca980a4	-0.020691223
119	0xbd473fd2	-0.04864485
120	0x3b1887c4	0.0023274282
121	0x3d5cb4f2	0.0538835
122	0x3d64c21a	0.055849172
123	0xbcf3457a	-0.029696215
124	0x3c0610ca	0.008182714
125	0xbc25181c	-0.010076549
126	0x3c60f10b	0.013729344
127	0x3d73fd77	0.059567895
128	0x3acbde9f	0.0015554017
129	0x3c81d2bc	0.015847556
130	0x3b6c4cc5	0.00360565
131	0x3c845255	0.01615254
132	0xbd846faf	-0.064666145
133	0x3d0ea1d2	0.034822293
134	0x3d20bfe0	0.039245486
135	0x3d33d710	0.04390627
136	0xbc0e131d	-0.008671549
137	0xbd4b6e00	-0.04966545
138	0x3d0fd8ed	0.035118986
139	0x3d579189	0.052629028
140	0x3c8600fd	0.016357893
141	0x3bedc77a	0.0072564455
142	0x3d061bb5	0.032741267
143	0x3cc0088a	0.023441572
144	0xbd6b6e32	-0.057478137
145	0xbd6f483e	-0.058418505
146	0xbd3e85da	-0.04651437
147	0xbd3876e7	-0.04503527
148	0x3bc1f9cc	0.0059196707
149	0xbd83ac80	-0.06429386
150	0xbd00920d	-0.031389285
151	0x3a3b479a	0.00071441534
152	0xbbfd5d64	-0.0077320803
153	0x3cc40aa8	0.023930863
154	0xbca3edc0	-0.020010829
155	0x39961fde	0.00028633972
156	0xbc69915d	-0.014255849
157	0xbcbf32cf	-0.023339657
158	0xbd29ae9e	-0.041426294
159	0xbc4e68f9	-0.01259827
160	0x3d07dd39	0.03316996
161	0x3cf0aff4	0.029380776
162	0x3da962d9	0.08270807
163	0xbbef3461	-0.007299945
164	0x3d8cc043	0.068726085
165	0x3d90b6c0	0.07066107
166	0x3d3bc9c2	0.045846708
167	0x3d095875	0.033531625
168	0x3d0b125b	0.033953052
169	0x3d5aba14	0.053400114
170	0xbb365de6	-0.0027826964
171	0x3cbc7602	0.02300549
172	0x3d57355f	0.052541133
173	0x3ca3da8b	0.02000167
174	0xbca45b2b	-0.020063004
175	0xbccc7477	-0.024957879
176	0x3d10142d	0.03517549
177	0xbd598bc5	-0.05311181
178	0xbd0827ea	-0.03324119
179	0x3c9f7e49	0.019469397
180	0x3d125812	0.03572852
181	0xbd057a0c	-0.032587096
182	0x3d4c1af3	0.04983039
183	0x3cda2a4a	0.026631493
184	0x3c4b2c38	0.012400679
185	0x3d1e49fc	0.038644776
186	0xbcb2ae6e	-0.02181169
187	0xbb95aee9	-0.00456797
188	0x3d256d93	0.0403877
189	0x3d33c1ab	0.043885868
190	0xbd3490be	-0.04408335
191	0x3cd8bce4	0.026457258
192	0xbd310a60	-0.043222785
193	0xbd1bf27d	-0.03807305
194	0xbc632e8b	-0.013866077
195	0xbd60afef	-0.054855283
196	0xbc4ad17b	-0.012379046
197	0x3d21cb52	0.039500542
198	0xbd410ee5	-0.047133345
199	0xbcb3296a	-0.021870334
200	0x3ca084e6	0.01959462
201	0xbbdc0620	-0.0067145973
202	0x3c06c04f	0.008224561
203	0xbc9d5318	-0.019204661
204	0xbd257fae	-0.040404968
205	0x3c4781e4	0.012176964
206	0x398740ca	0.00025797478
207	0x3c8f1209	0.017464655
208	0xbd3e245e	-0.0464214
209	0x3d3fbbb5	0.04680987
210	0x3d77f848	0.060539514
211	0x3d60d12b	0.054886978
212	0xbcb84162	-0.022492114
213	0x3bafea5b	0.0053685135
214	0xbb8eb670	-0.0043552443
215	0x3b43db17	0.0029885226
216	0xbca564bc	-0.020189635
217	0x3d316954	0.04331334
218	0x3d15f3ff	0.036609646
219	0x3d1985ec	0.037481233
220	0x3c99468b	0.018710395
221	0xbbeb9c9c	-0.0071903
222	0x3d6755e7	0.056478407
223	0xbd067cce	-0.032833867
224	0xbafe96ac	-0.0019423566
225	0xbcd5cfb5	-0.026100019
226	0xbd71315f	-0.058884975
227	0x3cc22622	0.023699824
228	0x3d2934be	0.041310064
229	0x3c8beb3d	0.017079944
230	0xbcd08b86	-0.025457155
231	0xbbda972a	-0.006670852
232	0x3d0e1212	0.034685202
233	0x3d1ccef6	0.03828331
234	0xbce06623	-0.027392453
235	0x3d26ac1b	0.040691476
236	0x3cd3f029	0.025871353
237	0x3d884297	0.06653326
238	0x3d53c7f6	0.05170437
239	0x3d3bb7d0	0.045829594
240	0xbccc9cdd	-0.024977142
241	0xbc66a6b9	-0.014077836
242	0xbc23a24c	-0.009987425
243	0xbd020a62	-0.031748183
244	0x3d7b9240	0.06141877
245	0x3c4c3aa7	0.012465156
246	0xbd125008	-0.035720855
247	0x3ba5d498	0.0050607435
248	0xbd126038	-0.035736293
249	0xbc56b789	-0.013105282
250	0xbd3fbd1f	-0.04681122
251	0x3d0a320a	0.033739127
252	0xbc3f1937	-0.0116637265
253	0x3c6b8cd9	0.014376842
254	0x3d03c3d3	0.032169174
255	0xbbdb33f9	-0.006689545

conv3.0.bias f4 [32]
0	0x3cdeb803	0.027187353
1	0x3cf00a58	0.029301807
2	0x3c34443e	0.011002598
3	0xbbb7a7d7	-0.005604725
4	0xbc6e1b92	-0.01453294
5	0x3c9af73f	0.018916724
6	0xbd7dec5d	-0.06199299
7	0x3c09661b	0.00838616
8	0xbd22c24d	-0.03973608
9	0x3d293b70	0.04131645
10	0x3bd7acf2	0.006581896
11	0x3c9436f4	0.01809261
12	0x3a3e770f	0.0007265666
13	0x3d55b3d6	0.052173458
14	0xbd337221	-0.043810014
15	0xbd4e7c5d	-0.05041157
16	0xbd5e465d	-0.054266322
17	0x3cede04c	0.029037617
18	0xbcae2431	-0.021257492
19	0x3d651ec7	0.055937555
20	0xbd7e9dda	-0.062162258
21	0xbd0851d1	-0.03328115
22	0x3d2d09a3	0.04224552
23	0x3c9aae99	0.018882083
24	0xbca65463	-0.02030391
25	0x3d59182b	0.053001564
26	0x3c352ead	0.011058492
27	0x3c753945	0.014967267
28	0x3d70f868	0.05883065
29	0xbd3f0253	-0.046633076
30	0xbc089452	-0.008336144
31	0x3c5c4c31	0.0134459

conv3.1.weight f4 [32]
0	0x3f81a9a5	1.0129896
1	0x3f7ef130	0.9958677
2	0x3f80c1fa	1.0059197
3	0x3f7917c7	0.97301906
4	0x3f7d0043	0.98828524
5	0x3f822ac8	1.0169306
6	0x3f7bb975	0.9832986
7	0x3f7f43e4	0.9971297
8	0x3f845da2	1.0341074
9	0x3f80f5eb	1.0075048
10	0x3f80a73d	1.0051037
11	0x3f7fe184	0.99953485
12	0x3f781be3	0.9691755
13	0x3f8204c5	1.0157706
14	0x3f82cb5d	1.0218312
15	0x3f7d5849	0.9896284
16	0x3f8121e2	1.0088465
17	0x3f7f57ab	0.99743146
18	0x3f7c4a3b	0.98550767
19	0x3f8250cd	1.0180908
20	0x3f8408b0	1.0315151
21	0x3f8195f4	1.0123887
22	0x3f7c8482	0.9863969
23	0x3f7f4e45	0.99728805
24	0x3f79adb5	0.9753068
25	0x3f80af60	1.005352
26	0x3f7c0e46	0.9845928
27	0x3f833e60	1.025341
28	0x3f7cab37	0.98698753
29	0x3f7f83d8	0.9981055
30	0x3f8085a3	1.0040783
31	0x3f7eb8da	0.9950081

conv3.1.bias f4 [32]
0	0xbd5a6280	-0.053316593
1	0xbb170793	-0.0023045286
2	0xbd25dc61	-0.040493373
3	0xbca7d434	-0.020486929
4	0x3a1cea8e	0.0005985879
5	0x3b858f84	0.0040759463
6	0xbc6cb33e	-0.014447032
7	0x3c2243bf	0.009903847
8	0x3d30ee49	0.043195996
9	0x3cbc33c0	0.022973895
10	0xbbdf69d1	-0.006818034
11	0xbc9636c8	-0.018336669
12	0x3cb22391	0.021745475
13	0xbcc74c95	-0.02432851
14	0x3d892de8	0.06698209
15	0x3b62fe88	0.0034636576
16	0x3ccf4c70	0.025305003
17	0xbc6d94dd	-0.014500824
18	0xbb86761b	-0.0041034347
19	0xbd4b65f7	-0.049657788
20	0x3cb9ecc7	0.022695912
21	0xbcb362c3	-0.02189768
22	0xbb936d54	-0.004499117
23	0x3cc03bb7	0.023465974
24	0x3ca7edd8	0.020499155
25	0x3b02c7ba	0.0019955472
26	0x3b5cd0d3	0.0033693805
27	0x3d316be8	0.043315798
28	0x3b3ce642	0.0028823768
29	0x3b6a5099	0.0035753606
30	0x3c354b94	0.0110653825
31	0x3cc041ac	0.023468815

conv3.1.running_mean f4 [32]
0	0x3f5aaa8f	0.854165
1	0x3df18004	0.11791995
2	0x3c5aaca3	0.013346824
3	0xbcff9971	-0.031201096
4	0x3d3fafff	0.046798702
5	0xbf530313	-0.82426566
6	0xbe6075ed	-0.21919985
7	0xbdc0a8b5	-0.09407178
8	0xbeb084b7	-0.34476253
9	0x3e6ca723	0.23110633
10	0x3df351ac	0.11880812
11	0xbdcb4288	-0.09924799
12	0xbe1ad99a	-0.15122071
13	0x3ed50ab1	0.4160972
14	0xbf7cd91f	-0.987688
15	0xbf3a1c8f	-0.72699827
16	0xbf66338a	-0.8992239
17	0x3df420a6	0.1192029
18	0xbc9463ea	-0.018114049
19	0xbf0f9c3d	-0.56097776
20	0xbf191746	-0.5980114
21	0x3e8b55c4	0.2721387
22	0x3ee93be5	0.45553508
23	0xbeb507b3	-0.35357437
24	0xbf2105d4	-0.6289952
25	0xbdd030e5	-0.10165576
26	0x3d8211da	0.06351061
27	0xbf151a47	-0.5824322
28	0xbe432f77	-0.19061075
29	0xbee90f75	-0.45519605
30	0xbf1b677d	-0.60704786
31	0xbe1cb1c9	-0.15302195

conv3.1.running_var f4 [32]
0	0x3f55b34b	0.83476704
1	0x3e8f2447	0.27957365
2	0x3f003df5	0.5009454
3	0x3ef51c2b	0.47873053
4	0x3ecc1f88	0.39867806
5	0x3e230b0c	0.15922183
6	0x3e8ce443	0.275179
7	0x3e8248a8	0.25446057
8	0x3e7cc189	0.24683203
9	0x3ea54d02	0.32285315
10	0x3ea91339	0.33022478
11	0x3df68e8b	0.12038907
12	0x3e893ee3	0.2680579
13	0x3f2a4862	0.665167
14	0x3f2992d1	0.6623965
15	0x3f20d79e	0.62829006
16	0x3e99790b	0.2997516
17	0x3edcdbe8	0.43136525
18	0x3e8355f3	0.25651512
19	0x3e508079	0.20361508
20	0x3e2e070f	0.1699488
21	0x3eab9507	0.33512136
22	0x3e46139c	0.19343418
23	0x3f0de12c	0.5542171
24	0x3e302c26	0.17204341
25	0x3e95bdbc	0.29246318
26	0x3e832ceb	0.25620207
27	0x3ee09e7a	0.43870908
28	0x3e837002	0.25671393
29	0x3e1b2ad3	0.15153055
30	0x3ea1cff0	0.31603956
31	0x3f32f610	0.6990671

deconv2.0.weight f4 [32, 16, 4, 4]
0	0xbd51078a	-0.05103258
1	0xbd2f3762	-0.042777427
2	0x3d28a862	0.041176207
3	0xbd02c6c8	-0.031927854
4	0x3ccd8822	0.025089327
5	0xbd6bdf2b	-0.057585876
6	0xbd7943a4	-0.060855523
7	0xbd0f08ff	-0.03492069
8	0xbcea9f85	-0.028640518
9	0x3c2c7cbd	0.010527787
10	0xba1de588	-0.00060232775
11	0x3c159c68	0.009131528
12	0xbce5560c	-0.027995132
13	0xbd9164d2	-0.07099308
14	0x3d602594	0.054723337
15	0xbb175907	-0.0023093836
16	0xbc71708b	-0.014736305
17	0xbd8b3e11	-0.067989476
18	0xbc63b666	-0.013898468
19	0x3d1d055d	0.038335193
20	0x3d324a62	0.04352797
21	0x3d4ead13	0.050458025
22	0x3d745863	0.059654605
23	0x3d4cc8cd	0.049996186
24	0xbd0dbd83	-0.03460456
25	0x3d11a628	0.03555885
26	0x3c88793b	0.01665937
27	0xbc983a08	-0.018582359
28	0x3cd4f401	0.025995256
29	0x3bcf07de	0.0063180765
30	0xbd6a1434	-0.057148173
31	0x3c5f4aaf	0.013628646
32	0x3d3a2296	0.04544314
33	0xbd75c923	-0.060006272
34	0x3d0b5b4e	0.03402262
35	0x3d4e2267	0.050325777
36	0x3d18866b	0.037237566
37	0x3d3f42b7	0.046694484
38	0xbcd6d354	-0.026223816
39	0xbd0dabbc	-0.034587607
40	0xbb5fdb6c	-0.0034157885
41	0xbc75a90d	-0.014993918
42	0x3d9766d3	0.07392659
43	0x3d09432c	0.033511326
44	0x3cac85e7	0.021059943
45	0x3cfd8ab5	0.03094993
46	0xbc8fa892	-0.017536435
47	0xbd6dd3da	-0.058063366
48	0xbd04ded2	-0.03243906
49	0xbc790ffe	-0.015201567
50	0x3cd6ba7d	0.026211971
51	0xbd45b32e	-0.048266582
52	0x3bc0f79f	0.0058888937
53	0xbcdb5e10	-0.026778251
54	0x3c28c9e0	0.010302037
55	0xbca55212	-0.020180736
56	0x3d8a5f62	0.06756474
57	0x3d84b44c	0.064797014
58	0xbd75567b	-0.059896927
59	0xbd2d5984	-0.042321697
60	0x3cbc6d9d	0.023001486
61	0xbd4b8a6a	-0.04969255
62	0xbcd08788	-0.025455251
63	0xbdb4e864	-0.088333875
64	0x3a7f7943	0.00097455474
65	0xbd5e4328	-0.054263264
66	0xbacd76ef	-0.0015675704
67	0x3ca85cbc	0.020552032
68	0xbd23d9a3	-0.040002476
69	0x3d4676a3	0.048452985
70	0xbc4a3476	-0.012341609
71	0xbd2d54d9	-0.042317245
72	0xbd56a4cf	-0.052403267
73	0xbd1d8ce5	-0.038464446
74	0x3d120a85	0.035654563
75	0x3c3efe5c	0.011657324
76	0xbd9c6d48	-0.07638031
77	0xbd105ceb	-0.035244863
78	0x3d42e3e1	0.047580604
79	0x3d2b19ff	0.04177284
80	0xbc5429d2	-0.012949424
81	0xbcc15f36	-0.02360497
82	0xbd8d90e9	-0.06912405
83	0xbd18f220	-0.037340283
84	0x3d16680f	0.03672033
85	0xbc4f0b45	-0.012636964
86	0xbc84224b	-0.016129633
87	0xbb898c29	-0.0041976166
88	0xbd1ea23b	-0.038728934
89	0xbd810660	-0.06300044
90	0xbd625d85	-0.05526497
91	0x3bd110c8	0.0063801743
92	0xbcefa265	-0.02925224
93	0x3c898558	0.016787216
94	0xbd1647a6	-0.036689423
95	0xbc4e3fd9	-0.012588465
96	0xbd2fcd96	-0.04292067
97	0xbd81e9a8	-0.063433945
98	0xbd1a76c6	-0.037710927
99	0xbcdfcc40	-0.027319074
100	0x3d297062	0.041366942
101	0x3c5636c6	0.013074582
102	0xbd05191e	-0.032494657
103	0xbce8e883	-0.028431183
104	0xbd42b546	-0.047536157
105	0xbdb0a0a4	-0.0862439
106	0xbd535823	-0.051597726
107	0xbdf2d59c	-0.11857149
108	0x3d0b9bd9	0.034084175
109	0xbd9bd3c6	-0.07608752
110	0x3d1255d8	0.0357264
111	0x3cb89b4f	0.022534994
112	0x3a884506	0.0010396547
113	0xbd94f5d4	-0.072734505
114	0xbdbd01e2	-0.09228875
115	0xbd99c6a5	-0.075085916
116	0x3b6f38b2	0.00365023
117	0xbb176df5	-0.002310631
118	0x3c10c9bd	0.008837161
119	0xbdb7fb04	-0.08983424
120	0x3cfb4d4b	0.030676505
121	0xbd5ae7a7	-0.053443577
122	0x3bc59c65	0.0060306066
123	0x3ce11d4d	0.027479792
124	0x3d3f07e0	0.04663837
125	0xbcc7a9de	-0.024372991
126	0x3cea356e	0.02858993
127	0xbdb15f24	-0.08660725
128	0xbd69fb44	-0.05712439
129	0x3b530e77	0.0032204667
130	0x3cf2d4fe	0.029642578
131	0x3d650715	0.055914957
132	0x3d8a476e	0.067519054
133	0x3d136e60	0.035993934
134	0x3c742fc2	0.0149039645
135	0x3d378b9d	0.04481088
136	0xbda9d526	-0.08292608
137	0xbd03bf26	-0.032164715
138	0xbcb090ef	-0.021553485
139	0xbc14ac08	-0.009074219
140	0xbce0ecf0	-0.02745673
141	0xbd3bb275	-0.045824487
142	0xbbcff7bf	-0.0063466723
143	0x3d38d89e	0.045128457
144	0xbd8eafc5	-0.06967119
145	0xbbc600e1	-0.0060425852
146	0x3c28f588	0.010312445
147	0xbaf1e8e1	-0.0018456244
148	0xbd5720ce	-0.05252152
149	0xbd8dbbc7	-0.06920581
150	0x3b3f87b5	0.0029225175
151	0x3d18ee3b	0.03733657
152	0xbd2c6584	-0.042089
153	0xbd41f342	-0.04735113
154	0xbdc16a97	-0.094441585
155	0x3d12346c	0.035694525
156	0x3cf15f47	0.029464377
157	0xbd1de7dc	-0.038551196
158	0xbc03c079	-0.0080414945
159	0xbd9e5845	-0.0773168
160	0x3c6c6d02	0.014430286
161	0x3d14297f	0.036172386
162	0x3d5d967f	0.054098602
163	0xbd2f78be	-0.042839758
164	0x3d366c0f	0.044536646
165	0xbca28fdf	-0.019843994
166	0xbd3bbb85	-0.04583313
167	0xbdab4dba	-0.083644345
168	0x3d8a3ab3	0.06749477
169	0x3d792c6b	0.060833376
170	0xbd0fe280	-0.035128117
171	0xbc12276b	-0.008920531
172	0x3c9e458f	0.019320277
173	0xbc289d05	-0.010291343
174	0x3a4c4feb	0.0007793891
175	0x3cf1adfc	0.029501908
176	0xbd072922	-0.03299821
177	0xbc575af9	-0.013144248
178	0xbd1a6845	-0.037697095
179	0x3c907f62	0.017638866
180	0x3c577995	0.013151546
181	0xbd225c71	-0.03963894
182	0xbd848b44	-0.06471875
183	0x3b857087	0.004072252
184	0xbc9b21c3	-0.018936997
185	0x3c9aa4bd	0.018877381
186	0x3d127ed3	0.03576548
187	0xbd83ed52	-0.0644175
188	0x3cf7c50a	0.030245323
189	0xbd4a1094	-0.049332216
190	0x3d16430d	0.03668504
191	0x3b9accc7	0.0047241184
192	0x3ceed37e	0.029153582
193	0x3c2a4a2d	0.010393661
194	0xbd131852	-0.035911866
195	0x3ce9bd99	0.02853279
196	0xbc750479	-0.01495468
197	0xbd3ed35c	-0.046588287
198	0xbb908339	-0.004410174
199	0xbd02a145	-0.03189208
200	0xbd87cb8d	-0.06630621
201	0xbd1bae58	-0.038008064
202	0xbd8e5f5b	-0.06951781
203	0xbc0910cd	-0.008365822
204	0xbc9050c2	-0.017616633
205	0x3c6233f3	0.013806331
206	0x3d054763	0.032538783
207	0xbcdcf7eb	-0.026973685
208	0x3c8f7b77	0.017514927
209	0xbd2ad944	-0.041711107
210	0x3d13ed8c	0.036115214
211	0xbd2a00e7	-0.041504767
212	0xbd44ee19	-0.04807863
213	0x3cb2d981	0.02183223
214	0xbd67c7e4	-0.056587115
215	0x3cf936de	0.03042167
216	0x3d2d2114	0.042267874
217	0x3d193c1c	0.03741084
218	0xbc87828b	-0.01654174
219	0xbd77ad31	-0.060467903
220	0xbce6487b	-0.028110733
221	0xbd7dd188	-0.061967403
222	0xbd23b3db	-0.039966445
223	0x3d380149	0.0449231
224	0x3d4ae1b2	0.049531646
225	0x3d1b9e08	0.037992507
226	0x3d69d3c5	0.057086725
227	0xbd5afb70	-0.053462446
228	0xbc19575b	-0.009359206
229	0xbd2976f2	-0.0413732
230	0x3d0fc9c5	0.03510453
231	0x3c88dc0c	0.016706489
232	0xbc804a91	-0.015660556
233	0xbd0b6397	-0.034030523
234	0xbd1ffd78	-0.039060086
235	0xbcef3fa8	-0.029205158
236	0x3d47afb6	0.048751555
237	0xbd966d6b	-0.073450886
238	0xbcd6104f	-0.026130823
239	0xbcdcf2c2	-0.026971225
240	0x3d1045cf	0.035222825
241	0xbd854f04	-0.06509212
242	0x3d073336	0.033007823
243	0x3d0b0f2d	0.03395002
244	0xba219ab3	-0.00061647146
245	0xbc80df07	-0.015731348
246	0xbd8e8231	-0.06958426
247	0xbd14a865	-0.036293406
248	0xbc42bba8	-0.011885561
249	0xbc438986	-0.011934644
250	0xbbcc5214	-0.0062353704
251	0x3d214c9d	0.039379705
252	0xbd54712a	-0.051865734
253	0xbccc4af2	-0.02493808
254	0xbd02c17f	-0.031922814
255	0x3c6176ab	0.013761203

deconv2.0.bias f4 [16]
0	0xbcb0ea62	-0.021596137
1	0xbd7d6485	-0.06186344
2	0xbb714c48	-0.0036819149
3	0x3d4012ce	0.046892934
4	0x3c00ed14	0.007869024
5	0xbd4cd37d	-0.05000638
6	0x3c4e4360	0.012589306
7	0x3d0f7e56	0.035032593
8	0xbd2252ff	-0.039629932
9	0x3d28ca12	0.041208334
10	0xbd4e5943	-0.050378095
11	0xbd43e261	-0.047823314
12	0x3c2ff300	0.010739088
13	0xbcb23a03	-0.021756178
14	0x3d4e5eab	0.05038325
15	0xbb768713	-0.0037617132

deconv2.1.weight f4 [16]
0	0x3f73ad32	0.9518615
1	0x3f79dd03	0.9760286
2	0x3f7f820d	0.99807817
3	0x3f7ef8a5	0.9959815
4	0x3f7d98ed	0.9906147
5	0x3f835c02	1.0262454
6	0x3f847a4b	1.0349821
7	0x3f7e56cf	0.9935121
8	0x3f79bad6	0.97550714
9	0x3f7af755	0.9803365
10	0x3f811fbb	1.0087808
11	0x3f801916	1.0007656
12	0x3f822bc6	1.0169609
13	0x3f80720a	1.0034802
14	0x3f8374b9	1.0269996
15	0x3f83e2d1	1.0303594

deconv2.1.bias f4 [16]
0	0xbc459371	-0.012059079
1	0x3c89e573	0.016833043
2	0x3cd8b26e	0.02645227
3	0x3d0bc4d8	0.03412327
4	0x3d117cb5	0.03551932
5	0x3c9fb528	0.019495562
6	0x3d86f3b5	0.06589452
7	0x3c9cb8f2	0.019131158
8	0x3d0ebbbd	0.03484701
9	0xbccfab58	-0.025350258
10	0x3d458ed3	0.04823191
11	0x3d0c9a44	0.034326807
12	0x3d0ac4d3	0.033879112
13	0x3d1c4f3f	0.038161512
14	0x3d31e0a4	0.043427125
15	0x3cf91bee	0.030408826

deconv2.1.running_mean f4 [16]
0	0xbe878deb	-0.26475462
1	0xbec7e302	-0.3904038
2	0xbe98083a	-0.29693776
3	0xbecdbee6	-0.40184706
4	0xbedbf88c	-0.42963064
5	0xbf0278f9	-0.5096584
6	0xbefbb235	-0.491594
7	0xbebb8509	-0.36624935
8	0xbedd78bb	-0.43256173
9	0xbe899bb5	-0.26876608
10	0xbf08ecfa	-0.534866
11	0xbf21b257	-0.6316275
12	0xbec854c5	-0.39127174
13	0xbf0f3bdf	-0.5595073
14	0xbeb5a989	-0.35480908
15	0xbed0d61d	-0.40788355

deconv2.1.running_var f4 [16]
0	0x3eb5756e	0.35441154
1	0x3ed5e95a	0.41779596
2	0x3eb353c7	0.35024855
3	0x3f0f45fa	0.5596615
4	0x3e8f9d99	0.28049925
5	0x3e17b758	0.14816034
6	0x3edf3a49	0.43599156
7	0x3ea8aeb8	0.329458
8	0x3ecb98c7	0.39764997
9	0x3e8f0799	0.27935484
10	0x3f38453a	0.7198063
11	0x3ef146c8	0.47124314
12	0x3effc220	0.49952793
13	0x3f31f7fe	0.6951903
14	0x3e3ee206	0.18640909
15	0x3e1f7f9e	0.15576026

deconv3.0.weight f4 [16, 8, 4, 4]
0	0xbc27f8d8	-0.0102522
1	0x392cb0a6	0.00016469005
2	0xbace09dd	-0.0015719492
3	0x3dd35844	0.1031957
4	0x3d38fc10	0.04516226
5	0xbd2aa79d	-0.041663755
6	0x3d145914	0.036217764
7	0x3d06586b	0.032799166
8	0xbc6dacd8	-0.014506541
9	0x3c87ea51	0.016591223
10	0x3d813f4f	0.06310903
11	0x3ca20342	0.019776944
12	0xbd6eb4ce	-0.058277898
13	0x3d687f7c	0.056762204
14	0x3d10acb2	0.035320945
15	0xbd7ded8e	-0.061994128
16	0xbd041654	-0.032247856
17	0x3d89bb0c	0.067251295
18	0xbd332ef5	-0.043745954
19	0xbd04239e	-0.03226053
20	0xbd45af0c	-0.04826264
21	0x3cc46040	0.023971677
22	0xbd00bc97	-0.031429853
23	0x3cdc6b09	0.026906507
24	0x3d2cb243	0.04216219
25	0xbd87d388	-0.06632143
26	0x3d4d19b8	0.050073355
27	0xbd44c908	-0.04804328
28	0x3d809ab9	0.06279511
29	0x3c9be79f	0.019031344
30	0xbb0b9070	-0.0021295808
31	0x3ca1def3	0.01975963
32	0xbc7136b1	-0.014722512
33	0x3da5787e	0.08079623
34	0xbc136fe3	-0.008998844
35	0xbb906167	-0.0044061425
36	0xbcd5b0ad	-0.026085222
37	0xbd2efd95	-0.042722303
38	0xbd187619	-0.037222
39	0xbd8c88fc	-0.06862065
40	0xbb6aabf7	-0.0035808065
41	0x3cbb0521	0.022829594
42	0xbc93c79f	-0.018039523
43	0x3beb0d80	0.00717324
44	0xbb10a8b9	-0.0022073223
45	0x3d2ae0d7	0.04171833
46	0x3d7b8417	0.061405268
47	0x3da55d8f	0.080744855
48	0x3def328d	0.11679564
49	0xbd50fc26	-0.051021717
50	0x390f8880	0.00013688393
51	0x3cfd4aa7	0.030919386
52	0x3d9ba3d9	0.07599611
53	0x3dafecfd	0.08590124
54	0xbc9035fd	-0.017603869
55	0x3d72be79	0.05926368
56	0x3caa738b	0.020807048
57	0xbcebfcbf	-0.028807042
58	0x3d132d4c	0.03593187
59	0xbd060837	-0.032722678
60	0x3d184073	0.03717084
61	0x3d7b8026	0.06140151
62	0x3c2c099d	0.010500339
63	0xbc579f9c	-0.013160612
64	0x3d80615a	0.06268568
65	0xbbcdd556	-0.006281535
66	0x3d92b1d0	0.07162821
67	0x3d91e8ab	0.07124456
68	0xbcb36f1a	-0.021903563
69	0xbcb27c84	-0.02178789
70	0xbc414fdb	-0.011798824
71	0xbc0b8cc4	-0.008517448
72	0x3d6f4ad8	0.058420986
73	0x3d6157de	0.055015437
74	0x3db86853	0.09004273
75	0x3cb19d83	0.021681553
76	0xbc8baca8	-0.017050102
77	0xbbfb8503	-0.0076757683
78	0x3be3709a	0.0069409134
79	0xbd0d6c3b	-0.034527045
80	0xbb9031f0	-0.0044004843
81	0x3d347e38	0.044065684
82	0xbd85c801	-0.06532288
83	0x3d1e6182	0.03866721
84	0xbd610c93	-0.054943632
85	0x3b0bdf8c	0.002134296
86	0xbd6d65af	-0.0579583
87	0x3d87f95c	0.066393584
88	0xbd1b1e68	-0.037870795
89	0xbd70e379	-0.058810685
90	0xbd27402b	-0.04083268
91	0x3d93772b	0.07200464
92	0x3d5c58e7	0.05379572
93	0x3d9750b8	0.07388443
94	0x3d02e642	0.031957872
95	0xbd2a2088	-0.04153493
96	0xbd0bec87	-0.034161117
97	0x3c239714	0.00998475
98	0x3ca8b9e1	0.020596446
99	0x3cffec7e	0.031240698
100	0x3d5e2489	0.05423406
101	0x390f6213	0.00013674078
102	0x3da30982	0.07960798
103	0xbd23b0de	-0.039963596
104	0xbd04ba81	-0.032404426
105	0x3ddfe6f0	0.1093272
106	0x3ceb5d66	0.02873106
107	0xbc4ee56b	-0.01262794
108	0x3cecca45	0.028905043
109	0xbcafc617	-0.021456761
110	0xbd6da763	-0.05802096
111	0x3c3a623d	0.011375961
112	0xbc918b9c	-0.017766766
113	0x3d8608ce	0.06544648
114	0x3ac24358	0.0014821095
115	0x3d81d27b	0.06338974
116	0xbd6ec566	-0.058293723
117	0x3cce9e00	0.025221825
118	0x3cdcea1f	0.026967106
119	0xbd6bbcea	-0.05755321
120	0xbc9d0e0b	-0.019171735
121	0xbb6bc127	-0.0035973282
122	0xbc88978e	-0.01667383
123	0x3de44a3a	0.1114697
124	0x3da2b7af	0.07945191
125	0xbbed3ac9	-0.0072396738
126	0x3dc2ca8b	0.09511288
127	0x3d5aef94	0.053451136
128	0x3d53f115	0.051743586
129	0x3d8a6ee2	0.067594305
130	0xbca15c22	-0.019697253
131	0xbd72ebdb	-0.05930696
132	0x3d510e23	0.051038872
133	0x3c370279	0.011170023
134	0x39f3c2e3	0.00046493774
135	0xbd235f93	-0.03988607
136	0xbd1c2278	-0.03811881
137	0x3d75a78b	0.059974235
138	0x3c90efcd	0.01769247
139	0x3c31c23f	0.0108495345
140	0x3b84fcd0	0.004058458
141	0xbd1243ed	-0.03570931
142	0x3d3d8be6	0.046275996
143	0xbd2802a3	-0.04101814
144	0xbd5a62fc	-0.053317055
145	0x3b3d5eb3	0.0028895556
146	0x3d0a75aa	0.03380362
147	0x3d23c479	0.039982293
148	0x3c9445a5	0.018099615
149	0xbce25204	-0.027626999
150	0xbc95f883	-0.018306976
151	0xbcbe0c67	-0.023199273
152	0x3d98641b	0.074409686
153	0xbd5eb89c	-0.054375276
154	0x3cb330f3	0.021873927
155	0xbc604dd8	-0.013690434
156	0xbd3ca718	-0.04605779
157	0xbd732564	-0.05936183
158	0xbcbb55f9	-0.022868143
159	0x3d2cdc0d	0.042202044
160	0x3d22b601	0.039724354
161	0x3b5e6fda	0.003394118
162	0xbd81dcfb	-0.06340977
163	0xbd184cf4	-0.037182763
164	0x3d1a6361	0.03769243
165	0x3dda93f9	0.10672755
166	0x3cd796b8	0.026316985
167	0x3d9ddfea	0.07708724
168	0x3bd4e4b4	0.00649699
169	0x3bbcb4b0	0.0057588443
170	0xbd816d72	-0.06319703
171	0x3dbbe54b	0.091745935
172	0xbc2d2a27	-0.010569132
173	0xbd6eb149	-0.05827454
174	0x3c4b470a	0.012407074
175	0xbd8f63ae	-0.07001434
176	0xbbdeb483	-0.006796421
177	0x3d7c8236	0.061647616
178	0xbc9fcd04	-0.019506939
179	0x3cbb33f5	0.022851923
180	0x3dd0ab94	0.10188976
181	0x3b6ba6bb	0.0035957533
182	0xbcf0edba	-0.029410232
183	0x3d46af61	0.048507098
184	0xbd9347aa	-0.07191403
185	0x3d2f24cb	0.042759698
186	0x3d7fd126	0.06245532
187	0xbd60c1b8	-0.054872245
188	0xbd7baeb8	-0.06144592
189	0x3c5a4ede	0.013324467
190	0xbccaac71	-0.02474043
191	0x3cd2cda3	0.02573282
192	0xbd07e4ac	-0.033177063
193	0x3d7f0cd1	0.062268082
194	0x3c98d6cb	0.018657109
195	0xbc9dbf3d	-0.019256229
196	0xbd1e8abd	-0.03870653
197	0xbd53c755	-0.05170377
198	0x3cfd2356	0.030900639
199	0xbdab82d7	-0.08374565
200	0xbd1ba73f	-0.038001295
201	0x3ce138d9	0.027492927
202	0x3d85cedd	0.06533597
203	0x3d9bbd21	0.07604433
204	0x3cb62b48	0.022237435
205	0xbc5f786f	-0.013639553
206	0x3d72a01e	0.05923473
207	0xbcfe26f1	-0.031024428
208	0x3d437dba	0.047727324
209	0x3c5a25f1	0.01331471
210	0x3d0466b5	0.03232451
211	0x3cce8aeb	0.025212726
212	0xbcc74aa7	-0.02432759
213	0x3cbc747e	0.023004767
214	0x3ce303a2	0.027711693
215	0x3cb33d2d	0.021879757
216	0x3d374441	0.044742826
217	0x3c0e5a79	0.008688563
218	0x3bab1736	0.005221273
219	0x3cbff29e	0.023431119
220	0x3cc04d67	0.023474408
221	0x3d7d2fc8	0.061813146
222	0xbcaf7ab1	-0.021420809
223	0x3da1e1f9	0.07904429
224	0x3d23b914	0.039971426
225	0xbd906bcc	-0.070518106
226	0x3d91228a	0.07086666
227	0x3da28f09	0.07937438
228	0x3c21cfbf	0.009876191
229	0xbc80d48a	-0.015726347
230	0xbd8a0725	-0.06739644
231	0xbc2260f1	-0.009910808
232	0x3c94609e	0.018112477
233	0x3d8b9d26	0.06817083
234	0xbbab8d72	-0.0052353675
235	0xbbb877c1	-0.00562951
236	0x3bbbe5c7	0.0057341787
237	0x3d40c009	0.04705814
238	0xbc027b8b	-0.007964025
239	0x3dacf332	0.08444823
240	0x3cbb04c1	0.022829415
241	0x3c3f4198	0.011673354
242	0xbd36746e	-0.04454463
243	0x3b426445	0.0029661816
244	0x3d60d16b	0.054887217
245	0xbd2d85e7	-0.042364027
246	0xbd2f17b3	-0.04274721
247	0x3c9a3d0a	0.018827934
248	0xbd58237b	-0.05276821
249	0x3d6aeee1	0.05735672
250	0xbd9b4e62	-0.0758331
251	0xbc1fd68a	-0.00975574
252	0x3c6a8f56	0.0143164005
253	0xbca43009	-0.020042436
254	0x3cabbc97	0.02096395
255	0x3d8d79c6	0.06907992

deconv3.0.bias f4 [8]
0	0x383151f5	4.2276417e-05
1	0x3d7d97a7	0.061912205
2	0x3d990b09	0.07472808
3	0xbcdbb41b	-0.02681928
4	0x3d514b2c	0.05109708
5	0x3bbb7837	0.005721118
6	0x3d461a87	0.048365142
7	0xbd1b03c3	-0.037845384

deconv3.1.weight f4 [8]
0	0x3f8b2d05	1.0873114
1	0x3f8bea57	1.093089
2	0x3f8c2e3a	1.0951607
3	0x3f8aba9b	1.0838197
4	0x3f8cbdaf	1.0995387
5	0x3f8a97d7	1.0827588
6	0x3f8c48b4	1.0959687
7	0x3f8cfac9	1.1014034

deconv3.1.bias f4 [8]
0	0x3db1577f	0.08659267
1	0x3db81f6f	0.089903705
2	0x3dc3082b	0.09523042
3	0x3da59dd3	0.08086743
4	0x3dc870c4	0.09787133
5	0x3da5a2a3	0.08087661
6	0x3dc48cbe	0.09597157
7	0x3dcee32d	0.10101924

deconv3.1.running_mean f4 [8]
0	0x3d79f9a3	0.061029088
1	0x3ce2c217	0.02768044
2	0x3dee4ab7	0.116353445
3	0x3c717887	0.014738209
4	0x3e6b816a	0.22998586
5	0x3db6d272	0.08926858
6	0x3de4b8e0	0.111680746
7	0xbccd5876	-0.025066596

deconv3.1.running_var f4 [8]
0	0x3e1261cc	0.14295119
1	0x3e34ea8b	0.17667596
2	0x3e360112	0.17773846
3	0x3e1b2d2b	0.15153949
4	0x3e68c402	0.22731021
5	0x3e40e6d0	0.18838048
6	0x3e2cbefb	0.16869728
7	0x3e631ab5	0.22178157
