Pix2Pix/checkpoints/pix2pix_model_epoch_150.pth (torch, 99191 bytes, 32 tensors)

conv1.0.weight f4 [8, 3, 4, 4]
000000 3d 01 f9 3d f3 c2 e6 3d 62 04 af bd b9 2c 17 3e
       0.12158439 0.11267652 -0.08545758 0.14763154
000010 f2 6e 89 3d 85 33 68 3b 55 88 90 bd 8e 02 e2 3d
       0.06710614 0.0035431099 -0.07057253 0.110356435
000020 e1 a3 d0 bd ad 3d f8 bc 1b cd ef 3a 46 f2 cc bc
       -0.101875074 -0.030302847 0.0018295379 -0.025017869
000030 9f e7 ed 3d 40 ce b7 3d 86 1f 0a be 59 04 10 be
       0.11616444 0.08974886 -0.13488588 -0.14064158
000040 d7 8b 51 bd aa 92 b1 3d c2 98 5b 3c fe c7 29 3e
       -0.051158752 0.08670552 0.0134031195 0.16580197
000050 0f d0 65 bd 92 2b 41 bd 50 53 3b 3e 00 26 91 bd
       -0.056106623 -0.047160693 0.182935 -0.07087326
000060 44 e2 12 be 11 33 ff bd 72 0a bd bd ff 5d 00 be
       -0.14344126 -0.12460912 -0.09230508 -0.12535857
000070 7f bb bb bd 80 42 e5 3b 53 69 f5 3d 9d e0 a9 bd
       -0.091666214 0.006996453 0.119829796 -0.08294795
000080 67 54 8c 3d a1 d0 f2 3d 2d 29 92 bd cc ec dc bd
       0.06852036 0.11856199 -0.0713676 -0.10787353
000090 5a 44 84 bd c7 03 d1 bb 6d bd 04 3e 66 39 a9 bc
       -0.064583495 -0.006378624 0.12962885 -0.020657253
0000a0 aa 63 90 bd 2e ee d8 bd 97 dc 0e be 99 2f b2 3c
       -0.070502594 -0.10592304 -0.13951336 0.021751212
0000b0 f8 81 ee 3d cb b4 ab bd 5f dc 21 3e 59 a2 6c 3c
       0.11645883 -0.08384093 0.15806721 0.014443004
0000c0 a7 45 30 3c c4 a0 96 3c 02 64 87 bd ac 6e 0c 3e
       0.010758794 0.018387206 -0.06610872 0.13714093
0000d0 90 42 01 3e 9c 61 96 3d a6 4e dc 3d 93 74 54 3c
       0.12623048 0.07342836 0.107571885 0.012967247
0000e0 53 30 53 3c fd b4 8e bd 89 32 bb bd 3c 7a d5 3d
       0.012889939 -0.069681145 -0.09140498 0.10423705
0000f0 31 6e 6f bd 02 21 41 3d f9 39 83 bd 6d 73 15 3e
       -0.058454696 0.04715062 -0.06407542 0.14594813
000100 90 a2 cb bc 53 a2 80 bd d3 da fe 3d 48 2a 01 be
       -0.02485779 -0.06280961 0.12444081 -0.12613785
000110 5f c2 5a bd 42 b4 ec bd 03 48 4e 3d 62 ea 2c bd
       -0.053408023 -0.11557819 0.050361644 -0.042215712
000120 fc 13 b6 ba 61 7a 59 3d 49 8a 59 3d f5 ad e4 3d
       -0.0013891454 0.053095225 0.053110395 0.11165992
000130 0a 42 63 3d d3 27 03 be 5a 35 ea bd 10 07 3f 3d
       0.0554829 -0.1280816 -0.11435957 0.046637595
000140 c1 15 21 3d 17 ec a1 3d 8b a0 01 be d8 f0 0d be
       0.039327387 0.07906359 -0.12658899 -0.13861406
000150 d4 24 d0 3d 4c b9 99 bd cb 03 ac bc 11 39 91 bd
       0.101632744 -0.07506046 -0.020997902 -0.07090963
000160 5b 18 23 bd f4 24 c1 bd 83 b1 f1 bd 7f 1c 60 3d
       -0.03981815 -0.094308764 -0.11801436 0.054714676
000170 cb 46 3d bd 2c 28 27 bd 1b fc f5 bd 00 e4 28 3d
       -0.04621009 -0.040809795 -0.12010976 0.041233063
000180 dc 86 ac 3d 52 fb b2 bd 20 70 aa 3c 75 ad 1c 3e
       0.0842416 -0.08739342 0.020805418 0.15300544
000190 62 c9 06 be c8 e5 be bd f3 04 9e bd 2e 50 5a 3d
       -0.13162759 -0.09321171 -0.07715788 0.05329912
0001a0 92 f9 06 be 29 b2 c3 bd b7 3a 03 3c 57 c1 a4 bc
       -0.13181141 -0.09555466 0.008009604 -0.020111723
0001b0 dc 12 df 3d af 23 ca bd e7 a0 5f 3d b9 13 f8 3d
       0.10892269 -0.09870087 0.054596808 0.12113137
0001c0 18 be e2 3d a7 a2 0e be c2 c9 81 3d 48 68 d1 bd
       0.11071414 -0.13929234 0.063373104 -0.10224968
0001d0 5e ad eb 3d 85 01 94 bd cb a4 eb 3b d1 b7 16 3e
       0.115076765 -0.07226852 0.0071912757 0.14718558
0001e0 9d c1 d9 bd 9f 00 09 3b 50 2d dc 3c fe 2d 14 3e
       -0.10632632 0.0020904911 0.026877075 0.1447067
0001f0 ea 67 d2 3d 71 1b c1 bc 08 2b c2 bc 30 ae d1 3d
       0.10273726 -0.023572655 -0.02370216 0.10238302
000200 ec 1e cb 3b 6d c7 f9 3c 96 56 19 be fa 15 15 3d
       0.0061987545 0.030490601 -0.14974436 0.03639791
000210 eb 4b 88 3d e0 bc dd bd f0 34 05 3e 73 7a 14 bd
       0.06655105 -0.10827041 0.13008475 -0.03624959
000220 b3 7d dc 3d cf 20 c2 bc 5c ea 87 3d e4 3a b2 3d
       0.10766163 -0.023697285 0.066364974 0.08702639
000230 20 46 d8 bd 09 ca d7 bd 68 b1 0d be 58 a5 52 bd
       -0.1056025 -0.10536582 -0.13837206 -0.051427215
000240 63 8a 26 bd c6 c5 81 3c 08 50 c6 bc ce bd 8b bd
       -0.04065932 0.015841376 -0.024208084 -0.06823312
000250 a9 a6 fd bd 4a 0b 02 be 28 f7 82 3d 68 d6 fc 3d
       -0.123853035 -0.12699619 0.063947976 0.12345582
000260 b9 74 a6 3d ee 3e 40 3d 08 73 ec 3b 43 43 ec 3d
       0.08127732 0.046935014 0.007215861 0.11536267
000270 f0 43 a8 3d 73 4a bd bd a1 f0 c4 3d 58 1f 95 bd
       0.08216083 -0.09242716 0.09616209 -0.07281369
000280 f5 2d 97 bc 1f 5c b9 3d 5d 4a 18 be 43 d6 95 bd
       -0.018454531 0.09050774 -0.14872117 -0.07316258
000290 69 26 98 bd 05 03 0e 3d bb d2 0f be 29 60 9f bd
       -0.07429201 0.03467085 -0.14045231 -0.07782013
0002a0 53 e1 2a 3c ad fd b4 3a 47 c2 5c bc f9 b8 61 bd
       0.010429698 0.0013808511 -0.013474054 -0.055108044
0002b0 f4 df 66 3d 1d 72 3c 3e 9d f6 c8 3d 42 4d 13 3d
       0.056365922 0.18402906 0.09812663 0.03596235
0002c0 02 ce 0d be 0e a9 87 3d b8 c8 9a 3b 7e 80 2d 3d
       -0.13848117 0.066240415 0.0047236346 0.042358868
0002d0 e9 17 e0 bc d8 35 b1 3d 07 fa 65 3c d0 83 ea 3d
       -0.027355151 0.08652848 0.014036662 0.114509225
0002e0 5f da 0a 3e 00 f4 31 3d ef d5 19 3c 7d 50 79 3d
       0.13559864 0.043445587 0.009389385 0.060867775
0002f0 6b 97 0f 3e 3f c4 8f bd 7e 1c 9e 3d b0 0a d4 3d
       0.14022605 -0.07019853 0.07720278 0.10353601
000300 df 56 4f 3e 6a 53 43 3e 3b e1 37 3e d5 1c 9b bc
       0.20247982 0.19074789 0.17957012 -0.018934647
000310 d5 0a 42 3d 20 29 94 3d 7d fb e9 bd 0e aa 6a 3d
       0.04737361 0.072344065 -0.11424921 0.057291083
000320 e7 88 c5 3d 5a 7b 96 bd 22 f1 bb bc d6 7a 40 bc
       0.09645253 -0.07347746 -0.02294213 -0.011748036
000330 74 44 87 3d a9 cc ff bd 25 45 3e 3d 3d 5f 27 bb
       0.06604853 -0.12490208 0.04645266 -0.0025538944
000340 50 1e 73 3d b2 fd b2 bc be 89 01 3e 18 98 f8 bd
       0.05935508 -0.021849487 0.126502 -0.121383846
000350 5f aa e4 bd f6 4f 3e bd 2f f6 87 3c 28 07 88 3d
       -0.11165308 -0.046462975 0.016596882 0.0664199
000360 1e 28 15 3e c2 15 9d bd 30 78 d1 bd b2 17 eb bd
       0.14566085 -0.076701656 -0.10228002 -0.11479129
000370 d1 99 cf bd 38 90 fd 3d 20 50 54 3d 76 50 8a 3d
       -0.1013676 0.12381023 0.051834226 0.06753628
000380 03 0e 10 3e 88 f3 72 3d da aa c2 bd b2 a5 3d 3d
       0.14067845 0.05931428 -0.095052436 0.046300597
000390 5f 50 e2 bd cf 8e 64 3a a2 3f a7 3d b9 9b e1 3c
       -0.11050486 0.000871879 0.08166434 0.027540075
0003a0 d1 4a b0 bc ff 19 c1 3b 07 d0 45 3d 95 97 e1 3d
       -0.02152005 0.0058929916 0.048294093 0.1101524
0003b0 54 32 03 be 36 be 2a 3b b1 5d 91 3d cf 81 df bc
       -0.12812167 0.0026053316 0.07097948 -0.027283577
0003c0 91 45 04 3e 2a d0 50 bb 75 ee 37 3b 1d a8 21 3d
       0.12917162 -0.0031862357 0.0028065715 0.039466966
0003d0 02 11 74 bc 84 90 12 3e 2c 56 27 3d f9 37 0d 3d
       -0.014896633 0.14312941 0.040853664 0.034477208
0003e0 6b a1 55 bd 30 5c f3 bc 41 45 d5 bd 0e 26 0a bd
       -0.052155893 -0.029707044 -0.104136 -0.033727698
0003f0 98 89 ae 3d a2 b0 8a bd 42 d9 92 3d fe ef f9 bd
       0.08522338 -0.06771971 0.07170345 -0.12203978

conv1.0.bias f4 [8]
000000 8d b2 7d bd 2c 4c e9 bd 98 3b de 3d 37 f6 a4 bd
       -0.061937857 -0.11391482 0.1085121 -0.08054774
000010 fc 99 0c 3e 27 78 c5 bd b2 07 de 3d 4e fb 34 3d
       0.13730615 -0.09642058 0.108413115 0.044184975

conv1.1.weight f4 [8]
000000 4e 7f 7f 3f 1e a5 7d 3f 64 9a 7f 3f 59 c6 81 3f
       0.99803627 0.99080074 0.99844956 1.0138656
000010 c6 d6 80 3f a6 6b 82 3f 19 93 81 3f 32 69 7a 3f
       1.0065544 1.0189102 1.0123016 0.97816765

conv1.1.bias f4 [8]
000000 6e 19 8b bc 34 c9 f5 bb 61 c2 90 bd 80 fb 88 3d
       -0.0169799 -0.007500792 -0.07068325 0.06688595
000010 5b 97 16 bd 15 fd 11 3d a3 79 19 3d e9 b2 cb 3b
       -0.036765438 0.03564175 0.037469517 0.006216396

conv1.1.running_mean f4 [8]
000000 a9 18 81 bd aa 5f 11 be 8a f3 e2 3d d0 99 ec bd
       -0.06303532 -0.14196649 0.11081608 -0.11552775
000010 5d 9e 23 3d 3f 1e e5 bd 48 8a 4b 3e 4f d8 3e 3d
       0.03994595 -0.111874096 0.19876969 0.046593007

conv1.1.running_var f4 [8]
000000 15 4b e8 3c 73 a6 26 3d f9 fb 85 3c 2a 73 d4 3d
       0.028356114 0.040686082 0.016355501 0.10373528
000010 cf 08 e0 3d 8f d2 eb 3c 70 fd d2 3d c1 36 32 3c
       0.1093918 0.028786926 0.103022456 0.010877312

conv2.0.weight f4 [16, 8, 4, 4]
000000 69 64 43 3d 71 70 ac 3c a3 14 b3 bd 27 fd 82 bd
       0.04770318 0.02104971 -0.087441705 -0.06395941
000010 33 9d 2f 3d b7 6b 4e 3d 53 e8 01 bd f7 c9 20 3d
       0.042874526 0.050395694 -0.031715702 0.03925511
000020 14 a7 8d bc 02 de fc bc 8a ee 87 3d 5d 6c 8d 3d
       -0.017291583 -0.03086758 0.066372946 0.06905434
000030 09 8b 41 bd c2 fd 2f 3d 1e 69 f8 3c 56 ae a8 3d
       -0.047251735 0.04296661 0.030323561 0.08236377
000040 20 ea 44 3d bd 62 7b 3c f8 a3 db 3d b6 fd aa 3d
       0.04807484 0.015343365 0.10724634 0.08349173
000050 5f 9b 12 bd 51 3f 9c 3c 03 fb 12 bd 87 ca 2b 3d
       -0.035792705 0.01907316 -0.035883915 0.041941192
000060 f9 f1 a3 3d 00 94 e0 bc 9e 0f c8 bc f7 83 19 ba
       0.08005137 -0.027414322 -0.02442151 -0.0005856151
000070 68 4d b9 bc f8 e4 66 3d 93 28 11 3e c8 f0 04 3e
       -0.022619918 0.056370705 0.14175634 0.12982476
000080 63 e0 15 bd b9 bb 3a bd d4 98 0c bd 0c f4 88 bc
       -0.036590945 -0.045589183 -0.034325436 -0.016717933
000090 b4 0e 7b 3d 7c 6b 0a 3d a5 47 e7 ba 07 44 9d 3d
       0.06129332 0.03379391 -0.0017645253 0.07678991
0000a0 5d 9b d7 3a da 97 31 3d f6 c8 b9 3d 5b 43 19 bd
       0.00164495 0.043357708 0.090715334 -0.03741775
0000b0 b6 c7 dc 3c 88 dc db 3c 7f d9 2f bd ce 32 f1 bc
       0.026950698 0.026838556 -0.04293203 -0.02944317
0000c0 77 ad 1a bd 0e 47 36 bd 0a c4 d5 3c 00 06 58 bc
       -0.037763085 -0.044501357 0.026094455 -0.013185024
0000d0 8a 19 2d bd 65 cb 8c bd a7 6e ab 3d c0 0b c8 3b
       -0.042260684 -0.06874732 0.08370715 0.0061049163
0000e0 b1 54 3c 3d 4b c5 bc 3c c8 c5 15 3d 58 85 0d 3c
       0.045979206 0.023043295 0.036565572 0.008637749
0000f0 9e f3 83 bd e3 3c 95 3d 8c 78 75 bd f3 96 4a 38
       -0.06442951 0.07287004 -0.059929416 4.8301135e-05
000100 54 4c 50 3a 4b ee 86 3d fb c6 e3 bc b9 c7 8f 3d
       0.0007945944 0.065884195 -0.027804842 0.07020516
000110 41 5c 33 bd 7e a1 84 bc a9 fe b2 3c 08 9e b2 3d
       -0.043789152 -0.016190287 0.021849947 0.08721548
000120 57 72 7f 3d 84 69 a1 3d d4 4c 7b bc 83 45 ef 3d
       0.062364902 0.07881454 -0.0153381415 0.1168318
000130 a7 f7 96 3d 2f e5 cb 3d c0 ee af 3d c8 78 9a 3c
       0.07371455 0.09955823 0.0859046 0.018856421
000140 06 e4 87 bc 44 c9 93 bc 78 d9 79 3d e8 20 46 3d
       -0.016588222 -0.018040307 0.06099841 0.048371226
000150 61 d6 33 3d bb ca 49 bc 75 e6 6f 3c 1c 40 c4 3a
       0.04390562 -0.012316401 0.014642348 0.0014972719
000160 63 f8 2d 3d e8 74 77 bd e3 2e 36 bd eb 91 06 3d
       0.04247321 -0.060414225 -0.04447831 0.032854002
000170 89 bc 3c 3d 56 ac 8f 3c 91 4f 1f bd 6e 13 08 bd
       0.04607824 0.01753823 -0.03889424 -0.033221655
000180 d6 f9 8e bd 32 dd 2e 3d 65 5e e2 3c c8 d7 d6 3c
       -0.06981246 0.042691417 0.027632901 0.02622594
000190 00 71 76 3d 35 3d 06 bd 99 8e 66 ba 64 98 2b bd
       0.06016636 -0.032773215 -0.00087950524 -0.041893378
0001a0 dd 8e 24 3d 00 16 1b bd 61 d0 c3 3d d0 2b da bb
       0.040175308 -0.037862778 0.095612295 -0.006658055
0001b0 ff ed 26 3d e3 ec 8a 3d c5 0b 8a bc 33 a6 ca 3c
       0.040754315 0.06783464 -0.016851315 0.024737453
0001c0 9c f0 d1 bc ec 4c fb 3c af 8a 88 bd 3f 8d 7a 3d
       -0.025627427 0.030676328 -0.06667077 0.06116986
0001d0 10 fc 9c bd 64 d2 0a 3d a4 7a 43 3c 46 7c 53 bb
       -0.076652646 0.03389205 0.011931095 -0.0032270118
0001e0 6a ae f3 bc ce 3d 93 3d fd 8c 1e bd b8 4e 36 bd
       -0.029746253 0.07189523 -0.038708676 -0.044508666
0001f0 b7 b1 80 bc 05 5c 1f 3d b3 45 01 bd 5c c5 36 3d
       -0.015709741 0.038906116 -0.03156061 0.04462181
000200 92 a6 13 bd e5 38 c9 bc 92 4b 55 3d 2f ea 6b 3d
       -0.036047526 -0.024563262 0.052074023 0.05759638
000210 25 91 7c bd 3e ef c4 3c bb 9f 0e bd 88 29 bb bd
       -0.061661858 0.02403986 -0.0348203 -0.09138781
000220 be 2e 85 3d 32 fd 99 3c 45 05 59 3d 3b 0d 9f bc
       0.06503056 0.01879749 0.05298354 -0.019415488
000230 5e 00 ac bd 74 61 34 3d bc 42 db bc 3d d2 80 bc
       -0.083985075 0.04403825 -0.02676522 -0.01572525
000240 40 58 f5 38 49 ac 93 3d 54 ad f8 bc 6e 52 04 3d
       0.00011698948 0.07210595 -0.030356087 0.032305174
000250 8a 4a da 3c 8c 9e 86 3c 4c 05 32 bd ad 81 b2 3c
       0.026646871 0.016433023 -0.043462083 0.02179035
000260 08 80 69 3d 67 a2 59 3d 61 8b 54 3d 28 43 a6 3c
       0.057006866 0.053133395 0.051890735 0.020295694
000270 87 dc 31 bd c5 be 8a bc af 53 ad 3c 0b bc 12 3d
       -0.043423202 -0.01693667 0.021158068 0.035823863
000280 f1 b8 af 3d e9 b7 8e 3d ec cf 3a 3b 1f 82 c4 3c
       0.08580197 0.06968672 0.0028505279 0.023987828
000290 5b e7 43 bd ac 3c a8 bd 26 cd d3 bd 0b 5c 92 bd
       -0.04782806 -0.08214697 -0.10341863 -0.07146462
0002a0 34 4c 07 be cb db 36 bb 17 08 ff bb 24 17 cd bd
       -0.13212663 -0.0027902003 -0.007782947 -0.10014179
0002b0 29 78 88 3c c1 a7 1f 3c 1b bf 89 bc 38 e8 b6 39
       0.01665886 0.0097445855 -0.016814759 0.00034886762
0002c0 ff e0 c0 3d 79 d0 ad 3b c9 f7 ab 3d 65 aa 82 bc
       0.094179146 0.005304393 0.08396871 -0.015950391
0002d0 87 c3 a0 bc 12 96 3b bd 1f 8c 90 bc ca e3 6f 3d
       -0.019624485 -0.045797415 -0.01764494 0.058566846
0002e0 3e bc 4d bd 57 1b ae bd cd ef 8a 3c 6e c7 e8 3c
       -0.05022835 -0.085013084 0.016960049 0.028415408
0002f0 72 f9 99 3d 46 61 13 bd f2 ec 55 3d 99 3b 03 3c
       0.07518281 -0.03598144 0.05222792 0.008009815
000300 20 73 35 3c f4 bd da bb 21 6c a6 3b f9 aa 6c 3c
       0.011074811 -0.006675476 0.005078808 0.01444506
000310 32 38 16 3d dc 02 40 3c 90 71 3c bd f3 53 14 3d
       0.036674686 0.011719432 -0.04600674 0.036212873
000320 11 11 64 3d 5b 3d 84 3d 2f 92 ed bc 72 0f 87 bd
       0.05568034 0.06457015 -0.02900037 -0.06594743
000330 8f a1 8b bd b2 bd 88 3c 25 66 9b bd 4b 94 a0 3c
       -0.06817924 0.016692016 -0.07587842 0.019601962
000340 6d 23 36 bc 72 e2 d3 3d fe 86 72 3d 3f 4a 74 3d
       -0.011116845 0.103459254 0.05921077 0.05964112
000350 f5 ca 65 bd 8d 43 b7 3d 06 2c be 3d 5c e4 c2 3d
       -0.056101758 0.08948431 0.092857406 0.09516212
000360 08 7d c6 3c c4 36 53 bd 68 21 29 bd ce 10 74 3d
       0.024229541 -0.0515659 -0.041291624 0.05958634
000370 2b 35 bd bd d2 b4 e8 bd fc 84 fa bd 16 b4 e4 bc
       -0.092386566 -0.11362614 -0.12232396 -0.027917903
000380 d0 b5 93 3d 32 ab d2 3c ef 32 84 bd 68 12 05 3d
       0.07212412 0.025716398 -0.06455027 0.032488257
000390 13 ba 09 bd 98 5c ae bb 37 e1 25 3d 86 5f 87 bc
       -0.03362472 -0.0053210966 0.040497985 -0.016525041
0003a0 36 88 30 bc f6 ff e5 ba 71 7c 6e bd e8 cc 84 3d
       -0.010774663 -0.0017547596 -0.058224145 0.06484395
0003b0 5c 1f ae 3d 43 90 2a 3d b4 09 ae bc 04 bb a4 3c
       0.08502075 0.041641485 -0.021244861 0.020108707
0003c0 59 13 0d 3d 6b 39 6a 3d c5 da bf 3d 85 17 13 bb
       0.03444228 0.057183664 0.09367899 -0.0022444439
0003d0 07 6d 3d 3d 03 ef 28 bc 18 55 b2 3d 8c de 42 3d
       0.046246555 -0.010310891 0.087076366 0.04757552
0003e0 2b 18 f1 3c 00 81 7f 3a 1e 11 3c bd 6f 96 6f bc
       0.02943047 0.00097467005 -0.04591476 -0.0146232685
0003f0 25 b7 b6 bd 0a 4a 57 bd b7 a6 2b bd 39 02 6a bd
       -0.08921651 -0.052560844 -0.04190704 -0.057131026

conv2.0.bias f4 [16]
000000 29 6d 3c 3d ba 1b 43 3d ab f5 91 bd 19 af 45 3d
       0.04600254 0.047633864 -0.071269356 0.04826269
000010 92 6d 68 3d 7e 50 92 bd c6 a4 6a 3d f3 f8 e6 bc
       0.05674512 -0.07144259 0.057286046 -0.02819488
000020 45 49 10 3d 31 79 d1 3b 38 dd d2 3c d2 bb 1c 3d
       0.035226125 0.006392621 0.025740251 0.038265057
000030 5e 36 8f bd 79 4c a2 3d 6c 5e 41 bd 7c 35 61 3d
       -0.069927916 0.07924742 -0.04720919 0.054982647

conv2.1.weight f4 [16]
000000 5a 61 80 3f e4 fe 7d 3f 0f eb 87 3f 5e 3c 7e 3f
       1.0029709 0.9921706 1.0618609 0.99310863
000010 93 cc 85 3f 99 6a 7d 3f 02 1d 86 3f 33 74 7c 3f
       1.0453056 0.9899078 1.0477602 0.98614806
000020 b9 f5 7b 3f e7 d9 7f 3f ef 56 7f 3f d7 2b 7d 3f
       0.9842182 0.9994187 0.99742025 0.9889502
000030 df 7b 84 3f 40 56 79 3f 39 41 80 3f 06 5f 7c 3f
       1.0350302 0.9739723 1.0019904 0.98582494

conv2.1.bias f4 [16]
000000 3c 94 b4 bd 0a fe 84 bb 07 f9 49 3b 6a c3 10 3d
       -0.08817336 -0.004058604 0.0030818598 0.03534261
000010 c6 bb 88 3d 8d 70 4f bc 6d cb 0a 3d 23 74 bb 3c
       0.0667644 -0.012661112 0.03388541 0.022882527
000020 33 f4 5c 3c 8c 5b 20 3d 65 e3 e5 bc b4 12 17 bb
       0.013485956 0.039149806 -0.028062532 -0.002305192
000030 3f 9d 1b 3d 2a ba 11 3c dc 38 e9 3c 18 7a 4c bc
       0.03799176 0.008894483 0.028469495 -0.012480281

conv2.1.running_mean f4 [16]
000000 a7 18 36 3f 3b d3 61 3e 9f e2 04 bf 1d 4e 07 bf
       0.71131366 0.22053234 -0.51908296 -0.52853566
000010 72 76 8c be b4 69 12 3d d5 cc 06 bf dc a8 13 bd
       -0.27434117 0.035745338 -0.526563 -0.03604971
000020 ce 8e 42 3e 30 a9 e8 3c a2 b9 8e 3e 79 27 80 3e
       0.18999788 0.028400987 0.27876002 0.25030115
000030 7c aa 2e bc 6a da 88 3e fa 8b 0d bf 27 2d b2 3e
       -0.010660764 0.26729137 -0.5529171 0.34800074

conv2.1.running_var f4 [16]
000000 63 fb 47 3e 07 be 9c 3e bc ae 71 3e 5c 4d 46 3e
       0.1952949 0.3061373 0.23601812 0.19365448
000010 e4 f2 e8 3d a7 df 2a 3e 18 da 9d 3e 18 3c 1c 3e
       0.11374453 0.16686879 0.30830455 0.15257299
000020 51 ff 37 3e 00 ae 34 3e d7 88 7b 3e 8d ed eb 3e
       0.17968489 0.176445 0.24563919 0.46079674
000030 32 23 e3 3d 60 58 bf 3d 68 9d 4f 3f 46 61 37 3e
       0.11090697 0.09343028 0.8109956 0.179082

conv3.0.weight f4 [32, 16, 4, 4]
000000 1d 19 87 3d 2e f0 9e 3d e7 b7 10 3d c0 b4 ad 3d
       0.06596587 0.077606544 0.035331633 0.08481741
000010 24 e3 3f 3d 18 b2 2c 3d 35 a8 ef 3c e5 59 7c 3d
       0.046847478 0.04216203 0.029255012 0.061609168
000020 cf 18 46 3d b2 b4 b2 3d 6c ad ab 3d 3b 2b b5 3d
       0.048363503 0.08725871 0.08382687 0.08846136
000030 35 d2 39 3d 98 56 d1 3d d0 49 ad 3d 95 0f 00 3e
       0.045366485 0.102215946 0.08461344 0.12505944
000040 96 69 0d bd 9a 42 44 3d 5b fc d5 3c ff 9b 05 bc
       -0.034524523 0.04791508 0.026121309 -0.008154868
000050 0b cc 16 3d 2b 3d 87 3d 0c 85 14 3d be f3 02 bd
       0.036815684 0.06603464 0.036259696 -0.031970732
000060 47 ae 37 3d 8f 68 c9 bc eb 1d 3d b9 c9 04 d3 bc
       0.04484394 -0.02458599 -0.0001803559 -0.025759118
000070 9c bd 88 3c 28 a7 05 bd 1b e9 36 3d 3c 45 38 3b
       0.016691975 -0.032630116 0.0446559 0.0028117439
000080 68 ba 9d 3c d9 db e3 bb fc ca 58 3d 8e 88 69 3c
       0.019253924 -0.006953698 0.052927956 0.014253749
000090 0a 01 17 3d 77 90 28 3d ce c6 6f 3c 78 3f fc bc
       0.036866225 0.041153397 0.014634801 -0.030791983
0000a0 c0 90 59 3d c5 9f 8b 3c 59 aa 21 3d 2f 01 d4 b9
       0.05311656 0.017043957 0.039469097 -0.00040436673
0000b0 7d ac 52 bd f0 38 07 bd 86 d2 e7 3b ab 31 d0 3c
       -0.05143403 -0.033013284 0.007074657 0.025414309
0000c0 57 17 26 bd c4 1d 04 3d c4 19 a4 bb 1a f3 4d bc
       -0.040549602 0.03225495 -0.0050079543 -0.012570167
0000d0 1b 78 30 3d e0 c1 e0 3c e8 ef 82 3d c5 0d 00 3d
       0.04308329 0.027436197 0.06393415 0.03126313
0000e0 a4 5d 1a 3d 77 7b 80 3d 0d 86 72 3d 7b 79 c9 bc
       0.03768696 0.06273549 0.059209872 -0.02459406
0000f0 55 97 e2 bc 06 7d 12 bd 14 3d 8f 3c 78 c8 95 3c
       -0.027660051 -0.035763763 0.017485179 0.018284068
000100 ce c1 16 bd cc 60 8f bd f5 2f 0d bd 84 7a d9 bc
       -0.03680592 -0.070008844 -0.034469564 -0.026547678
000110 99 0b 50 bd c4 e4 af 3c 54 ee 82 3d 9c 4f 37 3d
       -0.05079231 0.021471389 0.06393114 0.044753656
000120 32 4c dc 3b d3 42 98 3b 88 10 85 3c 0c 58 e9 3c
       0.0067229504 0.004646638 0.016243234 0.028484367
000130 b9 d2 31 bd a8 62 73 3b b8 64 5e bc 5b 1a 61 bc
       -0.04341385 0.003713766 -0.013573818 -0.013739194
000140 4a 49 19 3d 56 7c 99 3c 57 75 b5 3d 05 66 b4 3d
       0.03742341 0.018736046 0.088602714 0.08808521
000150 a6 16 2f 3d f9 2f 57 bb 53 17 ad 3b 25 61 dd 3c
       0.04274621 -0.003283499 0.0052823215 0.027023861
000160 1c 23 b9 bc da 7c 48 3d 84 51 b2 3c 72 02 a1 3b
       -0.02259975 0.048947193 0.021767385 0.0049136216
000170 cd d7 c0 3b c7 99 48 bd 0e e4 80 3d 9c 2a 03 3d
       0.0058851005 -0.04897478 0.06293498 0.032023057
000180 9b 6c 04 bd c0 99 10 bd 86 4f 12 bd 63 a2 45 bd
       -0.032330137 -0.035302877 -0.03572037 -0.048250567
000190 12 6b 8a 3d 88 05 0f 3d b1 d9 cd 3d 4a 94 73 3d
       0.06758703 0.034917384 0.10051287 0.05946759
0001a0 fd 43 7a bc c9 70 fd 3c 80 b2 08 3c ed 5a 14 bd
       -0.015274999 0.03093757 0.008343339 -0.036219526
0001b0 39 c6 1e bd 33 84 f9 3c f8 e8 15 3d 7e 76 a3 bb
       -0.03876326 0.030458545 0.03659913 -0.0049884906
0001c0 15 fa 1b bd 4c 10 dc 3c f7 5d 5f 3c a2 79 19 bc
       -0.038080294 0.02686324 0.013633243 -0.009367378
0001d0 3c 74 9f 3c 30 fc c6 3c ef bd ac bc 9a d2 5b bd
       0.019464605 0.024290174 -0.021086661 -0.053667642
0001e0 4d f5 e0 bb b2 93 39 3d 64 a7 59 3d ae 29 04 bd
       -0.0068651796 0.04530687 0.05313815 -0.03226631
0001f0 77 6c 67 bc 50 fe be bc dc af fc 3b a1 fa 2d 3d
       -0.014124981 -0.023314625 0.0077113938 0.042475346
000200 3f 47 e4 3a 87 fe 6b 3c b9 50 2d 3c d7 52 07 3d
       0.0017416253 0.014403946 0.010578328 0.033037987
000210 5e bb 8b bd b8 82 05 3d 2b bc cc 3c 00 3b 32 3d
       -0.06822847 0.032595366 0.02499207 0.043513298
000220 25 d4 0f bc 1e 3e 5d bd 2d d7 fb 3c 2b 42 58 3d
       -0.008778607 -0.054014318 0.030742252 0.052797478
000230 f5 39 82 3c c0 e9 fe bb ec cf 6e 3c d4 b1 9c 3c
       0.015896777 -0.00777933 0.01457594 0.019127764
000240 cc 81 4d bd b2 15 6a bd 51 b0 70 bd 87 a0 0b bd
       -0.050172612 -0.057149597 -0.0587619 -0.034088638
000250 c7 63 92 bb 7d b6 87 bd 57 6a aa bc a9 6e a4 bc
       -0.004467461 -0.06626604 -0.02080266 -0.020072298
000260 dd f2 4b bc f0 58 e1 3c d3 bb 01 bd 81 d5 6a bc
       -0.01244804 0.027508229 -0.031673264 -0.01433313
000270 61 86 64 bc 17 d1 35 bd 65 a4 4f bd 57 fc 97 bc
       -0.013948054 -0.044388857 -0.05069389 -0.018552942
000280 40 ef f6 3c 6b 28 f4 3c 8c 6a b0 3d f5 82 0a bc
       0.03014338 0.029804429 0.08614072 -0.008454074
000290 7a 2a 86 3d e9 9d 8d 3d 19 9b 53 3d d6 0a 02 3d
       0.065510705 0.069148846 0.051661585 0.031748615
0002a0 31 ff 12 3d d6 a8 7f 3d aa 09 b1 3b ac c8 ec 3c
       0.0358879 0.062416874 0.0054027634 0.028904282
0002b0 44 01 69 3d 57 14 da 3c 49 98 89 bb 6e 77 56 bc
       0.056885973 0.026621027 -0.004199062 -0.013089998
0002c0 dd f1 a9 3c 81 f5 81 bd cf 36 32 bd 11 d0 48 bc
       0.020745212 -0.06345654 -0.0435093 -0.012256638
0002d0 ad e3 81 3c 16 f3 3e bd 13 ca 2f 3d ad 57 89 3b
       0.015855635 -0.046618544 0.042917322 0.00419136
0002e0 5d ba a5 3b b5 50 f5 3c dd 86 e0 bc ff 49 b4 bc
       0.0050576166 0.02994571 -0.027408058 -0.02200794
0002f0 e0 21 20 3d a1 26 1b 3d 1f 45 25 bd 24 fb b0 3c
       0.039094806 0.037878636 -0.040349122 0.021604128
000300 7b 85 87 bd b2 67 50 bd 3e 55 75 bd 35 e5 dc bc
       -0.06617256 -0.05088014 -0.059895746 -0.026964763
000310 e7 50 7f bc f0 e6 83 3c 0f 9f 75 bd 20 a4 a5 bc
       -0.015583253 0.01610133 -0.059966143 -0.020219862
000320 58 c7 b5 3c a3 b0 2e 3a 56 d0 7d 3c 39 77 31 bb
       0.022189781 0.0006663894 0.015491566 -0.002707912
000330 de 09 05 bd 92 4b de 3c 23 f3 52 bc 5a bc 81 3c
       -0.032480113 0.027135644 -0.012875351 0.015836883
000340 7e e4 36 bd bc 56 e1 3c dd 23 0a 3d 6b 3f df 3c
       -0.0446515 0.027507178 0.03372561 0.02725192
000350 fc e1 03 bd 00 e6 82 3c de 33 0d 3c 3a e9 19 3c
       -0.032197937 0.015978813 0.008618323 0.009393984
000360 09 52 f0 bc f4 78 c5 3c eb de 97 3c 41 31 c8 3c
       -0.029335992 0.024105527 0.018538913 0.024437549
000370 9b 02 53 b9 09 bc b3 bc 7d 30 11 3d 0d 85 09 bd
       -0.00020123499 -0.021940248 0.035446633 -0.033574153
000380 a8 f6 d3 bc 12 51 0e bd 9a 42 92 bd 03 60 0e bc
       -0.02587445 -0.034745283 -0.071416095 -0.008689883
000390 a4 98 61 3c 7b ee 96 3b 60 fb 3b bd 84 59 2c bd
       0.0137693025 0.004606066 -0.045894027 -0.042077556
0003a0 5c 66 4e 3c ee 8d 00 3d 17 c3 13 bd 7e 37 af 3c
       0.012597647 0.031385355 -0.036074724 0.021388765
0003b0 f7 5a 1f bb c6 8d 5c 3d 01 4b 16 3d fe 7c af 3c
       -0.0024315694 0.053846143 0.036692623 0.021421906
0003c0 13 7d a4 bc f0 62 78 bc 56 c3 3a bc 06 78 ef bc
       -0.020079171 -0.015160307 -0.011399111 -0.029232036
0003d0 df 08 75 3d 98 e6 4e 3c cb 33 02 bd 9d a9 1e 3c
       0.059822913 0.01262822 -0.031787675 0.009683994
0003e0 30 9b 05 bd 84 ae 8f bc bd 26 4c bd 89 9d de 3c
       -0.0326187 -0.01753927 -0.04984163 0.027174728
0003f0 06 05 2e bc 94 c3 06 3c 6a f5 cf 3c 53 4f 1b bc
       -0.010621315 0.00822534 0.025385577 -0.009479362

conv3.0.bias f4 [32]
000000 19 bc de 3c 14 ee f0 3c e1 8c 34 3c ab b9 b8 bb
       0.027189301 0.0294104 0.011019916 -0.0056373677
000010 c1 d3 6e bc ce 36 9b 3c 5d 6e 7e bd 28 bc 09 3c
       -0.014576853 0.018947031 -0.06211697 0.008406676
000020 2c 23 23 bd ae 3a 29 3d 46 c7 d6 3b b8 fc 94 3c
       -0.039828464 0.041315727 0.006554517 0.018186912
000030 ec 61 58 3a 18 c2 55 3d 90 57 33 bd a6 4f 4e bd
       0.00082543376 0.052187055 -0.043784678 -0.050368927
000040 03 28 5e bd 21 d9 ed 3c ec ad ad bc 00 b4 65 3d
       -0.054237377 0.0290342 -0.021201096 0.056079865
000050 22 6c 7e bd 05 42 08 bd 82 09 2d 3d db a2 9a 3c
       -0.062114842 -0.033266086 0.042245395 0.018876484
000060 ad 2e a7 bc 2b a0 58 3d ff bd 33 3c fb a3 74 3c
       -0.020407999 0.052887123 0.010970592 0.014931674
000070 55 3b 71 3d 77 0b 3f bd 18 99 07 bc c7 62 5c 3c
       0.058894474 -0.046641793 -0.0082762465 0.013451285

conv3.1.weight f4 [32]
000000 01 e6 86 3f 39 40 7f 3f bc c8 81 3f b5 53 79 3f
       1.0538942 0.9970737 1.0139384 0.9739335
000010 44 2b 7e 3f c2 e9 81 3f 81 4d 7b 3f 88 af 7d 3f
       0.9928477 1.0149462 0.98165137 0.99095964
000020 c8 89 84 3f bc 54 81 3f 36 bc 80 3f c4 93 7f 3f
       1.0354548 1.0103984 1.0057437 0.9983485
000030 37 f8 77 3f e6 eb 86 3f 45 0f 85 3f 41 b6 7d 3f
       0.9686312 1.054074 1.0395285 0.9910622
000040 e2 6c 81 3f 43 52 7f 3f a3 b6 7a 3f 32 20 81 3f
       1.0111353 0.99734896 0.9793493 1.008795
000050 03 6c 84 3f c8 f1 81 3f b3 50 7a 3f 3f 73 7f 3f
       1.0345463 1.0151911 0.9777939 0.99785227
000060 ed d2 77 3f 4b 6e 80 3f 0d 1d 7b 3f 27 bf 83 3f
       0.9680622 1.0033659 0.980912 1.029271
000070 c6 77 7d 3f cb 6b 7d 3f 56 f7 7f 3f 79 12 7f 3f
       0.99010885 0.98992604 0.9998678 0.9963756

conv3.1.bias f4 [32]
000000 7f c7 bf bd 2e 58 e9 bb e4 00 8a bd 2b 9a da bc
       -0.09364223 -0.0071211075 -0.06738451 -0.026684841
000010 2d c0 8d bb 5f 6b 6b bc ef 0d f8 bc 4b d4 d8 3a
       -0.0043258877 -0.014368861 -0.030280082 0.001654276
000020 39 5c 03 3d 7e fc ff 3b 5e 25 83 bc 58 e5 d4 bc
       0.032070372 0.007812082 -0.016009029 -0.025988266
000030 d5 95 bd 3b ae a5 1d bd 72 80 c7 3d 83 54 c5 b9
       0.0057856836 -0.038488083 0.09741296 -0.00037637734
000040 f3 37 db 3c 63 79 92 bc e6 07 ca bc 89 e6 bd bd
       0.026760077 -0.017880147 -0.02466197 -0.09272487
000050 ba 85 e8 bc 19 11 19 bd b8 bd f4 bb 2d df 06 3d
       -0.028384078 -0.03736982 -0.0074689053 0.03292768
000060 73 11 be 3b 75 48 6c bc 61 ae 98 3b be 3a 31 3d
       0.00580042 -0.014421572 0.0046594595 0.04326891
000070 0e f8 21 bc a0 aa dd bb 84 b5 b1 bc 76 e2 8f 3c
       -0.009885801 -0.006764725 -0.021692999 0.01756404

conv3.1.running_mean f4 [32]
000000 8c b8 3c 3f de 97 94 3c 23 d1 9e 3e 89 f0 14 3e
       0.73719096 0.018138822 0.31018934 0.14544882
000010 52 f2 dd 3d 2c 68 84 bf 0b 92 e4 be de 12 4c bd
       0.108372346 -1.0344291 -0.44642672 -0.04982268
000020 0b e4 fc bc 8f 17 09 3f c5 81 7c 3e 4d ea 88 bd
       -0.030870458 0.5355157 0.24658878 -0.06685314
000030 c3 01 ae be 3c 9a d8 3e ba 56 84 bf a1 ef 12 bf
       -0.3398572 0.4230517 -1.0338967 -0.57396895
000040 33 fb 47 bf b7 ec 5e 3e 36 17 87 3d 8a 53 5c bf
       -0.78117675 0.21769987 0.06596224 -0.8606497
000050 fa 1d 77 be 16 52 d3 3e 77 2f 94 3e 70 73 b3 be
       -0.24132529 0.41273564 0.28942463 -0.3504901
000060 5b 0a 1b bf a3 ba 8d be fe 5e 90 3d 52 fa 26 bf
       -0.60562676 -0.27681455 0.07049368 -0.6522571
000070 12 47 95 3e 0e 3f b6 be 9d c8 df be 17 fa 9f 3e
       0.29155785 -0.35594982 -0.43707743 0.3124549

conv3.1.running_var f4 [32]
000000 f2 71 44 3f ac 7c 7c 3e ab 46 c9 3e 4f 4f d5 3e
       0.76736367 0.24656934 0.39311728 0.4166207
000010 da 38 01 3f 6d 20 58 3e 4b af 5a 3e f5 54 81 3e
       0.50477374 0.2110612 0.21355931 0.2526013
000020 18 3a 45 3e be 84 25 3e 2b 1c a8 3e 7b 88 ff 3d
       0.19260442 0.16163918 0.3283399 0.124772035
000030 f4 ae 5f 3e cf b7 ff 3e 88 7a 12 3f 3f 15 8d 3e
       0.21844083 0.49944922 0.5721822 0.27555272
000040 a4 ed 5e 3e 5d c2 ca 3e bd 63 92 3e 38 4b 75 3e
       0.2177034 0.39601412 0.2859172 0.23954475
000050 15 e7 25 3e ba 30 a2 3e 66 db 5d 3e 8b 10 d5 3e
       0.16201432 0.316778 0.21665725 0.41614184
000060 ee 4d 34 3e 8f db b0 3e 30 a3 a0 3e 80 7e e6 3e
       0.17607853 0.3454251 0.31374502 0.45018387
000070 eb 11 0d 3e 27 d0 20 3e 63 96 1c 3e 91 31 f3 3e
       0.13776366 0.15704404 0.15291743 0.47498754

deconv2.0.weight f4 [32, 16, 4, 4]
000000 79 06 4e bd 03 49 2c bd 1a d4 17 3d 1e be 0c bd
       -0.05029914 -0.042061817 0.03706751 -0.034360997
000010 75 77 bd 3c 7d e1 6e bd e5 f9 84 bd 16 7f 1d bd
       0.02312825 -0.05832051 -0.06492976 -0.038451277
000020 57 15 dd bc 19 8e 33 3c e5 9d 90 bb b1 6d fa 3b
       -0.026987715 0.010959172 -0.0044133537 0.0076424708
000030 15 ab f4 bc 21 4e 7f bd e7 19 51 3d 00 a4 38 3b
       -0.029866735 -0.06233037 0.051050093 0.0028173923
000040 d4 3f 3e bc 71 38 83 bd a1 76 a0 bc 92 d0 23 3d
       -0.0116118975 -0.0640725 -0.019587817 0.03999383
000050 dd 02 3e 3d 55 2e 53 3d 00 eb 7f 3d d2 48 44 3d
       0.04638945 0.051557858 0.062479973 0.04792101
000060 b4 ae 1c bd ee b2 12 3d b7 f8 85 3b 2c 53 9e bc
       -0.038252547 0.035815172 0.004088487 -0.019326769
000070 3d b5 00 3d e3 59 6b 3c 59 32 4f bd e6 30 a5 3c
       0.031422842 0.014364692 -0.050585125 0.020164918
000080 09 01 21 3d 8a 2c 7a bd b3 f9 cb 3c 80 9d 4c 3d
       0.039307628 -0.061077632 0.02489934 0.04995489
000090 21 b3 e5 3c 3b c1 17 3d b6 41 19 bd fe 4d 3a bd
       0.028039517 0.037049513 -0.037416182 -0.045484535
0000a0 a8 7d ad bb 05 6e 8b bc c7 1a 8a 3d 80 a0 07 3d
       -0.0052945204 -0.017020235 0.067433886 0.03311205
0000b0 c0 93 8b 3c 3b 49 ae 3c 0a c6 c2 bc 2d fd 8d bd
       0.017038226 0.021275153 -0.023776073 -0.06933055
0000c0 c8 db 26 bd 07 db 61 bb fb ed ad 3c 89 88 3f bd
       -0.040736943 -0.0034462826 0.021231642 -0.04676107
0000d0 5c dc 94 3b 92 2a f3 bc 7c d3 15 3c 2d 9e bc bc
       0.0045428704 -0.029683385 0.00914466 -0.023024643
0000e0 32 02 80 3d c3 df aa 3d 2a 03 74 bd 82 08 f0 bc
       0.06250419 0.083434604 -0.05957333 -0.029300932
0000f0 95 6d d6 3c 9e 72 56 bd 66 25 af bc 79 27 ba bd
       0.0261753 -0.0523554 -0.021380138 -0.0908956
000100 53 24 a5 3a aa 15 77 bd 6a 88 fc bb fe 63 20 3c
       0.0012599326 -0.060323395 -0.0077066915 0.009789465
000110 89 aa 3f bd 3c ec f2 3c 60 df 06 bd f3 41 7c bd
       -0.046793494 0.029653661 -0.03292787 -0.06158633
000120 37 28 57 bd 36 b1 35 bd 31 98 e6 3c 01 6e 65 3b
       -0.052528586 -0.044358455 0.028148742 0.0035008194
000130 54 54 9b bd a8 74 f0 bc fa 60 0e 3d 52 62 3f 3d
       -0.07584444 -0.029352501 0.034760453 0.046724625
000140 7a 3d ee bc d2 eb 1b bd ed 2a ae bd 70 88 55 bd
       -0.029082049 -0.038066693 -0.08504281 -0.05213207
000150 fb f3 aa 3c 78 43 0c bc b2 a9 be bc e0 7e 7a bb
       0.020868292 -0.008561008 -0.023274276 -0.0038222596
000160 55 fd 60 bd 2b 47 8b bd 6c 5c 8f bd 4a b1 de bb
       -0.054929096 -0.068006836 -0.0700005 -0.006796037
000170 ad 96 d6 bc 7f a4 d3 3c 28 81 dc bc b7 23 25 bc
       -0.026194895 0.025835274 -0.026917055 -0.010079316
000180 15 f7 db bc 92 bc e3 bd 88 bb 4f bd 7e 75 6f bd
       -0.026851216 -0.11119951 -0.050715953 -0.05846166
000190 33 eb 21 3d 5d 6d 9b 3c 4c fe d0 bc d4 e3 ac bc
       0.039530944 0.018973047 -0.025511883 -0.02110473
0001a0 83 aa 43 bd 81 87 0a be 8a e6 bc bd 3e 61 27 be
       -0.047770035 -0.13528253 -0.09223659 -0.16345689
0001b0 cc 13 03 3d 8b 52 9d bd 6a 90 20 3d 94 67 c4 3c
       0.0320013 -0.076817594 0.039200224 0.023975171
0001c0 75 c5 47 bc f5 9e 74 bd c7 63 da bd e6 f0 98 bd
       -0.0121930735 -0.059721906 -0.10663562 -0.07467823
0001d0 a7 65 21 bc 5a 20 48 bd b8 dc 6e ba a4 37 0b be
       -0.009850896 -0.048858978 -0.0009111869 -0.13595444
0001e0 46 41 09 3d b1 7a 26 bd 1a 93 81 38 03 d6 93 3c
       0.033509515 -0.04064435 6.178599e-05 0.018046385
0001f0 af 8b 21 3d b9 8b 82 bd 56 93 a4 3c 79 a3 f0 bd
       0.039439853 -0.06374306 0.020089786 -0.1174993
000200 ae ad 87 bd 9d 6d 9e 39 75 91 92 3c 30 4a 48 3d
       -0.06624924 0.00030217777 0.017891625 0.048898876
000210 88 d9 89 3d a5 ce 1f 3d d8 51 81 3c d6 98 33 3d
       0.06730944 0.03901543 0.015786096 0.043846928
000220 ba 01 c1 bd d9 8f db bc 9d f9 14 bd 96 5d 98 bb
       -0.094241574 -0.02680199 -0.036370862 -0.004649828
000230 d0 24 12 bd c3 ec 22 bd 67 ea 4e bc 56 cf 3f 3d
       -0.03567964 -0.039776575 -0.012629128 0.04682859
000240 c3 27 af bd 0c 43 95 bb e4 f3 81 bc f6 70 34 bb
       -0.08552506 -0.0045551118 -0.015863366 -0.002753315
000250 fe 31 34 bd 51 bb 95 bd 78 a5 23 3c 0d 96 0d 3d
       -0.04399299 -0.073111184 0.009988181 0.034566928
000260 98 67 99 bd 89 ed 26 bd 81 35 0d be 98 cc 20 3d
       -0.07490462 -0.040753875 -0.13789941 0.039257616
000270 72 8b 1b 3d 7a df 45 bd b6 56 08 3a 76 33 b0 bd
       0.037974782 -0.048308827 0.0005200909 -0.086035654
000280 a6 f6 6d 3c 43 86 08 3d 97 e7 59 3d f2 65 3b bd
       0.014524138 0.033331167 0.053199377 -0.04575152
000290 3a 2b 1a 3d 1d c9 10 bd 44 38 41 bd 1a 5c c9 bd
       0.03763888 -0.035348047 -0.0471728 -0.0983202
0002a0 8a 75 8a 3d 40 b6 70 3d a7 a4 16 bd 84 19 2d bc
       0.067607 0.058767557 -0.03677812 -0.010565165
0002b0 10 ce 87 3c 58 f8 d8 bc 80 45 60 3b 32 e2 66 3c
       0.01657775 -0.026485607 0.0034221113 0.014092015
0002c0 70 90 28 bd 4c ca a3 bc 4b 1d 4e bd 35 f8 5b 3c
       -0.04115337 -0.019993924 -0.050320905 0.013425876
0002d0 2d 21 2e 3c b2 07 2c bd df f6 89 bd c1 22 f7 3a
       0.010628027 -0.041999526 -0.0673654 0.0018854962
0002e0 09 31 ed bc 1a 5e 52 3c 6a 02 98 3c d1 95 8a bd
       -0.028954046 0.012839818 0.018555839 -0.067668565
0002f0 c9 37 d1 3c b0 cd 52 bd 35 ba fe 3c 0d 3c 39 3b
       0.025539296 -0.05146569 0.03109465 0.0028264553
000300 e0 23 8a 3c 1a 90 47 3c 93 9e 32 bd 7d 72 fc 3c
       0.01686281 0.012180353 -0.04360826 0.030816311
000310 74 12 ba bc 33 63 72 bd 54 7c 4f bc c3 9b 36 bd
       -0.022713877 -0.059176635 -0.0126639195 -0.04458214
000320 b0 94 a0 bd 40 d6 16 bd e5 bf a5 bd 95 99 c1 bb
       -0.0784086 -0.03682542 -0.080932416 -0.005908201
000330 eb c4 b2 bc 59 0a 3e 39 07 dd de 3c 3b e0 26 bd
       -0.021822413 0.00018123667 0.027205003 -0.040741187
000340 2a d4 e5 3b bb fe 53 bd c3 f1 b5 3c 75 bd 67 bd
       0.0070138173 -0.0517566 0.022210008 -0.056577165
000350 3c 38 67 bd 94 c1 b1 3c e8 db 85 bd 11 40 c6 3c
       -0.056450114 0.02169875 -0.065360844 0.024200471
000360 4a 25 00 3d 75 2e fe 3c da fd f5 bc 80 b8 8e bd
       0.03128556 0.031028012 -0.030028272 -0.06968784
000370 86 05 21 bd 2e 4c 70 bd 59 48 5e bd ed 7c 2e 3d
       -0.03931191 -0.0586664 -0.054268215 0.042599607
000380 24 b3 4f 3d 10 fd 06 3d 0d c1 5f 3d 94 dd 51 bd
       0.05070795 0.032956183 0.054627467 -0.051236704
000390 69 c0 0c bc 72 1a 4e bd 8a 6b 05 3d 2d 90 1d 3c
       -0.008590796 -0.05031819 0.03257326 0.009616894
0003a0 34 2f 60 bc 36 60 3d bd 80 36 30 bd b9 fa 10 bd
       -0.013683129 -0.046234332 -0.043020725 -0.035395358
0003b0 6d 7a 35 3d b7 11 a7 bd ff fb 0b bd d1 d9 10 bd
       0.044306207 -0.08157676 -0.03417587 -0.035363976
0003c0 fc 54 c5 bb 67 f8 a8 bd 79 e4 0a 3b 9d 00 81 3c
       -0.006022094 -0.08250504 0.002119331 0.015747363
0003d0 d1 4a 97 bc 12 13 3a bc 4d 99 a4 bd b6 ef c0 bc
       -0.018468292 -0.011357086 -0.08037052 -0.023551803
0003e0 fc e0 bc bc 2e 88 60 bc ba d1 94 bc e1 07 fd 3c
       -0.0230565 -0.013704343 -0.018166412 0.030887546
0003f0 ed 3a 42 bd e4 2e b8 bc c8 8f f5 bc ae f1 9d 3c
       -0.047419477 -0.022483297 -0.029975787 0.01928028

deconv2.0.bias f4 [16]
000000 19 6d af bc 74 62 7d bd d3 93 6e bb dc 16 40 3d
       -0.021414327 -0.06186147 -0.0036404028 0.0468968
000010 e4 e2 fd 3b 16 42 4f bd b8 d6 4d 3c b8 7e 0f 3d
       0.0077479947 -0.050600134 0.0125634 0.035032958
000020 df 93 22 bd c8 d0 28 3d eb 79 4e bd a0 21 44 bd
       -0.039691802 0.041214734 -0.05040924 -0.04788363
000030 bb 24 2f 3c be 43 b2 bc 64 29 4e 3d 98 f4 87 bb
       0.01068991 -0.021760818 0.050332442 -0.004149031

deconv2.1.weight f4 [16]
000000 0b a5 6e 3f 4b a0 77 3f 9f 8a 7c 3f c5 23 7f 3f
       0.93220586 0.9672896 0.9864902 0.99663955
000010 0d 03 79 3f db 3a 87 3f b9 64 86 3f 92 6f 83 3f
       0.9727028 1.0564836 1.0499488 1.0268424
000020 a2 37 77 3f 76 db 7b 3f ae 8c 7f 3f 9a b6 7f 3f
       0.96569264 0.98381746 0.99824035 0.99888
000030 31 3f 80 3f 43 09 80 3f 1f 69 82 3f fb 67 8a 3f
       1.0019284 1.0002826 1.018833 1.0812982

deconv2.1.bias f4 [16]
000000 5f 07 93 bc d6 43 c7 3c bb d7 ac 3c f0 c4 28 3d
       -0.01794785 0.024324339 0.021098962 0.04120344
000010 50 75 23 3d ee b5 f9 bb e0 47 ad 3d 13 86 97 3c
       0.0399068 -0.0076205647 0.08460975 0.018496549
000020 24 fb 27 3d 78 b8 2e bd e8 02 81 3d 99 3d 14 3d
       0.04101099 -0.04265639 0.062993824 0.036191557
000030 72 0e e3 3c 02 61 45 3d 6b 3e 08 3d ea 67 43 bd
       0.027716849 0.048188217 0.03326265 -0.047706522

deconv2.1.running_mean f4 [16]
000000 20 37 c3 be c0 61 0b bf 7e f7 05 bf 44 16 04 bf
       -0.38127995 -0.5444603 -0.5233077 -0.51596475
000010 8d 38 23 bf bd c5 1d bf b7 d3 0b bf a7 e2 d7 be
       -0.63758165 -0.6162985 -0.54619926 -0.4216511
000020 3e 64 20 bf 61 55 a5 be 0d 1e 44 bf a4 fe 40 bf
       -0.6265296 -0.322917 -0.76608354 -0.7538855
000030 4f 1b 19 bf 72 fc 68 bf 53 91 fe be eb 29 eb be
       -0.59807295 -0.910102 -0.4972025 -0.45930418

deconv2.1.running_var f4 [16]
000000 fc 84 0f 3f 4f ca 16 3f e1 30 14 3f 95 0b 4e 3f
       0.56062293 0.5890245 0.57887083 0.8048642
000010 88 49 d6 3e 15 86 0a 3e 43 c6 2d 3f 1d 9d b1 3e
       0.41852975 0.1352771 0.6788065 0.3469018
000020 e8 ca 12 3f 0d ec 8a 3e eb da a5 3f 28 2a 22 3f
       0.5734086 0.27133217 1.2957433 0.63345575
000030 32 d4 77 3f 0a 8e 94 3f e0 ea 73 3e 6a 46 03 3e
       0.9680816 1.1605847 0.23820066 0.1281983

deconv3.0.weight f4 [16, 8, 4, 4]
000000 46 b3 d2 3b 18 bf 4a 3c 66 ce 98 3c 33 b8 d2 3d
       0.0064300625 0.012374662 0.018653106 0.102890395
000010 bc be af 3b e7 e6 12 bd 6e 0a 4d 3d 3b 09 3e 3d
       0.0053633135 -0.035864737 0.050058775 0.04639552
000020 ed 5f bb bc cf 46 02 3d 14 a4 64 3d 20 47 03 ba
       -0.02287289 0.03180581 0.05582054 -0.0005007852
000030 55 fa 4a bd 55 a7 50 3d 96 27 2b 3d 51 ea 68 bd
       -0.04955514 0.05094083 0.0417858 -0.056864087
000040 15 ba 52 bd 7d 09 66 3d 0b 2f 1b bd a1 7a a7 bc
       -0.051446993 0.056161392 -0.03788666 -0.020444216
000050 88 f3 48 bd d1 e0 1c 3c 02 c4 c3 bc 75 7b d2 bb
       -0.049060374 0.009575085 -0.023897175 -0.0064234086
000060 15 cb ca 3c cb 96 8f bd b0 8a 16 3d 2b 07 45 bd
       0.02475504 -0.07011183 0.036753356 -0.04810254
000070 4e 92 2f 3d 88 80 b9 3c 52 a1 15 bb 6e 9c 16 3c
       0.042864136 0.022644296 -0.002283175 0.009192569
000080 0e 73 5a bc 52 22 8a 3d 3d b5 08 3c 4c 8e 4b 3c
       -0.013333095 0.06744827 0.008343992 0.012424063
000090 9f f8 b9 bc c4 b5 32 bd 2d ec 51 bd 14 34 59 bd
       -0.02270156 -0.043630376 -0.051250625 -0.05302818
0000a0 fc 57 23 3c 1e 85 23 3c a6 01 7e bc 37 d1 28 3b
       0.009969708 0.009980468 -0.015503323 0.0025759467
0000b0 af 06 f9 3c 95 0a 02 3d 93 dc 34 3d a9 55 8b 3d
       0.030398695 0.031748373 0.04415567 0.06803448
0000c0 fe 26 14 3e f9 f2 48 bd d5 ff 70 bc b4 84 08 3d
       0.14468 -0.04905984 -0.014709433 0.03332968
0000d0 ca c2 55 3d b1 2a af 3d 5c 19 91 bb 36 ec 20 3d
       0.05218772 0.085530646 -0.004428072 0.03928777
0000e0 a5 0e 8f 3c 4b fd 07 bd e6 8d 2b 3c d2 50 d4 bc
       0.017463038 -0.033200543 0.010470843 -0.025917444
0000f0 41 ff 82 3c 56 98 4e 3d ee ac ba 3c 85 0f 8d bc
       0.015990855 0.050438248 0.022787537 -0.017219314
000100 9e f4 7d 3d af de 01 bd f0 d4 8b 3d be 51 6d 3d
       0.062000863 -0.03170651 0.06827724 0.057939284
000110 74 54 86 bc 6d 4b 73 bc d1 1c 01 bd 84 cf 4a bc
       -0.016397692 -0.014849526 -0.031521622 -0.012378577
000120 a8 a8 51 3d 4a b0 6c 3d 08 e5 8d 3d d3 d7 5a 3b
       0.051186234 0.05778531 0.0692845 0.0033392801
000130 59 b2 46 3a d8 7e f9 bc 5d f9 bc 3c 4b 9b 01 bd
       0.00075796765 -0.030455992 0.023068124 -0.03164224
000140 62 2c 1d bb 5c 93 1b 3d 5b 55 36 bd ff 95 25 3d
       -0.0023982753 0.03798233 -0.044514995 0.04042625
000150 80 34 40 bd bf d8 e5 3c 7c 59 80 bd 29 bc a3 3d
       -0.046925068 0.028057454 -0.06267068 0.07994873
000160 7b 98 cf bc ea 0d 74 bd c9 66 cd bc 13 34 ab 3d
       -0.025341263 -0.059583582 -0.025073426 0.08359542
000170 cc 93 67 3d 9d 7e 31 3d 2d fa 06 3d 2a 07 57 bd
       0.056537434 0.04333364 0.03295343 -0.052497067
000180 f6 de e2 bc 19 da c2 3b 41 f6 7f 3c 79 49 0a ba
       -0.027694207 0.0059464094 0.015622676 -0.00052752305
000190 33 88 84 3d ce 2c 57 3c 40 43 75 3d 23 61 1b bd
       0.064712904 0.013133241 0.059878588 -0.037934434
0001a0 62 7a 50 bc 2c 3b d9 3d cb 47 af 3c 91 f2 ea bb
       -0.012724491 0.10606989 0.021396538 -0.0071700295
0001b0 85 94 08 3a 3a 40 be bc 76 53 8d bd 95 50 94 3c
       0.00052101194 -0.023223985 -0.069006845 0.01810483
0001c0 57 31 71 bc ec cc 87 3d ee 05 4d bc a1 f3 11 3d
       -0.014721236 0.066308826 -0.012513621 0.035632733
0001d0 96 d2 78 bd cb 2f 52 3b e3 b0 98 3c ce 6d 69 bd
       -0.060747705 0.0032071944 0.018639034 -0.056989484
0001e0 0e 15 9c bc 89 e2 10 3c 82 aa e9 bc e7 31 9f 3d
       -0.019053008 0.008843073 -0.028523687 0.0777319
0001f0 76 84 0a 3d 50 74 ab bc a2 97 a8 3d db 18 3e 3d
       0.03381773 -0.020929486 0.08232047 0.046410423
000200 56 17 10 3d 8b e7 6f 3d c9 51 f9 bc e5 13 70 bd
       0.035178505 0.058570426 -0.030434506 -0.058612723
000210 ec f5 4e 3d e0 10 18 3c cc b4 aa bc 20 6b 0e bd
       0.050527498 0.009281367 -0.020838164 -0.03477013
000220 44 47 57 bd d6 44 82 3d 3a 9f fe 3c 89 a1 a0 3a
       -0.0525582 0.06360786 0.031081785 0.0012255172
000230 c9 2f 41 3c 94 ec cd bc 98 14 3e 3d aa d6 21 bd
       0.011791178 -0.025137223 0.04640636 -0.03951136
000240 54 66 9b bd 4a f1 29 bd 8b 36 95 3c 3a 91 ec 3c
       -0.07587877 -0.041489877 0.018214485 0.028877843
000250 1a ea 06 3c c8 c3 bd bc cf c7 92 bc 65 4d 14 bd
       0.008234525 -0.023164645 -0.017917542 -0.03620662
000260 74 90 64 3d ff 6b 8d bd 09 6e f2 3c f3 56 df bc
       0.055801824 -0.06905364 0.029593484 -0.02726314
000270 77 af 2b bd 56 0e 50 bd 9e cf 8c bc 02 ab 69 3c
       -0.041915383 -0.05079492 -0.017188843 0.014261963
000280 fe 0d da 3c 0d dc 5d ba 55 cd 9d bd 45 10 02 bd
       0.026618 -0.0008463271 -0.077051796 -0.031753797
000290 96 fa e5 3c b8 b2 c9 3d ef 7b 27 3d a7 07 b6 3d
       0.02807359 0.09848541 0.040889677 0.08888178
0002a0 33 b6 ea ba c5 0a e1 bb 0b 23 9a bd ab e7 aa 3d
       -0.0017907083 -0.006867739 -0.07526215 0.083449684
0002b0 28 b1 6a bc 11 77 94 bd b1 93 72 3c e5 c1 92 bd
       -0.014324464 -0.072492726 0.01480572 -0.07165889
0002c0 4c d1 b4 bc cf b2 58 3d 42 de b7 bc 07 3c 4a 3c
       -0.022072457 0.0529049 -0.022444848 0.012343413
0002d0 a4 75 a3 3d 6f 7f 7a 3b 06 59 08 bd 61 a7 e5 3c
       0.079814225 0.003822293 -0.033288024 0.028033914
0002e0 5e a2 91 bd 87 03 ad 3c ca 71 6c 3d 1f 63 33 bd
       -0.07111047 0.021119846 0.057725705 -0.0437957
0002f0 d4 ea 97 bd f9 93 9c 3c 31 66 15 bd 5a d7 b3 3c
       -0.07417837 0.019113528 -0.03647441 0.021953274
000300 dc 88 40 bd 70 39 62 3d 26 b4 9c 3c 79 da fc bc
       -0.04700552 0.055230558 0.01912887 -0.030865895
000310 24 26 f6 bc 74 46 48 bd bd 5d 01 3c bc dc 9a bd
       -0.030047484 -0.048895314 0.007895884 -0.07561633
000320 9e b5 1e bd be 3c 1d 3d 1a db 73 3d fa b3 a9 3d
       -0.038747422 0.038388006 0.059535123 0.08286281
000330 14 c9 40 3d f0 ae 7e bc a3 07 1c 3d cb 6d 68 bc
       0.047066763 -0.015544638 0.03809322 -0.014186333
000340 c8 f9 db 3c 31 50 57 3c 4c 38 93 3c 20 2e b7 3c
       0.026852503 0.013141678 0.01797118 0.022360861
000350 1f ad 02 bd a0 e9 92 3c c2 92 22 3d a5 0d 08 3d
       -0.031903382 0.017933667 0.03969074 0.033216137
000360 c7 ab 04 3d 8b 85 e4 3b e2 ed fc bb b9 12 ca 3c
       0.032390382 0.0069739274 -0.0077187875 0.02466713
000370 22 63 d6 3c 37 f5 62 3d ab 40 be bb 93 3c 9f 3d
       0.026170317 0.055409636 -0.005806049 0.077752255
000380 16 1b f9 3b ac 20 ab bd 75 de 2c 3d 4d 20 9c 3d
       0.007602106 -0.08355841 0.04220434 0.076233484
000390 8b 2c 4a bb b5 9a 06 bd 49 49 8a bd cf cd 73 bc
       -0.0030849304 -0.032862384 -0.06752259 -0.014880612
0003a0 1b a2 7d 3b 2a 4c 98 3d a8 fe ff ba a6 02 e6 ba
       0.0038701359 0.07436402 -0.001953085 -0.0017548397
0003b0 dd 03 48 3c 92 e2 6e 3d e3 1d 7e bc 16 7a a5 3d
       0.012207952 0.058321543 -0.015510055 0.08079927
0003c0 b1 52 11 3c d6 a6 a0 3c d3 d3 79 bd 8f 89 8d bc
       0.008869813 0.019610804 -0.060993027 -0.017277507
0003d0 f4 5f ef 3c e4 92 44 bd ca e7 ff bc f8 f9 ea 3c
       0.029220559 -0.04799165 -0.031238455 0.028683648
0003e0 97 54 26 bd f5 76 75 3d 63 9d 99 bd e1 21 a3 bc
       -0.040608015 0.0599279 -0.07500722 -0.019913616
0003f0 3a 36 16 3c 9f 2e 4f bc ed af 95 3c cf a2 85 3d
       0.009168202 -0.012645393 0.018272365 0.06525194

deconv3.0.bias f4 [8]
000000 82 88 a5 3b 4f 1b 82 3d 26 f9 9c 3d fe 88 a1 bc
       0.0050516734 0.06352865 0.07664709 -0.019718643
000010 0e 41 70 3d bc 39 d3 3b 7a 7c 5b 3d 4e 16 08 bd
       0.05865579 0.0064460915 0.053585507 -0.033224396

deconv3.1.weight f4 [8]
000000 3b c9 93 3f 7f 12 95 3f bb 1d 96 3f 1b f2 92 3f
       1.1545786 1.164627 1.1727823 1.1480135
000010 f1 71 96 3f 14 de 92 3f 3f 18 96 3f 9a 01 97 3f
       1.1753522 1.1474023 1.1726149 1.1797364

deconv3.1.bias f4 [8]
000000 32 76 1e 3e f0 03 26 3e 63 27 32 3e b2 da 14 3e
       0.15474775 0.1621244 0.17397837 0.1453655
000010 a5 20 33 3e 24 e2 14 3e 34 43 32 3e 5c 5c 37 3e
       0.17492922 0.14539391 0.17408448 0.17906326

deconv3.1.running_mean f4 [8]
000000 92 2e 9f bc 39 57 55 be 7b 14 cf ba 51 36 1f be
       -0.019431386 -0.20834054 -0.001579895 -0.15548064
000010 51 d5 bb 3d 21 81 df ba 3b ab 9b bc b7 b2 35 be
       0.09171546 -0.0017052033 -0.019002547 -0.17743956

deconv3.1.running_var f4 [8]
000000 a4 7d eb 3d 05 94 17 3e 63 3a 0e 3e b6 f0 0f 3e
       0.114985734 0.14802559 0.1388946 0.14056668
000010 a4 2b 5c 3e 2a bd 3a 3e 7c 8c 25 3e 52 e6 50 3e
       0.21501023 0.18236223 0.16166872 0.2040036
