Pix2Pix/checkpoints/pix2pix_model_epoch_200.pth (torch, 99191 bytes, 32 tensors)

conv1.0.weight f4 [8, 3, 4, 4]
0.12147514 0.11045451 -0.087049715 0.1480272 0.06827134 0.0031797676 -0.06946479 0.11326598
-0.10443848 -0.03551739 -0.0010360304 -0.025138164 0.11750489 0.089692704 -0.13526629 -0.1372515
-0.04785872 0.087791316 0.014820936 0.16862103 -0.05207736 -0.04476833 0.18644024 -0.066147216
-0.14274548 -0.12628166 -0.092269726 -0.12308402 -0.08853925 0.009060684 0.12141829 -0.078108616
0.07371532 0.1215312 -0.06805559 -0.10339838 -0.06018681 -0.0035533505 0.13342538 -0.015923716
-0.070320345 -0.10811412 -0.14002423 0.022977535 0.11896971 -0.082515955 0.15898174 0.01806264
0.00914989 0.018177172 -0.06546624 0.13589616 0.12781918 0.07612749 0.11019868 0.014330493
0.01063262 -0.07079463 -0.09011024 0.10368954 -0.05751128 0.05083048 -0.058380265 0.14816432
-0.02085444 -0.05761145 0.13024472 -0.12272941 -0.048147216 -0.10959329 0.05563377 -0.038366605
-0.0008928797 0.054137725 0.056138687 0.11261684 0.059096854 -0.12225299 -0.10665177 0.049926944
0.039183013 0.07959968 -0.1263863 -0.14093016 0.10117154 -0.07571684 -0.02298761 -0.07395787
-0.048455052 -0.10446024 -0.1260038 0.04656192 -0.050995193 -0.044760477 -0.12243417 0.03584953
0.08230979 -0.087906614 0.022171095 0.15712038 -0.13154557 -0.09447034 -0.07576516 0.055503607
-0.13141353 -0.097532324 0.00805986 -0.017347325 0.11102514 -0.09982036 0.058131512 0.12568702
0.10702 -0.14230444 0.061986484 -0.102092996 0.11188553 -0.07720992 0.00482921 0.1445489
-0.10969903 -0.0038468027 0.023044365 0.14242458 0.10101987 -0.028518293 -0.024071863 0.10211147
0.00776191 0.032356035 -0.1468683 0.04049103 0.067471445 -0.109167136 0.13104823 -0.035525333
0.107459165 -0.026285697 0.06539958 0.08738433 -0.104630075 -0.10730713 -0.13642558 -0.049287997
-0.036281668 0.021229682 -0.016336275 -0.058223568 -0.12137722 -0.12577951 0.06476133 0.12533669
0.08231826 0.04887335 0.010208211 0.1157787 0.074690215 -0.097450964 0.09024719 -0.076656334
-0.020011244 0.0885949 -0.14784557 -0.071417816 -0.075249694 0.029524488 -0.14664756 -0.08405217
0.009487596 2.2088956e-05 -0.01579097 -0.06313552 0.05038515 0.17760123 0.08748992 0.026786355
-0.13713296 0.069683604 0.010714414 0.04870242 -0.021808017 0.090329245 0.015474741 0.11427892
0.1471015 0.05881526 0.022951743 0.062496927 0.14698024 -0.052461702 0.086065 0.10614558
0.21013351 0.19717197 0.18347073 -0.01372723 0.05816398 0.0739231 -0.11318341 0.06235628
0.10180291 -0.070818596 -0.018807346 -0.0094346395 0.06733795 -0.12796144 0.04121385 -0.0060846703
0.060286622 -0.01978075 0.12600328 -0.11588546 -0.104650654 -0.046170104 0.016410712 0.07255822
0.14824831 -0.07535461 -0.09944931 -0.112008125 -0.1016019 0.12083535 0.0469631 0.06541868
0.13533175 0.058388587 -0.09752997 0.046441674 -0.110110655 0.000103114944 0.08093221 0.030410198
-0.021973534 0.006499648 0.05046809 0.111946344 -0.12961973 0.0010188622 0.06830971 -0.02811417
0.12891003 -0.0031880916 0.0014177304 0.039209645 -0.014131005 0.14347588 0.04039276 0.0346326
-0.052472748 -0.030396905 -0.105970144 -0.034339566 0.08410993 -0.06903536 0.06925874 -0.12294337
00000000: f5c7 f83d f935 e23d 1f47 b2bd 7194 173e
00000010: d8d1 8b3d a663 503b 8e43 8ebd fef7 e73d
00000020: d8e3 d5bd af7a 11bd 69cb 87ba 8dee cdbc
00000030: 67a6 f03d cfb0 b73d 3f83 0abe a88b 0cbe
00000040: 8107 44bd efcb b33d 83d3 723c feaa 2c3e
00000050: 124f 55bd ff5e 37bd 31ea 3e3e 3178 87bd
00000060: df2b 12be fb4f 01be e9f7 bcbd 7a13 fcbd
00000070: 1154 b5bd 4373 143c 27aa f83d 69f7 9fbd
00000080: 0ff8 963d 5ae5 f83d bb60 8bbd 88c2 d3bd
00000090: 7286 76bd 54df 68bb aaa0 083e 7472 82bc
000000a0: 1d04 90bd f06a ddbd 8362 0fbe 623b bc3c
000000b0: 64a6 f33d 20fe a8bd 1ccc 223e 1af8 933c
000000c0: 6ce9 153c 4be8 943c 2a13 86bd 5d28 0b3e
000000d0: 08e3 023e bbe8 9b3d d8af e13d 72ca 6a3c
000000e0: 7134 2e3c c6fc 90bd b88b b8bd 2e5b d43d
000000f0: f390 6bbd 9f33 503d 2520 6fbd 63b8 173e
00000100: eed6 aabc fcf9 6bbd df5e 053e 8f59 fbbd
00000110: 0436 45bd 7272 e0bd 3ce0 633d 4d26 1dbd
00000120: 2410 6aba 85bf 5d3d aef1 653d a8a3 e63d
00000130: 8b0f 723d c75f fabd 3e6c dabd 3280 4c3d
00000140: 5e7e 203d 2805 a33d 696b 01be ff4f 10be
00000150: 0633 cf3d 6e11 9bbd 8350 bcbc 3977 97bd
00000160: ce78 46bd 40ef d5bd 2407 01be b6b7 3e3d
00000170: 56e0 50bd c356 37bd c4be fabd f5d6 123d
00000180: 0992 a83d 6208 b4bd 28a0 b53c 2ae4 203e
00000190: e2b3 06be aa79 c1bd c42a 9bbd c057 633d
000001a0: 4591 06be 07bf c7bd 810d 043c fa1b 8ebc
000001b0: 2661 e33d 9e6e ccbd 4f1b 6e3d 19b4 003e
000001c0: 4d2d db3d 41b8 11be 8ae5 7d3d 2216 d1bd
000001d0: 3e24 e53d 3c20 9ebd 5a3e 9e3b a004 143e
000001e0: e3a9 e0bd a41a 7cbb 89c7 bc3c c0d7 113e
000001f0: 81e3 ce3d 329f e9bc 5b32 c5bc d21f d13d
00000200: 9f57 fe3b c387 043d a564 16be ecd9 253d
00000210: 782e 8a3d 0593 dfbd 8231 063e 0383 11bd
00000220: 8d13 dc3d 1a55 d7bc 37f0 853d 8ef6 b23d
00000230: 4b48 d6bd d7c3 dbbd 26b3 0bbe 36e2 49bd
00000240: 169c 14bd dfe9 ad3c a7d3 85bc d67b 6ebd
00000250: 9f94 f8bd 58cc 00be 97a1 843d 4358 003e
00000260: 7a96 a83d 6c2f 483d 5740 273c 621d ed3d
00000270: 2ff7 983d 5f94 c7bd 85d3 b83d fffd 9cbd
00000280: 9fee a3bc 3e71 b53d d464 17be 8143 92bd
00000290: 831c 9abd 57dd f13c c72a 16be 8b23 acbd
000002a0: dd71 1b3c ac4b b937 105c 81bc 324d 81bd
000002b0: a960 4e3d 19dd 353e ea2d b33d 0f6f db3c
000002c0: 956c 0cbe 47b6 8e3d 828b 2f3c 307c 473d
000002d0: baa6 b2bc 8afe b83d c589 7d3c 110b ea3d
000002e0: c7a1 163e 45e8 703d 4b05 bc3c c7fc 7f3d
000002f0: fd81 163e 15e2 56bd d942 b03d db62 d93d
00000300: 3d2d 573e 73e7 493e c0df 3b3e 2de8 60bc
00000310: 5a3d 6e3d ff64 973d b4cc e7bd 4c69 7f3d
00000320: 0b7e d03d 5709 91bd dd11 9abc bf93 1abc
00000330: 7be8 893d 5308 03be dbcf 283d ea61 c7bb
00000340: 1bef 763d 3d0b a2bc 0107 013e 5b55 edbd
00000350: 1553 d6bd dd1c 3dbd c26f 863c 6799 943d
00000360: 68ce 173e 8553 9abd 14ac cbbd 8464 e5bd
00000370: a814 d0bd 8678 f73d 615c 403d 3bfa 853d
00000380: 6894 0a3e df28 6f3d cbbd c7bd a039 3e3d
00000390: b281 e1bd 6a3f d838 c9bf a53d cf1e f93c
000003a0: d701 b4bc 00fb d43b a1b7 4e3d 2044 e53d
000003b0: 09bb 04be 588b 853a f6e5 8b3d b04f e6bc
000003c0: fe00 043e 4def 50bb 23d3 b93a 4b9a 203d
000003d0: bb85 67bc 57eb 123e e172 253d eada 0d3d
000003e0: aaed 56bd ee02 f9bc e006 d9bd a5a7 0cbd
000003f0: d441 ac3d 6962 8dbd 87d7 8d3d bcc9 fbbd

conv1.0.bias f4 [8]
-0.0617268 -0.11526623 0.103192516 -0.080314115 0.13686334 -0.09771613 0.109612145 0.04514015
00000000: 3ed5 7cbd b410 ecbd 9956 d33d ba7b a4bd
00000010: e725 0c3e 651f c8bd 557c e03d e1e4 383d

conv1.1.weight f4 [8]
0.9959368 0.9859256 1.0060977 1.0287637 1.0085592 1.0170478 1.0115769 0.9802508
00000000: b7f5 7e3f 9f65 7c3f cfc7 803f 87ae 833f
00000010: 7818 813f 9f2e 823f 5a7b 813f b7f1 7a3f

conv1.1.bias f4 [8]
-0.013051233 -0.013084073 -0.09304379 0.08843429 -0.036478143 0.04143414 0.033895027 0.011720515
00000000: d7d4 55bc 945e 56bc be8d bebd 091d b53d
00000010: 1b6a 15bd d8b6 293d 83d5 0a3d 6707 403c

conv1.1.running_mean f4 [8]
-0.06391859 -0.15169579 0.10556583 -0.117021926 0.02856438 -0.11163044 0.20105013 0.0464783
00000000: c0e7 82bd 2456 1bbe e632 d83d 31a9 efbd
00000010: d9ff e93c 809e e4bd 16e0 4d3e 0860 3e3d

conv1.1.running_var f4 [8]
0.026227374 0.038116347 0.017401094 0.12283405 0.13481984 0.029305546 0.11419937 0.011533246
00000000: cada d63c e31f 1c3d bd8c 8e3c 6b90 fb3d
00000010: 360e 0a3e 2f12 f03c 5ce1 e93d f1f5 3c3c

conv2.0.weight f4 [16, 8, 4, 4]
0.053710762 0.023532255 -0.087760136 -0.063701525 0.039650656 0.043647505 -0.033984315 0.03724603
-0.012240617 -0.026361903 0.069363445 0.06922377 -0.044235773 0.046778318 0.027200488 0.083514124
0.04418249 0.020515913 0.10886722 0.08474539 -0.03462102 0.025602816 -0.031633966 0.048423905
0.0762605 -0.020456085 -0.022892315 0.003312825 -0.027232723 0.053302273 0.1462983 0.13303456
-0.034672476 -0.039229706 -0.015724728 -0.012626194 0.06078688 0.02754316 0.0022864116 0.082984455
-0.0007053163 0.03993032 0.09714708 -0.036137134 0.018587446 0.018086398 -0.042485233 -0.028285323
-0.03729741 -0.044644445 0.023465002 -0.012469095 -0.04278918 -0.06825968 0.082695134 0.0064005237
0.049285386 0.026889065 0.03938551 0.009443969 -0.057910763 0.08022466 -0.053984694 0.004960834
0.004629688 0.067027174 -0.027018232 0.07166245 -0.041317582 -0.01333768 0.024512159 0.09131145
0.061639883 0.079662085 -0.014548472 0.11767194 0.0772452 0.102395885 0.08741438 0.021526525
-0.016563805 -0.019148178 0.058233216 0.044166062 0.035474528 -0.021683585 0.016665755 0.0013820302
0.043087736 -0.06350357 -0.0488804 0.03035526 0.036091667 0.0060023167 -0.045818023 -0.03482486
-0.06305247 0.050011475 0.0346367 0.031226793 0.06669616 -0.0286402 0.005520665 -0.036928736
0.039011054 -0.03858602 0.09581439 -0.0054861982 0.036027767 0.06311422 -0.021071048 0.022863558
-0.031736877 0.034429286 -0.059479598 0.06397238 -0.074807495 0.032014936 0.023936408 0.0004279816
-0.020806592 0.09164432 -0.026990423 -0.028097782 -0.004965719 0.051701073 -0.02443706 0.060426693
-0.031694252 -0.0259595 0.04923936 0.05718731 -0.06022174 0.030595955 -0.029808717 -0.09176576
0.059671275 0.013737471 0.059533685 -0.019826494 -0.089118175 0.040053315 -0.027572466 -0.018561479
-0.0009649668 0.07462169 -0.03050873 0.031002933 0.02545205 0.01662296 -0.04185817 0.02043653
0.05550342 0.054322306 0.050519615 0.018273544 -0.04866522 -0.021377089 0.017171303 0.028988112
0.0770735 0.06400761 -0.0062389057 0.019737005 -0.05468867 -0.09762778 -0.10238442 -0.069914624
-0.13052984 -0.012147068 -0.0045981803 -0.105920985 0.025387028 0.0038463394 -0.015002641 0.015162167
0.09666347 0.0076394402 0.08543131 -0.014553137 -0.022033757 -0.04963582 -0.02141952 0.054971132
-0.04942208 -0.08401963 0.016099676 0.028330086 0.07710475 -0.034318633 0.052808966 0.009349583
0.017402567 -0.0017864252 0.0062147365 0.01642866 0.043886486 0.017613214 -0.041614942 0.038843643
0.054597113 0.0645184 -0.03058442 -0.06973075 -0.064671695 0.02300384 -0.0724257 0.022163952
-0.007296175 0.10470721 0.060253315 0.059060257 -0.05635294 0.0881488 0.09343809 0.09432768
0.025075722 -0.051672954 -0.04812655 0.056306817 -0.09466127 -0.11331921 -0.12063504 -0.028284723
0.07046775 0.02469548 -0.064992934 0.03081998 -0.035491593 -0.0072379997 0.039689563 -0.0193704
-0.011318709 -0.0010077605 -0.05911176 0.062979855 0.082688496 0.040005058 -0.021975601 0.01597373
0.030787064 0.057470724 0.09404603 0.00067930477 0.042891182 -0.0113878595 0.08681802 0.04860718
0.027092751 0.0006108536 -0.06614674 -0.029816177 -0.10541004 -0.06366758 -0.0437049 -0.06711675
00000000: d1ff 5b3d b7c6 c03c 96bb b3bd f275 82bd
00000010: ba68 223d bac7 323d 2333 0bbd 4b8f 183d
00000020: de8c 48bc ebf4 d7bc 6c0e 8e3d 31c5 8d3d
00000030: 9230 35bd 9f9a 3f3d 8fd3 de3c 7409 ab3d
00000040: b3f8 343d fd10 a83c c7f5 de3d fe8e ad3d
00000050: c5ce 0dbd ffbc d13c 9e92 01bd 2558 463d
00000060: 772e 9c3d 8593 a7bc aa88 bbbc fb1b 593b
00000070: 2917 dfbc 7c53 5a3d 39cf 153e 363a 083e
00000080: ba04 0ebd 54af 20bd 25d1 80bc 19de 4ebc
00000090: aafb 783d 31a2 e13c 9fd7 153b c1f3 a93d
000000a0: fae4 38ba fa8d 233d 0cf5 c63d 8804 14bd
000000b0: b344 983c ed29 943c ff04 2ebd 9fb6 e7bc
000000c0: 2bc5 18bd 18dd 36bd ad39 c03c 2d4b 4cbc
000000d0: b543 2fbd bbcb 8bbd 115c a93d 7cbb d13b
000000e0: 79df 493d 7546 dc3c b352 213d e0ba 1a3c
000000f0: d633 6dbd d44c a43d 0e1f 5dbd 7e8e a23b
00000100: a3b4 973b 8b45 893d 5755 ddbc c3c3 923d
00000110: a03c 29bd 4986 5abc b9cd c83c 7f01 bb3d
00000120: 1a7a 7c3d e025 a33d b75c 6ebc fcfd f03d
00000130: bb32 9e3d efb4 d13d 4f06 b33d 6558 b03c
00000140: d1b0 87bc a4dc 9cbc f485 6e3d 79e7 343d
00000150: bd4d 113d c6a1 b1bc 9f86 883c 3d25 b53a
00000160: c47c 303d 290e 82bd d036 48bd 98ab f83c
00000170: dbd4 133d 15af c43b aeab 3bbd 83a4 0ebd
00000180: a721 81bd d5d8 4c3d 36df 0d3d 55cf ff3c
00000190: ff97 883d da9e eabc b2e6 b43b 9642 17bd
000001a0: 0eca 1f3d 600c 1ebd 563a c43d 91c5 b3bb
000001b0: da91 133d 0742 813d 319d acbc 5b4c bb3c
000001c0: 87fe 01bd b905 0d3d e1a0 73bd f303 833d
000001d0: ac34 99bd 1822 033d 4916 c43c b862 e039
000001e0: 9672 aabc 04b0 bb3d 051b ddbc 522d e6bc
000001f0: 78b7 a2bb 81c4 533d 3b30 c8bc fb81 773d
00000200: d5d1 01bd 04a9 d4bc 36af 493d 3e3d 6a3d
00000210: 12ab 76bd 5ea4 fa3c 6931 f4bc b0ef bbbd
00000220: de69 743d 2113 613c 98d9 733d 2c6b a2bc
00000230: 9783 b6bd f20e 243d a7df e1bc 3e0e 98bc
00000240: d3f5 7cba 42d3 983d 72ed f9bc ddf9 fd3c
00000250: d180 d03c e02c 883c 7973 2bbd 826a a73c
00000260: 8e57 633d 1181 5e3d a8ed 4e3d 66b2 953c
00000270: 2f55 47bd 011f afbc d5aa 8c3c 7a78 ed3c
00000280: b6d8 9d3d 6c16 833d bc6f ccbb 80af a13c
00000290: 3a01 60bd 13f1 c7bd ecae d1bd 662f 8fbd
000002a0: 9da9 05be 7f04 47bc 55ac 96bb 1aed d8bd
000002b0: 75f8 cf3c de12 7c3b a3cd 75bc bd6a 783c
000002c0: 7ff7 c53d 4554 fa3b 9cf6 ae3d 4870 6ebc
000002d0: 2380 b4bc ee4e 4bbd fd77 afbc 6929 613d
000002e0: cf6e 4abd 7c12 acbd 78e3 833c 7f14 e83c
000002f0: 18e9 9d3d b291 0cbd 374e 583d fe2e 193c
00000300: d48f 8e3c 7c26 eaba fda4 cb3b 6695 863c
00000310: 51c2 333d 9649 903c 6e74 2abd 831a 1f3d
00000320: 39a1 5f3d 3922 843d 2d8c fabc ffce 8ebd
00000330: 9872 84bd 8d72 bc3c ed53 94bd 2d91 b53c
00000340: c114 efbb bc70 d63d 2ecc 763d 2be9 713d
00000350: 57d2 66bd 5c87 b43d 785c bf3d df2e c13d
00000360: 9a6b cd3c 05a7 53bd 5820 45bd faa1 663d
00000370: c5dd c1bd e713 e8bd 810f f7bd 5db5 e7bc
00000380: 6551 903d 2d4e ca3c 041b 85bd 2f7a fc3c
00000390: a25f 11bd be2c edbb 8691 223d acae 9ebc
000003a0: 1b72 39bc d516 84ba 2c1f 72bd 95fb 803d
000003b0: 9658 a93d 58dc 233d 2d06 b4bc 57db 823c
000003c0: 2735 fc3c 6c66 6b3d 349b c03d 5f13 323a
000003d0: aaae 2f3d 2594 3abc a5cd b13d 5318 473d
000003e0: 9ef1 dd3c b121 203a f177 87bd 0e41 f4bc
000003f0: 38e1 d7bd 2664 82bd e903 33bd 8274 89bd

conv2.0.bias f4 [16]
0.046039645 0.04780244 -0.07139947 0.04862991 0.056756195 -0.07125862 0.057696495 -0.028243303
0.03554363 0.0066786394 0.025800942 0.038300592 -0.06983408 0.079218976 -0.047123976 0.054913457
00000000: 1194 3c3d 7ecc 433d e339 92bd 2830 473d
00000010: 2f79 683d 0af0 91bd 2953 6c3d 805e e7bc
00000020: 3396 113d 7dd8 da3b 7f5c d33c 15e1 1c3d
00000030: 2c05 8fbd 8f3d a23d 1205 41bd efec 603d

conv2.1.weight f4 [16]
1.0015512 0.9910372 1.0749964 0.9967066 1.055125 0.9852527 1.0552528 0.9852939
0.9741681 0.9900959 0.9979835 0.9866759 1.0338318 0.9941595 0.99985725 0.9822638
00000000: d432 803f 9db4 7d3f 7b99 893f 2a28 7f3f
00000010: 560e 873f 8539 7c3f 8612 873f 393c 7c3f
00000020: 1563 793f ed76 7d3f d97b 7f3f cb96 7c3f
00000030: 9a54 843f 3d81 7e3f a5f6 7f3f a475 7b3f

conv2.1.bias f4 [16]
-0.11267942 -0.0081187785 -0.008079201 0.029272176 0.063579835 -0.017190104 0.03298578 0.021170449
0.010356906 0.045417875 -0.034346152 -0.011787706 0.046477646 0.025459958 0.028048676 -0.01739539
00000000: 78c4 e6bd a004 05bc a05e 04bc 34cc ef3c
00000010: 2536 823d 43d2 8cbc 191c 073d a66d ad3c
00000020: 03b0 293c 1808 3a3d 8dae 0cbd 3921 41bc
00000030: 585f 3e3d 6791 d03c 56c6 e53c c780 8ebc

conv2.1.running_mean f4 [16]
0.7800918 0.1906741 -0.5380212 -0.5570565 -0.25697452 -0.05518094 -0.4826638 -0.07214226
0.1909737 0.034443736 0.2551021 0.23738186 -0.026712373 0.2438726 -0.5373112 0.3433821
00000000: 19b4 473f 1240 433e c2bb 09bf 419b 0ebf
00000010: 2a92 83be 6905 62bd b61f f7be 52bf 93bd
00000020: 9c8e 433e e014 0d3d be9c 823e 3b14 733e
00000030: e8d3 dabc bdb9 793e 3a8d 09bf c7cf af3e

conv2.1.running_var f4 [16]
0.21565057 0.3327011 0.2635705 0.21674533 0.11484818 0.16900074 0.3019387 0.1567135
0.19873793 0.17336468 0.25346774 0.46046367 0.115765885 0.09798358 0.771675 0.18998863
00000000: 81d3 5c3e cc57 aa3e b6f2 863e 7df2 5d3e
00000010: 8635 eb3d 880e 2d3e b697 9a3e 8179 203e
00000020: f581 4b3e 8386 313e 86c6 813e e5c1 eb3e
00000030: aa16 ed3d 9dab c83d 7e8c 453f 618c 423e

conv3.0.weight f4 [32, 16, 4, 4]
0.057736445 0.076065615 0.02632369 0.06847238 0.034514945 0.045863267 0.024590885 0.042723108
0.06033615 0.11105845 0.10128338 0.10004701 0.024315905 0.098028965 0.07269215 0.1174874
-0.044818286 0.03933692 0.021912795 -0.0069402657 0.039930116 0.06407307 0.032334283 -0.035218067
0.034800213 -0.029521868 -0.011157898 -0.027720926 0.012844839 -0.043640587 0.030676194 -0.0049009817
0.019541671 -0.0013500846 0.062641285 0.011357389 0.03485354 0.0371383 0.022580236 -0.031413473
0.045035455 0.01102149 0.037728548 -0.007316569 -0.05691712 -0.032561146 0.013988055 0.026685927
-0.027375728 0.042491134 0.009122299 -0.00064858375 0.04999771 0.038854692 0.07296331 0.038472004
0.031239392 0.062351283 0.050189283 -0.019576939 -0.042303294 -0.026641076 0.024166543 0.02680253
-0.031061582 -0.056589406 -0.023664903 -0.018864812 -0.054778088 0.028696228 0.059260692 0.051694166
-0.0015736128 0.0057969876 0.025124094 0.02542702 -0.06126101 0.01634456 -0.0036250826 -0.0060406453
0.03830672 0.02059346 0.08899431 0.08650107 0.046343893 0.0009658442 0.015679184 0.037826415
-0.02113578 0.051339034 0.029513821 0.01021458 0.015045285 -0.0446231 0.073397994 0.03647013
-0.0492255 -0.03734148 -0.04957446 -0.058032207 0.06863099 0.049986754 0.107525595 0.07233529
-0.022559762 0.04381064 0.018965226 -0.019704908 -0.057031035 0.04791377 0.047581285 0.008113124
-0.026348928 0.03502597 0.026719863 -0.0052049994 0.005459848 0.015890913 -0.013820412 -0.04992227
0.0029554844 0.053132422 0.062780194 -0.022318074 -0.029618392 -0.02726214 0.0049921204 0.030744
-0.0040422105 0.012559113 0.011859068 0.032328326 -0.07333182 0.031056356 0.018993998 0.03763018
-0.00020477365 -0.04881362 0.03290075 0.057665344 0.0216713 -0.008768386 0.012179774 0.022063412
-0.04297422 -0.04453309 -0.051313736 -0.024849454 -0.0014792284 -0.0655842 -0.01794536 -0.021596976
-0.014476201 0.031880498 -0.035006996 -0.009417415 -0.0113238385 -0.054774202 -0.05348531 -0.019990945
0.018136717 0.023743851 0.07868771 -0.018932616 0.06385544 0.06625392 0.04888029 0.026066272
0.035403907 0.06680984 0.0047024377 0.031195566 0.057172947 0.023945121 -0.001152362 -0.0128224045
0.014756326 -0.06813913 -0.044239383 -0.026549978 0.007864103 -0.054691445 0.042574454 -0.0073983986
0.005391452 0.029414674 -0.023584928 -0.026750017 0.042216122 0.036646 -0.032569937 0.020870836
-0.08565347 -0.03539387 -0.07449042 -0.020692887 -0.012904109 0.022598043 -0.0636651 -0.033315826
0.0030915851 0.001247545 -0.003652373 -0.018783513 -0.019281652 0.053397253 -0.010338784 0.02172194
-0.05011823 0.021245206 0.029130714 0.024831826 -0.020525055 0.03835554 0.031083634 0.033555828
-0.032383163 0.018312955 0.030064706 0.033017863 -0.0009523477 -0.019125665 0.047697123 -0.019452646
-0.028991874 -0.032537855 -0.07035654 -0.015112107 0.0071490537 0.0033489377 -0.04916998 -0.049257252
0.009344482 0.034211155 -0.032865375 0.022699434 -0.00430051 0.057198398 0.041577704 0.022563785
-0.019730218 -0.019437224 -0.01326683 -0.034419864 0.06123239 0.014378344 -0.028020106 0.010793367
-0.027287906 -0.016838452 -0.047053143 0.02532708 -0.0059957174 0.0068309414 0.024859542 -0.01137545
00000000: 0d7d 6c3d 4ac8 9b3d c7a4 d73c 3f3b 8c3d
00000010: 8b5f 0d3d 1fdb 3b3d d372 c93c 6dfe 2e3d
00000020: 0a23 773d 9d72 e33d a96d cf3d 72e5 cc3d
00000030: 2632 c73c 69c3 c83d 9fdf 943d 3c9d f03d
00000040: 6193 37bd c01f 213d 7682 b33c 2b6b e3bb
00000050: c38d 233d be38 833d f470 043d d240 10bd
00000060: ab8a 0e3d d8d7 f1bc 9ecf 36bc ff16 e3bc
00000070: 2973 523c 79c0 32bd a44c fb3c 6a98 a0bb
00000080: db15 a03c 52f5 b0ba 134a 803d 5814 3a3c
00000090: 96c2 0e3d 541e 183d 30fa b83c 6aab 00bd
000000a0: 1977 383d 7b93 343c 4089 1a3d d4bf efbb
000000b0: ed21 69bd d65e 05bd 282e 653c 729c da3c
000000c0: 1043 e0bc 2f0b 2e3d b275 153c b805 2aba
000000d0: 66ca 4c3d 1926 1f3d ca6d 953d d294 1d3d
000000e0: c1e9 ff3c 0f64 7f3d 4793 4d3d d15f a0bc
000000f0: 3846 2dbd 633e dabc eaf8 c53c fb90 db3c
00000100: dc74 febc 4bca 67bd e6dc c1bc 618a 9abc
00000110: fd5e 60bd 5a14 eb3c 57bb 723d 43bd 533d
00000120: af41 ceba a8f4 bd3b 0bd1 cd3c 534c d03c
00000130: d3ec 7abd 07e5 853c cb92 6dbb 9bf0 c5bb
00000140: 82e7 1c3d 9eb3 a83c a642 b63d 7927 b13d
00000150: 18d3 3d3d b530 7d3a a271 803c dfef 1a3d
00000160: f124 adbc e148 523d f8c6 f13c 0e5b 273c
00000170: 8080 763c b6c6 36bd b051 963d b461 153d
00000180: aea0 49bd 61f3 18bd 970e 4bbd 2eb3 6dbd
00000190: 688e 8c3d e9be 4c3d 6136 dc3d 8624 943d
000001a0: 40cf b8bc c972 333d f65c 9b3c 306c a1bc
000001b0: 6099 69bd 3b41 443d 98e4 423d e9ec 043c
000001c0: b5d9 d7bc 6477 0f3d 9de3 da3c b38e aabb
000001d0: 86e8 b23b a92d 823c 026f 62bc 4b7b 4cbd
000001e0: cdb0 413b 62a1 593d e792 803d 65d4 b6bc
000001f0: 45a2 f2bc da54 dfbc f194 a33b d7da fb3c
00000200: 8574 84bb bdc4 4d3c 894c 423c b56a 043d
00000210: fe2e 96bd e669 fe3c 4d99 9b3c 1b22 1a3d
00000220: 82b8 56b9 caf0 47bd f0c2 063d 7f32 6c3d
00000230: 0388 b13c 47a9 0fbc ad8d 473c 54be b43c
00000240: bc05 30bd 5468 36bd 5a2e 52bd 1591 cbbc
00000250: abe2 c1ba 0251 86bd 2602 93bc 24ec b0bc
00000260: 962d 6dbc 2095 023d 7f63 0fbd 804b 1abc
00000270: 9f87 39bc ea5a 60bd 6a13 5bbd 0dc4 a3bc
00000280: 7493 943c 7782 c23c 0627 a13d 9318 9bbc
00000290: a4c6 823d 23b0 873d b336 483d ef88 d53c
000002a0: b003 113d 99d3 883d e816 9a3b d88d ff3c
000002b0: 2e2e 6a3d 8f28 c43c da0a 97ba 1015 52bc
000002c0: 84c4 713c 878c 8bbd 5b34 35bd 577f d9bc
000002d0: 70d8 003c 2304 60bd 8d62 2e3d 446e f2bb
000002e0: c7aa b03b 0bf7 f03c 2e35 c1bc da22 dbbc
000002f0: d0ea 2c3d 1e1a 163d 0e68 05bd 51f9 aa3c
00000300: 166b afbd 2af9 10bd 6f8e 98bd 2184 a9bc
00000310: c26b 53bc 881f b93c d962 82bd 2d76 08bd
00000320: 319c 4a3b aa84 a33a a75c 6fbb e2df 99bc
00000330: 8ef4 9dbc 14b7 5a3d 0164 29bc 36f2 b13c
00000340: c648 4dbd 6d0a ae3c 89a3 ee3c 1d6c cb3c
00000350: 2924 a8bc b31a 1d3d 1ba3 fe3c d671 093d
00000360: 35a4 04bd 0d05 963c 424a f63c bd3d 073d
00000370: f9a6 79ba 6dad 9cbc 0f5e 433d 285b 9fbc
00000380: 5e80 edbc 6a46 05bd 1717 90bd c598 77bc
00000390: 9c42 ea3b da79 5b3b 7666 49bd f9c1 49bd
000003a0: 9919 193c ff20 0c3d d89d 06bd 2af4 b93c
000003b0: 4beb 8cbb de48 6a3d 624d 2a3d b0d7 b83c
000003c0: 44a1 a1bc d03a 9fbc 1e5d 59bc d8fb 0cbd
000003d0: d1ce 7a3d 2593 6b3c 6c8a e5bc aad6 303c
000003e0: e38a dfbc cbf0 89bc ccba 40bd bd7a cf3c
000003f0: b977 c4bb 17d6 df3b 3da6 cb3c 1860 3abc

conv3.0.bias f4 [32]
0.027186874 0.029476415 0.011006078 -0.0056062844 -0.014603475 0.018766686 -0.062072344 0.008415972
-0.039874256 0.041306503 0.006395938 0.018155253 0.0009055131 0.052217957 -0.043802254 -0.050413072
-0.054265324 0.02903389 -0.021319248 0.055903666 -0.062125828 -0.033299856 0.042338036 0.018895313
-0.020563371 0.053005815 0.010959037 0.014863582 0.058961224 -0.046578407 -0.008102549 0.013380065
00000000: 02b7 de3c 8678 f13c d652 343c ecb4 b7bb
00000010: 6a43 6fbc 98bc 993c 923f 7ebd 25e3 093c
00000020: 3053 23bd 0231 293d 0495 d13b 53ba 943c
00000030: f55f 6d3a 7fe2 553d fe69 33bd f07d 4ebd
00000040: 5145 5ebd 7bd8 ed3c b4a5 aebc 3efb 643d
00000050: a777 7ebd 6e65 08bd a66a 2d3d 58ca 9a3c
00000060: 8474 a8bc a01c 593d 888d 333c 6286 733c
00000070: 5381 713d 00c9 3ebd 8ec0 04bc 0f38 5b3c

conv3.1.weight f4 [32]
1.0735995 0.99707985 1.0131695 0.9748997 0.9987121 1.0141338 0.9824606 0.9879821
1.0367963 1.0114213 1.0043038 0.996722 0.96867543 1.0672271 1.0432104 0.98891985
1.0157901 0.9994806 0.9780913 1.0036209 1.0372986 1.0159962 0.97343946 0.9996921
0.97037053 1.0004641 0.98074555 1.0298615 0.9930856 0.9860149 0.9975369 0.9956432
00000000: b56b 893f a040 7f3f 8aaf 813f 0793 793f
00000010: 99ab 7f3f 23cf 813f 8a82 7b3f 65ec 7c3f
00000020: beb5 843f 4176 813f 078d 803f 2c29 7f3f
00000030: 1dfb 773f e69a 883f eb87 853f da29 7d3f
00000040: 6905 823f f6dd 7f3f 3164 7a3f a676 803f
00000050: 33c6 843f 2a0c 823f 5433 793f d2eb 7f3f
00000060: 346a 783f 350f 803f 2412 7b3f 80d2 833f
00000070: dc3a 7e3f 796b 7c3f 945e 7f3f 79e2 7e3f

conv3.1.bias f4 [32]
-0.107226744 -0.011966527 -0.07933019 -0.03081598 -0.005354763 -0.022761572 -0.044322576 -0.0042994013
0.02563596 -0.0037674094 -0.018400144 -0.029682849 -0.004582966 -0.047031205 0.10499489 -0.007418652
0.021790903 -0.012971225 -0.036233976 -0.110823184 -0.05875115 -0.048130635 -0.006543793 0.037303552
-0.0070287297 -0.022267425 0.0038194554 0.027976694 -0.022979751 -0.014718484 -0.040945567 0.010578833
00000000: b299 dbbd 410f 44bc de77 a2bd cb71 fcbc
00000010: 0277 afbb 7a76 babc 978b 35bd fee1 8cbb
00000020: 8102 d23c a4e6 76bb e6bb 96bc 7229 f3bc
00000030: b52c 96bb cba3 40bd 9007 d73d 2a18 f3bb
00000040: d682 b23c 4385 54bc 146a 14bd 44f7 e2bd
00000050: 0ca5 70bd a124 45bd 506d d6bb 9ccb 183d
00000060: 4251 e6bb 2d6a b6bc d44f 7a3b 612f e53c
00000070: 0840 bcbc cc25 71bc 8ab6 27bd d752 2d3c

conv3.1.running_mean f4 [32]
0.81445163 0.049911287 0.43686903 0.054010972 -0.028869968 -1.0679635 -0.60451806 -0.13868804
0.087039426 0.5511252 0.3195148 -0.07977609 -0.38983974 0.42859733 -1.0887641 -0.45525742
-0.7143273 0.14472057 0.14746842 -0.93758404 -0.0885982 0.3788184 0.2628801 -0.4123422
-0.5850658 -0.34431177 0.11849245 -0.7009892 0.30929658 -0.30953252 -0.3796006 0.4304186
00000000: e77f 503f c76f 4c3d 4cad df3e 9c3a 5d3d
00000010: b680 ecbc 07b3 88bf b2c1 1abf 3d04 0ebe
00000020: ba41 b23d 8b16 0d3f 7297 a33e a661 a3bd
00000030: 1399 c7be 1c71 db3e 9f5c 8bbf 8017 e9be
00000040: 27de 36bf a131 143e f601 173e 8205 70bf
00000050: f972 b5bd 7cf4 c13e 3898 863e 841e d3be
00000060: dfc6 15bf a249 b0be 2bac f23d 0774 33bf
00000070: 1f5c 9e3e 0c7b 9ebe 035b c2be d45f dc3e

conv3.1.running_var f4 [32]
0.703088 0.25770342 0.32213572 0.42607948 0.47242287 0.22673307 0.18278117 0.23339579
0.1904261 0.15441503 0.33210838 0.1307221 0.19570698 0.43871653 0.61940366 0.20878969
0.21232556 0.34598604 0.2811663 0.2410466 0.18187232 0.30738932 0.20740966 0.2686743
0.19066961 0.3786564 0.29627898 0.46653202 0.133565 0.15146144 0.15131152 0.46730646
00000000: 93fd 333f b4f1 833e f9ee a43e 1727 da3e
00000010: 69e1 f13e b72c 683e fd2a 3b3e 4eff 6e3e
00000020: 0fff 423e f91e 1e3e 1c0a aa3e 04dc 053e
00000030: 6967 483e 749f e03e 3d91 1e3f f7cc 553e
00000040: df6b 593e 1525 b13e 07f5 8f3e ebd4 763e
00000050: bd3c 3a3e 2262 9d3e 3363 543e ae8f 893e
00000060: e53e 433e 40df c13e e1b1 973e 49dd ee3e
00000070: 43c5 083e b518 1b3e 68f1 1a3e cb42 ef3e

deconv2.0.weight f4 [32, 16, 4, 4]
-0.053346824 -0.044085544 0.032467682 -0.038542636 0.0222684 -0.060648046 -0.06664713 -0.042494733
-0.02863842 0.010711462 -0.008244047 0.0057771476 -0.030322582 -0.061606184 0.04977532 0.0017130695
-0.009077079 -0.062033508 -0.020923829 0.040888973 0.05037487 0.053041853 0.06637065 0.046908565
-0.038852643 0.035626885 -0.00060811895 -0.020434363 0.036333263 0.017128536 -0.044837948 0.02190815
0.04004327 -0.059976865 0.02245154 0.052291863 0.024442106 0.03211541 -0.042154107 -0.05083577
-0.0030480514 -0.016312435 0.06586935 0.035366405 0.017432451 0.016054451 -0.024518732 -0.0749946
-0.041439805 0.005600777 0.021270474 -0.04069642 0.00297609 -0.03203708 0.007332124 -0.025304487
0.063765176 0.09210797 -0.056758147 -0.021952134 0.026352858 -0.05476381 -0.021321604 -0.09319516
0.0054552876 -0.061911646 -0.0072196666 0.0072811153 -0.04760225 0.021701705 -0.038885087 -0.06616837
-0.048551735 -0.04690762 0.027877174 0.0014646053 -0.0746764 -0.018952148 0.035904616 0.058130678
-0.037245207 -0.04210242 -0.08955554 -0.0603138 0.011166889 -0.008267339 -0.027539574 -0.0059922356
-0.06703513 -0.068380855 -0.079540506 -0.014223782 -0.025042811 0.0314816 -0.020855408 -0.009114184
-0.016419359 -0.1213269 -0.052298844 -0.05905557 0.033497777 0.024629869 -0.026456228 -0.016442053
-0.040552575 -0.14818889 -0.10521717 -0.1731756 0.028678428 -0.0765653 0.04078901 0.024476292
-0.022353021 -0.06340745 -0.1126658 -0.07942421 -0.019464403 -0.0676873 -0.007952317 -0.15250932
0.031870373 -0.042292964 0.0014265776 0.0112654 0.036985084 -0.08381721 0.020139229 -0.1340692
-0.06999625 -0.00048002094 0.0155087765 0.045588724 0.07036081 0.042274695 0.018714244 0.045459077
-0.098009475 -0.023036096 -0.03844066 -0.0018617873 -0.03861494 -0.035860654 -0.01500598 0.048233014
-0.08781826 -0.00669815 -0.023188058 -0.0057542133 -0.041157402 -0.079240344 0.0130918585 0.022227295
-0.08205507 -0.040257428 -0.14919104 0.037766412 0.039387755 -0.045900695 0.0025007958 -0.08930546
0.014113931 0.028401742 0.05238749 -0.049030755 0.036876243 -0.043312155 -0.045768026 -0.10602709
0.06767262 0.05369118 -0.037821785 -0.014131851 0.0147481775 -0.035126932 0.0044715907 0.005731431
-0.03960361 -0.022975046 -0.051622435 0.011765202 0.009180933 -0.0420913 -0.07087165 0.001868997
-0.031647198 0.0095735 0.011618838 -0.06938095 0.02120164 -0.051507346 0.024877671 0.0029075574
0.01303403 0.011676636 -0.04646107 0.030202782 -0.02807722 -0.06392696 -0.018383699 -0.04941465
-0.08021765 -0.036731884 -0.083063394 -0.005010683 -0.02493714 -0.00509202 0.023734836 -0.04610329
0.0015279987 -0.05285024 0.016185023 -0.06067462 -0.06125213 0.026419116 -0.069116406 0.026678037
0.025612548 0.030658623 -0.036139145 -0.07199987 -0.045133643 -0.054332253 -0.06096498 0.04488606
0.049659185 0.030567797 0.053407613 -0.049995665 -0.0065711136 -0.048550755 0.033146463 0.010088241
-0.013057982 -0.05320088 -0.044392962 -0.03788043 0.03894814 -0.08563456 -0.04081364 -0.040508423
-0.020342914 -0.08920606 -0.009696946 0.0043804026 -0.024145236 -0.013630853 -0.088384815 -0.023650104
-0.0237603 -0.012002018 -0.021296937 0.02848998 -0.0438434 -0.021778384 -0.03011893 0.020271674
00000000: 3382 5abd 0b93 34bd d5fc 043d e2de 1dbd
00000010: 386c b63c 166a 78bd 4a7e 88bd f50e 2ebd
00000020: 1f9b eabc 217f 2f3c 0a12 07bc 3a4e bd3b
00000030: 1067 f8bc c456 7cbd 35e1 4b3d 1389 e03a
00000040: 07b8 14bc d916 7ebd 7368 abbc 327b 273d
00000050: e155 4e3d 6a42 593d 56ed 873d 3223 403d
00000060: f323 1fbd 7fed 113d 2c6a 1fba f765 a7bc
00000070: 30d2 143d 2551 8c3c ffa7 37bd b878 b33c
00000080: 6904 243d 4daa 75bd 4bec b73c fe2f 563d
00000090: d03a c83c 738b 033d c9a9 2cbd 2b39 50bd
000000a0: d1c1 47bb a8a1 85bc 83e6 863d 5ddc 103d
000000b0: 80ce 8e3c a084 833c 82db c8bc c596 99bd
000000c0: c9bc 29bd b986 b73b 6b3f ae3c 4ab1 26bd
000000d0: 810a 433b 5039 03bd 5042 f03b 5b4b cfbc
000000e0: 5197 823d 1aa3 bc3d 3b7b 68bd f6d4 b3bc
000000f0: f3e1 d73c 0450 60bd a5aa aebc 1bdd bebd
00000100: 45c2 b23b 1197 7dbd f492 ecbb 6c96 ee3b
00000110: 94fa 42bd c6c7 b13c f845 1fbd 4883 87bd
00000120: 2fde 46bd 3422 40bd ac5e e43c 00f8 bf3a
00000130: f1ef 98bd 8941 9bbc b810 133d 6f1a 6e3d
00000140: 6e8e 18bd 9673 2cbd e568 b7bd 9a0b 77bd
00000150: 54f5 363c bc73 07bc ac9a e1bc 845a c4bb
00000160: b749 89bd 430b 8cbd 22e6 a2bd de0a 69bc
00000170: 9526 cdbc daf2 003d f6d8 aabc a953 15bc
00000180: e481 86bc 3d7a f8bd 5037 56bd 41e4 71bd
00000190: f734 093d 94c4 c93c bbba d8bc 7cb1 86bc
000001a0: 751a 26bd d4be 17be 1a7c d7bd f254 31be
000001b0: 06ef ea3c 45ce 9cbd 6012 273d 8182 c83c
000001c0: af1d b7bc c4db 81bd 54bd e6bd 29a9 a2bd
000001d0: d073 9fbc a49f 8abd 6f4a 02bc 672b 1cbe
000001e0: 828a 023d 633b 2dbd 00fc ba3a 8392 383c
000001f0: ac7d 173d 5ba8 abbd 06fb a43c 7049 09be
00000200: 325a 8fbd 52ab fbb9 8618 7e3c 3ebb 3a3d
00000210: 5419 903d 3b28 2d3d 9d4e 993c 4c33 3a3d
00000220: 31b9 c8bd 32b6 bcbc f473 1dbd 3707 f4ba
00000230: b32a 1ebd 9fe2 12bd a4db 75bc fb8f 453d
00000240: 0fda b3bd 287c dbbb e2f4 bdbc d78d bcbb
00000250: aa94 28bd c348 a2bd 3c7f 563c 0416 b63c
00000260: 7d0c a8bd f9e4 24bd 89c5 18be f4b0 1a3d
00000270: 0e55 213d 5e02 3cbd 64e4 233b c8e5 b6bd
00000280: 1e3e 673c c5aa e83c 4494 563d 79d4 48bd
00000290: 8b0b 173d 1668 31bd 4177 3bbd bb24 d9bd
000002a0: f197 8a3d 48eb 5b3d 04eb 1abd 4789 67bc
000002b0: 57a2 713c 42e1 0fbd 6c86 923b bace bb3b
000002c0: 6537 22bd 2a36 bcbc 0c72 53bd d5c2 403c
000002d0: a06b 163c ed67 2cbd 2825 91bd 22f9 f43a
000002e0: 7ea0 01bd 2bda 1c3c f05c 3e3c 9917 8ebd
000002f0: 10af ad3c 5ef9 52bd 42cc cb3c b88c 3e3b
00000300: af8c 553c 5c4f 3f3c f74d 3ebd d36b f73c
00000310: 3302 e6bc 23ec 82bd 6999 96bc 0467 4abd
00000320: 2749 a4bd 2c74 16bd 241d aabd a830 a4bb
00000330: f948 ccbc f6da a6bb 8f6f c23c ced6 3cbd
00000340: 2147 c83a 7e79 58bd 7496 843c f385 78bd
00000350: 83e3 7abd e76c d83c e78c 8dbd e68b da3c
00000360: 68d1 d13c cb27 fb3c a406 14bd ab74 93bd
00000370: 0ede 38bd 7f8b 5ebd 6ab6 79bd 72da 373d
00000380: 6e67 4b3d 5169 fa3c f1c1 5a3d 41c8 4cbd
00000390: 7f52 d7bb 28dd 46bd 96c4 073d 2649 253c
000003a0: 25f1 55bc 2ae9 59bd 65d5 35bd 8328 1bbd
000003b0: 1688 1f3d 2c61 afbd 342c 27bd 29ec 25bd
000003c0: 2fa6 a6bc abb1 b6bd f0df 1ebc 7b89 8f3b
000003d0: 3bcc c5bc f153 5fbc 1903 b5bd ddbd c1bc
000003e0: f6a4 c2bc 1da4 44bc ea76 aebc d263 e93c
000003f0: 2395 33bd 9568 b2bc f9bb f6bc c810 a63c

deconv2.0.bias f4 [16]
-0.021474509 -0.061850403 -0.0036372037 0.046875603 0.0076117357 -0.051082082 0.012512142 0.034994286
-0.039670013 0.041253462 -0.050404944 -0.047986727 0.010738048 -0.021796027 0.05027056 -0.0044376557
00000000: 4feb afbc d956 7dbd 275e 6ebb a200 403d
00000010: de6b f93b 723b 51bd baff 4c3c 2b56 0f3d
00000020: 067d 22bd 64f9 283d 6a75 4ebd bb8d 44bd
00000030: a3ee 2f3c 958d b2bc 81e8 4d3d c169 91bb

deconv2.1.weight f4 [16]
0.92470306 0.96239716 0.9798694 0.99675846 0.968855 1.0622779 1.0525277 1.0398072
0.9614604 0.98320645 0.98820376 0.99773926 0.99499106 0.9984809 1.0151658 1.0982444
00000000: 57b9 6c3f a95f 763f b9d8 7a3f 902b 7f3f
00000010: e206 783f b9f8 873f 3ab9 863f 6718 853f
00000020: 4522 763f 6bb3 7b3f ecfa 7c3f d76b 7f3f
00000030: bcb7 7e3f 729c 7f3f f4f0 813f 4693 8c3f

deconv2.1.bias f4 [16]
-0.023930406 0.023170713 0.012641477 0.04570456 0.034002963 -0.027534604 0.08847489 -0.01015796
0.033716813 -0.048713878 0.06270183 0.033943027 0.022957707 0.0503695 0.027669938 -0.08265095
00000000: b309 c4bc 82d0 bd3c 331e 4f3c b434 3b3d
00000010: b146 0b3d 4090 e1bc 5332 b53d 926d 26bc
00000020: a41a 0a3d 3488 47bd d169 803d d807 0b3d
00000030: cd11 bc3c 4050 4e3d 11ac e23c e744 a9bd

deconv2.1.running_mean f4 [16]
-0.40590262 -0.54989254 -0.5834231 -0.5531323 -0.67569107 -0.6452516 -0.5036155 -0.41775313
-0.66419864 -0.3147056 -0.8283337 -0.75386065 -0.64260536 -1.0200747 -0.5133086 -0.4912242
00000000: 78d2 cfbe c2c5 0cbf 375b 15bf 149a 0dbf
00000010: 17fa 2cbf 352f 25bf f2ec 00bf bde3 d5be
00000020: ec08 2abf 1821 a1be ad0d 54bf 03fd 40bf
00000030: c981 24bf cf91 82bf 3168 03bf bd81 fbbe

deconv2.1.running_var f4 [16]
0.613571 0.6269148 0.6902425 0.8623178 0.4622645 0.14136623 0.7343995 0.37243378
0.6182954 0.2858864 1.6207534 0.63800514 1.1399577 1.3612791 0.25331637 0.13327691
00000000: fd12 1d3f 7d7d 203f bcb3 303f dcc0 5c3f
00000010: efad ec3e 4fc2 103e 9b01 3c3f a4af be3e
00000020: 9b48 1e3f b45f 923e d974 cf3f 4e54 233f
00000030: 22ea 913f 653e ae3f afb2 813e be79 083e

deconv3.0.weight f4 [16, 8, 4, 4]
0.014309028 0.02051739 0.03182321 0.10522883 0.010108508 -0.028411437 0.055967595 0.048799623
-0.006979239 0.04235441 0.064859964 0.021273447 -0.028149767 0.046535183 0.0478674 -0.04983045
-0.059169967 0.058585986 -0.034633737 -0.0143468175 -0.058710292 0.0060559353 -0.027030077 -0.024698287
0.022492753 -0.069232725 0.027274562 -0.046088375 0.025836535 0.022231672 -0.0062177363 -0.0063830945
-0.0071671694 0.06274129 0.01587861 0.018725347 -0.003492302 -0.0382268 -0.042796195 -0.048698083
0.018909888 0.016014794 -0.014234625 0.0060539376 0.04101048 0.034162357 0.047337312 0.06271715
0.1521482 -0.05067055 -0.017612468 0.03347903 0.0380685 0.08055331 0.0026007304 0.022924481
0.015043967 -0.029766789 0.007134709 -0.026385346 0.015307764 0.044701543 0.025333026 -0.021094656
0.059662733 -0.04401354 0.06620938 0.052843187 -0.008991539 -0.020246549 -0.030917114 -0.00990314
0.04674152 0.046401463 0.06632339 0.010559745 0.0082015265 -0.03726644 0.01974224 -0.028268253
0.0016575204 0.037331227 -0.035177104 0.046287056 -0.047352083 0.026960766 -0.058617517 0.08467567
-0.020045623 -0.049849596 -0.01825988 0.08519554 0.05876465 0.03398547 0.03627623 -0.052437183
-0.035867203 0.0055663805 0.010480072 -0.015122781 0.06404893 0.01398601 0.038684238 -0.042272072
-0.012448097 0.097311415 0.00922714 -0.006883727 -0.007966339 -0.031689268 -0.0773091 0.010543816
-0.008865081 0.058785714 -0.015100991 0.026686862 -0.040023375 -0.0003811747 0.014658047 -0.050136775
-0.015243029 0.014286352 -0.033825953 0.06040937 0.014343212 -0.021479286 0.06758028 0.039535962
0.023979671 0.043550074 -0.033946116 -0.053347357 0.0520213 0.014617868 -0.026412439 -0.030017177
-0.056784038 0.063683674 0.04058281 -0.002415348 0.01695098 -0.015820011 0.040036198 -0.032956723
-0.0787621 -0.055467296 0.010447791 0.025357887 0.0055095316 -0.020900393 -0.0146779865 -0.044899315
0.05441363 -0.07367392 0.02808553 -0.03312199 -0.04172413 -0.0384679 -0.013610513 0.0039563347
0.026398191 -0.0053969165 -0.07649863 -0.02959371 0.020631393 0.095463485 0.043825075 0.0937174
0.004920924 -0.009096469 -0.08015492 0.08640521 -0.013480375 -0.0709718 0.022796096 -0.06366493
-0.027072096 0.05130658 -0.023554092 0.008712135 0.072483 0.0031549286 -0.033185646 0.013886474
-0.06463253 0.011046378 0.05244347 -0.032288224 -0.07630867 0.02593855 -0.035421982 0.02116049
-0.05483715 0.051270586 0.015937507 -0.02769621 -0.02475847 -0.04066043 0.0022167799 -0.06809233
-0.03802291 0.032249015 0.053826857 0.099963486 0.048309308 -0.015331336 0.04089981 -0.003921041
0.021661563 0.009762779 0.01272712 0.023176938 -0.030881042 0.02169099 0.042245835 0.034373846
0.032411356 0.004388422 -0.0114133 0.027394308 0.032573346 0.055574812 0.006155749 0.077748656
-0.007992334 -0.08733094 0.029749446 0.06783866 -0.0034066045 -0.038003 -0.06490949 -0.022721512
0.0003592392 0.077250324 0.006170976 -0.0058969655 0.016531426 0.058808807 -0.022462685 0.07411721
0.009675101 0.022933232 -0.061144866 -0.023675498 0.011914716 -0.04778476 -0.020982143 0.03243201
-0.032884486 0.05836551 -0.07156972 -0.024793763 0.0056004263 -0.01070528 0.020679468 0.06735326
00000000: 6a70 6a3c 1614 a83c 0e59 023d 3682 d73d
00000010: 289e 253c 1abf e8bc 473e 653d 1de2 473d
00000020: 1ab2 e4bb d17b 2d3d 4dd5 843d a745 ae3c
00000030: 579a e6bc ad9b 3e3d 9b10 443d 041b 4cbd
00000040: 355c 72bd dcf7 6f3d 1bdc 0dbd ea0e 6bbc
00000050: 347a 70bd de70 c63b 2e6e ddbc 1054 cabc
00000060: b942 b83c e3c9 8dbd e76e df3c 2ac7 3cbd
00000070: 24a7 d33c 321f b63c 27be cbbb 4729 d1bb
00000080: 93da eabb 817e 803d dc13 823c e665 993c
00000090: 1bdf 64bb b493 1cbd 104b 2fbd a477 47bd
000000a0: e9e8 9a3c 7531 833c 5838 69bc 1c60 c63b
000000b0: 9bfa 273d d4ed 0b3d c5e4 413d d971 803d
000000c0: bdcc 1b3e ec8b 4fbd 0648 90bc 4f21 093d
000000d0: b7ed 1b3d 22f9 a43d 0471 2a3b 1fcc bb3c
000000e0: f97a 763c 7bd9 f3bc 47ca e93b 1526 d8bc
000000f0: 6acd 7a3c f718 373d 3587 cf3c b3ce acbc
00000100: e960 743d 8b47 34bd c998 873d 1972 583d
00000110: 3f51 13bc 17dc a5bc e345 fdbc c840 22bc
00000120: 0974 3f3d 760f 3e3d 8fd4 873d c802 2d3c
00000130: b25f 063c b2a4 18bd 7aba a13c d392 e7bc
00000140: 2841 d93a a1e8 183d de15 10bd 7f97 3d3d
00000150: 42f4 41bd d3dc dc3c ec18 70bd 706a ad3d
00000160: b836 a4bc 172f 4cbd be95 95bc 007b ae3d
00000170: 34b3 703d 5934 0b3d 6296 143d 5fc8 56bd
00000180: 7de9 12bd 2f66 b63b 9cb4 2b3c 8ac5 77bc
00000190: 162c 833d 9425 653c 5d73 1e3d 7b25 2dbd
000001a0: 1af3 4bbc 354b c73d 6e2d 173c e390 e1bb
000001b0: 3f85 02bc 9bcc 01bd 3c54 9ebd f8bf 2c3c
000001c0: d83e 11bc 4ac9 703d 266a 77bc 689e da3c
000001d0: 8def 23bd 67d8 c7b9 4e28 703c 385c 4dbd
000001e0: e6bd 79bc 4e11 6a3c 158d 0abd d16f 773d
000001f0: cbff 6a3c 54f5 afbc 8867 8a3d 76f0 213d
00000200: 0471 c43c 9061 323d 150b 0bbd c282 5abd
00000210: 4914 553d c87f 6f3c e65e d8bc 95e6 f5bc
00000220: 6196 68bd 966c 823d 293a 263d d14a 1ebb
00000230: c8dc 8a3c f898 81bc fffc 233d a1fd 06bd
00000240: 064e a1bd ad31 63bd 362d 2b3c 58bb cf3c
00000250: 4d89 b43b 4d37 abbc f07b 70bc 58e8 37bd
00000260: d4e0 5e3d 5ae2 96bd a013 e63c ecaa 07bd
00000270: ece6 2abd 8490 1dbd a1fe 5ebc 24a4 813b
00000280: 0541 d83c 9ed8 b0bb 50ab 9cbd 826e f2bc
00000290: 2b03 a93c 5c82 c33d ec81 333d e9ee bf3d
000002a0: b43f a13b 5b09 15bc 4328 a4bd 37f5 b03d
000002b0: cadc 5cbc aa59 91bd e1be ba3c c262 82bd
000002c0: 4dc6 ddbc d926 523d 83f4 c0bc 58bd 0e3c
000002d0: f871 943d ebc2 4e3b aced 07bd 1884 633c
000002e0: 0f5e 84bd defb 343c f7ce 563d a840 04bd
000002f0: b847 9cbd 157d d43c a416 11bd c458 ad3c
00000300: eb9c 60bd 1b01 523d 608f 823c 2ae3 e2bc
00000310: 46d2 cabc 8d8b 26bd 6547 113b fe73 8bbd
00000320: e9bd 1bbd 8b17 043d 8d79 5c3d a8b9 cc3d
00000330: fbdf 453d 4930 7bbc 8f86 273d 137c 80bb
00000340: 9773 b13c 10f4 1f3c 6985 503c 90dd bd3c
00000350: 3dfa fcbc 4eb1 b13c f809 2d3d 97cb 0c3d
00000360: c5c1 043d c0cc 8f3b dafe 3abc 076a e03c
00000370: a16b 053d 6aa2 633d 2ab6 c93b b03a 9f3d
00000380: 47f2 02bc 90da b2bd 1cb5 f33c ffee 8a3d
00000390: 5741 5fbb 09a9 1bbd 44ef 84bd 7722 babc
000003a0: 4558 bc39 6b35 9e3d e635 ca3b 553b c1bb
000003b0: ea6c 873c 81e1 703d aa03 b8bc c4ca 973d
000003c0: 5184 1e3c 79de bb3c 0a73 7abd 1ef3 c1bc
000003d0: f135 433c f4b9 43bd bee2 abbc 6dd7 043d
000003e0: e2b1 06bd ac10 6f3d 2593 92bd 4a1c cbbc
000003f0: c883 b73b 3365 2fbc fd67 a93c 82f0 893d

deconv3.0.bias f4 [8]
0.0062665977 0.0692163 0.07720784 -0.017976396 0.05940737 0.0075428532 0.05381032 -0.030800574
00000000: 0858 cd3b 47c1 8d3d 251f 9e3d 3c43 93bc
00000010: 2455 733d 0a2a f73b 3668 5c3d 7c51 fcbc

deconv3.1.weight f4 [8]
1.1835939 1.1951052 1.2056563 1.1752741 1.2072748 1.1746457 1.2051574 1.2122874
00000000: 0180 973f 35f9 983f f252 9a3f 626f 963f
00000010: fb87 9a3f ca5a 963f 9942 9a3f 3c2c 9b3f

deconv3.1.bias f4 [8]
0.18262416 0.19342856 0.20695427 0.17336524 0.20738134 0.17253587 0.20782022 0.21202797
00000000: d401 3b3e 2312 463e d2eb 533e a886 313e
00000010: c65b 543e 3ead 303e d3ce 543e dc1d 593e

deconv3.1.running_mean f4 [8]
0.024741177 -0.26418683 0.013776952 -0.20583528 0.07761535 -0.0029778644 -0.09836059 -0.20910254
00000000: 02ae ca3c 7f43 87be bab8 613c 7cc6 52be
00000010: ccf4 9e3d 4628 43bb 4771 c9bd fa1e 56be

deconv3.1.running_var f4 [8]
0.08785975 0.13164775 0.11398448 0.12074988 0.17431135 0.15757486 0.13612376 0.17558643
00000000: d0ef b33d abce 063e b270 e93d b74b f73d
00000010: ad7e 323e 4e5b 213e 0764 0b3e eecc 333e

deconv4.0.weight f4 [8, 3, 4, 4]
0.06357887 0.010336297 0.0036462042 0.0039738915 0.067315646 0.01381823 0.23046662 0.14517245
0.18790065 0.20680718 0.21646833 0.17297298 0.05750789 0.10515483 0.13664041 0.22608344
-0.22502148 -0.04751698 -0.041586254 -0.10292958 0.014683274 -0.23048295 -0.11563523 -0.17920421
-0.11654764 -0.15265334 -0.23069339 -0.07949841 -0.040137213 -0.20032465 -0.22047473 -0.24209906
-0.020696655 -0.040527903 -0.06541405 -0.018079339 0.0082785385 -0.23315437 -0.1438664 -0.069387175
-0.22373742 -0.27737075 -0.24237044 -0.012902838 -0.13301909 -0.15614517 -0.25044507 -0.19940846
0.052729603 -0.0058142543 0.05562054 -0.04057017 -0.06299637 0.074007325 0.16385113 0.042492956
0.13540363 0.04271529 0.1445563 0.07134573 -0.05007819 0.14503086 -0.081544355 0.06137967
-0.0038902953 -0.24978806 -0.2609291 -0.13070521 -0.26053125 -0.15967827 -0.19026868 -0.042257927
-0.2082563 -0.025902376 -0.14194618 -0.037857812 -0.07626496 -0.24340023 -0.058342036 -0.15967429
0.015687933 -0.24178053 -0.007200637 -0.11211929 -0.15822203 -0.18736626 -0.2598233 -0.23067427
-0.18474686 -0.25632462 -0.09505974 -0.23860599 0.008661994 -0.11666264 -0.07327522 -0.121503025
0.16357696 0.070657656 0.005662351 0.11033312 0.17209984 0.09181418 0.1432431 0.051187005
0.14920247 -0.046614382 0.13595513 0.08116406 0.01098276 0.06752604 0.12250331 0.11347975
-0.077203274 -0.118790895 -0.10333898 -0.095124215 -0.27828902 -0.036308605 -0.23049371 -0.21657543
-0.033713654 -0.056570344 -0.12375088 -0.12024181 -0.26435432 -0.11705232 -0.039842226 -0.09531699
-0.083250165 -0.01424012 -0.24281403 -0.1304091 -0.12996748 -0.18314749 -0.19130003 -0.23763044
-0.06249187 -0.11900894 -0.13879938 -0.06044997 -0.08610706 -0.1989941 0.0037611048 -0.22894245
0.11051072 -0.02512414 0.12323118 0.12991634 0.043955736 0.079788886 0.04389298 0.0475141
0.077342555 -0.091166265 0.07595706 0.13092309 0.1508738 0.034905583 0.11369965 0.099545315
-0.23354243 -0.12620229 -0.0064347466 0.007577976 -0.039276622 -0.123349294 -0.1099657 -0.18918885
-0.22049256 -0.27491236 -0.08573697 -0.15761535 -0.25954634 -0.1890007 -0.21179311 -0.20590678
-0.15737748 -0.23270315 -0.06879008 -0.038534425 -0.12323212 -0.05113511 -0.13199034 -0.090185635
-0.16327092 -0.11876034 -0.038195662 -0.17076509 -0.26169756 -0.24306865 -0.17460924 -0.15210213
-0.043339435 0.1318619 0.032910194 0.21304548 -0.039946735 0.17654306 0.075765125 -0.004207663
0.22090168 0.13026382 -0.05607787 0.08793262 0.06643689 0.15931444 0.108239315 0.03146068
-0.13727999 -0.1346245 -0.15837544 -0.25569037 -0.12671725 -0.020405302 -0.15929736 -0.18411721
-0.23800702 -0.16568168 -0.22898345 -0.21962905 -0.25213712 -0.071469985 -0.14819175 -0.09012339
-0.08035915 -0.17217416 -0.21865553 -0.04767991 -0.16248855 -0.11277215 -0.020166384 -0.11039523
-0.029143814 -0.18160152 -0.13182057 -0.06851571 -0.1499937 -0.08277734 0.0008307526 -0.18175073
0.0572041 0.14936785 0.026109064 0.12288218 0.025885124 -0.002722127 0.17561042 0.14029108
0.045621336 0.10044542 0.12144611 0.14368673 0.2139215 -0.025389424 0.1039398 0.06128382
00000000: a335 823d 9259 293c 28f5 6e3b 6b37 823b
00000010: c9dc 893d db65 623c 71ff 6b3e 16a8 143e
00000020: 0769 403e 43c5 533e e0a9 5d3e d41f 313e
00000030: 658d 6b3d 6a5b d73d 77eb 0b3e 6b82 673e
00000040: 086c 66be 2aa1 42bd 5956 2abd becc d2bd
00000050: 1d92 703c b903 6cbe 2ad2 ecbd 4f81 37be
00000060: 87b0 eebd 2851 1cbe e33a 6cbe 10d0 a2bd
00000070: eb66 24bd e821 4dbe 21c4 61be d1e8 77be
00000080: 088c a9bc 9600 26bd cdf7 85bd 1f1b 94bc
00000090: b5a2 073c 05c0 6ebe b751 13be dd1a 8ebd
000000a0: 6c1b 65be 8a03 8ebe f52f 78be 6d66 53bc
000000b0: 2836 08be 85e4 1fbe 563a 80be bb31 4cbe
000000c0: fffa 573d 8085 bebb 5dd2 633d e82c 26bd
000000d0: 3e04 81bd 2791 973d 97c8 273e 180d 2e3d
000000e0: 40a7 0a3e 3af6 2e3d 9106 143e b61d 923d
000000f0: ca1e 4dbd f882 143e ba00 a7bd 4069 7b3d
00000100: 53f4 7ebb 71c8 7fbe 8098 85be 96d7 05be
00000110: 5a64 85be b382 23be cbd5 42be a616 2dbd
00000120: 2441 55be 3831 d4bc 575a 11be cb10 1bbd
00000130: ce30 9cbd e93d 79be 0ff8 6ebd a881 23be
00000140: fb83 803c 5195 77be 52f3 ebbb cc9e e5bd
00000150: f504 22be f1dc 3fbe 8f07 85be e035 6cbe
00000160: 482e 3dbe fb3c 83be aeae c2bd 2155 74be
00000170: 09eb 0d3c d2ec eebd 5211 96bd 94d6 f8bd
00000180: b880 273e f6b4 903d 3e8b b93b 55f6 e13d
00000190: f13a 303e 1309 bc3d 52ae 123e 77a9 513d
000001a0: 88c8 183e b9ee 3ebd d237 0b3e 5839 a63d
000001b0: 09f1 333c 184b 8a3d 04e3 fa3d 1268 e83d
000001c0: c01c 9ebd a448 f3bd 63a3 d3bd 7cd0 c2bd
000001d0: e67b 8ebe 55b8 14bd 8b06 6cbe f3c5 5dbe
000001e0: 5417 0abd 4eb6 67bd 1a71 fdbd 5741 f6bd
000001f0: 7359 87be 20b9 efbd 9a31 23bd 8e35 c3bd
00000200: 107f aabd 644f 69bc 3ea4 78be f789 05be
00000210: 3216 05be 048b 3bbe 28e4 43be 6555 73be
00000220: 7af7 7fbd f6ba f3bd 6d21 0ebe 639a 77bd
00000230: e658 b0bd 1cc5 4bbe de7c 763b e46f 6abe
00000240: 7253 e23d 24d1 cdbc a160 fc3d ca08 053e
00000250: ee0a 343d 5b68 a33d 20c9 333d 259e 423d
00000260: c665 9e3d 61b5 babd 608f 9b3d b410 063e
00000270: a97e 1a3e 28f9 0e3d 5ddb e83d 6ade cb3d
00000280: bf25 6fbe 2c3b 01be 91da d2bb ac50 f83b
00000290: 86e0 20bd 8e9e fcbd b235 e1bd b9ba 41be
000002a0: cdc8 61be 50c1 8cbe dd96 afbd eb65 21be
000002b0: 42e3 84be 6689 41be 4be0 58be 3ad9 52be
000002c0: 9027 21be bc49 6ebe d0e1 8cbd 46d6 1dbd
000002d0: 1f61 fcbd 0d73 51bd 7a28 07be 3fb3 b8bd
000002e0: 7e30 27be 9f38 f3bd 0e73 1cbd 0bdd 2ebe
000002f0: 39fd 85be fde6 78be c4cc 32be a9c0 1bbe
00000300: b184 31bd ce06 073e d7cc 063d 9828 5a3e
00000310: 309f 23bd b4c7 343e bf2a 9b3d 6fe0 89bb
00000320: 0d34 623e e163 053e e9b1 65bd 0416 b43d
00000330: 1010 883d 5323 233e 93ac dd3d eadc 003d
00000340: 2093 0cbe 01db 09be 2c2d 22be d9e9 82be
00000350: 2bc2 01be 0529 a7bc d91e 23be 3989 3cbe
00000360: 1db8 73be 75a8 29be a37a 6abe 70e6 60be
00000370: 1e18 81be db5e 92bd 94bf 17be 9d92 b8bd
00000380: 5793 a4bd 6c4e 30be 3ce7 5fbe 024c 43bd
00000390: 6663 26be 16f5 e6bd f933 a5bc e516 e2bd
000003a0: 02bf eebc c0f5 39be f9fb 06be f751 8cbd
000003b0: f397 19be 2b87 a9bd ddc6 593a dd1c 3abe
000003c0: d94e 6a3d e3f3 183e ade2 d53c a7a9 fb3d
000003d0: 0a0d d43c b665 32bb 38d3 333e 77a8 0f3e
000003e0: 70dd 3a3d 54b6 cd3d bdb8 f83d 9d22 133e
000003f0: 3d0e 5b3e 7bfd cfbc 64de d43d be04 7b3d

deconv4.0.bias f4 [3]
-0.08967779 -0.053624727 -0.23900652
00000000: fda8 b7bd 9aa5 5bbd 20be 74be
