Pix2Pix/checkpoints/pix2pix_model_epoch_50.pth (torch, 99150 bytes, 32 tensors)

conv1.0.weight f4 [8, 3, 4, 4]
0.124824315 0.12116758 -0.080390096 0.14682959 0.06688971 0.008374858 -0.07201793 0.103565626
-0.07742428 0.00044210744 0.023810646 -0.012852511 0.11893222 0.09542118 -0.13497382 -0.15177596
-0.0656327 0.077711396 0.0008089415 0.14849405 -0.076154485 -0.062185645 0.16160363 -0.09594007
-0.143648 -0.1182911 -0.095219396 -0.13742125 -0.10787125 -0.0070567694 0.09944636 -0.11299193
0.05353895 0.1090112 -0.08479145 -0.12591974 -0.07900735 -0.01571858 0.11373347 -0.040396035
-0.054606214 -0.08307831 -0.12633923 0.025410604 0.1116151 -0.08630704 0.14876325 -0.0048306403
0.00513565 0.013956363 -0.06931882 0.13782585 0.119554386 0.06653297 0.1043241 0.013437563
0.00081966195 -0.08794587 -0.11001225 0.098631695 -0.0719445 0.022152072 -0.09235518 0.13466296
-0.032634195 -0.0678497 0.12340711 -0.12516268 -0.057527475 -0.117767416 0.05436992 -0.036999337
-0.007872656 0.04283923 0.045099773 0.11372142 0.052434083 -0.13869603 -0.12680897 0.046769757
0.03595029 0.080126785 -0.12021988 -0.13084072 0.10561572 -0.066817224 -0.0054409932 -0.05559411
-0.032657962 -0.08669604 -0.108491614 0.07079471 -0.030843629 -0.02634879 -0.10930755 0.058487657
0.09962208 -0.08050878 0.023658644 0.14668106 -0.12499621 -0.09450269 -0.082633585 0.04099679
-0.12963487 -0.092825554 0.007583119 -0.030286793 0.10883496 -0.09556808 0.04997781 0.11194311
0.1269638 -0.12978432 0.069438465 -0.10243943 0.1260298 -0.06764834 0.008109673 0.14378747
-0.0971129 0.012119803 0.033943627 0.1445737 0.111604325 -0.011861307 -0.01922683 0.10421059
0.013069746 0.03159629 -0.15100268 0.029461602 0.070272736 -0.110080995 0.12584794 -0.04442347
0.11226441 -0.018455157 0.06956224 0.08417472 -0.09906392 -0.096604966 -0.13544826 -0.051052347
-0.037938118 0.031183971 -0.020965595 -0.07680809 -0.12956023 -0.11515002 0.069556534 0.11949285
0.07882341 0.06317585 0.0064616236 0.10908017 0.07553049 -0.08805642 0.095628954 -0.08122461
-0.022628391 0.10542071 -0.144703 -0.07906395 -0.091655545 0.04268854 -0.1358981 -0.080536954
-0.007946431 0.0075198896 -0.02171489 -0.06450478 0.030162193 0.16917586 0.08525853 0.019818112
-0.13355683 0.089059085 0.019475859 0.052902456 -0.038611118 0.10223868 0.030214638 0.1305993
0.117415704 0.054801755 0.009896695 0.070582904 0.10871639 -0.09419824 0.059745308 0.09215291
0.17667052 0.1611805 0.17032006 -0.023241768 0.03454941 0.07169003 -0.10578067 0.05691895
0.08146839 -0.08231921 -0.03566001 -0.026294708 0.08785886 -0.08942595 0.09715615 0.036558542
0.03155455 -0.051655725 0.11634182 -0.13656668 -0.12620859 -0.051484488 0.018711487 0.053597387
0.12896028 -0.08827924 -0.11593714 -0.13503858 -0.09415357 0.13739255 0.074119456 0.07739057
0.14535548 0.05617832 -0.08835818 0.05097967 -0.10504476 0.005560229 0.08823826 0.026207501
-0.027234375 -0.0004753209 0.038812708 0.096919015 -0.12382585 0.0076849856 0.07991745 -0.026330743
0.1243294 -0.008163492 0.001197493 0.034076594 -0.01741248 0.14305124 0.04311242 0.034929033
-0.048237678 -0.025033865 -0.09548405 -0.02668857 0.08735705 -0.065778814 0.07675146 -0.11882798
00000000: e4a3 ff3d b526 f83d 90a3 a4bd 7f5a 163e
00000010: 79fd 883d b336 093c 237e 93bd 371a d43d
00000020: 9f90 9ebd a8ca e739 8b0e c33c 5793 52bc
00000030: bc92 f33d 2e6c c33d 9436 0abe 286b 1bbe
00000040: 706a 86bd 2727 9f3d 250f 543a d30e 183e
00000050: e2f6 9bbd 60b6 7ebd 6c7b 253e 3a7c c4bd
00000060: 7618 13be 9b42 f2bd 6302 c3bd 28b8 0cbe
00000070: 9aeb dcbd 793c e7bb 88aa cb3d 5068 e7bd
00000080: a84b 5b3d 4441 df3d 24a7 adbd 1bf1 00be
00000090: 9bce a1bd 40c4 80bc 18ed e83d 5076 25bd
000000a0: c4aa 5fbd f624 aabd 125f 01be e629 d03c
000000b0: 7596 e43d bfc1 b0bd 6555 183e 594a 9ebb
000000c0: f448 a83b 3ba9 643c 07f7 8dbd 3822 0d3e
000000d0: eed8 f43d 7042 883d e0a7 d53d 3929 5c3c
000000e0: 95de 563a f71c b4bd 1a4e e1bd 6aff c93d
000000f0: a357 93bd 4378 b53c b624 bdbd 16e5 093e
00000100: 6fab 05bd c9f4 8abd debc fc3d a52a 00be
00000110: eea1 6bbd 0b30 f1bd feb2 5e3d 9e8c 17bd
00000120: 50fc 00bc 3078 2f3d 8aba 383d c7e6 e83d
00000130: 1fc5 563d 5506 0ebe 36da 01be a591 3f3d
00000140: 9c40 133d 8319 a43d d735 f6bd 1cfb 05be
00000150: 0e4d d83d 78d7 88bd 5c4a b2bb a6b6 63bd
00000160: 5bc4 05bd b28d b1bd da30 debd d1fc 903d
00000170: c7ab fcbc 6bd9 d7bc a3dc dfbd c190 6f3d
00000180: a906 cc3d cae1 a4bd c6cf c13c 8f33 163e
00000190: 03fe ffbd a08a c1bd cc3b a9bd 40ec 273d
000001a0: 01bf 04be 531b bebd d07b f83b 021c f8bc
000001b0: dde4 de3d 33b9 c3bd 88b5 4c3d 6e42 e53d
000001c0: cc02 023e 2ee6 04be c135 8e3d c4cb d1bd
000001d0: f50d 013e 368b 8abd 6fde 043c 063d 133e
000001e0: 21e3 c6bd 2392 463c 7908 0b3d 210b 143e
000001f0: cf90 e43d ed55 42bc 9681 9dbc 5d6c d53d
00000200: 7d22 563c 1d6b 013d 72a0 1abe 7559 f13c
00000210: 27eb 8f3d 2572 e1bd 48de 003e 62f5 35bd
00000220: e2ea e53d 452f 97bc a676 8e3d cc63 ac3d
00000230: 06e2 cabd d3d8 c5bd f3b2 0abe 441c 51bd
00000240: 0065 1bbd 8775 ff3c 0ac0 abbc 8f4d 9dbd
00000250: 70ab 04be c6d3 ebbd a873 8e3d abb8 f43d
00000260: 2b6e a13d 5762 813d 07bc d33b 6d65 df3d
00000270: bbaf 9a3d ed56 b4bd 1dd9 c33d 1759 a6bd
00000280: 2d5f b9bc d0e6 d73d 062d 14be 48ec a1bd
00000290: e7b5 bbbd 2eda 2e3d df28 0bbe 8ff0 a4bd
000002a0: bf31 02bc 6869 f63b 6de3 b1bc 151b 84bd
000002b0: b416 f73c 703c 2d3e 069c ae3d 9859 a23c
000002c0: 1fc3 08be 9c64 b63d d68b 9f3c 3fb0 583d
000002d0: b126 1ebd 8362 d13d b084 f73c d3bb 053e
000002e0: a577 f03d ce77 603d bf25 223c c58d 903d
000002f0: b3a6 de3d 02eb c0bd 7fb7 743d aaba bc3d
00000300: 1ee9 343e 800c 253e 6268 2e3e 8565 bebc
00000310: af83 0d3d 39d2 923d 89a3 d8bd d823 693d
00000320: e6d8 a63d f996 a8bd 3b10 12bd 0068 d7bc
00000330: 59ef b33d f424 b7bd cef9 c63d 69be 153d
00000340: 583f 013d f494 53bd 9f44 ee3d 23d8 0bbe
00000350: d33c 01be 66e1 52bd d548 993c ef88 5b3d
00000360: 2a0e 043e bfcb b4bd 7470 edbd 8e47 0abe
00000370: 96d3 c0bd a2b0 0c3e f1cb 973d f27e 9e3d
00000380: 11d8 143e 3d1b 663d 22f5 b4bd 0fd0 503d
00000390: b521 d7bd 9532 b63b 43b6 b43d 1db1 d63c
000003a0: a01a dfbc 7e34 f9b9 13fa 1e3d 7a7d c63d
000003b0: 6898 fdbd 55d2 fb3b c3ab a33d 92b3 d7bc
000003c0: 6aa0 fe3d 2bc0 05bc 33f5 9c3a e693 0b3d
000003d0: 9ea4 8ebc 067c 123e a696 303d bf11 0f3d
000003e0: df94 45bd d213 cdbc 248d c3bd fda1 dabc
000003f0: 41e8 b23d 0bb7 86bd df2f 9d3d 155c f3bd

conv1.0.bias f4 [8]
-0.06261528 -0.11284485 0.10824549 -0.080485344 0.13870086 -0.09227558 0.107965074 0.041234147
00000000: 713c 80bd 331b e7bd d0af dd3d 80d5 a4bd
00000010: 9907 0e3e fbfa bcbd cb1c dd3d 23e5 283d

conv1.1.weight f4 [8]
1.0058497 0.9956614 0.9951581 0.9875393 1.0017349 1.0173116 1.0211478 0.97452193
00000000: afbf 803f aae3 7e3f aec2 7e3f 60cf 7c3f
00000010: d938 803f 4437 823f f9b4 823f 457a 793f

conv1.1.bias f4 [8]
-0.012932965 -0.011880519 -0.021840338 0.005914074 -0.030487634 0.020024272 0.024997745 -0.026940621
00000000: c9e4 53bc 82a6 42bc 82ea b2bc d9ca c13b
00000010: 34c1 f9bc f109 a43c 12c8 cc3c 94b2 dcbc

conv1.1.running_mean f4 [8]
-0.05283494 -0.11854377 0.09615411 -0.10320437 0.050345525 -0.120577805 0.18291576 0.05290109
00000000: 7369 58bd 13c7 f2bd 72ec c43d d05c d3bd
00000010: 1c37 4e3d 7ff1 f6bd 454e 3b3e d0ae 583d

conv1.1.running_var f4 [8]
0.060459442 0.043229837 0.023715481 0.08351343 0.09336244 0.039003517 0.07315927 0.013358026
00000000: 52a4 773d c511 313d f846 c23c 1709 ab3d
00000010: cf34 bf3d 27c2 1f3d 87d4 953d 9fdb 5a3c

conv2.0.weight f4 [16, 8, 4, 4]
0.07122977 0.0483436 -0.057255123 -0.04353299 0.070137054 0.07826873 -0.02089172 0.054405075
-0.033507627 -0.04365893 0.06185166 0.06689966 -0.026759816 0.056200642 0.040090866 0.08982017
0.04353576 -0.017539285 0.09485073 0.06182048 -0.05066441 -0.009639812 -0.0635624 0.0056132404
0.064092405 -0.06578275 -0.058171883 -0.033072606 -0.04488264 0.029796127 0.10061227 0.09001035
-0.017973827 -0.06852013 -0.054721307 -0.020921696 0.08576491 0.037594218 0.004869948 0.06591094
0.022958323 0.04607589 0.08596611 -0.041813552 0.05381613 0.039065167 -0.056125153 -0.042125564
-0.031586193 -0.038195193 0.033126995 -0.0070720376 -0.041137833 -0.068385415 0.08375499 0.012360904
0.05373436 0.03225392 0.04082267 0.016429625 -0.06889955 0.068982914 -0.06463106 0.0006805243
-0.019143458 0.04956856 -0.045839872 0.052879654 -0.06297566 -0.03557489 -0.0018547134 0.06439867
0.043538548 0.060027197 -0.036999162 0.09927385 0.055331968 0.08578237 0.071470946 0.0054432736
-0.0043915464 -0.004024379 0.07622431 0.07476065 0.07645511 0.016615516 0.018188136 0.011287306
0.030369952 -0.06224448 -0.051426776 0.046173424 0.080868684 0.044858348 -0.033837866 -0.029845238
-0.07635221 0.036823224 0.02056544 0.023025256 0.06180396 -0.029636884 -0.0061119064 -0.0482858
0.040997062 -0.038151708 0.093979806 -0.0042231316 0.04642869 0.07483815 -0.011479433 0.024032135
-0.010645793 0.02371006 -0.0730148 0.066678286 -0.07006076 0.044213235 0.01496753 -0.020743273
-0.06190372 0.009901969 -0.06827701 -0.05488478 -0.032792673 0.0077342344 -0.061127335 -0.030547623
-0.041245393 -0.01820039 0.06710037 0.075735725 -0.07163025 0.0057091685 -0.04370902 -0.0833314
0.09052958 0.041315977 0.05515469 -0.012330689 -0.07646681 0.051776167 -0.019452928 -0.00224836
0.0057352497 0.069692545 -0.023397842 0.044918064 0.035348948 0.022368316 -0.039379224 0.033099603
0.057804774 0.052937068 0.056844603 0.024181481 -0.033034783 -0.008558685 0.032593437 0.052670695
0.089574136 0.07526818 0.017972467 0.03100572 -0.02943629 -0.061049018 -0.097315915 -0.070975766
-0.12578359 0.0186493 -0.004707086 -0.09009485 0.003438653 0.027564332 -0.008810122 -0.019294268
0.08609291 -0.004925781 0.072360456 -0.0281053 -0.00482119 -0.029524641 -0.004505472 0.07160946
-0.042430017 -0.077190295 0.025176212 0.036598604 0.07822492 -0.03625961 0.050798245 0.005451903
5.315658e-06 -0.0154877715 0.0028689213 0.013813263 0.017579257 -0.0073084435 -0.06253591 0.024003245
0.06341349 0.070509315 -0.023566687 -0.056703128 -0.06373164 0.018195255 -0.07326837 0.022309178
-0.03152375 0.08968979 0.05035903 0.057317734 -0.059422288 0.0846011 0.084544376 0.09397402
0.0142451925 -0.070468724 -0.061975654 0.037600294 -0.06892737 -0.105395675 -0.112365045 -0.010817939
0.0811102 0.034379933 -0.055252403 0.046553474 -0.025937814 0.002455549 0.047340415 -0.00415196
-0.012497934 -0.0062873513 -0.05953837 0.067460485 0.08744888 0.042768057 -0.021128364 0.029134313
0.0190859 0.03745191 0.073521845 -0.020726494 0.054248363 -0.0052453983 0.08768477 0.045974147
0.018060727 -0.028258258 -0.059735093 -0.035143893 -0.020440754 0.0030765168 -0.0056361817 -0.0076690936
00000000: eae0 913d f003 463d 5984 6abd a64f 32bd
00000010: 04a4 8f3d 5b4b a03d 1d25 abbc dbd7 5e3d
00000020: 4b3f 09bd b5d3 32bd 2b58 7d3d b002 893d
00000030: 6737 dbbc a532 663d 5236 243d a3f3 b73d
00000040: 8e52 323d 8cae 8fbc 1941 c23d 7937 7d3d
00000050: 7c85 4fbd 4df0 1dbc 012d 82bd 46ef b73b
00000060: e142 833d 1bb9 86bd a445 6ebd 2477 07bd
00000070: dcd6 37bd 0217 f43c ce0d ce3d 5957 b83d
00000080: d93d 93bc 4854 8cbd 7323 60bd fa63 abbc
00000090: 83a5 af3d 65fc 193d 1694 9f3b 51fc 863d
000000a0: 1813 bc3c 13ba 3c3d 000f b03d b044 2bbd
000000b0: 4d6e 5c3d cc02 203d 7de3 65bd db8b 2cbd
000000c0: 8660 01bd 9072 1cbd 2cb0 073d 8dbc e7bb
000000d0: 2580 28bd a70d 8cbd bc87 ab3d 6485 4a3c
000000e0: 8f18 5c3d b01c 043d ac35 273d 6c97 863c
000000f0: 351b 8dbd ea46 8d3d 4a5d 84bd 3665 323a
00000100: bed2 9cbc 6708 4b3d 97c2 3bbd 5698 583d
00000110: 62f9 80bd fab6 11bd db19 f3ba 73e3 833d
00000120: 7a55 323d 14df 753d 6f8c 17bd 1750 cb3d
00000130: c6a3 623d abae af3d 5c5f 923d 7d5d b23b
00000140: f6e6 8fbb f0de 83bb 7e1b 9c3d 1d1c 993d
00000150: 7f94 9c3d 431d 883c 49ff 943c 65ee 383c
00000160: 68ca f83c 11f4 7ebd e2a4 52bd 5820 3d3d
00000170: 7b9e a53d 63bd 373d 9399 0abd 007e f4bc
00000180: 8c5e 9cbd f3d3 163d db78 a83c 769f bc3c
00000190: 2626 7d3d 0dc9 f2bc 6346 c8bb 55c7 45bd
000001a0: 89ec 273d f744 1cbd 7c78 c03d 3262 8abb
000001b0: 032c 3e3d be44 993d 3b14 3cbc 0adf c43c
000001c0: b16b 2ebc 9a3b c23c c988 95bd a08e 883d
000001d0: 047c 8fbd f018 353d 5f3a 753c cced a9bc
000001e0: c18e 7dbd de3b 223c d1d4 8bbd ddce 60bd
000001f0: 9c51 06bd 766f fd3b a860 7abd 023f fabc
00000200: eef0 28bd fc18 95bc eb6b 893d 551b 9b3d
00000210: e1b2 92bd fa13 bb3b 3b08 33bd a7a9 aabd
00000220: 9367 b93d f13a 293d e2e9 613d a806 4abc
00000230: a29a 9cbd 3f13 543d bf5b 9fbc 3959 13bb
00000240: c3ee bb3b f7ba 8e3d d5ac bfbc 01fc 373d
00000250: 0fca 103d c23d b73c 1c4c 21bd 7393 073d
00000260: b3c4 6c3d 8ad4 583d e3d5 683d 3e18 c63c
00000270: 7b4f 07bd ba39 0cbc b280 053d 3abd 573d
00000280: a572 b73d 3426 9a3d ff3a 933c b5ff fd3c
00000290: 6024 f1bc 890e 7abd 914d c7bd be5b 91bd
000002a0: 6acd 00be 6bc6 983c e63d 9abb a683 b8bd
000002b0: 065b 613b 98ce e13c 5458 10bc 030f 9ebc
000002c0: 7b51 b03d 7268 a1bb b831 943d 163d e6bc
000002d0: 13fb 9dbb a9dd f1bc a3a2 93bb fba7 923d
000002e0: 19cb 2dbd f215 9ebd 583e ce3c 6be8 153d
000002f0: 6334 a03d f584 14bd d211 503d e1a5 b23b
00000300: 285d b236 6cc0 7dbc 8304 3c3b 0651 623c
00000310: 6002 903c ab7b efbb d412 80bd 74a2 c43c
00000320: efde 813d 3067 903d ed0e c1bc 8a41 68bd
00000330: bc85 82bd 370e 953c ba0d 96bd bdc1 b63c
00000340: 0c1f 01bd 48af b73d 4545 4e3d 00c6 6a3d
00000350: c964 73bd 5743 ad3d 9a25 ad3d 7375 c03d
00000360: ab64 693c e851 90bd 2fda 7dbd c402 1a3d
00000370: cb29 8dbd b0d9 d7bd a51f e6bd ba3d 31bc
00000380: 1b1d a63d f9d1 0c3d 5850 62bd dbae 3e3d
00000390: 8a7b d4bc 47ed 203b 06e8 413d 2a0d 88bb
000003a0: 22c4 4cbc 2006 cebb 82de 73bd b928 8a3d
000003b0: 6618 b33d 8f2d 2f3d 6415 adbc 15ab ee3c
000003c0: 095a 9c3c 2d67 193d 9f92 963d 9cca a9bc
000003d0: 8833 5e3d 97e1 abbb 1394 b33d 634f 3c3d
000003e0: 17f4 933c dd7d e7bc c9ac 74bd 0bf3 0fbd
000003f0: 5e73 a7bc 639f 493b b8af b8bb 054d fbbb

conv2.0.bias f4 [16]
0.04615765 0.047656428 -0.07158304 0.04864845 0.0568017 -0.07119715 0.05704071 -0.028181227
0.035013277 0.006069557 0.025815517 0.03791235 -0.06986343 0.07922972 -0.04708919 0.054862827
00000000: ce0f 3d3d 6333 433d 219a 92bd 9943 473d
00000010: e6a8 683d d0cf 91bd 85a3 693d 51dc e6bc
00000020: 156a 0f3d 22e3 c63b 107b d33c fb49 1b3d
00000030: 8f14 8fbd 3143 a23d 98e0 40bd d8b7 603d

conv2.1.weight f4 [16]
0.9942517 0.9919299 1.0042802 1.0033499 1.0234052 1.0021756 1.0286181 0.98701596
1.0055665 0.9916608 1.0036573 0.99165344 1.0266633 0.9691459 1.0028641 0.99577785
00000000: 4887 7e3f 1eef 7d3f 418c 803f c56d 803f
00000010: f1fe 823f 4a47 803f c2a9 833f 14ad 7c3f
00000020: 67b6 803f 7bdd 7d3f d877 803f 00dd 7d3f
00000030: b469 833f f219 783f da5d 803f 4ceb 7e3f

conv2.1.bias f4 [16]
-0.029611534 -0.010220514 0.005815737 0.01835323 0.051918574 -0.0067359875 0.033560663 0.013889486
0.017489003 0.0028960276 -0.0018151604 0.006037276 0.021907536 -0.023798343 0.027071234 -0.007991937
00000000: e393 f2bc f173 27bc f091 be3b 8359 963c
00000010: 92a8 543d 8fb9 dcbb e876 093d ba90 633c
00000020: 1945 8f3c 48cb 3d3b adea edba 57d4 c53b
00000030: 6f77 b33c bef4 c2bc 7ec4 dd3c 9df0 02bc

conv2.1.running_mean f4 [16]
0.4909996 0.33710146 -0.4422644 -0.42951223 -0.3038362 0.16061506 -0.5993188 0.3401144
0.08867999 0.019604752 0.45915416 0.12831546 -0.044502012 0.54026514 -0.5596908 0.3306481
00000000: 4d64 fb3e 9098 ac3e 7b70 e2be 07e9 dbbe
00000010: 6b90 9bbe 4678 243e f56c 19bf 7a23 ae3e
00000020: db9d b53d 259a a03c 4116 eb3e 2165 033e
00000030: be47 36bd d14e 0a3f e547 0fbf b54a a93e

conv2.1.running_var f4 [16]
0.1481133 0.2651945 0.12078819 0.18160129 0.12555404 0.17732073 0.22873886 0.17228949
0.15424408 0.10618633 0.3086614 0.31344053 0.085488796 0.13533846 0.5040707 0.17300309
00000000: 03ab 173e 93c7 873e cc5f f73d b0f5 393e
00000010: 3d91 003e 9193 353e 853a 6a3e a86c 303e
00000020: 29f2 1d3e 3878 d93d de08 9e3e 477b a03e
00000030: c014 af3d 2a96 0a3e c70a 013f b927 313e

conv3.0.weight f4 [32, 16, 4, 4]
0.05317331 0.043281004 0.032127604 0.0565176 0.049054097 0.025988739 0.03416451 0.05971845
0.040699784 0.041723844 0.051287126 0.041198757 0.017740177 0.04946346 0.043259434 0.07047194
-0.03300385 0.046961214 0.028932065 -0.028706765 0.032186177 0.061510053 0.0358611 -0.040968336
0.062411662 -0.024940198 0.009119376 -0.02935763 0.015765235 -0.030557107 0.054616354 0.0037968834
0.023870297 -0.0021739926 0.035409868 0.046173453 0.05142786 0.05930625 -0.0015101372 -0.012497678
0.060984556 0.031046554 0.03033721 0.014983384 -0.051661395 -0.028693745 -0.013864693 0.036451306
-0.039765827 0.023275236 -0.025158959 -0.014616154 -0.012127462 -0.036299437 -0.0006320401 -0.013699405
0.0113855805 0.012781291 0.031252325 -0.06104765 0.008959515 -0.042005196 0.020800985 0.036047835
-0.01874018 -0.07521711 -0.055220664 -0.023393417 -0.049776923 -0.0080545535 0.036228303 0.01634215
0.034759868 -0.0031801686 -0.009786658 0.022101538 0.0113265235 -0.0019661612 -0.036649037 -0.03142436
0.022851618 0.0023275842 0.0833158 0.082719766 0.03980043 -0.007975109 -0.0071937717 0.014887618
-0.03501463 0.035378046 0.006566668 -0.00952095 -0.0015211998 -0.051789977 0.052134417 0.026753211
0.0041523175 -0.024207445 -0.020875307 -0.02307431 0.050058298 -0.024404967 0.06283579 0.01930534
-0.023527727 -0.01315853 -0.02843659 -0.076909125 -0.0017930808 0.01105236 0.03265758 -0.003855666
-0.04497238 0.0141373025 0.0018743534 -0.018429445 0.0574065 0.050510626 -0.022251572 -0.048564915
0.008367442 0.058260754 0.057741247 -0.028826116 0.012499874 -0.0076748063 0.01366532 0.061638143
0.000106915926 0.01516928 0.0019469 0.007037758 -0.06317352 0.03742133 0.043196075 0.040610205
-0.0037357043 -0.04437581 0.041091453 0.053433653 0.025831206 0.017596867 0.043230813 0.029133167
-0.059061643 -0.060054384 -0.05029909 -0.0599247 0.016262012 -0.056434043 -0.030134918 0.010222522
0.0034413463 0.033535767 -0.013722691 0.008400207 -0.0056757093 -0.01222236 -0.03607282 -0.0073531414
0.02847491 0.024990372 0.07590347 -0.0125444075 0.064808056 0.06704009 0.038475472 0.029144542
0.032319296 0.050217025 -0.009330572 0.018962476 0.049379542 0.017068142 -0.027548315 -0.029346976
0.037373483 -0.050661717 -0.030266916 0.026391763 0.04086398 -0.028478568 0.053702082 0.032795146
0.020404885 0.046866357 -0.014643735 0.0042947456 0.045014616 0.04876477 -0.041739542 0.029516745
-0.02776563 -0.026884718 0.0015549097 -0.04610034 -0.003258148 0.050994676 -0.040684067 -0.015182707
0.014879718 -0.01463795 -0.00070007076 -0.027642174 -0.030508723 0.01759123 0.008782703 0.031933524
-0.048229206 0.044849437 0.06145125 0.06681317 -0.01577482 0.0062876055 -0.0032825847 0.011681578
-0.018522825 0.04302821 0.040126875 0.043166183 0.027162801 -0.0042412733 0.06567993 -0.027192585
0.005975351 -0.021725202 -0.053053237 0.0365003 0.04524875 0.01625094 -0.024342079 0.0022551354
0.037068255 0.037765794 -0.027335996 0.04636652 0.032212604 0.06895416 0.054843474 0.054183353
-0.027891194 -0.015985826 -0.011059581 -0.035290122 0.060730416 0.0121292 -0.036329065 0.0018419278
-0.033465803 -0.009803683 -0.0433592 0.036401298 -0.007483174 0.0190581 0.03697222 -0.005159216
00000000: 42cc 593d 6c47 313d 3c98 033d 007f 673d
00000010: f3ec 483d 56e6 d43c 16f0 0b3d 559b 743d
00000020: d1b4 263d 9fe6 2a3d 7312 523d 07c0 283d
00000030: d953 913c 329a 4a3d ce30 313d 9853 903d
00000040: 0c2f 07bd 675a 403d f002 ed3c 732a ebbc
00000050: a7d5 033d f7f1 7b3d 17e3 123d 6ace 27bd
00000060: 5fa3 7f3d 634f ccbc 6f69 153c 6a7f f0bc
00000070: 1826 813c e652 fabc 66b5 5f3d 22d5 783b
00000080: a48b c33c 8b79 0ebb f009 113d 6020 3d3d
00000090: 05a6 523d 1ceb 723d ccef c5ba 10c3 4cbc
000000a0: f1ca 793d 5855 fe3c be85 f83c de7c 753c
000000b0: e69a 53bd 250f ebbc bd28 63bc f74d 153d
000000c0: 7ee1 22bd b5ab be3c 291a cebc 9878 6fbc
000000d0: 43b2 46bc b8ae 14bd 7eaf 25ba 7873 60bc
000000e0: 968a 3a3c 9f68 513c 7002 003d 1a0d 7abd
000000f0: eeca 123c a40d 2cbd d466 aa3c e5a6 133d
00000100: 0285 99bc 6e0b 9abd 102f 62bd 8da3 bfbc
00000110: e3e2 4bbd 3ff7 03bc 2164 143d f9df 853c
00000120: 5d60 0e3d 606a 50bb 3858 20bc 490e b53c
00000130: e292 393c b6da 00bb 4d1d 16bd d4b6 00bd
00000140: 5133 bb3c 628a 183b 79a1 aa3d fb68 a93d
00000150: c705 233d 08aa 02bc bbb9 ebbb 32eb 733c
00000160: 806b 0fbd 92e8 103d 342d d73b c2fd 1bbc
00000170: ff62 c7ba ba21 54bd e68a 553d 8d29 db3c
00000180: 2a10 883b b14e c6bc b102 abbc 5606 bdbc
00000190: ee09 4d3d edec c7bc 0db0 803d 3b26 9e3c
000001a0: 38bd c0bc e096 57bc daf3 e8bc 8882 9dbd
000001b0: cf05 ebba f514 353c f4c3 053d 57af 7cbb
000001c0: f534 38bd 25a0 673c ddac f53a 59f9 96bc
000001d0: 1423 6b3d 3be4 4e3d ee48 b6bc 01ec 46bd
000001e0: 9817 093c d4a2 6e3d 1682 6c3d bf24 ecbc
000001f0: 46cc 4c3c f17c fbbb 82e4 5f3c 4778 7c3d
00000200: 0d38 e038 9288 783c 202f ff3a fe9c e63b
00000210: 1e61 81bd 1c47 193d 5eee 303d e356 263d
00000220: b8d2 74bb 69c3 35bd 834f 283d 3fdd 5a3d
00000230: f79b d33c 4e27 903c cb12 313d aea8 ee3c
00000240: 9fea 71bd 96fb 75bd 6b06 4ebd 9a73 75bd
00000250: e937 853c 6227 67bd 81dd f6bc 5d7c 273c
00000260: 3688 613b cd5c 093d 23d5 60bc 06a1 093c
00000270: 4dfb b9bb 4b40 48bc 18c1 13bd 9ff2 f0bb
00000280: 3744 e93c 9cb8 cc3c 4773 9b3d 0f87 4dbc
00000290: 16ba 843d 514c 893d 7598 1d3d 89c0 ee3c
000002a0: 3d61 043d 5eb0 4d3d 41df 18bc 3257 9b3c
000002b0: 3442 4a3d 7dd2 8b3c 01ad e1bc 1269 f0bc
000002c0: f014 193d a982 4fbd 53f2 f7bc 8a33 d83c
000002d0: fd60 273d e34b e9bc b7f6 5b3d 3454 063d
000002e0: 2528 a73c f0f6 3f3d 47ec 6fbc f0ba 8c3b
000002f0: 3f61 383d 91bd 473d 15f7 2abd 1acd f13c
00000300: bf74 e3bc 573d dcbc 1dce cb3a b6d3 3cbd
00000310: a786 55bb cbdf 503d 56a4 26bd e4c0 78bc
00000320: 10ca 733c 03d4 6fbc f484 37ba d771 e2bc
00000330: 6eed f9bc 7c1b 903c 54e5 0f3c bacc 023d
00000340: fd8b 45bd 0bb4 373d 4eb4 7b3d 58d5 883d
00000350: 323a 81bc 4208 ce3b a220 57bb 1764 3f3c
00000360: 2ebd 97bc 593e 303d 145c 243d 06cf 303d
00000370: 8684 de3c 61fa 8abb 3383 863d fcc2 debc
00000380: e1cc c33b 0df9 b1bc 5a4e 59bd 5781 153d
00000390: c156 393d b120 853c 0a69 c7bc e5ca 133b
000003a0: e2d4 173d 4eb0 1a3d bdef dfbc d2ea 3d3d
000003b0: 5df1 033d d737 8d3d 8da3 603d 5def 5d3d
000003c0: 137c e4bc b5f4 82bc 3f33 35bc 608c 10bd
000003d0: 75c0 783d 8db9 463c c9cd 14bd d76c f13a
000003e0: 7013 09bd a09f 20bc 6b99 31bd 8719 153d
000003f0: 6a35 f5bb bc1f 9c3c 2f70 173d a40e a9bb

conv3.0.bias f4 [32]
0.027186785 0.029264022 0.011012872 -0.0056296336 -0.0145187415 0.018849673 -0.061968915 0.008385559
-0.039721888 0.041343044 0.006599562 0.018080061 0.0006573464 0.052173257 -0.043835655 -0.05040219
-0.054280758 0.02903818 -0.02130576 0.055852298 -0.062164508 -0.033270743 0.042325504 0.018857498
-0.020285727 0.05305479 0.011065618 0.014977513 0.058829382 -0.04665404 -0.008276085 0.013456811
00000000: d2b6 de3c 1abb ef3c 556f 343c ca78 b8bb
00000010: 04e0 6dbc a16a 9a3c 1ed3 7dbd 9563 093c
00000020: 6bb3 22bd 5357 293d 2341 d83b a31c 943c
00000030: c551 2c3a a0b3 553d 048d 33bd 8772 4ebd
00000040: 8055 5ebd 7ae1 ed3c 6b89 aebc 61c5 643d
00000050: 36a0 7ebd e746 08bd 825d 2d3d 0a7b 9a3c
00000060: 412e a6bc fb4f 593d 914c 353c 3e64 753c
00000070: 14f7 703d 4f18 3fbd 6b98 07bc f579 5c3c

conv3.1.weight f4 [32]
1.0111308 0.9964174 1.0003276 0.97462106 0.98805946 1.0176767 0.9840657 0.998378
1.0296792 1.0071826 1.0042412 0.99424684 0.97105724 1.0099177 1.0081248 0.98876524
1.0108464 0.9999142 0.9872268 1.0156685 1.0229176 1.0122769 0.98895156 0.99744564
0.979394 1.0052562 0.98665977 1.021116 0.98948586 1.0010903 1.0050774 0.99501365
00000000: bc6c 813f 3615 7f3f bc0a 803f c480 793f
00000010: 77f1 7c3f 3b43 823f bbeb 7b3f b395 7f3f
00000020: 87cc 833f 5ceb 803f fa8a 803f f686 7e3f
00000030: 3597 783f fc44 813f 3c0a 813f b81f 7d3f
00000040: 6a63 813f 61fa 7f3f e5ba 7c3f 6d01 823f
00000050: f7ee 823f 4a92 813f ee2b 7d3f 9958 7f3f
00000060: 91b9 7a3f 3cac 803f bc95 7c3f eeb3 823f
00000070: f24e 7d3f ba23 803f 60a6 803f 37b9 7e3f

conv3.1.bias f4 [32]
-0.026054114 -0.0019888368 -0.02814376 -0.01756839 0.0005966044 0.0085047055 -0.012963521 0.009377175
0.041479737 0.022496853 -0.0015107951 -0.01737251 0.024122406 -0.008886238 0.049490977 0.0026046766
0.023049442 -0.009242342 -0.0020520405 -0.031341873 0.03519283 -0.017802168 -0.0002570567 0.01985396
0.020202897 0.0068937317 0.0015171933 0.035667446 0.008101346 0.0072401273 0.014053289 0.023937594
00000000: 706f d5bc 2557 02bb be8d e6bc 96eb 8fbc
00000010: 7265 1c3a 5257 0b3c f364 54bc b9a2 193c
00000020: a8e6 293d 524b b83c df05 c6ba cb50 8ebc
00000030: 5a9c c53c 9597 11bc 0db7 4a3d 39b3 2a3b
00000040: 2fd2 bc3c 316d 17bc 877b 06bb 5660 00bd
00000050: 5b26 103d dad5 91bc 91c5 86b9 c6a4 a23c
00000060: 8c80 a53c d0e4 e13b 8fdc c63a 0718 123d
00000070: 82bb 043c 973e ed3b c43f 663c c618 c43c

conv3.1.running_mean f4 [32]
0.881941 0.21233466 -0.0012007473 -0.09347862 -0.07794579 -0.7174138 -0.28320837 -0.24736422
-0.44282973 0.046206772 0.1286575 -0.277754 -0.06714054 0.43689656 -0.82065225 -0.6970301
-0.86937606 0.017306069 -0.016419854 -0.44758725 -0.71123064 0.3695035 0.49327734 -0.35674688
-0.61409193 0.011112955 0.027705919 -0.6211939 -0.3680162 -0.48840383 -0.5911909 -0.36977664
00000000: e3c6 613f 426e 593e 6562 9dba b871 bfbd
00000010: 0ba2 9fbd 6ea8 37bf b000 91be 0c4d 7dbe
00000020: 94ba e2be 5043 3d3d cbbe 033e c635 8ebe
00000030: fb80 89bd e8b0 df3e 4416 52bf 9170 32bf
00000040: 6e8f 5ebf 75c5 8d3c ee82 86bc 282a e5be
00000050: 3613 36bf 902f bd3e d98e fc3e 87a7 b6be
00000060: 2135 1dbf 1d13 363c 86f7 e23c 9006 1fbf
00000070: 9f6c bcbe 1110 fabe 4958 17bf 5d53 bdbe

conv3.1.running_var f4 [32]
0.7795336 0.31964052 0.51635027 0.46280795 0.37805057 0.13882299 0.28837958 0.29455814
0.31356028 0.4040285 0.33733886 0.12302954 0.25726146 0.6708228 0.83499104 0.6250266
0.30952913 0.4405237 0.21107453 0.20233728 0.20165195 0.33813587 0.1779094 0.49334186
0.15294045 0.2808064 0.21444224 0.52674913 0.27232194 0.14257139 0.33012083 0.74028146
00000000: 848f 473f eca7 a33e 882f 043f 2af5 ec3e
00000010: d88f c13e 9d27 0e3e 7da6 933e 53d0 963e
00000020: f98a a03e d3dc ce3e aeb7 ac3e e9f6 fb3d
00000030: c6b7 833e 0bbb 2b3f f9c1 553f be01 203f
00000040: 9a7a 9e3e 538c e13e ec23 583e 8131 4f3e
00000050: d97d 4e3e 2520 ad3e e22d 363e 4e97 fc3e
00000060: 6c9c 1c3e dbc5 8f3e bf96 5b3e 08d9 063f
00000070: c86d 8b3e 3cfe 113e 9905 a93e 1683 3d3f

deconv2.0.weight f4 [32, 16, 4, 4]
-0.051794283 -0.042702 0.041882884 -0.0311778 0.026244354 -0.05700835 -0.059173632 -0.03413051
-0.029404415 0.010457569 0.0001397676 0.009462576 -0.026820509 -0.07368274 0.05630781 -0.0045991405
-0.013678223 -0.066900924 -0.010777858 0.039498214 0.044806793 0.051310807 0.060740802 0.050918728
-0.031080296 0.03806599 0.022313997 -0.016587665 0.028285207 0.0046658884 -0.055226788 0.012001512
0.048787586 -0.05636587 0.033541743 0.05356393 0.037976664 0.049832527 -0.024907995 -0.031989973
-0.0028832445 -0.011623039 0.07135915 0.03617277 0.018641522 0.033860736 -0.01950131 -0.055560548
-0.032261357 -0.0197218 0.02525556 -0.050064493 0.00863761 -0.025282022 0.012677604 -0.018648667
0.066474676 0.059344888 -0.0618374 -0.046436924 0.025449682 -0.048039775 -0.02362167 -0.08670484
0.0029298184 -0.054051224 0.0017640558 0.02201271 -0.03793759 0.056165796 -0.013106523 -0.03617423
-0.049904317 -0.03794839 0.039828826 0.012914278 -0.07518254 -0.035179958 0.0468392 0.04022921
-0.009728023 -0.02810155 -0.06536921 -0.045582384 0.03817755 -0.015707286 -0.016886245 -0.007079666
-0.036363907 -0.065116234 -0.053165197 0.002721684 -0.02910644 0.012779178 -0.038773637 -0.015747601
-0.047842946 -0.049468327 -0.04109653 -0.020698087 0.041982625 0.01111615 -0.031943362 -0.030927049
-0.045712564 -0.0686258 -0.044304654 -0.102869846 0.032762535 -0.07630065 0.035812113 0.02163772
0.001263674 -0.076887995 -0.0887406 -0.07788588 0.007704295 0.013764673 0.011779177 -0.07569143
0.027182937 -0.05557282 0.0077135116 0.029056657 0.048779357 -0.010018624 0.02979372 -0.07792067
-0.05402065 0.0035165441 0.03131689 0.056654662 0.06823694 0.039072275 0.013693951 0.049347218
-0.07821959 -0.03468591 -0.017398862 -0.012011607 -0.028705766 -0.044942927 -0.009985643 0.047379106
-0.058927838 -0.009855761 0.02277933 -0.0038990576 -0.05330018 -0.06953118 0.0036116755 0.036127303
-0.026970098 -0.052551374 -0.07631127 0.03198618 0.028498614 -0.037298687 -0.008352341 -0.07678084
0.016593259 0.03910521 0.056185346 -0.040632498 0.049360942 -0.015117769 -0.04274394 -0.07917415
0.06779135 0.062013384 -0.034913234 -0.008667009 0.019961854 -0.0053420477 -0.00013585141 0.034218103
-0.031807646 -0.008091076 -0.03574792 0.0219658 0.01468203 -0.038279098 -0.06347775 0.0051911487
-0.01749481 0.022410072 0.038516145 -0.061699558 0.030532723 -0.0481451 0.036873713 0.0057073077
0.035917036 0.011266371 -0.031588063 0.029994626 -0.011189586 -0.041312013 0.0008280867 -0.026866393
-0.060062725 -0.037212927 -0.064156316 -0.007219386 -0.016930496 0.019448664 0.034992673 -0.02153023
0.023247346 -0.03964607 0.04273934 -0.038958106 -0.04389631 0.023922794 -0.05234615 0.035248667
0.048455067 0.039796818 -0.009886443 -0.058377866 -0.0227202 -0.061139673 -0.034112826 0.04835068
0.04950963 0.03907208 0.057661142 -0.05449859 -0.00776253 -0.035551824 0.037225258 0.022500625
-0.015074927 -0.030769221 -0.03725122 -0.027456613 0.050254647 -0.07100218 -0.024269192 -0.024460224
0.040614676 -0.06508369 0.03359575 0.03549697 0.0056455494 -0.017641649 -0.06693368 -0.044878915
-0.01944524 -0.012293369 -0.016800221 0.038799312 -0.06254461 -0.023641896 -0.04024389 0.01109406
00000000: 3e26 54bd 4be8 2ebd 638d 2b3d 9668 ffbc
00000010: 66fe d63c 9681 69bd 0d60 72bd 6fcc 0bbd
00000020: 87e1 f0bc 3956 2b3c 948e 1239 ec08 1b3c
00000030: afb6 dbbc fae6 96bd 05a3 663d 63b4 96bb
00000040: a01a 60bc 5a03 89bd 9d95 30bc e1c8 213d
00000050: 5487 373d 482b 523d 59cb 783d 2890 503d
00000060: 1b9c febc 15eb 1b3d d8cb b63c dbe2 87bc
00000070: 61b6 e73c 4fe4 983b 7c35 62bd fda1 443c
00000080: 7ed5 473d e6df 66bd 1163 093d da65 5b3d
00000090: 6b8d 1b3d 311d 4c3d da0b ccbc eb07 03bd
000000a0: d1f4 3cbb 8f6e 3ebc bf24 923d e629 143d
000000b0: 1bb6 983c 8eb1 0a3d 36c1 9fbc 7593 63bd
000000c0: 7c24 04bd 9d8f a1bc c0e4 ce3c 6d10 4dbd
000000d0: c384 0d3c 3e1c cfbc bab5 4f3c 17c5 98bc
000000e0: e023 883d a013 733d 3749 7dbd a534 3ebd
000000f0: da7b d03c 5bc5 44bd 3c82 c1bc 4f92 b1bd
00000100: 3202 403b d164 5dbd e437 e73a 0054 b43c
00000110: 7264 1bbd 1b0e 663d bebc 56bc 6e2b 14bd
00000120: 7868 4cbd c56f 1bbd 8d23 233d 6896 533c
00000130: 4ef9 99bd dc18 10bd 76da 3f3d 62c7 243d
00000140: 4962 1fbc 3935 e6bc 4be0 85bd 98b4 3abd
00000150: 1060 1c3d 91ac 80bc 0655 8abc 8bfc e7bb
00000160: 52f2 14bd a95b 85bd c0c3 59bd 485e 323b
00000170: a170 eebc c25f 513c 1bd1 1ebd 1d01 81bc
00000180: f7f6 43bd 4d9f 4abd d654 28bd 098f a9bc
00000190: f9f5 2b3d 8320 363c 0bd7 02bd b95a fdbc
000001a0: 193d 3bbd af8b 8cbd cc78 35bd 6dad d2bd
000001b0: 0232 063d 8443 9cbd b9af 123d 9641 b13c
000001c0: dda1 a53a 7477 9dbd a2bd b5bd a282 9fbd
000001d0: 5074 fc3b 3985 613c 73fd 403c 1c04 9bbd
000001e0: c0ae de3c 53a0 63bd a0c1 fc3b 3a08 ee3c
000001f0: ddcc 473d 2825 24bc f611 f43c df94 9fbd
00000200: c244 5dbd d275 663b 2446 003d b80e 683d
00000210: cfbf 8b3d 400a 203d 985c 603c 4f20 4a3d
00000220: 9831 a0bd d012 0ebd 0f88 8ebc 55cc 44bc
00000230: 5b28 ebbc 1316 38bd d39a 23bc 9810 423d
00000240: 515e 71bd 0f7a 21bc b89b ba3c 5587 7fbb
00000250: 4a51 5abd 5d66 8ebd dcb1 6c3b 39fa 133d
00000260: 65f0 dcbc 1c40 57bd 1549 9cbd f103 033d
00000270: ed75 e93c 82c6 18bd 42d8 08bc 463f 9dbd
00000280: 96ee 873c c92c 203d 9b22 663d 436e 26bd
00000290: b32e 4a3d 85b0 77bc 4514 2fbd 0f26 a2bd
000002a0: 31d6 8a3d bf01 7e3d 2e01 0fbd 1200 0ebc
000002b0: 0b87 a33c 580c afbb 5673 0eb9 4828 0c3d
000002c0: bc48 02bd 6f90 04bc 696c 12bd 9ff1 b33c
000002d0: e68c 703c 8bca 1cbd 9f00 82bd 831a aa3b
000002e0: 4751 8fbc 5495 b73c 1bc3 1d3d adb8 7cbd
000002f0: c31f fa3c cc33 45bd e408 173d 5e04 bb3b
00000300: be1d 133d 9696 383c 7c62 01bd 4ab7 f53c
00000310: 8654 37bc c936 29bd f513 593a e916 dcbc
00000320: 5504 76bd 956c 18bd 6364 83bd 9990 ecbb
00000330: d3b1 8abc ce52 9f3c 7a54 0f3d 2a60 b0bc
00000340: 3871 be3c eb63 22bd 720f 2f3d 8992 1fbd
00000350: 9ecc 33bd bcf9 c33c eb68 56bd e860 103d
00000360: d278 463d fd01 233d bffa 21bc a11d 6fbd
00000370: b61f babc 986d 7abd e4b9 0bbd 5d0b 463d
00000380: 9cca 4a3d 0c0a 203d 172e 6c3d ea39 5fbd
00000390: d25c febb ca9e 11bd 8379 183d 3b53 b83c
000003a0: d4fc 76bc bc0f fcbc bc94 18bd b1ec e0bc
000003b0: d1d7 4d3d 9769 91bd 2fd0 c6bc cf60 c8bc
000003c0: 935b 263d 994a 85bd b29b 093d 4565 113d
000003d0: 4dfe b83b 3885 90bc 8614 89bd f4d2 37bd
000003e0: a04b 9fbc 206a 49bc 9ea0 89bc 07ec 1e3d
000003f0: 6317 80bd a6ac c1bc c7d6 24bd dcc3 353c

deconv2.0.bias f4 [16]
-0.02158189 -0.0618546 -0.0036841752 0.046895802 0.007885842 -0.049610272 0.012622066 0.03503847
-0.039667092 0.041184496 -0.050418373 -0.047863547 0.010693927 -0.02174858 0.050312974 -0.0038363163
00000000: 81cc b0bc 405b 7dbd 3472 71bb d015 403d
00000010: 9e33 013c 2434 4bbd c8cc 4e3c 8084 0f3d
00000020: f679 22bd 13b1 283d 7f83 4ebd 910c 44bd
00000030: 9535 2f3c 142a b2bc fa14 4e3d b56a 7bbb

deconv2.1.weight f4 [16]
0.9591 0.982071 1.0001118 0.9962278 0.99488014 1.0100564 1.0229727 0.9893946
0.9813999 0.9810584 1.0110965 1.000553 1.0211657 1.0065138 1.02803 1.0037618
00000000: 9487 753f 0169 7b3f aa03 803f c908 7f3f
00000010: 77b0 7e3f 8749 813f c5f0 823f f748 7d3f
00000020: 063d 7b3f a526 7b3f 9c6b 813f 1f12 803f
00000030: 8fb5 823f 72d5 803f 7d96 833f 447b 803f

deconv2.1.bias f4 [16]
-0.014234544 0.016544465 0.023697304 0.031155959 0.033339124 0.026130812 0.052644644 0.021668531
0.02946955 -0.019489001 0.0434263 0.030205939 0.03357955 0.032700755 0.041682873 0.03684279
00000000: 0138 69bc 4288 873c d920 c23c c83a ff3c
00000010: 9b8e 083d 4910 d63c e9a1 573d 3482 b13c
00000020: 206a f13c 66a7 9fbc c7df 313d 7272 f73c
00000030: b68a 093d 3af1 053d a9bb 2a3d 77e8 163d

deconv2.1.running_mean f4 [16]
-0.19072771 -0.27334505 -0.19482681 -0.33448124 -0.32612598 -0.47868276 -0.40712035 -0.30852604
-0.33161673 -0.20493701 -0.40034205 -0.50907964 -0.23997313 -0.37497404 -0.2404112 -0.38826427
00000000: 204e 43be e2f3 8bbe ae80 47be 2041 abbe
00000010: fcf9 a6be e815 f5be 1472 d0be 20f7 9dbe
00000020: abc9 a9be 02db 51be a2f9 ccbe 0b53 02bf
00000030: 84bb 75be 99fc bfbe 5b2e 76be 93ca c6be

deconv2.1.running_var f4 [16]
0.25888196 0.32559657 0.28801754 0.46160284 0.24945368 0.181934 0.3437072 0.34104112
0.30060172 0.2676258 0.5360484 0.3700062 0.34578854 0.5266219 0.16278014 0.20102006
00000000: 2d8c 843e 98b4 a63e 0977 933e 3557 ec3e
00000010: c970 7f3e e84c 3a3e 64fa af3e f19c ae3e
00000020: 78e8 993e 4006 893e 783a 093f 7471 bd3e
00000030: 320b b13e b1d0 063f d6af 263e 34d8 4d3e

deconv3.0.weight f4 [16, 8, 4, 4]
-0.01147147 -0.0032833202 -0.0073509766 0.107320875 0.051885728 -0.04102798 0.037893165 0.031702504
0.0021819747 0.009638972 0.06821232 0.036997512 -0.055150405 0.05983992 0.043745883 -0.060557377
-0.028480392 0.06637753 -0.043041814 -0.034563523 -0.050281726 0.040671818 -0.036108907 0.04043855
0.049248185 -0.061059024 0.046671625 -0.04127273 0.06427849 0.015025619 -2.7531447e-05 0.015611781
-0.002700068 0.0840224 -0.015501618 0.004878333 -0.016987959 -0.040910456 -0.030625893 -0.059925094
-0.008760306 0.024582958 -0.022686223 0.010637574 -0.0065656397 0.05892138 0.07114579 0.080735706
0.106011085 -0.052022316 0.008293774 0.030581588 0.07928802 0.08986409 -0.026447741 0.06458958
0.029265791 -0.026331244 0.040141527 -0.037665647 0.05010841 0.06608119 0.004442245 -0.015770404
0.06309861 0.011364967 0.071898244 0.06627835 -0.027110087 -0.03429286 -0.01152877 -0.0034924173
0.06038754 0.04928321 0.08952822 0.030521072 -0.023146138 0.0003237044 0.016622586 -0.034113433
0.0050313696 0.048205897 -0.07014748 0.043654215 -0.05663514 -0.0017742282 -0.05306929 0.06894119
-0.045893323 -0.053770676 -0.0508307 0.063252896 0.056659896 0.08022541 0.030433642 -0.036095016
-0.04446319 0.017037725 0.03211334 0.047737323 0.0520203 -0.008390713 0.07720918 -0.042148203
-0.036670215 0.10161907 0.025525069 -0.0052757543 0.04678336 -0.016689619 -0.0438856 0.0068521737
-0.020266728 0.06956502 0.007681062 0.07746475 -0.047037043 0.037603647 0.022265533 -0.050011024
-0.020201053 -0.010622245 -0.019136446 0.112248994 0.093355484 -0.0045601064 0.08822538 0.05349037
0.057718232 0.069627 -0.017697822 -0.05699756 0.062234685 0.009392665 0.008725578 -0.03379287
-0.028014647 0.05955823 0.01443861 0.017764568 0.016869564 -0.036785696 0.053360097 -0.034533706
-0.050120797 0.01979804 0.034947928 0.041344993 0.019463195 -0.028180968 -0.014367926 -0.02560563
0.07950895 -0.04809426 0.02271562 -0.009104785 -0.047082666 -0.061311692 -0.023550747 0.047141455
0.05090618 0.006501146 -0.047945388 -0.037985295 0.04556398 0.10790555 0.02141123 0.06971746
0.013496933 0.012481469 -0.05735941 0.099267066 -0.0027709785 -0.04925876 0.01819481 -0.055421874
-0.0015559735 0.06849883 -0.0182682 0.025987811 0.10699711 0.0034351302 -0.024771407 0.050343998
-0.069068 0.05005051 0.06525233 -0.052953873 -0.061688036 0.018270245 -0.0144216735 0.026655702
-0.028179841 0.06997107 0.019545505 -0.01883609 -0.047838055 -0.04660195 0.03597289 -0.079370186
-0.033639498 0.018338604 0.07156399 0.07939156 0.01699643 -0.012901064 0.06665132 -0.032708924
0.06197093 0.014544516 0.040760715 0.025600305 -0.01997352 0.020606454 0.021526942 0.017808385
0.054192916 0.008004488 0.011192296 0.027327161 0.024558004 0.06313582 -0.024549546 0.078505136
0.05608168 -0.06844257 0.07699005 0.07485361 0.01534674 -0.01253323 -0.062028594 -0.0132177025
0.027193267 0.06930818 0.0052773235 -0.012072149 0.0066748937 0.04695806 -0.005503371 0.08186712
0.038353097 0.0069214515 -0.038922828 0.0057248333 0.062943906 -0.041343797 -0.047533993 0.013760651
-0.054303233 0.052238375 -0.078476265 -0.01511723 0.017165784 -0.02592194 0.022865929 0.06703227
00000000: d5f2 3bbc f92c 57bb 76e0 f0bb 0ccb db3d
00000010: 2186 543d f50c 28bd dd35 1b3d 7cda 013d
00000020: 76ff 0e3b c7ec 1d3c e7b2 8b3d b48a 173d
00000030: 64e5 61bd b41a 753d e22e 333d 030b 78bd
00000040: b64f e9bc f1f0 873d 9d4c 30bd 7b92 0dbd
00000050: 36f4 4dbd 7e97 263d efe6 13bd e5a2 253d
00000060: 77b8 493d 0719 7abd bf2a 3f3d 980d 29bd
00000070: 71a4 833d 042e 763c 55f3 e6b7 8ec8 7f3c
00000080: a0f3 30bb f013 ac3d 80fa 7dbc 6cda 9f3b
00000090: 552a 8bbc b991 27bd 27e3 fabc 0474 75bd
000000a0: 6387 0fbc 3362 c93c 75d8 b9bc 3849 2e3c
000000b0: 9424 d7bb 8c57 713d e2b4 913d c358 a53d
000000c0: 571c d93d 5a15 55bd 9ce2 073c 3d86 fa3c
000000d0: c261 a23d aa0a b83d efa8 d8bc 8b47 843d
000000e0: d0be ef3c 9fb4 d7bc 716b 243d 4b47 1abd
000000f0: 7a3e 4d3d 9355 873d 4090 913b ef30 81bc
00000100: d839 813d 2034 3a3c 633f 933d f2bc 873d
00000110: f915 debc ac76 0cbd 2be3 3cbc 0ae1 64bb
00000120: ed58 773d 31dd 493d 925a b73d 5407 fa3c
00000130: f89c bdbc deb6 a939 172c 883c 87ba 0bbd
00000140: 30de a43b 8c73 453d 7ba9 8fbd c3ce 323d
00000150: 40fa 67bd 388d e8ba 2f5f 59bd 0a31 8d3d
00000160: a3fa 3bbd a43e 5cbd da33 50bd bc8a 813d
00000170: 3514 683d 384d a43d f94f f93c 5ed8 13bd
00000180: 091f 36bd b392 8b3c 4789 033d 3688 433d
00000190: 3d13 553d 3379 09bc d91f 9e3d 98a3 2cbd
000001a0: 8233 16bd a91d d03d f319 d13c 3ce0 acbb
000001b0: e99f 3f3d abb8 88bc 63c1 33bd 3388 e03b
000001c0: 6906 a6bc 1b78 8e3d 6bb1 fb3b d7a5 9e3d
000001d0: eaa9 40bd 4806 1a3d 3566 b63c 5cd8 4cbd
000001e0: ae7c a5bc ed08 2ebc 09c4 9cbc cde2 e53d
000001f0: 2931 bf3d f26c 95bb 82af b43d b818 5b3d
00000200: f469 6c3d 9a98 8e3d 06fb 90bc 4676 69bd
00000210: cce9 7e3d b1e3 193c baf5 0e3c 646a 0abd
00000220: f97e e5bc 55f3 733d eb8f 6c3c 0087 913c
00000230: 0a32 8a3c 99ac 16bd 1e90 5a3d 3773 0dbd
00000240: 774b 4dbd 802f a23c 8f25 0f3d 5e59 293d
00000250: 4771 9f3c c6db e6bc 7367 6bbc e6c2 d1bc
00000260: 97d5 a23d 7dfe 44bd 1c16 ba3c 3c2c 15bc
00000270: c1d9 40bd f821 7bbd 7fed c0bc 6617 413d
00000280: 0083 503d 9107 d53b 6262 44bd 7896 1bbd
00000290: 4ca1 3a3d 96fd dc3d 9b66 af3c 07c8 8e3d
000002a0: 3d22 5d3c 137f 4c3c b3f1 6abd 884c cb3d
000002b0: 4e99 35bb 8ec3 49bd 480d 953c 0c02 63bd
000002c0: cff1 cbba 1d49 8c3d 31a7 95bc 64e4 d43c
000002d0: 4d21 db3d ec1f 613b 68ed cabc 8235 4e3d
000002e0: 8673 8dbd c301 4d3d 03a3 853d 29e6 58bd
000002f0: 98ac 7cbd 7bab 953c e248 6cbc 0f5d da3c
00000300: 69d9 e6bc fe4c 8f3d e51d a03c 254e 9abc
00000310: d6f1 43bd b0e1 3ebd 4f58 133d d68c a2bd
00000320: 92c9 09bd d73a 963c 2490 923d 0b98 a23d
00000330: 193c 8b3c fc5e 53bc 7d80 883d cbf9 05bd
00000340: 3bd5 7d3d 1f4c 6e3c b5f4 263d bbb7 d13c
00000350: 829f a3bc dece a83c 4559 b03c e4e2 913c
00000360: 64f9 5d3d 4225 033c e45f 373c 36dd df3c
00000370: de2d c93c 5a4d 813d 211c c9bc 4dc7 a03d
00000380: e7b5 653d 9e2b 8cbd f6ac 9d3d d94c 993d
00000390: e570 7b3c 2d58 4dbc b211 7ebd 108f 58bc
000003a0: 6ac4 de3c 72f1 8d3d 66ed ac3b 43ca 45bc
000003b0: 11b9 da3b 1857 403d 9f55 b4bb f3a9 a73d
000003c0: 2318 1d3d 58cd e23b 8b6d 1fbd 6297 bb3b
000003d0: bce8 803d 1d58 29bd 01b3 42bd 5b74 613c
000003e0: 116d 5ebd e8f7 553d 2ab8 a0bd 42ae 77bc
000003f0: 429f 8c3c 405a d4bc 5451 bb3c 3748 893d

deconv3.0.bias f4 [8]
-0.0017881212 0.060906596 0.07113894 -0.027782664 0.050170396 0.005172387 0.04968648 -0.041019317
00000000: 645f eaba 3279 793d 4bb1 913d 7898 e3bc
00000010: 797f 4d3d 217d a93b 0d84 4b3d df03 28bd

deconv3.1.weight f4 [8]
1.0643668 1.0685155 1.0680953 1.0618433 1.0731112 1.060733 1.0689669 1.0737537
00000000: 2c3d 883f 1ec5 883f 59b7 883f 7bea 873f
00000010: b55b 893f 19c6 873f e8d3 883f c370 893f

deconv3.1.bias f4 [8]
0.063222 0.06564961 0.06790897 0.059122052 0.07144705 0.05914788 0.06882421 0.07440787
00000000: 897a 813d 4d73 863d dc13 8b3d f729 723d
00000010: d552 923d 0c45 723d b5f3 8c3d 2763 983d

deconv3.1.running_mean f4 [8]
0.12346338 0.11026232 0.19593535 0.07945446 0.25545838 0.147788 0.1532842 -0.017598541
00000000: 5eda fc3d 36d1 e13d 47a3 483e 05b9 a23d
00000010: 71cb 823e bd55 173e 89f6 1c3e d12a 90bc

deconv3.1.running_var f4 [8]
0.1294405 0.16251631 0.15567097 0.13736276 0.2054793 0.15950808 0.13525231 0.23479126
00000000: 0d8c 043e ad6a 263e 3668 1f3e d3a8 0c3e
00000010: 2a69 523e 1656 233e 957f 0a3e 1f6d 703e

deconv4.0.weight f4 [8, 3, 4, 4]
0.019096132 -0.021010084 -0.042905852 -0.042362545 0.021811686 -0.03565371 0.18983492 0.09753807
0.15096566 0.17653282 0.17324312 0.12888227 0.015012675 0.067020096 0.093292 0.18020123
-0.1486845 0.03343659 0.037020892 -0.023066344 0.091882676 -0.15524203 -0.035921723 -0.10409272
-0.041900303 -0.07525071 -0.15256499 -0.0026752164 0.033831336 -0.12177626 -0.14555833 -0.16497515
0.051340755 0.04299209 0.010206289 0.06573525 0.08525864 -0.15920883 -0.0648806 0.0025248278
-0.15062577 -0.19514555 -0.16468279 0.07014821 -0.06355015 -0.08171748 -0.17796291 -0.12632921
0.056503568 0.024335247 0.055109873 -0.018315958 -0.082243964 0.04569002 0.16023196 0.006044461
0.12765865 0.056638636 0.14222892 0.092177376 -0.056168865 0.13393636 -0.09157558 0.04438318
0.07732305 -0.17034775 -0.17811278 -0.052104652 -0.17851931 -0.07303284 -0.10369372 0.04175769
-0.12689538 0.057925697 -0.0555572 0.046981502 0.007832646 -0.16328962 0.026392039 -0.08113467
0.09165562 -0.1630336 0.07151205 -0.030697402 -0.08039023 -0.108403265 -0.18476272 -0.1554361
-0.10868593 -0.17405726 -0.015515888 -0.15527911 0.087647 -0.041081555 0.005073963 -0.04546708
0.12524039 0.035030782 -0.033401586 0.086788535 0.1338756 0.051825106 0.10242305 0.0025119993
0.11453991 -0.07496248 0.10230682 0.04474647 -0.031026382 0.021989102 0.08498055 0.066713504
0.0013019774 -0.038250696 -0.022181842 -0.012559204 -0.19557635 0.046464287 -0.14910388 -0.1356883
0.05009532 0.028324978 -0.04079517 -0.038148902 -0.18607709 -0.036278807 0.043492258 -0.014547438
-0.008318711 0.06995739 -0.16623926 -0.046801995 -0.048470292 -0.101345055 -0.11004616 -0.15873422
0.018205112 -0.03098974 -0.057479955 0.02568747 -0.0064974613 -0.123608775 0.082676046 -0.15355493
0.11550361 -0.0026210567 0.12171633 0.13500482 0.022389743 0.053107854 0.033644155 0.011566888
0.069786154 -0.08903953 0.079574175 0.15975313 0.1438093 0.028517738 0.10268413 0.08876759
-0.15236393 -0.04520122 0.07519853 0.087157734 0.040905472 -0.039807986 -0.026405104 -0.107193686
-0.14135793 -0.19279169 -0.0033904216 -0.07447305 -0.17784087 -0.107347995 -0.13106285 -0.12660146
-0.08087813 -0.1535974 0.0077982214 0.04228664 -0.04736665 0.025013762 -0.05602789 -0.015306794
-0.08744705 -0.03728026 0.038052443 -0.09133945 -0.18445466 -0.16607563 -0.09850939 -0.07652814
-0.077321306 0.1087289 -0.0058327476 0.18307996 -0.07836403 0.14681982 0.035465024 -0.048672535
0.18862352 0.11257211 -0.09363145 0.04754198 0.028048726 0.116635054 0.072608896 -0.012894415
-0.0561255 -0.049840048 -0.07594238 -0.17326055 -0.044176593 0.06270602 -0.07792824 -0.10375049
-0.15474813 -0.08180141 -0.14664336 -0.13999553 -0.17250296 0.0117036225 -0.06776937 -0.008707368
-0.0023270405 -0.08493958 -0.14046268 0.037188385 -0.08053523 -0.034094762 0.063248254 -0.03290098
0.052830845 -0.09280661 -0.050803736 0.017670454 -0.07298959 -0.0067833452 0.08093684 -0.10628011
0.050241902 0.15044005 0.0036157211 0.11677757 -0.0003927338 -0.042097744 0.16008942 0.12150801
0.026205793 0.10136665 0.094544396 0.14016533 0.19029586 -0.05774889 0.08310629 0.02046925
00000000: 7e6f 9c3c 571d acbc 0cbe 2fbd 5984 2dbd
00000010: 6cae b23c a009 12bd 1664 423e 0ac2 c73d
00000020: be96 1a3e 05c5 343e a566 313e b7f9 033e
00000030: b9f7 753c d541 893d e00f bf3d ac86 383e
00000040: c040 18be cef4 083d 38a3 173d a1f5 bcbc
00000050: fc2c bc3d c4f7 1ebe a822 13bd 902e d5bd
00000060: a79f 2bbd 0b1d 9abd ff39 1cbe af52 2fbb
00000070: ba92 0a3d d565 f9bd 3e0d 15be 3fef 28be
00000080: af4a 523d 7918 303d 4738 273c 34a0 863d
00000090: 159c ae3d a407 23be 1fe0 84bd 9577 253b
000000a0: a43d 1abe 3cd4 47be 9ba2 28be dda9 8f3d
000000b0: 9526 82bd 7f5b a7bd e93b 36be 725c 01be
000000c0: 4970 673d b65a c73c e4ba 613d 590b 96bc
000000d0: 866f a8bd 7525 3b3d d913 243e 9d10 c63b
000000e0: f3b8 023e eafd 673d 75a4 113e 7ec7 bc3d
000000f0: 5311 66bd 9d26 093e fa8b bbbd 23cb 353d
00000100: 8c5b 9e3d a46f 2ebe 3263 36be b06b 55bd
00000110: c4cd 36be 3e92 95bd 605d d4bd 1d0a 2b3d
00000120: ddf0 01be 7f43 6d3d f28f 63bd ad6f 403d
00000130: 8054 003c 6535 27be 1e34 d83c ef29 a6bd
00000140: f1b5 bb3d 48f2 26be e974 923d 1e79 fbbc
00000150: a2a3 a4bd 8802 debd 7032 3dbe a42a 1fbe
00000160: bb96 debd 113c 32be 5a36 7ebc 7d01 1fbe
00000170: 4580 b33d 2245 28bd 7d43 a63b b03b 3abd
00000180: 043f 003e 707c 0f3d 1ad0 08bd 30be b13d
00000190: af16 093e 9046 543d 2dc3 d13d 5ba0 243b
000001a0: e693 ea3d ee85 99bd 3d86 d13d 1348 373d
000001b0: 0a2b febc 7d22 b43c 480a ae3d 17a1 883d
000001c0: 1da7 aa3a c3ac 1cbd b2b6 b5bc 1fc5 4dbc
000001d0: 2b45 48be 5651 3e3d b0ae 18be e0f1 0abe
000001e0: c030 4d3d c909 e83c d618 27bd 0642 1cbd
000001f0: fe8a 3ebe 1699 14bd f024 323d 6158 6ebc
00000200: 344b 08bc d245 8f3d a03a 2abe 73b3 3fbd
00000210: c988 46bd ff8d cfbd e25f e1bd 398b 22be
00000220: e322 953c 32de fdbc 1a70 6bbd 876e d23c
00000230: a8e8 d4bb 9926 fdbd 0f52 a93d 813d 1dbe
00000240: 288d ec3d 09c6 2bbb 6946 f93d b43e 0a3e
00000250: b26a b73c 9f87 593d 74ce 093d 0b83 3d3c
00000260: 0bec 8e3d 5b5a b6bd c9f7 a23d 5396 233e
00000270: bf42 133e 089e e93c 0f4c d23d c8cb b53d
00000280: 4a05 1cbe ea24 39bd b001 9a3d c17f b23d
00000290: 7f8c 273d b30d 23bd 844f d8bc 5d88 dbbd
000002a0: 22c0 10be 2f6b 45be d631 5ebb 5485 98bd
000002b0: eb1b 36be 44d9 dbbd 5735 06be d0a3 01be
000002c0: 6fa3 a5bd a348 1dbe 3988 ff3b c134 2d3d
000002d0: 8803 42bd a9e9 cc3c 807d 65bd 59c9 7abc
000002e0: 7017 b3bd 30b3 18bd e1dc 1b3d 2d10 bbbd
000002f0: afe1 3cbe bb0f 2abe 4bbf c9bd c9ba 9cbd
00000300: a25a 9ebd 42ad de3d a220 bfbb 5079 3b3e
00000310: 527d a0bd ef57 163e c643 113d da5c 47bd
00000320: 8626 413e 358c e63d d8c1 bfbd 61bb 423d
00000330: 71c6 e53c 5cde ee3d f9b3 943d 1943 53bc
00000340: dae3 65bd 1425 4cbd ae87 9bbd 376b 31be
00000350: 84f2 34bd 046c 803d d798 9fbd 237b d4bd
00000360: 4b76 1ebe 7f87 a7bd ad29 16be fd5a 0fbe
00000370: 9ea4 30be 8dc0 3f3c abca 8abd 59a9 0ebc
00000380: 4381 18bb cdf4 adbd 73d5 0fbe d952 183d
00000390: a8ef a4bd f3a6 0bbd 4d88 813d 2ec3 06bd
000003a0: 2865 583d 6411 bebd 9417 50bd a1c1 903c
000003b0: 917b 95bd d346 debb 37c2 a53d 63a9 d9bd
000003c0: 74ca 4d3d f50c 1a3e bcf5 6c3b 1429 ef3d
000003d0: d7e7 cdb9 af6e 2cbd 7bee 233e 31d9 f83d
000003e0: 88ad d63c 5199 cf3d 7ea0 c13d 8087 0f3e
000003f0: ebdc 423e 1a8a 6cbd a133 aa3d 21af a73c

deconv4.0.bias f4 [3]
-0.06137013 0.023252582 -0.17880487
00000000: 3f5f 7bbd 337c be3c a018 37be
