Pix2Pix/checkpoints/pix2pix_model_epoch_20.pth (torch, 99150 bytes, 32 tensors)

conv1.0.weight f4 [8, 3, 4, 4]
000000 06 5f f7 3d a5 e7 fa 3d 37 26 9e bd 19 ad 17 3e
       0.12078671 0.12251214 -0.07722133 0.14812125
000010 a4 68 91 3d fa f6 a1 3c 44 0e 67 bd 26 1c ef 3d
       0.07100037 0.019771088 -0.05641009 0.11675291
000020 94 c9 4b bd 9f ae fc 3c bd 88 5f 3d 3d 42 87 3c
       -0.049752787 0.030844985 0.054573763 0.016511077
000030 50 2c 04 3e 95 1e de 3d e5 4e f8 bd 83 5b 10 be
       0.12907529 0.10845677 -0.12124423 -0.14097409
000040 9c a8 b3 bd 2c 1f 71 3d c5 23 8c bc 52 27 05 3e
       -0.08772394 0.05886762 -0.0171069 0.13003281
000050 5e 9f d0 bd 70 a4 ac bd 41 77 12 3e 5f 82 ec bd
       -0.10186647 -0.084298015 0.14303304 -0.11548304
000060 ef 89 0d be ae e3 d5 bd 2d ed 9d bd d2 69 f9 bd
       -0.13822149 -0.10443817 -0.07711253 -0.12178387
000070 96 cd 07 be fd aa f9 bc 25 b0 9c 3d e0 3f 0d be
       -0.13262019 -0.030477041 0.076507844 -0.13793898
000080 e5 82 0e 3d cb 63 c0 3d c6 73 c9 bd 8c f1 0e be
       0.0347928 0.09394034 -0.09836535 -0.1395933
000090 6a 25 c9 bd 7e b8 f1 bc b7 9b d7 3d d9 85 4a bd
       -0.09821589 -0.029506918 0.10527747 -0.049444053
0000a0 24 f6 f7 bc 61 20 4d bd 31 71 bb bd 6c 21 6e 3d
       -0.030268736 -0.050079707 -0.09152449 0.058137342
0000b0 37 22 c5 3d 09 68 cb bd 9e cd 0c 3e a0 a2 8e bc
       0.096256666 -0.099319525 0.13750312 -0.01741153
0000c0 f2 53 02 bc aa 1f ba 3b 6d 2a a1 bd e5 5b fe 3d
       -0.007954584 0.005680044 -0.0786942 0.12419871
0000d0 26 86 e5 3d f0 89 7d 3d 3b 7a ce 3d b9 b0 e6 3b
       0.112072274 0.061899126 0.10081907 0.00704011
0000e0 13 67 62 bc d0 dd d1 bd 04 45 fe bd bb df b4 3d
       -0.01381852 -0.102473855 -0.124155074 0.08831736
0000f0 4a 80 a3 bd c5 83 76 3c 0a e7 d0 bd b4 78 03 3e
       -0.079834536 0.015046065 -0.10200317 0.12839013
000100 55 86 1a bd 5d b3 85 bd 60 25 01 3e 30 f8 05 be
       -0.037725765 -0.065283515 0.12611914 -0.13082957
000110 11 1c 65 bd e5 c4 e2 bd 05 80 82 3d 93 1e 0c bd
       -0.05593497 -0.11072711 0.06372074 -0.034208845
000120 61 b6 57 bc 71 58 25 3d fc 89 34 3d 0f 2e e7 3d
       -0.013166041 0.040367547 0.044076905 0.11288082
000130 af 48 6d 3d 6e 3c 03 be 99 4d f2 bd 6b 8a 57 3d
       0.057930645 -0.12816021 -0.11831207 0.05262224
000140 39 0e e0 3c d3 ab a4 3d 33 fe f5 bd 20 ed 0f be
       0.027350532 0.08040585 -0.12011375 -0.140553
000150 9a d5 d6 3d bf ed 78 bd b1 0a 55 3b fd 60 60 bd
       0.1048996 -0.060773607 0.0032507593 -0.054779995
000160 70 e1 27 bd f3 96 bb bd 34 be e4 bd 52 c3 8b 3d
       -0.04098648 -0.09159651 -0.11169091 0.06824364
000170 53 4c de bc fa 2b 78 bc 96 5a ce bd d5 d2 82 3d
       -0.027136004 -0.015147204 -0.10075872 0.06387869
000180 4b 5f da 3d 0b 1e 9c bd 74 ce e0 3c b9 2d 15 3e
       0.10662707 -0.07622918 0.027442195 0.14568223
000190 f0 5c f5 bd fd 50 bf bd 6e a9 a9 bd bf 3c 06 3d
       -0.11980617 -0.09341619 -0.08284269 0.032772776
0001a0 99 5e 04 be 6d 8d be bd 98 6d 6b 3b e5 30 3e bd
       -0.12926711 -0.093043186 0.0035923477 -0.04643335
0001b0 65 ed f8 3d b7 35 aa bd 19 92 73 3d f5 86 ee 3d
       0.121546544 -0.083110265 0.0594655 0.11646835
0001c0 2e 37 0b 3e e0 79 fc bd a7 7a 9e 3d b1 fe c6 bd
       0.13595268 -0.12327933 0.07738238 -0.09716547
0001d0 df 78 09 3e b3 d6 81 bd 28 3a 5e 3c 71 89 12 3e
       0.13425015 -0.06339779 0.01356367 0.14310242
0001e0 9c a5 bd bd 6e ca 82 3c 2d 35 17 3d 32 ce 0a 3e
       -0.09260103 0.015965667 0.036915947 0.1355522
0001f0 e7 4c 04 3e 9f ee a1 3b b6 38 14 bb 9b 1b f4 3d
       0.12919961 0.004941776 -0.002261681 0.11919328
000200 6d 3b ab 3c 4c 04 1a 3d a9 01 13 be 34 26 0f 3d
       0.02090236 0.037601754 -0.14356102 0.034948543
000210 8e 2f 9e 3d c4 85 d9 bd 91 fb 05 3e 32 eb 33 bd
       0.07723914 -0.10621217 0.13084246 -0.04392547
000220 2f 39 ed 3d c7 98 78 bc 61 b5 93 3d 8b d4 9f 3d
       0.115831725 -0.015173144 0.0721233 0.07804211
000230 26 e4 ac bd ad 34 a8 bd d8 25 f8 bd 23 17 1d bd
       -0.08441953 -0.08213172 -0.12116593 -0.038352143
000240 a1 10 30 bd 8f da 14 3d 21 63 85 bc 4c 97 97 bd
       -0.04298461 0.036341246 -0.01628262 -0.074019045
000250 f7 03 0a be 65 a0 df bd 7d 2e 99 3d 4f 6e fa 3d
       -0.13478075 -0.10919265 0.0747957 0.12228071
000260 56 a1 8e 3d 41 2f 85 3d 1f 46 a1 3b 74 58 d8 3d
       0.06964366 0.065031536 0.004921689 0.10563746
000270 2b 12 77 3d e1 e5 c4 bd 88 3f ac 3d 40 eb c1 bd
       0.06032006 -0.096141584 0.08410555 -0.094686985
000280 c6 97 07 bd f1 70 d9 3d e2 c6 12 be cf 3d a3 bd
       -0.033103727 0.10617245 -0.1433368 -0.079707734
000290 49 36 d2 bd f4 c3 33 3d 67 82 09 be 85 fa a6 bd
       -0.1026426 0.043888047 -0.13428651 -0.081532516
0002a0 84 74 bc bc 75 e2 38 3b c8 88 ee bc 1f 3e 96 bd
       -0.023004778 0.002821115 -0.029117957 -0.073360674
0002b0 f1 ca 2d 3c e3 64 1e 3e ba bd 8b 3d a7 d9 0c 3b
       0.010607467 0.15468173 0.06823297 0.0021492036
0002c0 b5 12 0e be 08 77 c9 3d 6c e2 f4 3c c9 37 80 3d
       -0.13874324 0.098371565 0.029893123 0.0626064
0002d0 6c 37 36 bd 27 e1 e7 3d 1a a3 2d 3d 4d 38 11 3e
       -0.04448645 0.11322241 0.042391874 0.14181633
0002e0 49 f9 d8 3d 02 6a 77 3d d2 fc 59 3c df 4c 96 3d
       0.10594422 0.06040383 0.013304906 0.07338881
0002f0 67 f8 b9 3d dd ec d4 bd b2 9e 40 3d d8 d5 a1 3d
       0.09080582 -0.103967406 0.047026344 0.079021156
000300 6e a3 19 3e 35 64 0c 3e 1b a5 1d 3e c6 37 26 bd
       0.1500375 0.13710101 0.15395014 -0.040580533
000310 24 91 54 3c 4f 9e 5e 3d 7e a8 e9 bd e4 3e 46 3d
       0.012974057 0.054350194 -0.114090905 0.04839982
000320 ee b8 6a 3d 65 a2 d6 bd ed c0 64 bd d9 6d 3a bd
       0.05730527 -0.10480193 -0.05584805 -0.045514915
000330 28 92 99 3d e8 58 cd bd c0 27 bd 3d da 4c f2 3c
       0.0749858 -0.10026723 0.09236097 0.029577661
000340 f0 35 85 3c 67 86 73 bd 2b 7e 03 3e 2f 33 04 be
       0.016261071 -0.059454348 0.12841098 -0.1291015
000350 12 cd 05 be 97 93 3c bd fe 4f 28 3d b0 de 96 3d
       -0.1306651 -0.04603919 0.04109191 0.07366693
000360 60 5a ee 3d 6c fd c5 bd 78 64 ee bd 34 b9 09 be
       0.116383314 -0.09667477 -0.11640257 -0.13449556
000370 a3 78 b9 bd 5c 13 14 3e ee b7 be 3d 0d 37 bf 3d
       -0.09056213 0.1446051 0.093124256 0.09336672
000380 b7 02 1c 3e da dd 94 3d 1a 64 6c bd 08 7d a1 3d
       0.1523541 0.07268877 -0.05771265 0.07885176
000390 bc e5 b6 bd 35 78 e9 3c 70 2d f5 3d 1d 94 63 3d
       -0.08930537 0.028499702 0.11971557 0.055561174
0003a0 e7 04 d8 bc 15 74 9b 3b 92 5b 56 3d c1 43 e5 3d
       -0.026369525 0.0047440627 0.052333422 0.11194564
0003b0 fe 78 df bd 0e 2e ce 3c 93 08 d7 3d 4c a9 6d bb
       -0.10911749 0.025168445 0.10499682 -0.003626424
0003c0 03 4a f2 3d 16 40 76 bc 3b 85 5a bb 0d 40 d5 3c
       0.11830523 -0.015029928 -0.0033343572 0.026031518
0003d0 d5 fa 96 bc bf 83 13 3e 19 89 40 3d f2 c9 14 3d
       -0.018430153 0.14405726 0.047005747 0.036325403
0003e0 30 e9 2e bd 9b e4 a5 bc f1 85 af bd 48 df 86 bc
       -0.042702854 -0.02025061 -0.08570469 -0.01646389
0003f0 7d 77 bc 3d 02 a9 80 bd ae 09 ab 3d 4a aa e3 bd
       0.09202478 -0.06282236 0.08351456 -0.111164644

conv1.0.bias f4 [8]
000000 4c 52 80 bd da 08 e7 bd 23 29 df 3d 3a ea a4 bd
       -0.06265697 -0.11280985 0.10896518 -0.08052488
000010 27 08 0e 3e ed ff bb bd 0c c7 dd 3d 9f 38 25 3d
       0.13870297 -0.09179673 0.10828981 0.0403372

conv1.1.weight f4 [8]
000000 f5 bd 80 3f cc 1e 7e 3f 4a 03 80 3f ad 85 7d 3f
       1.005797 0.9926574 1.0001004 0.990321
000010 a0 e3 7f 3f b7 04 81 3f 69 bd 81 3f 73 ca 7b 3f
       0.99956703 1.0079564 1.0135928 0.9835579

conv1.1.bias f4 [8]
000000 81 ba a3 bb 0e 73 86 bc fd da 0c bc a0 2d cf bb
       -0.004996598 -0.016412284 -0.008597133 -0.0063225776
000010 45 21 76 bc 25 9c 5a 3c 3d b3 f6 3b cb 0b a6 bc
       -0.0150225805 0.013342892 0.007528691 -0.020269295

conv1.1.running_mean f4 [8]
000000 ff ea 6a bd e5 06 bc bd 72 94 61 3d 48 18 9a bd
       -0.057353016 -0.091810025 0.05507321 -0.075241625
000010 9f 47 96 3d 52 d4 08 be c3 80 12 3e 2b 9a 6c 3d
       0.073378794 -0.13362244 0.14306931 0.057764214

conv1.1.running_var f4 [8]
000000 18 ec 38 3e 72 ed 24 3e 49 a5 3f 3e 73 63 21 3e
       0.18058813 0.16106203 0.18715395 0.15760593
000010 22 6a 4f 3e 9b 30 54 3e da e3 26 3e e3 b0 02 3e
       0.2025533 0.20721667 0.16297856 0.1276279

conv2.0.weight f4 [16, 8, 4, 4]
000000 18 4b 9a 3d df e6 4a 3d 5c 48 6d bd 3e 6d 4c bd
       0.07533854 0.049536582 -0.057930335 -0.04990887
000010 a2 aa 8c 3d bc 5b 96 3d c6 01 f5 bc ff ce 39 3d
       0.06868483 0.07341716 -0.029908072 0.045363422
000020 b8 5b 18 bd 86 cc 4a bd f2 90 62 3d fe 20 70 3d
       -0.037196845 -0.049511455 0.055314012 0.058625214
000030 1f ed f7 bc db f8 4e 3d 3b e2 ff 3c 2a 1f a4 3d
       -0.030264435 0.050530296 0.031235805 0.080137566
000040 3e 16 32 3d 2a 2e df bc cc 8a b4 3d bc c6 4f 3d
       0.043478243 -0.027243692 0.08815536 0.050726637
000050 2a dd 54 bd 45 22 96 bc 57 38 95 bd 46 7e 00 bc
       -0.05196873 -0.018326888 -0.072861366 -0.007842606
000060 cc 19 80 3d 1c 53 9e bd e7 ae 8b bd ef 51 3c bd
       0.0625492 -0.077306956 -0.06820469 -0.045976575
000070 fd 8c 47 bd d6 5d 97 3c 26 48 b9 3d 84 07 9e 3d
       -0.04871844 0.018477362 0.09046964 0.07716277
000080 0c 4f a5 bc ec 0e 9c bd 3f 42 7c bd af 1f d2 bc
       -0.020179294 -0.076200336 -0.061586615 -0.025649874
000090 08 a7 af 3d b6 19 01 3d 33 34 b7 39 49 3c 74 3d
       0.085767806 0.03151866 0.0003494337 0.059627805
0000a0 d6 85 b6 3c 8d 6c 21 3d 87 a6 a7 3d 2c 2d 49 bd
       0.022280615 0.039410163 0.081860594 -0.049115345
0000b0 ba 33 5c 3d f3 a2 0a 3d 26 4a 78 bd af 72 4e bd
       0.053760268 0.033846807 -0.06061759 -0.05040234
0000c0 9f 84 11 bd 81 41 28 bd 19 4a 06 3d 4f 4a b0 bb
       -0.035526868 -0.041078094 0.03278551 -0.005379952
0000d0 a9 cd 40 bd 8f 59 96 bd c6 61 a5 3d 53 14 53 3c
       -0.047071133 -0.07341301 0.080752894 0.012883264
0000e0 52 7c 51 3d 0b 0a f2 3c 03 b6 20 3d 35 c7 92 3c
       0.05114395 0.029545804 0.03923608 0.017917255
0000f0 c5 3f 96 bd 14 47 87 3d 82 50 85 bd 20 cf 54 3b
       -0.07336382 0.06605354 -0.06509496 0.003247209
000100 84 0b fa bc 06 31 1f 3d 5a d5 64 bd f8 b8 39 3d
       -0.03052307 0.03886511 -0.05586753 0.045342416
000110 b4 43 97 bd cb c0 3b bd 42 99 37 bc 67 3f 6c 3d
       -0.0738596 -0.04583816 -0.011205973 0.057677653
000120 bb 72 06 3d 07 49 50 3d f5 24 3a bd 07 f4 be 3d
       0.03282426 0.050850894 -0.0454454 0.09323888
000130 a4 fc 38 3d 92 80 9d 3d de c4 81 3d c0 2e 39 ba
       0.045162812 0.076905385 0.063363776 -0.0007064156
000140 34 58 ba bb bf b8 20 bc 56 f6 94 3d 97 df a9 3d
       -0.005686784 -0.009809672 0.07273547 0.082945995
000150 33 b9 9f 3d 13 29 75 3c 11 c4 4d 3c bb f7 81 3c
       0.07798996 0.014963406 0.012558953 0.015865197
000160 3d ab ac 3c fd 43 93 bd 5a d8 82 bd 6f 7d 36 3d
       0.021077747 -0.07190702 -0.06388922 0.044553217
000170 ba 0a a0 3d e5 c1 22 3d da 27 38 bd ee 37 0a bd
       0.07814546 0.039735693 -0.04495988 -0.033744745
000180 a8 7c 9a bd be 07 10 3d 59 e1 83 3c 0d 28 97 3c
       -0.075433075 0.035163634 0.016098665 0.018451715
000190 9d ce 80 3d 2a af fd bc 84 c5 2c bc 2e 75 63 bd
       0.06289408 -0.030967314 -0.010545138 -0.055531673
0001a0 21 ad 25 3d 17 f0 29 bd 30 5e b4 3d 3f 24 29 bc
       0.04044831 -0.041488733 0.08807027 -0.010323583
0001b0 b3 fa 39 3d 92 e5 91 3d 38 02 8c bc c0 6c 90 3c
       0.0454051 0.07123865 -0.017090902 0.017629981
0001c0 b8 17 50 bb 5b 49 d8 3c 24 f6 93 bd 2e 82 9d 3d
       -0.0031752419 0.026402166 -0.07224682 0.076908454
0001d0 19 86 74 bd d6 3a 54 3d 76 55 c0 3c 69 89 81 bc
       -0.059698198 0.051813923 0.023478251 -0.015812593
0001e0 a5 d9 9a bd e6 2f c2 bb 0c ba aa bd 4f 85 86 bd
       -0.07561044 -0.00592612 -0.08336267 -0.06568395
0001f0 07 f7 c1 bc 72 6e b1 3b ae b4 95 bd ca 0b 40 bd
       -0.023677362 0.0054147774 -0.073098525 -0.046886243
000200 7f ed 38 bd da ea 91 bc 24 c6 93 3d 54 58 b4 3d
       -0.04514837 -0.017812181 0.07215527 0.0880591
000210 88 cc 8b bd 24 e2 20 3c c6 10 12 bd 8b 7e 8d bd
       -0.068261206 0.009819541 -0.035660528 -0.06908902
000220 59 cf b3 3d 1e 17 1b 3d 06 2b 47 3d b3 42 40 bc
       0.08779783 0.037863843 0.048625015 -0.011734652
000230 e8 eb a0 bd 04 85 52 3d 65 1d 96 bc c1 3b ab 3b
       -0.078574955 0.051396385 -0.018324563 0.005225629
000240 5f 9d 1e 3c d2 ca 97 3d d8 3e 8f bc 75 94 5d 3d
       0.009681075 0.07411732 -0.01748602 0.054096658
000250 5b 53 24 3d fd c0 04 3d c6 94 ee bc 64 79 3a 3d
       0.040118556 0.03241061 -0.029123675 0.045525923
000260 f5 58 7c 3d 5e e0 75 3d 08 8b 86 3d 7f f7 ff 3c
       0.061608274 0.060028426 0.06569487 0.031245945
000270 66 b5 f8 bc 35 c6 8c bb 06 27 20 3d 7f 72 79 3d
       -0.030359935 -0.004296089 0.039099716 0.060900208
000280 23 0f b6 3d e1 70 9f 3d aa 00 1d 3c 43 b0 9d 3c
       0.08889606 0.07785202 0.009582678 0.019249087
000290 fa ef a7 bc cb 2a 40 bd 45 64 cc bd 92 c4 a3 bd
       -0.020500172 -0.04691581 -0.099800624 -0.07996477
0002a0 c4 92 dc bd a7 43 2b 3d 94 41 e4 3b 1d 91 b2 bd
       -0.10770181 0.041812565 0.0069658253 -0.087190844
0002b0 15 24 a5 3c 23 14 4b 3d d2 f2 a4 3a 65 dc ab bc
       0.020158807 0.04957975 0.0012584573 -0.020979116
0002c0 06 d1 9b 3d 9d 6b 97 bc f1 9d 74 3d 03 f2 2c bd
       0.076082274 -0.018483931 0.059720937 -0.042222988
0002d0 06 86 15 3b 5d 7a c5 bc 27 d5 01 3a 89 42 99 3d
       0.002281548 -0.024106199 0.00049527216 0.07483394
0002e0 54 67 0b bd 63 5f 94 bd 28 41 05 3d da cb 30 3d
       -0.03403409 -0.07244756 0.03253284 0.043163158
0002f0 e8 fb 9d 3d 4e 31 29 bd dc 01 3d 3d 48 08 12 bb
       0.07714063 -0.041306786 0.04614435 -0.0022282768
000300 d5 46 74 bb a0 e1 9f bc 53 dc 0a bb e7 57 18 3c
       -0.0037273664 -0.019516766 -0.0021188452 0.009298301
000310 41 61 39 3c 9d fd 83 bc 7f 9b 96 bd 49 df 6c 3c
       0.011314691 -0.016112143 -0.07353877 0.014457532
000320 9c 5e 8d 3d e5 c7 96 3d fb f1 c7 bc 9d c2 64 bd
       0.06902811 0.073623456 -0.024407377 -0.05584966
000330 53 ee 51 bd 47 04 ec 3c 55 65 83 bd 4a 2a 04 3d
       -0.051252674 0.028810633 -0.06415812 0.032266892
000340 54 3d 2a bd 62 46 a9 3d 5d 96 29 3d 10 0c 58 3d
       -0.041562393 0.082653776 0.041403163 0.05274588
000350 4a 0e 8e bd da 3c 9a 3d c9 29 93 3d eb 38 a9 3d
       -0.06936319 0.07531138 0.07185704 0.08262809
000360 60 f7 1f 3c c7 30 aa bd be d6 a6 bd 36 55 b6 3c
       0.009763569 -0.08310085 -0.081464276 0.022257429
000370 b2 73 5e bd dd cb b7 bd 16 61 c9 bd 78 c8 05 3c
       -0.054309554 -0.08974431 -0.09832971 0.008165471
000380 57 b4 ad 3d 55 4c 22 3d be 6b 4a bd 5b 8f 75 3d
       0.08481663 0.039623577 -0.049419157 0.059951168
000390 71 90 d4 bc 60 4a 05 3b fd 7b 4d 3d c2 b6 ce 3b
       -0.025947781 0.002033852 0.050167073 0.0063084075
0003a0 8c 4c 73 bc eb ef d1 bb f9 fa 75 bd b2 5f 98 3d
       -0.014849793 -0.0064067743 -0.0600538 0.074401274
0003b0 d4 50 af 3d 8b bf 26 3d 58 42 b9 bc 12 41 17 3d
       0.085603386 0.040710013 -0.022614643 0.03692729
0003c0 c2 7e a8 3c 9e 4b 22 3d 59 c9 8b 3d 35 67 c3 bc
       0.020568255 0.039622895 0.068255134 -0.023852924
0003d0 17 5b 54 3d 90 f8 18 bc be 7b a9 3d a1 07 1b 3d
       0.051844683 -0.009336606 0.08275555 0.037849072
0003e0 48 63 ee 3c 92 de 3d bc db b7 60 bd cd 6b ef bc
       0.029100075 -0.011588709 -0.05486284 -0.029226208
0003f0 2f 7c cb 3a 9c c2 aa 3c cb 40 20 3c a0 3b ef 3b
       0.001552468 0.02084475 0.009781073 0.007300809

conv2.0.bias f4 [16]
000000 78 cc 3c 3d 78 3a 43 3d 71 8d 92 bd 51 63 47 3d
       0.046093434 0.047663182 -0.07155884 0.0486787
000010 91 0f 69 3d fb e2 91 bd df b3 68 3d 10 40 e7 bc
       0.05689961 -0.07123371 0.056812163 -0.02822879
000020 65 4a 0f 3d 87 94 c9 3b d7 76 d3 3c 2f 26 1b 3d
       0.034983058 0.006151739 0.025813503 0.03787821
000030 e2 99 8e bd fa 5d a2 3d 6c db 40 bd 9d 2e 60 3d
       -0.069629446 0.07928081 -0.047084257 0.054731954

conv2.1.weight f4 [16]
000000 71 17 7e 3f 44 29 7f 3f 24 af 80 3f fa 9f 7f 3f
       0.9925452 0.9967234 1.0053449 0.9985348
000010 7c ed 80 3f b0 86 80 3f 37 dc 80 3f df b7 80 3f
       1.0072474 1.0041103 1.0067204 1.0056113
000020 a2 ca 80 3f d8 03 7d 3f 14 a2 80 3f c5 f7 7e 3f
       1.0061839 0.9883399 1.0049462 0.99596816
000030 67 7c 7f 3f 48 f7 7c 3f 6b ad 7f 3f b0 50 80 3f
       0.997992 0.9881482 0.9987399 1.0024624

conv2.1.bias f4 [16]
000000 6e f2 7b bc 3d 3f 00 bc e9 51 fa 3b 23 06 89 3b
       -0.015377624 -0.007827577 0.007639159 0.0041816398
000010 db 7a 5f 3c 29 18 e3 bb 5d ff ac 3c f8 ce 48 3c
       0.013640131 -0.0069303703 0.02111786 0.012256376
000020 12 a3 4a 3c e8 56 0e 3c c9 c6 23 3c cd 3b 08 3c
       0.012367981 0.008687712 0.009996125 0.008315039
000030 eb a7 12 3c 01 61 e8 ba 25 4e 9d 3c 7b ca e0 bb
       0.008951168 -0.0017729105 0.019202301 -0.006860075

conv2.1.running_mean f4 [16]
000000 b6 37 56 3e 24 11 c2 3e 1c d8 98 be 8a 9b 25 be
       0.2091969 0.37903702 -0.29852378 -0.16172615
000010 e9 e2 92 be 77 c1 d1 3d a5 7a c2 be be 67 3b 3e
       -0.28688744 0.102419786 -0.37984195 0.18301293
000020 f0 a8 96 3d 4c 07 6a 3b 0c 5a 9c 3e 18 10 c2 3d
       0.07356441 0.0035709916 0.3053745 0.09475726
000030 9c 2f 5b bd ac ee b5 3e 72 e3 56 be 57 a8 9b 3e
       -0.0535122 0.35533655 -0.20985201 0.3040187

conv2.1.running_var f4 [16]
000000 3a 42 50 3e 09 ac ab 3e a9 72 6e 3e db 06 65 3e
       0.20337763 0.3352969 0.23285927 0.22365896
000010 f5 4f 82 3e d2 ce 6e 3e 81 6b 66 3e 55 5c 85 3e
       0.25451627 0.23321083 0.22501947 0.26047006
000020 e4 91 a1 3e 58 29 37 3e 97 da 03 3f 6a 90 6e 3e
       0.31556618 0.17886865 0.51505417 0.23297277
000030 9a 3c 29 3e 07 15 50 3e 10 b6 a4 3e 78 04 81 3e
       0.16527024 0.20320521 0.32170153 0.25198722

conv3.0.weight f4 [32, 16, 4, 4]
000000 fd 91 2c 3d c0 ab 00 3d d2 81 c8 3c e8 8b 10 3d
       0.042131413 0.031413794 0.024475966 0.035289675
000010 44 51 1b 3d 1f b9 07 3c 2a a0 95 3c 93 03 22 3d
       0.037919298 0.008283882 0.018264849 0.03955419
000020 d7 9d 3c 3d a9 1f 1e 3d a6 02 26 3d 12 93 a5 3c
       0.046048965 0.038604412 0.04052987 0.02021173
000030 22 26 5f 3c c3 4e 23 3d a8 45 04 3d 18 49 48 3d
       0.013619931 0.039870035 0.032292992 0.048897833
000040 d4 02 1d bd f1 06 1a 3d 9c c8 b4 3c 1a e0 27 bd
       -0.038332775 0.037604276 0.022068314 -0.040985204
000050 60 db 11 3d f1 d4 74 3d c7 3f 13 3d 93 2d 34 bd
       0.035609603 0.05977339 0.035949495 -0.043988775
000060 e3 cb 80 3d 97 c1 f2 bc 4a 1f e2 3b 8c 85 15 bd
       0.06288888 -0.029633326 0.0069007026 -0.036504313
000070 76 a6 c2 3c ba 50 d9 bc 47 17 7c 3d 81 f4 f2 3b
       0.023761015 -0.026527751 0.061545637 0.007414401
000080 bd 65 d7 3c b6 cd 8f 3a eb f2 20 3d 64 06 72 3d
       0.02629363 0.0010971341 0.039294165 0.059088126
000090 40 da 52 3d 44 bf 71 3d 6a d2 c2 bb 6d 3b 43 bc
       0.05147767 0.059020296 -0.0059454935 -0.011916024
0000a0 03 45 7e 3d 1e e0 02 3d 1b a1 ff 3c 6e eb 9d 3c
       0.062077533 0.031952016 0.03120475 0.0192773
0000b0 c6 32 59 bd 13 91 f1 bc 27 0e 6e bc da 60 2d 3d
       -0.053026937 -0.029488122 -0.014529741 0.042328693
0000c0 10 80 72 bc f5 ec 37 3d 9b 96 ab bb 50 b9 d9 3b
       -0.01480104 0.044903714 -0.0052364594 0.0066444054
0000d0 21 85 aa bb fe 09 20 bd 96 07 31 3a 63 a6 d0 bb
       -0.0052038585 -0.03907203 0.00067531446 -0.006367491
0000e0 a1 54 6a 3c 2c 02 13 3c 3f d0 04 3d 2c 67 6e bd
       0.014302404 0.008972686 0.03242516 -0.05820386
0000f0 23 b8 35 3c bc 30 46 bd 52 39 d2 3c 44 06 43 3d
       0.011091265 -0.04838632 0.025662098 0.047613397
000100 bc 41 fb 39 0f 11 90 bd 02 b8 49 bd cd 23 38 bc
       0.00047923427 -0.07034504 -0.04924775 -0.011239004
000110 75 ed 3d bd 5a e4 a8 bc fc 61 f3 3c f0 d0 86 3c
       -0.046369035 -0.020616699 0.029709809 0.016457051
000120 8d 27 38 3d 0b e2 43 bc 60 03 85 bc 71 95 b2 3c
       0.044959594 -0.011955748 -0.01623696 0.021799775
000130 91 6d 02 3d 83 81 a7 bb 0f 75 14 bd e7 38 df bc
       0.031842772 -0.0051118745 -0.03624445 -0.027248813
000140 c4 fb 69 3c 83 6b 01 bc e6 69 92 3d ad e6 8e 3d
       0.014281217 -0.007899168 0.07149105 0.06977592
000150 8f 83 09 3d bf dc 7c bc c3 af 8e bc 0f a3 3b 3b
       0.03357273 -0.015433489 -0.017417794 0.0028631126
000160 b8 c5 11 bd 29 f1 0d 3d d8 ef c6 39 a0 51 99 bc
       -0.03558895 0.034653816 0.000379442 -0.01871568
000170 c7 17 89 3a fe eb 50 bd ed f4 48 3d d2 fc a8 3c
       0.0010459357 -0.05100631 0.049061704 0.020628367
000180 be 66 08 3d 30 ae a4 ba a5 7c 14 3b ad 38 c4 3a
       0.033301108 -0.0012564119 0.0022657302 0.0014970504
000190 f2 53 49 3d 0d 8a 16 bd 78 99 6a 3d d9 8c 92 3c
       0.049152322 -0.03675275 0.057275265 0.017889427
0001a0 4f 24 a9 bc 2c 63 95 bc 8b e6 f3 bc e9 4f 94 bd
       -0.020647196 -0.018235765 -0.029773017 -0.07241804
0001b0 14 4f 05 3c 37 65 39 3c 4c 3b 1c 3d 3b 90 93 3b
       0.0081365295 0.011315635 0.038142487 0.0045032776
0001c0 89 8f 58 bd e7 bc 14 3c 74 2f 58 bb 6d 23 dd bc
       -0.05287126 0.009078241 -0.0032987269 -0.026994431
0001d0 08 2a 7f 3d d9 f5 60 3d 1a 75 c1 bc fc 8e 56 bd
       0.062295943 0.05492196 -0.023615409 -0.052382454
0001e0 e5 69 b8 3b 2f 9b 68 3d dd a3 53 3d d1 17 17 bd
       0.005627858 0.05678862 0.051669944 -0.036887947
0001f0 11 f8 84 3c 25 bc af bb b1 24 38 3c 13 a8 76 3d
       0.016231569 -0.0053630047 0.011239217 0.06021888
000200 90 54 13 b9 8b 60 68 3c 09 3a 3b b9 73 1c 0d bb
       -0.00014050514 0.014183174 -0.0001785533 -0.002153185
000210 75 7e 6b bd d5 e1 32 3d de 5c 4e 3d 6d c7 28 3d
       -0.057493646 0.0436724 0.050381534 0.041205812
000220 3f 64 11 bb f1 4e 31 bd e2 01 30 3d 00 cb 52 3d
       -0.0022184995 -0.043288175 0.042970546 0.051463127
000230 01 d7 12 3d f4 62 de 3c fc cf 56 3d 18 50 06 3d
       0.035849575 0.027146794 0.052444443 0.032791227
000240 92 3c 4e bd 12 90 49 bd 42 f3 28 bd 06 75 71 bd
       -0.050350733 -0.04920966 -0.041247614 -0.058949493
000250 45 41 3e 3d 97 da e9 bc 97 d7 8e ba f2 2e 3f 3d
       0.046448965 -0.028546615 -0.0010897991 0.04667563
000260 75 6b 81 bb be 12 09 3d 65 0a a0 bc f1 a8 21 3c
       -0.0039495775 0.03346514 -0.019536206 0.009866939
000270 51 54 ca 3b b8 e9 52 3b a0 85 f4 bc ca 0f c6 3b
       0.006174602 0.0032182764 -0.029848874 0.0060443627
000280 9c 6a a3 3c d9 58 b1 3c d5 1f 8f 3d f2 71 9a bc
       0.019948296 0.021648811 0.06988493 -0.018853161
000290 5b 97 69 3d 6c c5 7c 3d 18 67 f4 3c ea 5d b4 3c
       0.05702911 0.061711714 0.029834315 0.022017438
0002a0 a2 e6 bb 3c d5 af 31 3d 3d f7 a4 bc 92 35 17 3c
       0.022937123 0.043380577 -0.020137424 0.009229081
0002b0 53 88 2e 3d a3 69 54 3c 82 ba 13 bd f3 7d 12 bd
       0.042610478 0.012964639 -0.03606654 -0.035764646
0002c0 61 b2 1d 3d 0a e8 52 bd 3f 21 0a bd 83 4c e6 3c
       0.038500194 -0.05149082 -0.033723112 0.028112656
0002d0 a7 7f 3a 3d 64 e2 d0 bc ef f5 5c 3d 49 b9 10 3d
       0.045531895 -0.025498576 0.053945478 0.03533295
0002e0 f4 20 eb 3c 29 4a 60 3d 27 13 2e bc 57 30 2e 3c
       0.028702237 0.054758225 -0.010624683 0.010631642
0002f0 be 8d 5a 3d ae f8 62 3d 54 3b 25 bd de ca 04 3d
       0.053357832 0.05541294 -0.040339783 0.03242003
000300 f7 10 3a bc e2 e5 d8 bc fd c1 a9 3c d3 f4 42 bd
       -0.011356584 -0.026476804 0.020722384 -0.047596764
000310 70 31 f1 3b 85 b5 61 3d cc 9b 03 bd 0b b1 ac bc
       0.0073606297 0.05510475 -0.032131 -0.021080514
000320 69 97 96 3b 65 f5 14 bd b3 56 3e bc 25 7a 4d bd
       0.004595686 -0.03636684 -0.01161735 -0.050165314
000330 01 ae ca bc 25 1d 40 3c 2c 64 88 3c d2 7a 12 3d
       -0.024741175 0.011725699 0.016649328 0.03576166
000340 b6 ca 54 bd fb 76 33 3d 89 3c 46 3d 98 92 8a 3d
       -0.051951133 0.04381464 0.048397575 0.06766242
000350 22 a8 c1 bc 8a c7 12 3a ac 65 9a bc c0 51 c4 3b
       -0.023639742 0.00055991916 -0.018847309 0.0059911907
000360 d3 f4 e0 bc 46 9b 14 3d e8 b5 d8 3c 8a b0 1b 3d
       -0.027460491 0.036280893 0.026453927 0.038010158
000370 a3 ba 03 3d 32 f4 94 bb 0d 1b 82 3d c9 85 ec bc
       0.032160413 -0.004545712 0.06352816 -0.028872387
000380 e5 74 25 3c 29 42 90 bc 9f 07 40 bd d8 00 54 3d
       0.010098671 -0.017609673 -0.046882268 0.051758617
000390 3e 77 3c 3d a3 05 88 3c 55 da bd bc 20 d3 41 3c
       0.046012156 0.01660425 -0.023175398 0.011830121
0003a0 30 60 09 3d 16 52 0e 3d f7 37 01 bd 98 c8 42 3d
       0.033538997 0.034746252 -0.031547513 0.047554582
0003b0 f9 02 e7 3c 55 2d 83 3d 5a 6c 4c 3d ba a4 5a 3d
       0.02819966 0.06405131 0.04990802 0.05337975
0003c0 1f 79 00 bd 6e 15 a0 bc e4 de 94 bc 6b 37 37 bd
       -0.03136551 -0.019541468 -0.018172689 -0.044730585
0003d0 22 9c 72 3d 5a 1b 34 3c 86 ad 25 bd 4c 2f 8a bb
       0.05923093 0.010992849 -0.040448688 -0.004217064
0003e0 56 b0 0c bd 7b 1a 29 bc 6d d9 40 bd 71 ef 06 3d
       -0.034347855 -0.010321255 -0.047082353 0.032943193
0003f0 94 bb 93 bb 37 37 bd 3c 41 18 1b 3d 97 1d 01 bc
       -0.004508445 0.023097618 0.037864927 -0.00788059

conv3.0.bias f4 [32]
000000 ba b8 de 3c 2a d3 ef 3c 72 84 34 3c 44 5a b8 bb
       0.027187694 0.029275496 0.011017906 -0.005625995
000010 d8 ac 6d bc 3a 8a 9b 3c 58 d1 7d bd b9 97 09 3c
       -0.014506541 0.01898681 -0.061967224 0.00839799
000020 73 bb 22 bd dd 83 29 3d b7 03 d9 3b d3 25 94 3c
       -0.039729547 0.04138552 0.0066227573 0.018084442
000030 9a b9 29 3a 33 ac 55 3d f5 98 33 bd 7d 70 4e bd
       0.0006474495 0.052166175 -0.043847043 -0.050400246
000040 21 be 5e bd 18 d3 ed 3c f9 f1 ae bc 31 9b 64 3d
       -0.05438054 0.029031321 -0.021355616 0.055812065
000050 64 d6 7e bd f9 55 08 bd 0a 0c 2d 3d 4e 5e 9a 3c
       -0.062216178 -0.033285115 0.04224781 0.018843796
000060 80 32 a6 bc 89 3e 59 3d 64 c0 34 3c e1 51 75 3c
       -0.020287752 0.053038154 0.011032198 0.014973135
000070 c8 0f 71 3d 9c f9 3e bd df fc 08 bc 46 de 5c 3c
       0.05885294 -0.046624765 -0.00836107 0.0134807285

conv3.1.weight f4 [32]
000000 4a 73 80 3f d7 99 7f 3f dd d9 7e 3f 5c d3 7a 3f
       1.0035183 0.99844116 0.99551183 0.9797876
000010 4b 57 7d 3f 01 18 82 3f 6e 1e 7d 3f e8 a2 80 3f
       0.98961323 1.0163575 0.98874557 1.0049715
000020 ec 61 82 3f 6f 7b 80 3f 90 6c 7f 3f d1 2c 7f 3f
       1.0186133 1.0037669 0.9977503 0.9967776
000030 a6 24 7a 3f d6 ad 7f 3f e0 d5 7b 3f 17 7e 7e 3f
       0.9771217 0.9987463 0.9837322 0.9941115
000040 43 5b 81 3f ae 12 81 3f ba 1a 7d 3f 3f 90 7c 3f
       1.0105976 1.0083826 0.98868906 0.986576
000050 c7 fb 80 3f 28 53 81 3f e6 c2 7d 3f e7 89 7e 3f
       1.0076836 1.0103502 0.99125516 0.9942917
000060 30 ff 7e 3f f5 32 7e 3f c7 c6 7d 3f a1 bd 81 3f
       0.99608135 0.99296504 0.99131435 1.0135995
000070 21 48 7f 3f c8 cc 80 3f 42 93 80 3f 88 4e 80 3f
       0.99719435 1.0062494 1.004494 1.0023966

conv3.1.bias f4 [32]
000000 2f 87 9f ba da d5 18 3a b1 3d 0d bc 82 74 51 bc
       -0.0012171025 0.0005830206 -0.008620665 -0.012784125
000010 82 2d 51 bb fc 6a 5b 3c 3e 46 fd ba f0 09 18 3c
       -0.0031917994 0.013392206 -0.0019323302 0.009279713
000020 73 cc c1 3c ec f3 80 3c 7c 2b 73 3b 66 78 54 bc
       0.02365706 0.015741311 0.0037104776 -0.012968158
000030 52 d4 9c 3c 2d e0 d1 3b 4c ea 0c 3c fb 55 66 3a
       0.019144211 0.0064048977 0.008600783 0.0008786616
000040 bb f8 7a 3c fc f0 90 3b 7a a8 9f bb 33 3c d0 bb
       0.015318091 0.004423259 -0.004872379 -0.0063548326
000050 cd fd 88 3c 33 7d 1d bb 1b ac 9f 3b 7f 23 17 3c
       0.016722584 -0.0024030923 0.0048728115 0.0092247715
000060 af 6b a4 3c e1 1e b3 b9 d8 8a 8f bb 20 37 9a 3c
       0.020070879 -0.00034164547 -0.004380565 0.018825114
000070 2d 87 35 3c f2 75 4e 3c cc c3 14 3c f2 3e 9a 3c
       0.011079592 0.012601363 0.009079885 0.018828843

conv3.1.running_mean f4 [32]
000000 ee 54 32 3f a7 51 06 3e 49 db 08 bd 6d b6 ea bd
       0.6966084 0.13117085 -0.03341225 -0.11460576
000010 02 f2 e5 bd 82 c8 04 bf fb ee b0 bd 67 66 48 be
       -0.112278 -0.5186845 -0.08639332 -0.19570313
000020 26 5e f1 be da ad 57 bc 37 f3 e1 3d 49 c2 37 be
       -0.47142142 -0.013164008 0.11032718 -0.17945208
000030 40 4f 81 3d b7 76 f7 3e 9e be a9 be e2 dd be be
       0.06313944 0.4833276 -0.33153242 -0.37278658
000040 27 a6 32 bf 62 05 5b 3d 1f fb 6e bb 02 4a c3 be
       -0.6978478 0.05347193 -0.0036465598 -0.381424
000050 9e 1c ed be 6f 86 8f 3e 9c 94 ba 3e 67 d2 d6 bd
       -0.46310896 0.28032252 0.36441505 -0.1048935
000060 1d 7f d0 be 9d 8c 65 3d 92 84 78 bc 7a 80 bc be
       -0.4072198 0.056042302 -0.015168326 -0.3681677
000070 e6 81 41 be be 8a 9a be 67 0c 01 bf 4a 4b b9 be
       -0.18897209 -0.30183977 -0.5040955 -0.36190253

conv3.1.running_var f4 [32]
000000 70 09 07 3f 65 9c b2 3e a5 71 af 3e ea af 90 3e
       0.52748775 0.34884945 0.3426639 0.28259212
000010 54 ef bc 3e ff a3 6f 3e 60 3e 88 3e fe 58 b5 3e
       0.36901343 0.23402403 0.26610088 0.35419458
000020 f0 a7 10 3f b7 3b f1 3e f9 9a b9 3e d9 7d 58 3e
       0.5650625 0.4711587 0.36251047 0.21141757
000030 74 75 64 3e 8b 46 d8 3e 1b 1f 2e 3f 9c 48 09 3f
       0.2231043 0.4224132 0.68016213 0.5362642
000040 2f 4d c2 3e 7a 46 ad 3e 54 dc 70 3e 5c 78 80 3e
       0.3794951 0.33842832 0.23521549 0.25091827
000050 4d 91 73 3e f9 47 d0 3e 55 6b 57 3e b2 e1 ae 3e
       0.23785897 0.4067991 0.21037038 0.34156567
000060 6c 63 72 3e 07 55 9d 3e 3a f8 8e 3e d2 9b cd 3e
       0.23670739 0.30728933 0.27923757 0.40157944
000070 a6 99 96 3e e0 66 72 3e 4f 49 a5 3e 21 d8 08 3f
       0.294141 0.23672056 0.32282493 0.53454787

deconv2.0.weight f4 [32, 16, 4, 4]
000000 69 83 59 bd 47 15 35 bd 7e ec 33 3d 99 34 02 bd
       -0.053103838 -0.044209745 0.04392671 -0.031788442
000010 ff 5e fb 3c ba ac 58 bd 58 2e 59 bd 49 6b f2 bc
       0.030684946 -0.0528991 -0.053022712 -0.029592173
000020 1e c0 f7 bc 1b 41 01 3c 8f f1 3f 3b ee 9a f5 3b
       -0.030242976 0.0078890575 0.0029288267 0.0074952757
000030 5f ff b7 bc db 04 95 bd 13 b3 80 3d 8a 27 34 bb
       -0.022460638 -0.07276317 0.06284156 -0.0027489387
000040 35 fb 7e bc c2 8c 7e bd 1a ae 2e bc a2 9e 37 3d
       -0.015562822 -0.062145956 -0.010661626 0.04482902
000050 96 28 30 3d 06 6d 4d 3d 24 74 6a 3d 5d 39 4d 3d
       0.043007456 0.0501528 0.057239667 0.050103534
000060 cc da fb bc ef da 3f 3d 7c 6e cc 3c d4 1c 06 bc
       -0.030743979 0.04683965 0.024955027 -0.008185584
000070 ec 76 f0 3c 98 a0 4e 3b 0a 02 65 bd 55 4a 3e 3c
       0.029353581 0.0031528827 -0.055910148 0.011614402
000080 a3 8b 60 3d 92 9e 51 bd 63 2a 13 3d 78 e5 6f 3d
       0.054820668 -0.051176615 0.035929095 0.058568448
000090 33 44 2f 3d 49 12 66 3d 01 66 95 bc 15 49 c3 bc
       0.04278965 0.05616978 -0.018237116 -0.02383856
0000a0 3a e0 a8 bb de 1a bb bb d0 cf 88 3d b5 3b 2a 3d
       -0.005153683 -0.00570999 0.06680262 0.041560847
0000b0 dd 63 b4 3c 25 76 22 3d 3a f2 6f bc 6d 48 45 bd
       0.022020275 0.039663453 -0.014645154 -0.048164774
0000c0 25 a7 33 bd 65 2d d4 bc 43 85 89 3c 40 de 5e bd
       -0.043860573 -0.025900552 0.016787177 -0.054411173
0000d0 00 61 d8 3b 27 d0 8e bc 11 e5 2a 3c f6 a7 33 bc
       0.00660336 -0.01743324 0.01043059 -0.010965338
0000e0 3a 9e 6f 3d 37 3c 4c 3d f5 1a 89 bd 90 99 64 bd
       0.058500506 0.049862113 -0.06694595 -0.05581051
0000f0 47 be cc 3c d3 ed 18 bd d1 4c cb bc f6 ef 9b bd
       0.024993075 -0.03733618 -0.024816902 -0.07614128
000100 7f a6 0a 3c 4b 81 41 bd e4 f2 1e 3c 34 ea f2 3c
       0.008462547 -0.047242444 0.009701464 0.029652692
000110 fb 6b 2d bd 41 28 6d 3d fe db 9c bc 93 8d 0f bd
       -0.042339306 0.057899717 -0.01914787 -0.035047125
000120 d5 82 3b bd 31 36 f7 bc 60 1c 40 3d 70 92 ae 3c
       -0.045779068 -0.030177208 0.04690206 0.021310061
000130 21 4c 8c bd f8 72 07 bd e6 0f 57 3d df eb 27 3d
       -0.06850458 -0.033068627 0.052505396 0.04099643
000140 11 b4 31 3b 07 8c cb bc b0 f3 64 bd ed d7 41 bd
       0.0027115385 -0.024847044 -0.05589646 -0.047325063
000150 9c 72 3a 3d c7 15 2b bc 96 15 40 bc a0 a0 a2 b9
       0.045519456 -0.010442204 -0.0117238965 -0.00031018723
000160 ea 79 e5 bc cf 32 5e bd c7 a6 3e bd 9b ad 60 3c
       -0.028012235 -0.054247674 -0.04654577 0.013713266
000170 44 65 9d bc 8b 0f 7d 3c f6 35 03 bd b1 83 2d bc
       -0.019213326 0.0154456 -0.032033883 -0.01059048
000180 7b aa 5f bd 18 15 f4 bc 88 07 3b bd 1d 01 b3 bb
       -0.054605942 -0.029795215 -0.04566148 -0.005462779
000190 c7 45 47 3d 55 23 37 3c 98 2b d2 bc 83 3d fe bc
       0.04865053 0.011177857 -0.025655553 -0.03103519
0001a0 0c 12 22 bd ab ab 18 bd bc 78 0b bd 04 85 94 bd
       -0.039567992 -0.03727309 -0.03405069 -0.07251933
0001b0 7e 9d 09 3d 03 d0 88 bd 68 3c 1a 3d bf b8 f6 3c
       0.033597462 -0.066803 0.037655264 0.03011739
0001c0 3e e9 7c 3c c7 e7 97 bd c4 6d 85 bd 8a 98 99 bd
       0.015436469 -0.07417255 -0.06515077 -0.07499798
0001d0 04 e0 6d 3c 25 b6 13 3d 22 0b 96 3c 20 9e 65 bd
       0.0145187415 0.03606238 0.018315855 -0.056059003
0001e0 ab 6c c8 3c 73 b8 59 bd 95 b2 c6 3c 5d ae 02 3d
       0.02446588 -0.05315442 0.024255076 0.031904567
0001f0 67 85 6d 3d b5 cb 53 3c 9a 81 22 3d 04 b4 7d bd
       0.05798855 0.0129269855 0.03967438 -0.061939254
000200 38 a9 40 bd f3 4e 92 3b 38 2f 04 3d 26 37 6c 3d
       -0.04703638 0.004464978 0.032271594 0.05766978
000210 63 68 88 3d ff 15 31 3d e0 87 1e 3c fc 3e 73 3d
       0.06660535 0.043233868 0.00967595 0.05938624
000220 60 c9 8d bd 96 ae 19 bd 5a b7 5a bc a4 2d 7f bc
       -0.06923175 -0.037520014 -0.0133493785 -0.015574846
000230 e1 dc 0e bd ff 0c 2a bd e3 43 99 bc fc 74 67 3d
       -0.034878615 -0.0415163 -0.018709129 0.05650805
000240 84 d6 32 bd 46 db 16 bc e2 55 36 3d 44 1b 36 bb
       -0.04366161 -0.009207552 0.044515498 -0.0027787248
000250 a1 58 4b bd 10 ce 8b bd 15 c6 02 3c e1 e5 0d 3d
       -0.04964507 -0.06826413 0.007981797 0.034643058
000260 11 3c 62 bb 22 5c 5e bd 41 ff 45 bd 22 24 00 3d
       -0.0034520666 -0.054287083 -0.048339132 0.03128446
000270 3b 88 04 3d 5d 84 03 bd 58 ec 8e bb c2 c4 96 bd
       0.032356482 -0.032108653 -0.0043616705 -0.07361747
000280 c2 65 81 3c 76 53 3a 3d c6 7d 65 3d c3 ec 14 bd
       0.015795592 0.04548975 0.05602815 -0.036358606
000290 65 08 4e 3d b6 02 ce bb ce 47 39 bd e4 2b 91 bd
       0.050300974 -0.0062869443 -0.045234494 -0.070884496
0002a0 06 22 82 3d d1 e4 83 3d a6 09 1c bd ea 8a 01 bc
       0.06354146 0.06440128 -0.03809514 -0.007906655
0002b0 0d e6 9a 3c b0 14 7e 3b 7b 14 7e bb ab 44 30 3d
       0.018908525 0.0038769655 -0.0038769532 0.043034237
0002c0 70 c2 e0 bc 53 92 71 bb 0c c1 f5 bc 18 7d d7 3c
       -0.027436465 -0.0036860898 -0.029999278 0.026304767
0002d0 a5 0e 7f 3c d5 07 19 bd 56 c4 7b bd 40 ad bf 3b
       0.015567456 -0.037360985 -0.061466537 0.0058495104
0002e0 e4 8c 28 bc f1 df cc 3c f4 c2 43 3d 66 14 73 bd
       -0.010287497 0.025009127 0.047793344 -0.059345625
0002f0 f7 00 0a 3d 57 ad 42 bd 86 15 2b 3d 3e 59 c5 3b
       0.033692326 -0.04752859 0.041768573 0.0060226014
000300 8f f4 47 3d 34 ab 0b 3c 72 bf bf bc 7b 4d e3 3c
       0.048817214 0.008524705 -0.023406718 0.027746907
000310 47 9b e8 bb 0c aa 15 bd 5a bc 55 3c cf 73 bb bc
       -0.0070985886 -0.036539122 0.013045395 -0.02288237
000320 f6 ce 39 bd e8 3f 23 bd 28 fb 51 bd a0 7f 29 bc
       -0.04536339 -0.039855868 -0.051264912 -0.01034537
000330 93 66 7b bc b9 af cb 3c f1 cc 31 3d bd 99 86 bc
       -0.01534428 0.024864065 0.043408338 -0.01643073
000340 d2 4a cb 3c df 46 25 bd 84 47 40 3d 81 80 20 bd
       0.02481595 -0.04035079 0.046943203 -0.03918505
000350 f6 62 1e bd a1 b4 91 3c 27 90 41 bd cc fc 05 3d
       -0.038668595 0.017786326 -0.047256615 0.03271179
000360 49 a7 68 3d ca 92 2b 3d 7f 9f 7f 39 bf 7d 67 bd
       0.05680016 0.041888036 0.00024378112 -0.056516405
000370 b7 29 5e bc 00 a8 81 bd d2 18 cb bc 8d f3 4b 3d
       -0.01355975 -0.063308716 -0.024792109 0.049792815
000380 25 bd 51 3d bc 6b 2e 3d 24 a5 76 3d 83 f9 51 bd
       0.051205773 0.042583212 0.060216084 -0.051263344
000390 79 fc 29 bc 94 e7 01 bd 2e f9 0f 3d d1 a6 df 3c
       -0.010375136 -0.03171499 0.035149746 0.027301224
0003a0 5c a3 6b bc ef 0a c6 bc 92 f6 0d bd 5d b5 a5 bc
       -0.01438221 -0.024175135 -0.034658976 -0.020228082
0003b0 8d e7 53 3d 60 9e 78 bd de ed b2 bc 59 b2 57 bc
       0.051734496 -0.060697913 -0.02184194 -0.01316508
0003c0 e3 6c 22 3d 86 b8 71 bd 8e 24 f2 3c 20 f9 33 3d
       0.039654624 -0.059013866 0.029558446 0.043938756
0003d0 8f a3 9e 3c c5 73 a2 bc 72 70 59 bd bd 81 6f bd
       0.0193651 -0.019830594 -0.05308575 -0.058473337
0003e0 90 56 b1 bc 81 5e 0d bc 8f 85 b0 bc b8 c5 31 3d
       -0.021647722 -0.0086284885 -0.02154806 0.04340145
0003f0 4b 92 89 bd 72 8a ae bc 2c 0f 21 bd cc c5 c9 3b
       -0.06717356 -0.02130625 -0.03932111 0.0061576124

deconv2.0.bias f4 [16]
000000 13 5a b0 bc 93 56 7d bd 37 e8 70 bb 8c 49 40 3d
       -0.021527326 -0.06185014 -0.0036759505 0.04694514
000010 7c 75 fe 3b f8 f8 4a bd 02 f9 4c 3c b7 92 0f 3d
       0.00776547 -0.04955384 0.01251054 0.035052028
000020 2d 1e 22 bd eb 8e 28 3d bf 9f 4e bd d6 20 44 bd
       -0.03957956 0.041151922 -0.050445314 -0.047882877
000030 8e 63 2f 3c 3c 41 b2 bc 3e 1b 4e 3d ee 39 7f bb
       0.010704888 -0.021759622 0.05031895 -0.003894444

deconv2.1.weight f4 [16]
000000 9a 69 7b 3f 76 15 7e 3f c2 5f 80 3f 01 11 80 3f
       0.9820801 0.99251497 1.0029223 1.0005189
000010 c8 c3 7f 3f 47 82 80 3f 4a 3e 80 3f 7f cc 7e 3f
       0.99908113 1.0039757 1.0019009 0.99530786
000020 e9 5b 7d 3f be ba 7c 3f ca a1 80 3f 09 c7 7e 3f
       0.9896837 0.98722446 1.0049374 0.99522454
000030 50 18 82 3f 56 b0 80 3f e4 56 82 3f fe 1c 7f 3f
       1.016367 1.0053813 1.0182767 0.99653614

deconv2.1.bias f4 [16]
000000 6e 7f 02 bc f2 5b 3f 3c 8b 8b 40 3c 53 b4 92 3c
       -0.007964952 0.011679636 0.01175202 0.01790825
000010 eb 45 a4 3c 21 6d ae 3c f5 56 95 3c 7e 15 b0 3c
       0.02005287 0.021292271 0.01822994 0.021494623
000020 8e 4f 6a 3c 07 71 38 bc 05 42 b3 3c cd 6a 45 3c
       0.014301194 -0.011257417 0.021882067 0.012049389
000030 0a 21 a5 3c 1f df 36 3c aa 54 a3 3c 4a 02 c3 3c
       0.020157356 0.011161595 0.019937832 0.023804802

deconv2.1.running_mean f4 [16]
000000 59 61 35 bd 52 d6 4d bd 2b 96 3f bd b9 d8 f6 bd
       -0.04428229 -0.05025322 -0.04677407 -0.12053055
000010 78 ff 91 bd 00 e3 98 be c8 3b 69 be 8f 82 d8 bd
       -0.07128805 -0.29860687 -0.22776711 -0.10571777
000020 47 ed 2f be d3 a9 81 bd fe dd 0f be ec f8 60 be
       -0.17180358 -0.063312195 -0.14049527 -0.21969956
000030 a2 22 c6 bc de 6d d6 bd 34 25 30 3c fe 2f 30 be
       -0.024186436 -0.10470174 0.010751057 -0.17205808

deconv2.1.running_var f4 [16]
000000 4b a2 62 3e df fe 8a 3e f0 0b 85 3e 9e 03 92 3e
       0.22132222 0.27147576 0.2598567 0.28518385
000010 2f 0c 6c 3e ee ef 77 3e 60 a9 96 3e 92 aa 85 3e
       0.23051523 0.2421262 0.29426098 0.26106697
000020 4d c4 81 3e c8 5d 87 3e 54 82 9d 3e 09 ad 9f 3e
       0.25345078 0.26438737 0.30763495 0.31186703
000030 ff bb 83 3e 00 83 bc 3e 7e 68 48 3e 54 39 8e 3e
       0.25729367 0.36818695 0.1957111 0.27778113

deconv3.0.weight f4 [16, 8, 4, 4]
000000 59 95 97 bc 23 19 92 3c 6f af e7 bc eb ab d8 3d
       -0.018503832 0.017834252 -0.028281895 0.10579666
000010 b3 ed 3c 3d b7 2e 4d bd 15 f1 86 3d e6 08 32 3d
       0.046125125 -0.05009338 0.065889515 0.043465517
000020 5a f5 d1 3c 7b 60 0d bc ae 7c a5 3d be 1a 4b 3d
       0.025629688 -0.00862896 0.080804214 0.04958605
000030 db fc 54 bd f2 ff 8a 3d b1 38 99 3d 6f 26 88 bd
       -0.051998954 0.06787099 0.07481516 -0.066479556
000040 d4 17 3e bd 0d a2 83 3d e5 49 eb bc 50 6a 5e bd
       -0.046409443 0.06427393 -0.02872176 -0.054300606
000050 6f 7d 31 bd cd 71 7c 3d d4 76 73 bd 9c 86 58 3d
       -0.043332513 0.061631966 -0.059439495 0.05286275
000060 68 95 75 3d e2 bf 7d bd 1b 6f c2 3c 71 bf 1c bd
       0.059956938 -0.06195057 0.02373462 -0.03826851
000070 1a 35 9c 3d 3e 7f 57 3b b8 98 10 bc 45 cd 12 bb
       0.07627316 0.0032882239 -0.0088254735 -0.0022400182
000080 90 44 c8 3a f1 0a af 3d b9 56 34 bd 84 5a 05 3d
       0.0015279222 0.08547009 -0.044028018 0.032557026
000090 72 ea 44 bc a0 68 3d bd d4 43 24 bd 54 2a e9 bc
       -0.012018787 -0.046242356 -0.04010375 -0.028462566
0000a0 9e e1 16 bd 09 a3 d2 b8 5d 29 56 bd 39 56 be bb
       -0.03683626 -0.00010043948 -0.05228554 -0.0058086184
0000b0 ac 73 8c bc eb d1 80 3d f1 16 97 3d 02 9d ae 3d
       -0.017145 0.06290039 0.073774226 0.085260406
0000c0 ed 65 b9 3d 50 66 61 bd 32 95 db 3c 75 b6 1c 3d
       0.09052644 -0.055029213 0.02680454 0.038259942
0000d0 33 cb ae 3d 85 08 ca 3d c1 c7 22 bd 20 d0 9c 3d
       0.08534851 0.09864906 -0.03974128 0.07656884
0000e0 9e ef 43 3d 22 39 bc bc 7c ed 0f 3d b1 63 31 bd
       0.04783594 -0.022976462 0.035138592 -0.043307964
0000f0 3f bf 45 3d d3 3c 89 3d 19 b3 b2 3b 66 b3 0a bd
       0.04827809 0.067010544 0.005453479 -0.033862494
000100 4c b0 4a 3d a0 56 20 3d 53 04 4d 3d 1e 91 37 3d
       0.049484536 0.039145112 0.050052952 0.04481613
000110 4d 09 36 bd c1 8b 8a bd 1f a8 00 bd 75 92 99 3c
       -0.044442464 -0.06764937 -0.031410333 0.018746594
000120 c0 df 84 3d fc fb d1 3c 7f c2 a1 3d 33 c5 16 3d
       0.064879894 0.02563285 0.07898425 0.036809158
000130 b4 f3 a8 bc 3a ad c9 3c 02 06 22 3d 26 25 3c bd
       -0.02062402 0.024618734 0.03955651 -0.045933865
000140 69 a9 c4 3c 58 8c 76 3d 81 7d 91 bd 17 fd 43 3d
       0.024006562 0.060192436 -0.07104016 0.047848787
000150 31 34 a5 bd b6 8c 7f bb c7 18 75 bd d3 cb 9b 3d
       -0.08066595 -0.0038993782 -0.059838083 0.07607236
000160 79 c9 89 bd 1d da 39 bd d1 a7 87 bd 1a 2a 5c 3d
       -0.06727881 -0.045374025 -0.06623805 0.05375109
000170 e9 a6 57 3d 12 b5 aa 3d 2c 74 be 3b d2 de 05 bd
       0.052649412 0.08335318 0.0058121886 -0.0326832
000180 14 ac 83 bd 21 96 a2 3b f4 37 69 3d 52 a8 71 3d
       -0.06429306 0.0049617444 0.056938127 0.058998413
000190 50 ba 23 3d c3 cf df bc a8 5a 85 3d 9e ef 83 bd
       0.039972603 -0.027320748 0.06511432 -0.06442188
0001a0 91 9a 50 bd be be b4 3d 8b 19 a7 3b a5 34 75 3c
       -0.050928656 0.08825444 0.0050994805 0.014966165
0001b0 27 45 6e 3d 3a 6e 2f bc fc 7a 80 bc d5 03 8b bb
       0.058171418 -0.010707432 -0.015683644 -0.0042424
0001c0 5a f5 40 bd 38 da 85 3d aa b3 77 3c fa e2 bb 3d
       -0.047108985 0.065357625 0.015118519 0.09174152
0001d0 c7 55 66 bd a2 5f 62 3d 1b c2 78 bb 43 d3 70 bd
       -0.056234147 0.055266984 -0.0037957493 -0.058795225
0001e0 4b 61 00 bd 2f 17 0d bd c4 dc 29 bd 90 2c c6 3d
       -0.031342786 -0.034445938 -0.041470304 0.09676468
0001f0 28 e1 c7 3d bc 05 fc bc 7d ae 71 3d 6f a9 d3 3c
       0.09759742 -0.030764453 0.059004296 0.025837628
000200 2c 49 87 3d e9 b6 8f 3d ed 2f a9 bc 2f d1 7d bd
       0.06605753 0.07017309 -0.020652736 -0.06196707
000210 8f ab 84 3d 71 23 c3 3a f6 d6 54 3c 09 eb a2 bc
       0.06478035 0.0014887882 0.012990704 -0.019887464
000220 e8 32 8c bb 78 b3 80 3d b5 10 a2 3a 52 e4 9f 3c
       -0.0042785294 0.06284231 0.0012364598 0.019518051
000230 7d 52 07 3d d2 33 24 bd f5 3c 86 3d 14 09 5b bc
       0.03303765 -0.040088482 0.065545954 -0.013368864
000240 95 ba 2c bd 18 d5 48 3d 56 ac b1 3c 96 47 7c 3d
       -0.042170126 0.049031347 0.021688621 0.061591707
000250 0d 45 4b 3c fc 75 09 bd 34 4d 5a bc 8a 0e 1d bd
       0.0124066 -0.033559784 -0.013324071 -0.038343944
000260 2d cb 99 3d 4b ce 4a bd e5 fc 0b 3d cf 21 39 3b
       0.07509456 -0.049513143 0.034176726 0.0028248911
000270 cd fb 29 bd 62 1c 93 bd 41 56 de bc 17 3e 65 3d
       -0.0414999 -0.07183148 -0.027140738 0.055967417
000280 9b 6a 6d 3d 19 5d 93 3c dd 4f 89 bc 27 7f 43 bd
       0.057962995 0.017988728 -0.016761715 -0.047728684
000290 77 3a 81 3d 72 88 b2 3d bd 2f fe 3c d2 ce 39 3d
       0.063099794 0.08717431 0.031028623 0.045363255
0002a0 60 b7 6a 3c ce c8 66 3c 4e 24 81 bd ef 1d ca 3d
       0.014325947 0.0140859615 -0.06305753 0.09868991
0002b0 65 e2 aa 3b 6d ad 22 bd 4a 7b cc 3c 43 0f af bc
       0.0052149766 -0.039716173 0.024961133 -0.021369582
0002c0 64 ba cc 3b 1a bb 9e 3d 96 ec 9a bc 14 c0 d7 3c
       0.0062478054 0.077505305 -0.018911641 0.026336707
0002d0 ea 46 d4 3d 1d 5b 15 36 c8 03 aa bc 0e 34 37 3d
       0.10365088 2.2255765e-06 -0.020753756 0.044727378
0002e0 ba 23 92 bd be f1 3d 3d 57 f1 8c 3d 03 51 5d bd
       -0.071357206 0.04637312 0.068819694 -0.054032337
0002f0 f5 56 87 bd 74 90 d7 3c 6e 44 47 3a 10 ff d0 3c
       -0.066083826 0.026313998 0.00076014444 0.025512248
000300 fa 93 e0 bc fc 0d 9e 3d 7f 61 9a 3c e3 5a 1b bd
       -0.02741431 0.07717511 0.018845318 -0.037928473
000310 af f8 9e bd 87 e9 2e bd 6e 15 1d 3d eb a7 91 bd
       -0.077622764 -0.042703178 0.038350515 -0.07112106
000320 5d 92 23 bd b1 8a d5 3b 64 f4 95 3d c1 f8 70 3d
       -0.039934505 0.0065167774 0.073220044 0.05883098
000330 ef 74 e2 3c ab c6 b9 bc 08 1a a1 3d ca c1 df bc
       0.027643649 -0.02267774 0.07866293 -0.027314086
000340 20 4c a2 3d 43 54 9a 3c 10 b5 59 3d 9b 91 bf 3c
       0.07924676 0.018839007 0.05315119 0.02338486
000350 c7 76 6b bc bc db ab 3c 0b 62 8d ba 63 ab b1 3c
       -0.01437158 0.020978801 -0.0010786665 0.021688169
000360 bf 82 85 3d 8b 7d 1a 3c 34 ab a3 3c 6f 4f 03 3d
       0.065190785 0.009429346 0.019979097 0.032058176
000370 0e f2 ab 3c 72 b4 67 3d 26 82 1c bd d4 91 9f 3d
       0.020989444 0.05656857 -0.038210057 0.077914864
000380 b9 1d 71 3d 04 54 94 bd 29 1e a3 3d 6c 51 a1 3d
       0.058866236 -0.07242587 0.07964737 0.07876858
000390 dd 03 c0 3c fa e2 04 bd f8 86 3c bd d2 65 cb bc
       0.023439342 -0.032443024 -0.046027154 -0.024828825
0003a0 38 f7 67 3c e1 2f 8c 3d eb 58 85 3c 1f 07 e5 bc
       0.014158063 0.0684507 0.016277751 -0.027957497
0003b0 82 f2 79 3b bc 0f 3e 3d 2c 22 a6 bc b1 6e 89 3d
       0.003813893 0.046401724 -0.020279966 0.06710566
0003c0 6f 3e 45 3d ff 4d c5 bb 2d 0d 26 bd eb 69 54 bc
       0.048155244 -0.0060212607 -0.04053991 -0.012964706
0003d0 60 f7 88 3d f1 0a 44 bd 76 8f 82 bd 88 bf 81 3b
       0.06687808 -0.047861997 -0.06375019 0.0039596
0003e0 98 04 8d bd 25 51 10 3d 93 ac ad bd fa 7a 1c bd
       -0.06885642 0.035233635 -0.084801815 -0.038203217
0003f0 91 65 55 3c 1a 0a 4a bd 0c ce 86 3c 7b 12 62 3d
       0.013024704 -0.04932604 0.016455673 0.055193406

deconv3.0.bias f4 [8]
000000 e3 0a 70 bb f3 10 6d 3d df 4c 93 3d 97 7d e9 bc
       -0.0036627583 0.057877492 0.071923964 -0.028502269
000010 69 f7 4c 3d b1 2c e1 3b cb 6f 48 3d 4d 03 2b bd
       0.050040636 0.0068717827 0.04893474 -0.041751195

deconv3.1.weight f4 [8]
000000 eb 25 83 3f 04 50 83 3f 67 78 82 3f 7e 0f 83 3f
       1.0245947 1.0258794 1.0192994 1.0239103
000010 9f 8b 83 3f 2d ff 82 3f 3c 85 82 3f a0 52 83 3f
       1.0276984 1.0234123 1.019691 1.025959

deconv3.1.bias f4 [8]
000000 f5 1d c3 3c 1f a1 cb 3c 80 9a a1 3c b1 15 b8 3c
       0.023817996 0.024857102 0.019726992 0.02247128
000010 5d 48 db 3c e3 66 b9 3c d4 29 af 3c 08 2d eb 3c
       0.026767904 0.022632068 0.02138225 0.028707996

deconv3.1.running_mean f4 [8]
000000 ce ff cd 3d 40 02 9f 3d 9d e0 aa 3d 7c 83 3b 3d
       0.100585565 0.07764101 0.08343623 0.04577969
000010 68 5e 11 3e 48 1b f9 3d 51 4e 25 3d 9c 15 29 be
       0.1419617 0.121634066 0.04035789 -0.1651215

deconv3.1.running_var f4 [8]
000000 76 1b 49 3e a7 83 5a 3e 33 07 4b 3e e0 1b 4f 3e
       0.19639382 0.21339284 0.19826965 0.20225477
000010 22 81 66 3e 98 d3 52 3e f4 b5 34 3e f8 d4 77 3e
       0.22510198 0.20588529 0.17647535 0.24202335
